super_resolution/checkpoint_scale2/model_epoch_20.pth (torch_old, 247001 bytes, 8 tensors)

weight f4 [64, 1, 5, 5]
0.21494465 -0.098895855 -0.16060565 -0.15139174 0.21203843 -0.044050314 -0.25273696 -0.21883827
0.02195751 -0.18722399 -0.43848172 -0.20833941 -0.30215058 -0.17217521 -0.033209976 -0.2532461
-0.14230618 -0.06526713 -0.27102688 0.11714708 0.0331156 0.024382679 -0.14269553 0.024537373
0.09262431 -0.14892718 -0.10537179 -0.27635896 0.06599727 -0.15979096 -0.29169247 -0.09346058
-0.2074664 0.053466164 -0.03164364 -0.12148078 -0.065720074 -0.23820472 -0.158408 0.08566614
0.13634984 -0.2567562 0.020609882 0.26989016 -0.18413392 -0.10873851 -0.11640905 -0.15816301
-0.023690848 -0.059749518 -0.32835528 0.092552766 -0.03169359 0.102787994 0.15040874 -0.2549188
-0.01691312 -0.06988704 0.073514864 -0.44249764 0.044478707 0.03524821 0.060605194 -0.069927834
-0.018734585 -0.1853836 -0.21468046 -0.15620218 -0.08644761 -0.20228298 -0.13798785 0.006193655
-0.16436338 0.16250864 -0.110904485 -0.21077728 -0.1865253 0.074203506 -0.08522403 -0.23810688
0.046364468 0.07907244 -0.282655 -0.30220428 -0.39212003 0.07983301 -0.0597047 -0.20796195
0.004145176 -0.35659403 -0.13479036 0.2333556 0.068337664 -0.0962744 -0.13241534 -0.114575334
-0.28868046 -0.098873176 -0.006311586 -0.16823594 -0.17752871 0.23469289 0.208649 -0.15232816
0.107208535 0.04429315 -0.31014356 0.0033110771 0.047938615 -0.0066830367 -0.3950615 0.01861295
0.06601876 -0.14458229 -0.18874401 -0.015229882 -0.04389533 -0.28987625 0.25171104 0.084850535
-0.2616138 -0.052182864 -0.09476118 -0.3284563 -0.21222192 -0.08317475 -0.1105512 0.0009864132
-0.021969225 -0.06422965 0.07895385 0.2556625 0.15410325 0.10961741 -0.119781435 -0.06680334
-0.4123937 0.04410267 0.3583818 -0.2943152 -0.0043804226 -0.1258322 -0.6018426 -0.13570842
-0.025369627 -0.11036417 -0.029498676 -0.23497386 0.17921712 0.22741728 0.012943145 -0.07248482
0.2187735 -0.23635216 -0.25733343 -0.10456525 0.20546383 0.18497807 0.05618533 0.09128198
0.14189398 0.10272725 -0.42216694 -0.4001221 0.25595814 0.10451473 -0.07243876 -0.20775631
-0.3240786 -0.02062099 -0.23281242 0.2468611 -0.27121317 0.0068546 -0.059974074 -0.117584564
-0.010575705 0.111712016 -0.14337243 -0.28998747 0.02542389 -0.1472189 0.48627815 0.0973375
0.2807522 0.05353234 0.17650476 0.004230795 0.02898121 -0.070072204 -0.1298755 -0.011544898
-0.26159495 -0.2561562 -0.15268992 0.3179352 -0.3836419 0.15209782 -0.24232653 -0.17419331
0.2170481 0.18978125 0.1313631 -0.24911603 -0.0010696964 -0.04336219 0.31670785 -0.33032224
0.1739672 -0.028564196 -0.34778807 0.36220846 -0.12665829 -0.23139122 -0.25642645 -0.027177017
-0.0068690986 0.1449105 -0.20094769 0.16100268 0.5252918 0.0038904876 -0.07216538 0.24003927
0.18666129 0.23021586 -0.29642895 0.15145066 -0.16760983 0.15755579 0.20770827 0.17757395
-0.17938092 -0.0068545146 -0.18789688 0.09926398 0.09898499 0.21198486 -0.2822313 -0.08945807
-0.028420191 -0.094034985 -0.023180177 0.1385426 -0.14335693 -0.041746583 -0.23669161 0.18399055
-0.21113697 -0.05210279 -0.17227454 -0.12997921 -0.19961627 -0.55743176 0.094582945 -0.044867255
00000000: 731a 5c3e e989 cabd cf75 24be 7006 1bbe
00000010: 9a20 593e 1a6e 34bd bd66 81be 2417 60be
00000020: 3ce0 b33c a5b7 3fbe ad80 e0be ed56 55be
00000030: 7bb3 9abe b34e 30be 2f07 08bd 79a9 81be
00000040: b6b8 11be c6aa 85bd 09c4 8abe cfea ef3d
00000050: 39a4 073d 2fbe c73c c71e 12be 9a02 c93c
00000060: d0b1 bd3d 5e80 18be 2acd d7bd ec7e 8dbe
00000070: 9429 873d 3ea0 23be b758 95be 4368 bfbd
00000080: 1272 54be 56ff 5a3d c39c 01bd eaca f8bd
00000090: 3f98 86bd f0eb 73be b535 22be bb71 af3d
000000a0: 4b9f 0b3e 8c75 83be 0ed6 a83c 0b2f 8a3e
000000b0: 9a8d 3cbe 4cb2 debd de67 eebd 7cf5 21be
000000c0: 4f13 c2bc e9bb 74bd 2f1e a8be 4e8c bd3d
000000d0: 23d1 01bd 8382 d23d c004 1a3e b884 82be
000000e0: 628d 8abc f020 8fbd f68e 963d 0d8f e2be
000000f0: 4e2f 363d 6d60 103d 273d 783d 5336 8fbd
00000100: 4679 99bc 33d5 3dbe 32d5 5bbe 77f3 1fbe
00000110: 720b b1bd 4523 4fbe b04c 0dbe 25f4 ca3b
00000120: e04e 28be aa68 263e e421 e3bd 00d6 57be
00000130: 7d00 3fbe 02f8 973d f089 aebd 4ad2 73be
00000140: abe8 3d3d bbf0 a13d 28b8 90be 85ba 9abe
00000150: f5c3 c8be 7d7f a33d ea8c 74bd faf3 54be
00000160: 42d4 873b 7e93 b6be 7c06 0abe c5f4 6e3e
00000170: 9ef4 8b3d 832b c5bd e397 07be 79a6 eabd
00000180: edcd 93be 057e cabd 6cd1 cebb 0b46 2cbe
00000190: 16ca 35be 5553 703e 15a8 553e eafb 1bbe
000001a0: 2690 db3d bc6c 353d 23cb 9ebe a8fe 583b
000001b0: 485b 443d 60fd dabb 8045 cabe 2f7a 983c
000001c0: d834 873d 610d 14be 1c46 41be c186 79bc
000001d0: 97cb 33bd a96a 94be 45e0 803e 1ec6 ad3d
000001e0: 3ef2 85be b3bd 55bd 2612 c2bd 6d2b a8be
000001f0: b450 59be 8657 aabd ab68 e2bd 894a 813a
00000200: cef8 b3bc d68a 83bd 8eb2 a13d 32e6 823e
00000210: 3ecd 1d3e 187f e03d f84f f5bd 31d0 88bd
00000220: 4425 d3be 00a5 343d d27d b73e 7bb0 96be
00000230: a689 8fbb 28da 00be 5b12 1abf 26f7 0abe
00000240: f7d3 cfbc 9c06 e2bd 35a7 f1bc fd9c 70be
00000250: b184 373e 13e0 683e 7c0f 543c ec72 94bd
00000260: 2906 603e 4d06 72be 35c1 83be 4e26 d6bd
00000270: 1c65 523e e46a 3d3e 9722 663d 0cf2 ba3d
00000280: a84c 113e aa62 d23d 4426 d8be cedc ccbe
00000290: f20c 833e d20b d63d c65a 94bd 12be 54be
000002a0: a1ed a5be 5aed a8bc 6166 6ebe 28c9 7c3e
000002b0: 74dc 8abe 8d9c e03b 60a7 75bd 2dd0 f0bd
000002c0: b945 2dbc 45c9 e43d 39d0 12be 3d79 94be
000002d0: c345 d03c 8dc0 16be 73f9 f83e e258 c73d
000002e0: c1be 8f3e ba44 5b3d aabd 343e 7ba2 8a3b
000002f0: 016a ed3c 0482 8fbd 15fe 04be d026 3dbc
00000300: c6ef 85be e826 83be bf5a 1cbe 67c8 a23e
00000310: b66c c4be 88bf 1b3e 7224 78be bb5f 32be
00000320: db41 5e3e 0456 423e 0c84 063e 4618 7fbe
00000330: 0e35 8cba 8d9c 31bd 8827 a23e ff1f a9be
00000340: 7524 323e 76ff e9bc 4711 b2be 6373 b93e
00000350: b6b2 01be d2f1 6cbe 544a 83be 56a2 debc
00000360: 2d16 e1bb 6b63 143e 3bc5 4dbe e3dd 243e
00000370: 8679 063f 8df7 7e3b 71cb 93bd dbcc 753e
00000380: 2324 3f3e b5bd 6b3e 89c5 97be e215 1b3e
00000390: e9a1 2bbe 4e56 213e 7ab1 543e f2d5 353e
000003a0: a2af 37be d69b e0bb 0a68 40be ea4a cb3d
000003b0: a4b8 ca3d 8f12 593e 9f80 90be cb35 b7bd
000003c0: 76d1 e8bc 6a95 c0bd 5be4 bdbc 1dde 0d3e
000003d0: 29cc 12be 77fe 2abd 495f 72be 0568 3c3e
000003e0: 4a34 58be bc69 55bd bd68 30be 4519 05be
000003f0: 3568 4cbe d9b3 0ebf b4b4 c13d bac6 37bd

bias f4 [64]
0.015548985 0.022287862 -0.22879694 -0.088840224 -0.09776209 0.060433123 0.09254934 -0.01911787
-0.16534042 -0.22449234 0.13569202 0.11439488 0.112398505 -0.13235067 -0.15454237 0.04418053
-0.051201534 -0.009945263 -0.23057945 0.119768426 0.03750327 0.15232092 0.06156824 0.036847908
-0.04353757 -0.21433389 -0.18588072 -0.07051368 0.07079565 -0.04564339 0.05271355 -0.033287343
-0.10291276 -0.031647786 -0.048573237 -0.14737836 -0.015406681 0.07838214 0.09284051 -0.074234724
-0.21412906 0.10231924 -0.028253593 -0.05108997 -0.007426506 -0.07139756 -0.031418037 0.074154
0.039457817 -0.2379893 -0.15419488 -0.07972622 -0.012488622 0.032859445 -0.12749419 -0.21436034
0.11943655 -0.19323811 -0.2212182 0.107976854 0.16812404 0.021491406 -0.18681504 -0.16811131
00000000: 2cc1 7e3c 0995 b63c bf49 6abe ddf1 b5bd
00000010: 7e37 c8bd b988 773d 828a bd3d 149d 9cbc
00000020: 004f 29be 52e1 65be d9f2 0a3e dd47 ea3d
00000030: 3031 e63d ef86 07be 5b40 1ebe a5f6 343d
00000040: b3b8 51bd 75f1 22bc 051d 6cbe 2649 f53d
00000050: 079d 193d 04fa 1b3e fb2e 7c3d d5ed 163d
00000060: 7354 32bd 587a 5bbe 8457 3ebe 7a69 90bd
00000070: 4ffd 903d 90f4 3abd 2aea 573d 4f58 08bd
00000080: edc3 d2bd 1ca1 01bd bbf4 46bd 5aea 16be
00000090: 4e6c 7cbc d186 a03d 2a23 be3d 6008 98bd
000000a0: a644 5bbe c08c d13d 1474 e7bc b743 51bd
000000b0: 0c5a f3bb e238 92bd 33b0 00bd 0dde 973d
000000c0: 859e 213d 78b3 73be 43e5 1dbe 8047 a3bd
000000d0: 149d 4cbc a097 063d d68d 02be 4781 5bbe
000000e0: 269b f43d 36e0 45be 0687 62be f822 dd3d
000000f0: b528 2c3e bf0e b03c 714c 3fbe 5f25 2cbe

weight f4 [64, 64, 3, 3]
-0.0038322252 -0.035586134 -0.10325255 0.008289956 -0.066648506 0.01496334 -0.0037472912 -0.026545376
-0.077111185 -0.09123483 0.011604366 -0.14225416 0.0080941655 -0.101261586 -0.09722595 -0.08468039
-0.04929251 -0.11665227 -0.12125112 -0.11614349 -0.08823995 -0.12950563 -0.12969755 -0.06294551
-0.04881857 -0.109325476 -0.13216041 -0.017665299 -0.03696879 -0.12231394 0.106843024 0.11218876
-0.007855548 -0.054350503 -0.061197873 -0.009478848 -0.14696302 0.019962918 -0.106654294 -0.042314216
0.075037114 -0.057088226 0.057669777 0.07661138 -0.011380583 -0.12550622 -0.09576155 -0.08001502
0.012943401 -0.10666173 -0.0153445685 -0.14125784 -0.07962242 -0.026979733 -0.0709197 -0.12662931
-0.05325337 -0.07988141 0.018519724 -0.11803969 0.050876737 0.0010249143 -0.07190744 -0.07104902
-0.07776827 0.032018036 0.010109065 -0.011445517 -0.09100032 -0.109886296 -0.07510206 -0.03166839
-0.16987507 -0.052186932 -0.015270194 -0.033461012 -0.083914936 -0.04904204 -0.02126973 -0.14213789
0.019158693 -0.07951999 0.023906084 -0.035604134 0.03675692 -0.1254036 -0.11257412 -0.0789708
-0.108850196 -0.046424437 -0.064809054 -0.048201226 -0.0951931 -0.10766681 -0.06628199 0.001246509
-0.17876264 -0.04872537 -0.066416636 0.03158648 -0.01916615 0.08818906 0.08044306 -0.010869985
-0.068598844 -0.029751955 -0.07063799 0.07028858 0.007075678 0.0110233035 -0.006726508 -0.03301607
-0.051626224 -0.015322978 0.0820488 0.040265676 -0.059337746 -0.100218706 -0.11004419 0.08150414
-0.08691223 -0.020340672 -0.14040227 -0.21296468 -0.110621534 -0.14220771 -0.011749605 0.038235318
-0.0561529 -0.17917085 0.025502684 -0.06090902 -0.08987727 0.009449552 -0.0884186 -0.07056875
-0.024316385 0.0010171724 -0.07654774 -0.04765853 0.03621637 -0.06080958 -0.008092345 -0.00924565
-0.07142875 -0.1993655 -0.010139564 -0.03492588 -0.13599704 -0.11733605 -0.11808135 -0.04312883
-0.089527994 -0.03112938 -0.00972831 -0.09807198 -0.16018099 -0.06820263 -0.011309732 -0.14665294
-0.04862881 -0.14565599 0.034610443 -0.15976115 -0.06370957 -0.02618788 -0.106002085 -0.09414273
-0.063726634 0.008410218 -0.05601814 -0.110668965 -0.089169905 -0.04785616 -0.007204295 -0.04141515
-0.053870678 -0.09952466 -0.028131932 0.016610466 -0.01883824 -0.0069419183 0.01637562 -0.06887178
-0.032985866 -0.03033124 -0.088683955 -0.029291926 -0.010427222 -0.0014159196 0.034248743 -0.08552836
0.014370506 -0.061488803 0.054093163 -0.12496853 -0.11061173 -0.037899118 -0.065368004 -0.05058948
-0.07896868 -0.05874756 -0.0136334095 -0.098807015 -0.098663285 0.037905235 0.026424017 -0.08252158
-0.02699441 -0.07457298 -0.086414896 -0.09305245 -0.092695095 -0.094902165 -0.059180263 0.0067070927
-0.10874754 -0.08731692 -0.15132758 -0.0344602 0.018890463 -0.13961355 -0.090676405 -0.08505249
-0.024866858 -0.082601726 0.038367767 -0.050693233 -0.051122557 -0.04195485 -0.12185735 -0.054292936
-0.04773281 -0.07907885 0.0968772 -0.035985973 0.00957725 0.011761799 0.0032707439 -0.11797441
0.047244597 -0.043567788 0.0738805 0.005761808 0.04040956 -0.06978317 -0.098658785 -0.110527754
0.03663073 0.027465638 -0.00041243117 -0.09845452 -0.11071639 -0.14187844 -0.14596024 -0.045032714
00000000: 1226 7bbb c4c2 11bd 1376 d3bd 98d2 073c
00000010: 037f 88bd cc28 753c 1d95 75bb b075 d9bc
00000020: 78ec 9dbd 54d9 babd 3d20 3e3c 13ab 11be
00000030: 649d 043c 3c62 cfbd 661e c7bd ea6c adbd
00000040: f1e6 49bd 63e7 eebd 8252 f8bd a3dc edbd
00000050: 26b7 b4bd 209d 04be 6fcf 04be 93e9 80bd
00000060: fbf5 47bd 09e6 dfbd 0f55 07be d1b6 90bc
00000070: 966c 17bd bb7f fabd 84d0 da3d 38c3 e53d
00000080: 8eb4 00bc a29e 5ebd 9faa 7abd 2c4d 1bbc
00000090: 797d 16be 4689 a33c 916d dabd ac51 2dbd
000000a0: 0fad 993d 58d5 69bd 2537 6c3d 6de6 9c3d
000000b0: a075 3abc b484 00be a21e c4bd eade a3bd
000000c0: 8f10 543c 7771 dabd c967 7bbc e5a5 10be
000000d0: 1411 a3bd 9a04 ddbc 593e 91bd 1dab 01be
000000e0: 3520 5abd dd98 a3bd adb6 973c cbbe f1bd
000000f0: 2064 503d 6b56 863a 3544 93bd 2682 91bd
00000100: f944 9fbd 5825 033d 7ea0 253c fa85 3bbc
00000110: 605e babd 110c e1bd 1ccf 99bd b7b6 01bd
00000120: bbf3 2dbe f7c1 55bd d62f 7abc 6a0e 09bd
00000130: 98db abbd 4ee0 48bd db3d aebc 988c 11be
00000140: b1f2 9c3c 60db a2bd b1d6 c33c a4d5 11bd
00000150: 6d8e 163d cd69 00be 438d e6bd 71bb a1bd
00000160: daec debd 8d27 3ebd 9cba 84bd a66e 45bd
00000170: 9af4 c2bd 6b80 dcbd dabe 87bd e761 a33a
00000180: 8e0d 37be 4194 47bd 7205 88bd d360 013d
00000190: 5402 9dbc 779c b43d 55bf a43d 0618 32bc
000001a0: 8d7d 8cbd 5fba f3bc a7aa 90bd 76f3 8f3d
000001b0: 17db e73b 169b 343c 0a6a dcbb dc3b 07bd
000001c0: 0576 53bd 3a0d 7bbc 3409 a83d 9fed 243d
000001d0: 230c 73bd 773f cdbd d95e e1bd a4eb a63d
000001e0: 0aff b1bd 7ba1 a6bc 9dc5 0fbe 6a13 5abe
000001f0: 8b8d e2bd e69e 11be 6a81 40bc a39c 1c3d
00000200: 9500 66bd 9078 37be 01eb d03c bd7b 79bd
00000210: 9311 b8bd 4bd2 1a3c d014 b5bd 5986 90bd
00000220: 2833 c7bc a452 853a 10c5 9cbd 9735 43bd
00000230: 9e57 143d 7713 79bd c195 04bc 117b 17bc
00000240: 3d49 92bd 7826 4cbe 6a20 26bc 710e 0fbd
00000250: cf42 0bbe e24d f0bd a3d4 f1bd dba7 30bd
00000260: 745a b7bd 0b03 ffbc 7d63 1fbc f6d9 c8bd
00000270: 7c06 24be d2ad 8bbd 744c 39bc 302c 16be
00000280: 012f 47bd d826 15be aec3 0d3d 6d98 23be
00000290: 2a7a 82bd f787 d6bc 9f17 d9bd e7cd c0bd
000002a0: 1c83 82bd 03cb 093c 4773 65bd 69a6 e2bd
000002b0: b69e b6bd d204 44bd 0212 ecbb efa2 29bd
000002c0: 80a7 5cbd 96d3 cbbd f074 e6bc ac12 883c
000002d0: a752 9abc 0879 e3bb 2a26 863c a60c 8dbd
000002e0: 301c 07bd 3879 f8bc ef9f b5bd 9ff5 efbc
000002f0: f0d6 2abc 6196 b9ba 6948 0c3d 7e29 afbd
00000300: 4572 6b3c afdb 7bbd cb90 5d3d 80ef ffbd
00000310: 6788 e2bd 1b3c 1bbd a9df 85bd ea36 4fbd
00000320: 55ba a1bd 48a1 70bd aa5e 5fbc 555b cabd
00000330: fa0f cabd 8542 1b3d 2e77 d83c 1301 a9bd
00000340: 6223 ddbc b8b9 98bd 4bfa b0bd 4892 bebd
00000350: edd6 bdbd 115c c2bd 0167 72bd 2cc7 db3b
00000360: 08b7 debd 37d3 b2bd 9ef5 1abe 2426 0dbd
00000370: 2cc0 9a3c dbf6 0ebe 8db4 b9bd 0030 aebd
00000380: 95b5 cbbc 182b a9bd 8527 1d3d b5a3 4fbd
00000390: e365 51bd d9d8 2bbd 5990 f9bd 4562 5ebd
000003a0: 7b83 43bd 18f4 a1bd 8e67 c63d 0766 13bd
000003b0: e6e9 1c3c 90b4 403c fa59 563b 919c f1bd
000003c0: 8d83 413d 2374 32bd a94e 973d 8ccd bc3b
000003d0: 7f84 253d 7bea 8ebd 9e0d cabd 605c e2bd
000003e0: 1b0a 163d 9eff e03c 933b d8b9 86a2 c9bd
000003f0: 46bf e2bd 9548 11be 9a76 15be 3974 38bd

bias f4 [64]
-0.031426754 -0.041743923 -0.039483048 -0.045678467 -0.04947114 -0.0298791 -0.07595533 -0.0890202
-0.034279425 -0.08890671 -0.06625393 -0.01924711 0.019083986 -0.080094196 -0.045067452 -0.05671366
-0.06796314 -0.0010375705 0.04058423 -0.03945729 -0.061771475 -0.09665498 -0.07382598 -0.032563474
-0.07325623 -0.033204075 -0.053398672 -0.048668113 -0.046816636 -0.03230728 -0.07395001 -0.074820325
-0.04528229 -0.0101166535 -0.014345923 -0.094438165 -0.052759763 -0.029116761 -0.093368664 0.032692954
-0.030403264 -0.089013316 -0.023061385 -0.0386357 -0.0752464 -0.073065475 -0.069394976 -0.03169781
-0.06432825 -0.067837 -0.05993695 -0.030673685 -0.052097373 -0.008471505 -0.08034262 -0.028424684
-0.06738927 -0.018707426 -0.021356156 -0.047254026 -0.030162038 -0.009931086 -0.05891906 -0.07366463
00000000: 57b9 00bd adfb 2abd fab8 21bd 5819 3bbd
00000010: 40a2 4abd 04c5 f4bc 788e 9bbd 3950 b6bd
00000020: 9568 0cbd b914 b6bd 24b0 87bd 1dac 9dbc
00000030: 0556 9c3c 6d08 a4bd a698 38bd 954c 68bd
00000040: 4230 8bbd 17ff 87ba a63b 263d f89d 21bd
00000050: 1604 7dbd 0cf3 c5bd 1332 97bd 4761 05bd
00000060: 5d07 96bd ff00 08bd 91b8 5abd 3758 47bd
00000070: cdc2 3fbd a354 04bd 1a73 97bd 663b 99bd
00000080: ec79 39bd 52c0 25bc 2a0b 6bbc cc68 c1bd
00000090: 9f1a 58bd 4686 eebc 1238 bfbd 0ce9 053d
000000a0: 4410 f9bc 9d4c b6bd 3beb bcbc 7840 1ebd
000000b0: c91a 9abd 5aa3 95bd f41e 8ebd 90d5 01bd
000000c0: 88be 83bd 20ee 8abd 7380 75bd 6147 fbbc
000000d0: 0e64 55bd 11cc 0abc ac8a a4bd e2da e8bc
000000e0: 6303 8abd 5140 99bc 1bf3 aebc 708d 41bd
000000f0: 6116 f7bc feb5 22bc 1d55 71bd 7bdd 96bd

weight f4 [32, 64, 3, 3]
0.10835278 -0.01084526 0.0074374424 0.02919842 -0.08050782 -0.18002632 0.04829332 -0.009174461
-0.00032660185 0.029196678 0.10862906 -0.08589272 -0.027732743 0.01701253 -0.015072587 -0.026902897
0.07722933 -0.047489997 -0.11259854 -0.0057019456 -0.0012302563 -0.005598452 -0.067364104 -0.07716588
-0.058499377 -0.14896625 -0.18098998 0.20621154 -0.01576056 0.017897157 0.032349255 -0.020980434
-0.01960284 0.0068466603 -0.030085815 -0.07196226 -0.0012748117 0.07947696 -0.107169904 -0.06845969
-0.093090884 -0.06462935 -0.06866318 -0.09424499 -0.01930657 -0.027836416 -0.058591176 -0.03768265
-0.010275955 -0.002622236 -0.02646814 -0.07601202 -0.011988725 -0.09892348 -0.15361983 0.020276804
0.069280885 -0.0029739556 -0.008902722 -0.12438298 -0.024332576 0.07055713 -0.054247275 0.10219711
0.04282965 0.013038921 0.14177956 0.0865246 -0.06207042 0.08155575 -0.03391949 -0.17638093
0.07858204 0.10424526 -0.09238737 0.054711446 -0.023165355 -0.078254566 -0.061892137 0.065399006
-0.18861386 0.13621505 0.027457368 -0.12538897 0.009039922 -0.051128317 -0.042858277 0.0636594
-0.045231767 -0.12025337 -0.0033802919 -0.053733658 0.092237994 0.0016335961 -0.07307533 -0.070427485
-0.0037340757 -0.012779905 0.050556555 0.012010594 -0.047771864 -0.10146424 0.11031222 0.013190241
-0.017976724 0.15067883 -0.14058296 0.048645783 -0.03211425 -0.018390829 0.009345995 -0.11650252
0.015954902 -0.16746992 -0.09002955 -0.17445587 -0.1304549 0.061889872 0.10628978 -0.020177428
0.033042494 -0.16861686 -0.07036625 -0.006479105 -0.118247725 -0.14279035 0.0027245597 -0.050831802
0.005051012 -0.056867722 -0.028085731 0.03397116 -0.011944063 0.064680524 -0.04591969 -0.024829822
0.036648 -0.06610958 0.03920302 0.04165024 -0.05805187 0.065941334 -0.064141884 -0.120879516
0.015629312 -0.04770593 -0.028546048 -0.06680227 0.02202357 -0.007913102 -0.010992599 -0.029840574
-0.09992154 -0.037842292 -0.082680866 -0.059463356 0.12809606 -0.010561785 -0.03197723 -0.0854953
0.033381965 -0.07757727 -0.026289992 -0.14534868 -0.053651284 -0.1643775 -0.05872672 -0.011687818
-0.0689897 -0.11960242 -0.024221849 -0.05428588 -0.03781478 -0.09755512 -0.064696625 -0.018940471
-0.051310737 0.023010997 -0.064331725 -0.099920444 -0.12877643 0.10942272 -0.12367382 0.03763031
-0.11646598 -0.16614829 -0.0051151835 -0.0022885243 -0.1116016 0.15142809 0.051112626 -0.17162089
0.03718102 0.07382822 -0.061685123 -0.02357864 0.1379557 -0.0910223 0.01135795 0.028194347
0.063401416 0.03369802 -0.026134955 0.07497692 -0.102523185 -0.08469328 -0.018522173 -0.018053263
0.033818886 0.077643536 0.01175646 0.03270178 -0.007737343 0.0021966128 -0.016508037 0.022112207
-0.04772596 -0.13064228 -0.09057178 -0.124789715 -0.017337324 -0.12189023 -0.13050409 -0.13737437
-0.031987 0.025478175 0.06513017 -0.08969274 0.06135761 0.119845 0.08711528 0.15160404
0.12302197 -0.09136349 -0.12462924 0.0034515753 -0.07159671 -0.103189334 -0.09361158 -0.044874042
-0.10106727 0.02816291 -0.07309528 0.06780757 0.023622938 0.031734243 -0.038801726 0.025607944
-0.08762673 -0.015386781 -0.16236308 -0.11983947 0.088331856 0.119903184 -0.043992292 0.07057466
00000000: 10e8 dd3d 51b0 31bc cab5 f33b 8631 ef3c
00000010: 49e1 a4bd d258 38be 37cf 453d 7a50 16bc
00000020: c23b abb9 df2d ef3c ea78 de3d 86e8 afbd
00000030: c72f e3bc dc5d 8b3c 03f3 76bc 7763 dcbc
00000040: 692a 9e3d df84 42bd 109a e6bd 63d7 babb
00000050: 8d40 a1ba 3873 b7bb 31f6 89bd 2509 9ebd
00000060: 0b9d 6fbd 9c8a 18be 7055 39be 1e29 533e
00000070: 4a1c 81bc 0f9d 923c a780 043d 29df abbc
00000080: 2396 a0bc f359 e03b 8776 f6bc f360 93bd
00000090: 9517 a7ba d1c4 a23d e57b dbbd 9834 8cbd
000000a0: 6fa6 bebd 655c 84bd 489f 8cbd 8403 c1bd
000000b0: d028 9ebc 3209 e4bc 4dfd 6fbd 1f59 1abd
000000c0: 7b5c 28bc d2d9 2bbb b6d3 d8bc 31ac 9bbd
000000d0: 5b6c 44bc 6598 cabd 844e 1dbe 8a1b a63c
000000e0: 23e3 8d3d b2e6 42bb b9dc 11bc 81bc febd
000000f0: 1c55 c7bc 4280 903d 6432 5ebd b84c d13d
00000100: 256e 2f3d 33a1 553c a92e 113e cf33 b13d
00000110: 8d3d 7ebd b306 a73d 2aef 0abd 349d 34be
00000120: 9fef a03d 8a7e d53d 9735 bdbd 1c19 603d
00000130: 45c5 bdbc ee43 a0bd 9c82 7dbd eaef 853d
00000140: fe23 41be f57b 0b3e 46ee e03c f765 00be
00000150: 2e1c 143c ed6b 51bd 298c 2fbd dc5f 823d
00000160: f244 39bd 6647 f6bd e387 5dbb d317 5cbd
00000170: 46e7 bc3d 641e d63a 85a8 95bd 493c 90bd
00000180: 65b7 74bb cf62 51bc 6414 4f3d 15c8 443c
00000190: 6eac 43bd 7ccc cfbd 60eb e13d e11b 583c
000001a0: ec43 93bc 8d4b 1a3e fbf4 0fbe cd40 473d
000001b0: 3b8a 03bd 5da8 96bc f21f 193c e098 eebd
000001c0: dbb3 823c 3c7d 2bbe 6a61 b8bd 8fa4 32be
000001d0: f895 05be 3c80 7d3d 75ae d93d 224b a5bc
000001e0: 9157 073d e6a9 2cbe 2e1c 90bd ac4e d4bb
000001f0: dd2b f2bd a237 12be 878e 323b 0235 50bd
00000200: f682 a53b 21ee 68bd 0c14 e6bc 5825 0b3d
00000210: 08b1 43bc 3977 843d 4916 3cbd e967 cbbc
00000220: 371c 163d 7664 87bd 5993 203d 7199 2a3d
00000230: ccc7 6dbd 400c 873d d25c 83bd ae8f f7bd
00000240: 0b09 803c 4b67 43bd 67d9 e9bc a1cf 88bd
00000250: c66a b43c f5a5 01bc 4d1a 34bc 3874 f4bc
00000260: aaa3 ccbd 8500 1bbd 9654 a9bd d98f 73bd
00000270: 9d2b 033e 560b 2dbc 8efa 02bd 2918 afbd
00000280: 87bb 083d d5e0 9ebd 1c5e d7bc 49d6 14be
00000290: 73c1 5bbd 9352 28be 6e8b 70bd 437e 3fbc
000002a0: 794a 8dbd 1df2 f4bd e66c c6bc df5a 5ebd
000002b0: ace3 1abd fbca c7bd aa7f 84bd 0c29 9bbc
000002c0: 352b 52bd 8f81 bc3c 5ac0 83bd 17a3 ccbd
000002d0: f8dd 03be 0519 e03d b348 fdbd 3d22 1a3d
000002e0: b785 eebd c722 2abe 459d a7bb 11fb 15bb
000002f0: 618f e4bd f70f 1b3e 795b 513d 63bd 2fbe
00000300: 204b 183d 4033 973d 8aa9 7cbd fe27 c1bc
00000310: 4244 0d3e e669 babd b216 3a3c d5f7 e63c
00000320: 9ad8 813d ef06 0a3d f918 d6bc 808d 993d
00000330: adf7 d1bd ac73 adbd d0bb 97bc 70e4 93bc
00000340: ac85 0a3d 9303 9f3d 2b9e 403c 4df2 053d
00000350: 8a89 fdbb 0cf5 0f3b dd3b 87bc a924 b53c
00000360: 4c7c 43bd 17c7 05be b37d b9bd c091 ffbd
00000370: 0107 8ebc 96a1 f9bd dda2 05be deab 0cbe
00000380: cd04 03bd 9bb7 d03c f762 853d d4b0 b7bd
00000390: 1e52 7b3d 4c71 f53d 7f69 b23d 173e 1b3e
000003a0: f1f2 fb3d c81c bbbd 9d3d ffbd d333 623b
000003b0: 4ca1 92bd ee54 d3bd 6eb7 bfbd d8cd 37bd
000003c0: 5bfc cebd e7b5 e63c fab2 95bd b2de 8a3d
000003d0: e484 c13c c4fb 013d 8fee 1ebd c0c7 d13c
000003e0: a575 b3bd d618 7cbc 8242 26be 656e f5bd
000003f0: 55e7 b43d cd8f f53d 4331 34bd 7389 903d

bias f4 [32]
-0.08070541 -0.032616 -0.10110489 -0.02774813 -0.0815179 -0.056268513 -0.08830799 -0.022445135
-0.0689521 -0.025376968 -0.036155332 0.019130843 -0.08671949 -0.05836835 -0.042278778 -0.069564894
-0.03635108 -0.03371244 -0.08537466 -0.061073326 -0.09265294 -0.083156995 -0.035402894 -0.015744776
-0.06320265 -0.04819022 -0.0516723 -0.051130462 -0.09214864 0.003032221 -0.042818137 -0.09330565
00000000: e148 a5bd 5b98 05bd 1510 cfbd 0c50 e3bc
00000010: dbf2 a6bd d079 66bd d2da b4bd dcde b7bc
00000020: c236 8dbd 5ce3 cfbc 9d17 14bd 49b8 9c3c
00000030: fd99 b1bd a713 6fbd 832c 2dbd 0a78 8ebd
00000040: dfe4 14bd 0e16 0abd e9d8 aebd 0628 7abd
00000050: d3c0 bdbd 374e aabd a002 11bd 30fb 80bc
00000060: 6470 81bd 1c63 45bd 55a6 53bd 2d6e 51bd
00000070: 6db8 bcbd 3ab8 463b 1262 2fbd 0817 bfbd

weight f4 [4, 32, 3, 3]
-0.09289489 -0.11227101 0.016547669 -0.078442805 0.035878446 0.02626683 0.003900713 -0.10585451
0.045005277 0.018366722 -0.06303629 0.011217051 0.0684241 -0.06999423 0.09483224 0.0045593567
0.15797947 -0.026937906 -0.0029024219 0.06367394 0.13167666 0.056811813 0.06178931 0.13728976
0.018273352 -0.03506279 0.08386342 0.06411119 -0.021576941 0.065019414 0.025195157 -0.0070704035
-0.0034983985 0.051390674 0.09565176 -0.04717221 -0.0029096005 -0.096579954 -0.06271828 -0.06854928
-0.028897647 0.017079506 -0.06979411 -0.053191617 -0.06905007 -0.059542716 -0.023761293 -0.024156803
0.108165815 -0.038255103 -0.044382147 -0.047199167 -0.047613963 0.030054912 0.111415684 0.08542367
0.064939715 0.0845517 0.09015218 -0.039068528 0.04959086 0.029045697 0.0440228 0.043137062
0.0845628 0.014782659 -0.06691457 0.107992426 0.12185998 0.067418054 -0.008731452 -0.03165887
0.06294856 -0.08662274 -0.09407296 -0.060192425 -0.010272188 -0.034080163 0.01906329 -0.085821904
-0.048215035 0.08015009 0.014197629 0.08844869 0.005588991 0.040548626 0.020638362 0.0055455766
-0.095603004 0.026376907 0.058792092 -0.10495616 0.025068816 0.11109397 0.053835794 0.022063036
0.13508762 0.21657892 0.064135835 0.015113914 0.13944387 -0.029704327 0.06820916 0.10706887
-0.012502682 0.014377453 0.1237299 0.07518725 0.0832816 0.037475433 0.025972614 -0.04434102
-0.027262691 0.022544894 -0.04086527 -0.034779094 0.12445871 0.056141548 -0.05940755 0.01857615
-0.10451565 0.06422425 -0.08483686 -0.04635494 -0.036360037 -0.075524 0.056508854 0.051988322
0.13691592 -0.013704556 -0.03995981 0.021236341 0.06512635 0.072711684 0.013145199 0.064247124
-0.02504691 -0.02460651 0.096652016 0.04907746 0.12553376 0.049502943 0.10684381 0.049113467
0.1318209 0.07723612 0.08066578 0.13448691 0.09141394 0.044903915 0.030453756 0.023688503
-0.022342326 -0.09446043 -0.08414045 0.004351743 -0.03536039 -0.009056915 -0.053082824 -0.08080276
-0.112821326 0.012954591 0.12574211 0.00842946 7.306325e-05 0.14988753 0.07227679 0.019943345
0.047453236 0.1289279 0.024493108 0.002664393 -0.03288086 -0.15460168 0.033671882 -0.15477139
-0.12135732 0.0017189875 -0.1447141 0.02981958 -0.05932325 -0.08097539 -0.12198383 0.11468049
0.07700888 -0.019972187 0.10429087 0.07821537 -0.070215054 -0.03719523 -0.017941697 -0.029460954
-0.099594146 -0.075587146 -0.10323032 -0.14851892 0.02681202 -0.06440944 0.08197314 -0.0112149
0.07019768 0.13642637 0.013977655 0.08608921 0.06939362 0.061555248 0.018888757 -0.095677555
0.04982328 -0.008852973 0.012231497 -0.06612511 -0.0843353 -0.06215892 -0.06083601 -0.124988735
-0.060962155 -0.020356437 -0.05544213 -0.039683357 -0.03516942 -0.008281741 -0.07399756 -0.022126636
0.036800288 0.004713967 0.024728164 0.009948528 0.019773552 0.07262519 0.09831243 0.07992739
0.17209019 0.07631356 -0.14994137 -0.07039396 -0.007893313 0.006231075 0.045588166 -0.07347366
-0.108849905 0.0047944095 0.022571297 -0.028340891 -0.07340948 0.033295646 0.018214414 0.053818412
0.21012223 0.0041535012 0.028733518 0.0853188 0.03071886 -0.08130484 0.0032021708 0.06790438
00000000: ad3f bebd 58ee e5bd fa8e 873c 9fa6 a0bd
00000010: 47f5 123d 892d d73c 1ba3 7f3b 40ca d8bd
00000020: 7457 383d cf75 963c 2c19 81bd b9c7 373c
00000030: ef21 8c3d 2359 8fbd 6837 c23d a866 953b
00000040: 5fc5 213e e2ac dcbc 8f36 3ebb 7c67 823d
00000050: 3fd6 063e 81b3 683d ca16 7d3d b095 0c3e
00000060: ffb1 953c 009e 0fbd 96c0 ab3d ba4c 833d
00000070: 20c2 b0bc e628 853d 1366 ce3c d8ae e7bb
00000080: 6345 65bb 077f 523d 12e5 c33d a637 41bd
00000090: ffae 3ebb b6cb c5bd 7172 80bd 9163 8cbd
000000a0: c2ba ecbc 52ea 8b3c 37f0 8ebd 74df 59bd
000000b0: 206a 8dbd 10e3 73bd 0ba7 c2bc 7de4 c5bc
000000c0: 0a86 dd3d 62b1 1cbd 0eca 35bd ea53 41bd
000000d0: dc06 43bd b835 f63c e82d e43d 9bf2 ae3d
000000e0: 1dff 843d 7129 ad3d b5a1 b83d 5206 20bd
000000f0: c91f 4b3d 3ef1 ed3c 4051 343d 7db0 303d
00000100: 432f ad3d f732 723c 820a 89bd 222b dd3d
00000110: ba91 f93d 7a12 8a3d 5d0e 0fbc bbac 01bd
00000120: 2deb 803d 4367 b1bd 53a9 c0bd 558c 76bd
00000130: ae4c 28bc a497 0bbd 9e2a 9c3c 65c3 afbd
00000140: 217d 45bd bb25 a43d 2c9d 683c 9624 b53d
00000150: db23 b73b 5116 263d c811 a93c abb7 b53b
00000160: 82cb c3bd 6214 d83c facf 703d 41f3 d6bd
00000170: 1e5d cd3c 3c85 e33d ec82 5c3d 8abd b43c
00000180: 6954 0a3e ddc6 5d3e a659 833d 5aa0 773c
00000190: 60ca 0e3e 7d56 f3bc 3eb1 8b3d ec46 db3d
000001a0: 0dd8 4cbc 698f 6b3c 1a66 fd3d c6fb 993d
000001b0: 8b8f aa3d d77f 193d 85c4 d43c ee9e 35bd
000001c0: 0256 dfbc 12b0 b83c 5762 27bd 8674 0ebd
000001d0: 35e4 fe3d aef4 653d 5555 73bd 032d 983c
000001e0: 4d0c d6bd 0188 833d f3be adbd adde 3dbd
000001f0: 43ee 14bd 54ac 9abd d475 673d b5f1 543d
00000200: b033 0c3e 1389 60bc e6ac 23bd d6f7 ad3c
00000210: f760 853d dde9 943d f65e 573c ff93 833d
00000220: 2d2f cdbc 9793 c9bc 7ef1 c53d 7205 493d
00000230: ec8b 003e 99c3 4a3d edd0 da3d 342b 493d
00000240: 0ffc 063e f92d 9e3d 1a34 a53d f0b6 093e
00000250: 3b37 bb3d 2bed 373d 287a f93c 640e c23c
00000260: 4107 b7bc 7874 c1bd d451 acbd 1199 8e3b
00000270: 0ed6 10bd 7463 14bc 606d 59bd eb7b a5bd
00000280: de0e e7bd 7e3f 543c 8ac2 003e b81b 0a3c
00000290: 8939 9938 1e7c 193e db05 943d 3a60 a33c
000002a0: 535e 423d ad05 043e c5a5 c83c 199d 2e3b
000002b0: 15ae 06bd e74f 1ebe 87eb 093d 647c 1ebe
000002c0: 308a f8bd a64f e13a ef2f 14be 3148 f43c
000002d0: f0fc 72bd 6dd6 a5bd a9d2 f9bd 9bdd ea3d
000002e0: d5b6 9d3d b69c a3bc 7496 d53d 612f a03d
000002f0: e9cc 8fbd 075a 18bd 77fa 92bc 1958 f1bc
00000300: 04f8 cbbd 6fcd 9abd 6b6a d3bd 5815 18be
00000310: e2a4 db3c 19e9 83bd 89e1 a73d b3be 37bc
00000320: cdc3 8f3d 5bb3 0b3e 8902 653c 8a4f b03d
00000330: 3e1e 8e3d 5b21 7c3d 98bc 9a3c 98f2 c3bd
00000340: 7f13 4c3d 0f0c 11bc 9e66 483c 9a6c 87bd
00000350: fcb7 acbd 5a9a 7ebd 2e2f 79bd 18fa ffbd
00000360: 74b3 79bd 8bc2 a6bc 4917 63bd 048b 22bd
00000370: cf0d 10bd 24b0 07bc 088c 97bd eb42 b5bc
00000380: e6bb 163d 9f77 9a3b b892 ca3c 27ff 223c
00000390: 25fc a13c 84bc 943d 0758 c93d f9b0 a33d
000003a0: 6938 303e 494a 9c3d 3b8a 19be b52a 90bd
000003b0: f452 01bc 0c2e cc3b a8ba 3a3d 5c79 96bd
000003c0: b3ec debd 6c1a 9d3b 71e7 b83c 282b e8bc
000003d0: b657 96bd 0461 083d 6536 953c b270 5c3d
000003e0: 482a 573e 181a 883b 8e62 eb3c 9fbb ae3d
000003f0: 1ea6 fb3c 2783 a6bd 83db 513b 7411 8b3d

bias f4 [4]
-0.0037529822 0.025874713 0.027291603 -0.011939915
00000000: 98f4 75bb 35f7 d33c a492 df3c a29f 43bc
