super_resolution/checkpoint_scale2/model_epoch_27.pth (torch_old, 247001 bytes, 8 tensors)

weight f4 [64, 1, 5, 5]
0	0x3e5c172a	0.21493211
1	0xbdca8bc5	-0.0988994
2	0xbe24762a	-0.16060701
3	0xbe1b06d3	-0.15139322
4	0x3e591ee4	0.2120319
5	0xbd3474d8	-0.044056743
6	0xbe8166f9	-0.25273874
7	0xbe601780	-0.21883965
8	0x3cb3dd87	0.021956218
9	0xbe3fb940	-0.18723011
10	0xbee08102	-0.43848425
11	0xbe55576a	-0.20834127
12	0xbe9ab3b3	-0.30215225
13	0xbe304f1e	-0.17217681
14	0xbd080d59	-0.033215854
15	0xbe81a9b5	-0.2532479
16	0xbe11b918	-0.14230764
17	0xbd85ab79	-0.065268464
18	0xbe8ac44d	-0.2710289
19	0x3defe86a	0.11714251
20	0x3d079ed6	0.033110462
21	0x3cc7ba33	0.024380779
22	0xbe121f44	-0.1426974
23	0x3cc8fdb2	0.024535034
24	0x3dbdaf6b	0.09261974
25	0xbe18805e	-0.14892718
26	0xbdd7cd2a	-0.10537179
27	0xbe8d7eec	-0.27635896
28	0x3d872994	0.06599727
29	0xbe23a03e	-0.15979096
30	0xbe9558b7	-0.29169247
31	0xbdbf6851	-0.09346069
32	0xbe547212	-0.2074664
33	0x3d5afee1	0.053465728
34	0xbd019d6a	-0.031644262
35	0xbdf8cb67	-0.12148171
36	0xbd8698b5	-0.06572095
37	0xbe73ec24	-0.23820549
38	0xbe223601	-0.15840913
39	0x3daf7115	0.085664906
40	0x3e0b9f12	0.136349
41	0xbe83759e	-0.25675672
42	0x3ca8d4dd	0.020609314
43	0x3e8a2edc	0.26988876
44	0xbe3c8dd2	-0.18413475
45	0xbddeb2c0	-0.108739376
46	0xbdee6842	-0.11640979
47	0xbe21f5a9	-0.15816368
48	0xbcc214e3	-0.0236916
49	0xbd74bca9	-0.059750233
50	0xbea81e2f	-0.32835528
51	0x3dbd8c4e	0.092552766
52	0xbd01d12a	-0.031693615
53	0x3dd28283	0.102787994
54	0x3e1a04c0	0.15040874
55	0xbe8284b8	-0.2549188
56	0xbc8a8d73	-0.016913151
57	0xbd8f20f0	-0.06988704
58	0x3d968ef6	0.073514864
59	0xbee28f0d	-0.44249764
60	0x3d362f47	0.04447868
61	0x3d106066	0.035248183
62	0x3d783d20	0.06060517
63	0xbd8f3653	-0.069927834
64	0xbc997957	-0.018734617
65	0xbe3dd533	-0.1853836
66	0xbe5bd532	-0.21468046
67	0xbe1ff377	-0.15620218
68	0xbdb10b72	-0.08644761
69	0xbe4f2345	-0.20228298
70	0xbe0d4cb0	-0.13798785
71	0x3bcaf3da	0.00619362
72	0xbe284ee0	-0.16436338
73	0x3e2668aa	0.16250864
74	0xbde321e4	-0.110904485
75	0xbe57d600	-0.21077728
76	0xbe3f007d	-0.1865253
77	0x3d97f802	0.074203506
78	0xbdae89f0	-0.08522403
79	0xbe73d24a	-0.23810688
80	0x3d3de8a5	0.046364445
81	0x3da1f0bb	0.07907244
82	0xbe90b828	-0.282655
83	0xbe9aba85	-0.30220428
84	0xbec8c3f5	-0.39212003
85	0x3da37f7d	0.07983301
86	0xbd748cf0	-0.05970472
87	0xbe54f3fa	-0.20796195
88	0x3b87d3f7	0.004145141
89	0xbeb6937e	-0.35659403
90	0xbe0a067c	-0.13479036
91	0x3e6ef4c5	0.2333556
92	0x3d8bf49e	0.068337664
93	0xbdc52b83	-0.0962744
94	0xbe0797e3	-0.13241534
95	0xbdeaa679	-0.114575334
96	0xbe93cded	-0.28868046
97	0xbdca7e05	-0.098873176
98	0xbbced1b7	-0.006311621
99	0xbe2c460b	-0.16823594
100	0xbe35ca16	-0.17752871
101	0x3e705332	0.23469236
102	0x3e55a822	0.20864919
103	0xbe1bfbd5	-0.15232785
104	0x3ddb9070	0.10720909
105	0x3d356cb8	0.044293135
106	0xbe9ecb23	-0.31014356
107	0x3b59083c	0.003311648
108	0x3d445bcd	0.04793911
109	0xbbdaf913	-0.006682524
110	0xbeca4580	-0.3950615
111	0x3c987a03	0.018612867
112	0x3d873505	0.066019095
113	0xbe140d4f	-0.14458202
114	0xbe41460b	-0.18874376
115	0xbc7986d9	-0.015229904
116	0xbd33cbb2	-0.04389543
117	0xbe946a9e	-0.28987592
118	0x3e80e05f	0.25171182
119	0x3dadc66a	0.0848511
120	0xbe85f23e	-0.2616138
121	0xbd55bdda	-0.05218301
122	0xbdc21228	-0.09476119
123	0xbea82b6d	-0.3284563
124	0xbe5950b4	-0.21222192
125	0xbdaa5ce8	-0.08318502
126	0xbde271d2	-0.11056866
127	0x3a7c38fb	0.0009621528
128	0xbcb42dbe	-0.021994468
129	0xbd839806	-0.064254805
130	0x3da1ab40	0.078939915
131	0x3e82e3e7	0.255645
132	0x3e1dc6fa	0.15407935
133	0x3de07020	0.10958886
134	0xbdf55df8	-0.11980814
135	0xbd88d58f	-0.06681358
136	0xbed32681	-0.41240314
137	0x3d3496ea	0.044089235
138	0x3eb77a8d	0.35835686
139	0xbe96b423	-0.29434308
140	0xbb901eeb	-0.004398217
141	0xbe00de19	-0.12584724
142	0xbf1a1364	-0.6018584
143	0xbe0afec5	-0.1357375
144	0xbcd02696	-0.025409024
145	0xbde2111c	-0.110384196
146	0xbcf1c95f	-0.029514967
147	0xbe70a179	-0.23499097
148	0x3e377ca6	0.17918643
149	0x3e68d3e7	0.22737084
150	0x3c537076	0.012905231
151	0xbd948a51	-0.07252944
152	0x3e5fff4f	0.21874736
153	0xbe720e23	-0.23638205
154	0xbe83c568	-0.25736547
155	0xbdd64476	-0.10462277
156	0x3e525a23	0.20542197
157	0x3e3d647e	0.18495366
158	0x3d660bd8	0.05616364
159	0x3dbae4d7	0.09125679
160	0x3e113c42	0.14183143
161	0x3dd2514b	0.10269412
162	0xbed82709	-0.4221728
163	0xbeccdd66	-0.40012664
164	0x3e830b04	0.25594342
165	0x3dd5d3ce	0.10440789
166	0xbd947e79	-0.07250685
167	0xbe54c6ec	-0.20779008
168	0xbea5f22d	-0.32411328
169	0xbca956b0	-0.020671219
170	0xbe6e7ef5	-0.23290618
171	0x3e7cb8bf	0.2467985
172	0xbe8adfb9	-0.27123812
173	0x3bdfa204	0.0068247337
174	0xbd75da09	-0.060022388
175	0xbdf0b433	-0.1175312
176	0xbc2c90ff	-0.010532617
177	0x3de4e691	0.111767896
178	0xbe12e278	-0.14344203
179	0xbe948018	-0.29003978
180	0x3cd0a90e	0.025471237
181	0xbe16b860	-0.14718771
182	0x3ef8fea2	0.4863177
183	0x3dc72bec	0.09725174
184	0x3e8fb722	0.28069407
185	0x3d5b8e0f	0.053602275
186	0x3e34d288	0.17658436
187	0x3b8e85f1	0.004349463
188	0x3ced0c03	0.028936392
189	0xbd8f9823	-0.0701144
190	0xbe04e85b	-0.12979262
191	0xbc3b8880	-0.011446118
192	0xbe85dec6	-0.26146525
193	0xbe832a59	-0.25618246
194	0xbe1c6205	-0.15271766
195	0x3ea2d291	0.31801274
196	0xbec460dc	-0.38355148
197	0x3e1bddee	0.15221378
198	0xbe782a19	-0.24234809
199	0xbe3265df	-0.17421673
200	0x3e5d2519	0.21596183
201	0x3e416916	0.18887743
202	0x3e0678a3	0.13131957
203	0xbe7ea67e	-0.24868199
204	0xba15068f	-0.0005684876
205	0xbd3535d8	-0.044240803
206	0x3ea288fb	0.31745133
207	0xbea88142	-0.32911116
208	0x3e3310d1	0.17486884
209	0xbce3a80b	-0.02779009
210	0xbeb2cf82	-0.3492394
211	0x3eb999ba	0.36250097
212	0xbe00b9fb	-0.12570946
213	0xbe6cad90	-0.23113084
214	0xbe8305c1	-0.25590327
215	0xbce502d7	-0.027955456
216	0xbbe182c7	-0.006882045
217	0x3e1513b4	0.14558297
218	0xbe4d9cb2	-0.20079306
219	0x3e2531e8	0.16132319
220	0x3f061924	0.5238211
221	0x3b60da33	0.0034309744
222	0xbd935a3c	-0.07194945
223	0x3e75d1ad	0.24005766
224	0x3e3e9b05	0.18613823
225	0x3e6be0de	0.23034999
226	0xbe97b304	-0.29628766
227	0x3e1b3d80	0.15160179
228	0xbe2ba39b	-0.1676163
229	0x3e2154a7	0.15754949
230	0x3e54d406	0.20784006
231	0x3e35fa6c	0.1777131
232	0xbe378776	-0.17922768
233	0xbbe0ceba	-0.006860581
234	0xbe40697d	-0.1879024
235	0x3dcb908b	0.09939679
236	0x3dcb0149	0.099123545
237	0x3e593a91	0.21213748
238	0xbe908187	-0.28223822
239	0xbdb738c1	-0.08946372
240	0xbce7bb13	-0.028287446
241	0xbdc04eb0	-0.093900084
242	0xbcbcb6d0	-0.02303639
243	0x3e0ddc6a	0.13853613
244	0xbe12cd49	-0.14336123
245	0xbd2a798d	-0.041619826
246	0xbe723de8	-0.23656428
247	0x3e3c8abb	0.18412296
248	0xbe583614	-0.21114379
249	0xbd556e23	-0.052106988
250	0xbe2faa7c	-0.17154878
251	0xbe047fea	-0.1293942
252	0xbe4bda08	-0.19907391
253	0xbf0e8ba3	-0.5568182
254	0x3dc4151a	0.09574337
255	0xbd337a09	-0.043817554

bias f4 [64]
0	0x3c7ea050	0.015541151
1	0x3cb6889b	0.022281935
2	0xbe6a49bf	-0.22879694
3	0xbdb5f1dd	-0.088840224
4	0xbdc83789	-0.097762175
5	0x3d771307	0.06032088
6	0x3dbcd70f	0.09220707
7	0xbc9ca40f	-0.019121198
8	0xbe288ba1	-0.16459514
9	0xbe65c1cf	-0.22437213
10	0x3e0dfa3f	0.13864993
11	0x3dd85947	0.10563903
12	0x3de46dab	0.1115373
13	0xbe07311f	-0.13202332
14	0xbe1e40b0	-0.15454364
15	0x3d3469e5	0.0440463
16	0xbd523db0	-0.05132836
17	0xbc22f436	-0.00994592
18	0xbe6c235e	-0.23060367
19	0x3df44820	0.11927819
20	0x3d199dc5	0.037503976
21	0x3e1bfe80	0.15233803
22	0x3d7b8b83	0.061412346
23	0x3d161fb3	0.036651324
24	0xbd324664	-0.04352416
25	0xbe5b7a58	-0.21433389
26	0xbe3e5784	-0.18588072
27	0xbd90a9cb	-0.070636354
28	0x3d90ae38	0.070644796
29	0xbd3af491	-0.045643393
30	0x3d578755	0.052619297
31	0xbd058150	-0.032594025
32	0xbdd28d9e	-0.102809176
33	0xbd006e56	-0.031355225
34	0xbd451178	-0.048112363
35	0xbe1712fd	-0.14753337
36	0xbd053538	-0.032521456
37	0x3d9fe03f	0.078064434
38	0x3dbddc64	0.09270552
39	0xbd97dc21	-0.07415033
40	0xbe5b42e3	-0.21412234
41	0x3dd0f27c	0.102025
42	0xbbf78896	-0.007554124
43	0xbd541e7f	-0.051786896
44	0xbbf3561d	-0.007426037
45	0xbd927eab	-0.07153066
46	0xbd191976	-0.037377797
47	0x3d97436c	0.073859066
48	0x3d215f4e	0.03939753
49	0xbe73b378	-0.2379893
50	0xbe1ddff2	-0.1541746
51	0xbda34780	-0.07972622
52	0xbc546edc	-0.012965884
53	0x3d0692ae	0.03285473
54	0xbe02a28a	-0.12757316
55	0xbe5b8147	-0.21436034
56	0x3df5b771	0.11997879
57	0xbe45d67c	-0.193201
58	0xbe628876	-0.22122368
59	0x3ddbd8db	0.10734721
60	0x3e36af8c	0.17840403
61	0x3cb008df	0.021488605
62	0xbe3f4c71	-0.18681504
63	0xbe2c2b06	-0.16813287

weight f4 [64, 64, 3, 3]
0	0xbb7b2673	-0.0038322478
1	0xbd11c2c7	-0.035586145
2	0xbdd37613	-0.10325255
3	0x3c07d283	0.008289936
4	0xbd887f03	-0.066648506
5	0x3c7528b7	0.01496332
6	0xbb759580	-0.0037473142
7	0xbcd975b9	-0.026545392
8	0xbd9dec78	-0.077111185
9	0xbdbad954	-0.09123483
10	0x3c3e2028	0.011604346
11	0xbe11ab13	-0.14225416
12	0x3c049d4f	0.008094146
13	0xbdcf623c	-0.101261586
14	0xbdc71e66	-0.09722595
15	0xbdad6cea	-0.08468039
16	0xbd49e6f4	-0.04929252
17	0xbdeee763	-0.11665227
18	0xbdf85282	-0.12125112
19	0xbdeddca3	-0.11614349
20	0xbdb4b726	-0.08823995
21	0xbe049d20	-0.12950563
22	0xbe04cf6f	-0.12969755
23	0xbd80e993	-0.06294551
24	0xbd47f5fb	-0.04881857
25	0xbddfe609	-0.109325476
26	0xbe07550f	-0.13216041
27	0xbc90b6d7	-0.01766531
28	0xbd176c96	-0.03696879
29	0xbdfa7fbb	-0.12231394
30	0x3ddad084	0.106843024
31	0x3de5c338	0.11218876
32	0xbc00b48e	-0.007855548
33	0xbd5e9ea2	-0.054350503
34	0xbd7aaa9f	-0.061197873
35	0xbc1b4d2c	-0.009478848
36	0xbe167d79	-0.14696302
37	0x3ca3893d	0.019962901
38	0xbdda6d91	-0.106654294
39	0xbd2d51ad	-0.04231422
40	0x3d99ad0f	0.075037114
41	0xbd69d559	-0.05708823
42	0x3d6c3725	0.057669777
43	0x3d9ce66d	0.07661138
44	0xbc3a75b1	-0.011380599
45	0xbe0084b4	-0.12550622
46	0xbdc41ea2	-0.09576155
47	0xbda3deea	-0.08001502
48	0x3c541078	0.01294338
49	0xbdda7177	-0.10666173
50	0xbc7b67e0	-0.01534459
51	0xbe10a5e5	-0.14125784
52	0xbda31114	-0.07962242
53	0xbcdd04a4	-0.026979752
54	0xbd913e59	-0.0709197
55	0xbe01ab1d	-0.12662931
56	0xbd5a2038	-0.053253382
57	0xbda398dd	-0.07988141
58	0x3c97b6a3	0.018519705
59	0xbdf1becb	-0.11803969
60	0x3d50641d	0.050876725
61	0x3a86559f	0.0010248906
62	0xbd934435	-0.07190744
63	0xbd918226	-0.07104902
64	0xbd9f44f9	-0.07776827
65	0x3d032555	0.032018024
66	0x3c25a067	0.010109044
67	0xbc3b8611	-0.011445538
68	0xbdba5e60	-0.09100032
69	0xbde10c11	-0.109886296
70	0xbd99cf1c	-0.07510206
71	0xbd01b6ba	-0.031668402
72	0xbe2df3bb	-0.16987507
73	0xbd55c1f8	-0.052186936
74	0xbc7a2fe3	-0.015270206
75	0xbd090e6c	-0.03346102
76	0xbdabdb98	-0.083914936
77	0xbd48e04f	-0.049042042
78	0xbcae3de4	-0.021269746
79	0xbe118c98	-0.14213789
80	0x3c9cf2a9	0.019158678
81	0xbda2db60	-0.07951999
82	0x3cc3d6a7	0.023906065
83	0xbd11d5a7	-0.035604145
84	0x3d168e6a	0.03675691
85	0xbe0069cd	-0.1254036
86	0xbde68d43	-0.11257412
87	0xbda1bb71	-0.0789708
88	0xbddeecda	-0.108850196
89	0xbd3e2790	-0.04642445
90	0xbd84ba9c	-0.064809054
91	0xbd456ea8	-0.048201233
92	0xbdc2f49a	-0.0951931
93	0xbddc806b	-0.10766681
94	0xbd87beda	-0.06628199
95	0x3aa3611e	0.0012464856
96	0xbe370d8e	-0.17876264
97	0xbd479443	-0.048725378
98	0xbd880572	-0.066416636
99	0x3d0160d3	0.03158648
100	0xbc9d0254	-0.01916615
101	0x3db49c77	0.08818906
102	0x3da4bf55	0.08044306
103	0xbc321806	-0.010869985
104	0xbd8c7d8d	-0.068598844
105	0xbcf3ba5f	-0.029751955
106	0xbd90aaa7	-0.07063799
107	0x3d8ff376	0.07028858
108	0x3be7db17	0.007075678
109	0x3c349b16	0.0110233035
110	0xbbdc6a0a	-0.006726508
111	0xbd073bdc	-0.03301607
112	0xbd537605	-0.051626224
113	0xbc7b0d3e	-0.015322981
114	0x3da80934	0.0820488
115	0x3d24ed9f	0.040265676
116	0xbd730c23	-0.059337746
117	0xbdcd3f77	-0.100218706
118	0xbde15ed9	-0.11004419
119	0x3da6eba4	0.08150414
120	0xbdb1ff0a	-0.08691223
121	0xbca6a183	-0.020340687
122	0xbe0fc59d	-0.14040227
123	0xbe5a136a	-0.21296468
124	0xbde28d8b	-0.110621534
125	0xbe119ee6	-0.14220771
126	0xbc408181	-0.011749626
127	0x3d1c9ca0	0.038235307
128	0xbd660098	-0.05615291
129	0xbe377890	-0.17917085
130	0x3cd0eaf8	0.025502667
131	0xbd797bbf	-0.06090903
132	0xbdb81193	-0.08987727
133	0x3c1ad236	0.009449532
134	0xbdb514d0	-0.0884186
135	0xbd908659	-0.07056875
136	0xbcc73330	-0.0243164
137	0x3a8551f8	0.0010171523
138	0xbd9cc510	-0.07654774
139	0xbd433599	-0.047658537
140	0x3d14579c	0.036216363
141	0xbd791378	-0.060809582
142	0xbc0495d4	-0.008092362
143	0xbc177b24	-0.009245668
144	0xbd92493d	-0.07142875
145	0xbe4c2678	-0.1993655
146	0xbc26207f	-0.010139584
147	0xbd0f0e74	-0.034925893
148	0xbe0b42cf	-0.13599704
149	0xbdf04de2	-0.11733605
150	0xbdf1d4a3	-0.11808135
151	0xbd30a7de	-0.04312884
152	0xbdb75a74	-0.089527994
153	0xbcff0315	-0.0311294
154	0xbc1f6394	-0.009728331
155	0xbdc8d9f6	-0.09807198
156	0xbe24067c	-0.16018099
157	0xbd8badd2	-0.06820263
158	0xbc394c8b	-0.011309753
159	0xbe162c30	-0.14665294
160	0xbd472f03	-0.04862882
161	0xbe1526d8	-0.14565599
162	0x3d0dc3ab	0.03461043
163	0xbe23986d	-0.15976115
164	0xbd827a2a	-0.06370957
165	0xbcd68800	-0.026187897
166	0xbdd9179f	-0.106002085
167	0xbdc0cde7	-0.09414273
168	0xbd82831c	-0.063726634
169	0x3c09caf1	0.008410201
170	0xbd657348	-0.056018144
171	0xbde2a669	-0.110668965
172	0xbdb69eb6	-0.089169905
173	0xbd4404d5	-0.04785617
174	0xbbec1232	-0.0072043175
175	0xbd29a2f2	-0.041415162
176	0xbd5ca783	-0.05387069
177	0xbdcbd396	-0.09952466
178	0xbce674fa	-0.02813195
179	0x3c8812a2	0.016610447
180	0xbc9a52af	-0.018838255
181	0xbbe37933	-0.0069419383
182	0x3c862621	0.016375603
183	0xbd8d0ca6	-0.06887178
184	0xbd071c32	-0.032985874
185	0xbcf87941	-0.030331256
186	0xbdb59fef	-0.088683955
187	0xbceff5a8	-0.029291943
188	0xbc2ad705	-0.010427241
189	0xbab9972d	-0.0014159434
190	0x3d0c4866	0.034248732
191	0xbdaf297e	-0.08552836
192	0x3c6b722e	0.014370484
193	0xbd7bdbb2	-0.061488815
194	0x3d5d90c8	0.054093152
195	0xbdffef80	-0.12496853
196	0xbde28867	-0.11061173
197	0xbd1b3c1e	-0.03789913
198	0xbd85dfa9	-0.065368004
199	0xbd4f36ec	-0.050589487
200	0xbda1ba55	-0.07896868
201	0xbd70a14a	-0.058747567
202	0xbc5f5ebf	-0.013633429
203	0xbdca5b55	-0.098807015
204	0xbdca0ffa	-0.098663285
205	0x3d1b4283	0.037905227
206	0x3cd87725	0.026424
207	0xbda90113	-0.08252158
208	0xbcdd236c	-0.02699443
209	0xbd98b9b8	-0.07457298
210	0xbdb0fa4b	-0.086414896
211	0xbdbe9248	-0.09305245
212	0xbdbdd6ed	-0.092695095
213	0xbdc25c11	-0.094902165
214	0xbd726704	-0.059180275
215	0x3bdbc6fc	0.0067070704
216	0xbddeb708	-0.10874754
217	0xbdb2d337	-0.08731692
218	0xbe1af59e	-0.15132758
219	0xbd0d2627	-0.034460213
220	0x3c9ac022	0.018890444
221	0xbe0ef6db	-0.13961355
222	0xbdb9b48d	-0.090676405
223	0xbdae3000	-0.08505249
224	0xbccbb59f	-0.024866877
225	0xbda92b18	-0.082601726
226	0x3d1d2783	0.03836776
227	0xbd4fa3b7	-0.05069324
228	0xbd5165e6	-0.05112257
229	0xbd2bd8dc	-0.04195486
230	0xbdf99059	-0.12185735
231	0xbd5e6245	-0.054292936
232	0xbd43837b	-0.04773281
233	0xbda1f418	-0.07907885
234	0x3dc6678e	0.0968772
235	0xbd136607	-0.035985973
236	0x3c1ce9e6	0.00957725
237	0x3c40b490	0.011761799
238	0x3b5659fa	0.0032707439
239	0xbdf19c91	-0.11797441
240	0x3d41838d	0.047244597
241	0xbd327423	-0.043567788
242	0x3d974ea9	0.0738805
243	0x3bbccd5c	0.0057617854
244	0x3d25847c	0.04040955
245	0xbd8eea7b	-0.06978317
246	0xbdca0d9e	-0.098658785
247	0xbde25c60	-0.110527754
248	0x3d160a18	0.03663072
249	0x3ce0ff95	0.027465621
250	0xb9d83ece	-0.00041245524
251	0xbdc9a286	-0.09845452
252	0xbde2bf46	-0.11071639
253	0xbe114895	-0.14187844
254	0xbe15769a	-0.14596024
255	0xbd38743c	-0.045032725

bias f4 [64]
0	0xbd00b95a	-0.031426765
1	0xbd2afbb0	-0.041743934
2	0xbd21b8fe	-0.039483063
3	0xbd3b195b	-0.045678478
4	0xbd4aa243	-0.04947115
5	0xbcf4c50e	-0.02987912
6	0xbd9b8e78	-0.07595533
7	0xbdb65039	-0.0890202
8	0xbd0c6898	-0.034279436
9	0xbdb614b9	-0.08890671
10	0xbd87b024	-0.06625393
11	0xbc9dac27	-0.019247128
12	0x3c7c6a7f	0.01540625
13	0xbdc3a0ed	-0.095521785
14	0xbd3898ac	-0.045067474
15	0xbd684c9a	-0.056713678
16	0xbd8b3042	-0.06796314
17	0xbb01cce3	-0.001980596
18	0x3d19f656	0.03758844
19	0xbd219dfb	-0.039457303
20	0xbd7d0419	-0.061771486
21	0xbdc5f30c	-0.09665498
22	0xbd973213	-0.07382598
23	0xbd056323	-0.032565247
24	0xbd96075d	-0.07325623
25	0xbd080102	-0.033204086
26	0xbd3a081a	-0.045417883
27	0xbd47583b	-0.048668128
28	0xbd3fc2d0	-0.046816647
29	0xbd02c6b7	-0.03192779
30	0xbd97731a	-0.07395001
31	0xbd993b66	-0.074820325
32	0xbd3979f0	-0.045282304
33	0xbc25c06a	-0.010116676
34	0xbc6b0aa5	-0.0143458
35	0xbdc168cc	-0.094438165
36	0xbd581aa2	-0.052759774
37	0xbcee8646	-0.029116761
38	0xbdbf3812	-0.093368664
39	0x3cfe7816	0.03106312
40	0xbcf9104f	-0.030403284
41	0xbdb64c9d	-0.089013316
42	0xbcbceb46	-0.023061406
43	0xbd1e407a	-0.03863571
44	0xbd9a1ac9	-0.0752464
45	0xbd95a35a	-0.073065475
46	0xbd8e1ef4	-0.069394976
47	0xbd01d593	-0.03169782
48	0xbd83be8c	-0.06432828
49	0xbd8aee20	-0.067837
50	0xbd758078	-0.05993697
51	0xbcfb476b	-0.030673703
52	0xbd556411	-0.052097384
53	0xbc0acc1f	-0.008471518
54	0xbda48aac	-0.08034262
55	0xbce8daec	-0.028424703
56	0xbd300930	-0.042977512
57	0xbc99405b	-0.018707445
58	0xbcaef325	-0.021356175
59	0xbd418d73	-0.047254037
60	0xbcf5e9ce	-0.030018713
61	0xbc22b618	-0.00993111
62	0xbd715521	-0.058919076
63	0xbd96dd7b	-0.07366463

weight f4 [32, 64, 3, 3]
0	0x3ddde810	0.10835278
1	0xbc31b052	-0.010845261
2	0x3bf3b5ca	0.0074374424
3	0x3cef3180	0.029198408
4	0xbda4e149	-0.08050782
5	0xbe3858d2	-0.18002632
6	0x3d45cf37	0.04829332
7	0xbc16507d	-0.009174463
8	0xb9ab3dd2	-0.0003266172
9	0x3cef2ddf	0.029196678
10	0x3dde78ea	0.10862906
11	0xbdafe886	-0.08589272
12	0xbce32fc7	-0.027732743
13	0x3c8b5de6	0.017012548
14	0xbc76f30a	-0.015072593
15	0xbcdc6377	-0.026902897
16	0x3d9e2a69	0.07722933
17	0xbd4284df	-0.047489997
18	0xbde69a10	-0.11259854
19	0xbbbad799	-0.005701971
20	0xbaa14172	-0.001230283
21	0xbbb7736e	-0.005598477
22	0xbd89f631	-0.067364104
23	0xbd9e0925	-0.07716588
24	0xbd6f9d0f	-0.058499392
25	0xbe188a9c	-0.14896625
26	0xbe395570	-0.18098998
27	0x3e53291e	0.20621154
28	0xbc811c53	-0.015760576
29	0x3c929d06	0.01789714
30	0x3d0480aa	0.032349266
31	0xbcabdf32	-0.020980451
32	0xbca0962c	-0.019602858
33	0x3be05a23	0.0068466826
34	0xbcf67690	-0.030085832
35	0xbd9360f3	-0.07196226
36	0xbaa7187a	-0.0012748383
37	0x3da2c4d1	0.07947696
38	0xbddb7be5	-0.107169904
39	0xbd8c3498	-0.06845969
40	0xbdbea66f	-0.093090884
41	0xbd845c65	-0.06462935
42	0xbd8c9f48	-0.06866318
43	0xbdc10384	-0.09424499
44	0xbc9e28db	-0.01930659
45	0xbce4093c	-0.027836435
46	0xbd6ffd51	-0.05859119
47	0xbd1a5923	-0.037682664
48	0xbc285c93	-0.010275978
49	0xbb2bda40	-0.0026222616
50	0xbcd8d3c1	-0.02646816
51	0xbd9bac31	-0.07601202
52	0xbc446c73	-0.011988747
53	0xbdca9865	-0.09892348
54	0xbe1d4e84	-0.15361983
55	0x3ca61b8a	0.020276804
56	0x3d8de323	0.069280885
57	0xbb42e6d0	-0.0029739626
58	0xbc11dcb9	-0.008902722
59	0xbdfebc81	-0.12438298
60	0xbcc7551c	-0.024332576
61	0x3d908042	0.07055713
62	0xbd5e3264	-0.054247275
63	0x3dd14cb8	0.10219711
64	0x3d2f6e28	0.042829663
65	0x3c55a11e	0.013038902
66	0x3e112ea9	0.14177956
67	0x3db133cf	0.0865246
68	0xbd7e3d8f	-0.062070426
69	0x3da706b3	0.08155575
70	0xbd0aef27	-0.03391948
71	0xbe349d34	-0.17638093
72	0x3da0ef9f	0.07858204
73	0x3dd57e8a	0.10424526
74	0xbdbd3597	-0.09238737
75	0x3d60191f	0.054711457
76	0xbcbdc53c	-0.023165338
77	0xbda043ee	-0.078254566
78	0xbd7d8299	-0.061892126
79	0x3d85efea	0.065399006
80	0xbe4123fe	-0.18861386
81	0x3e0b7bf5	0.13621505
82	0x3ce0ee42	0.02745736
83	0xbe0065f7	-0.12538897
84	0x3c141c45	0.009039943
85	0xbd516bed	-0.051128317
86	0xbd2f8c2b	-0.042858284
87	0x3d825fdc	0.0636594
88	0xbd3944f2	-0.045231767
89	0xbdf64766	-0.12025337
90	0xbb5d87e3	-0.0033802919
91	0xbd5c17d3	-0.053733658
92	0x3dbce746	0.092237994
93	0x3ad61e64	0.0016335961
94	0xbd95a885	-0.07307533
95	0xbd903c49	-0.070427485
96	0xbb74b765	-0.0037340757
97	0xbc5162cf	-0.012779905
98	0x3d4f1464	0.050556555
99	0x3c44c82c	0.012010615
100	0xbd43ac70	-0.04777187
101	0xbdcfcc7c	-0.10146424
102	0x3de1eb60	0.11031222
103	0x3c581bcc	0.013190221
104	0xbc9343f5	-0.01797674
105	0x3e1a4b8d	0.15067883
106	0xbe0ff4fb	-0.14058296
107	0x3d4740cb	0.048645776
108	0xbd038a3f	-0.032114264
109	0xbc96a868	-0.01839085
110	0x3c191fd7	0.00934597
111	0xbdee98e0	-0.11650252
112	0x3c82b3d0	0.015954882
113	0xbe2b7d3c	-0.16746992
114	0xbdb8616a	-0.09002955
115	0xbe32a48f	-0.17445587
116	0xbe0595f8	-0.1304549
117	0x3d7d803f	0.061889883
118	0x3dd9ae75	0.10628978
119	0xbca54b2b	-0.020177444
120	0x3d075794	0.033042505
121	0xbe2ca9e6	-0.16861686
122	0xbd901c2e	-0.07036625
123	0xbbd44e7c	-0.0064790826
124	0xbdf22bdd	-0.118247725
125	0xbe1237a2	-0.14279035
126	0x3b328e2e	0.002724539
127	0xbd503503	-0.050831806
128	0x3ba582f6	0.005051012
129	0xbd68ee21	-0.056867722
130	0xbce61411	-0.02808574
131	0x3d0b2558	0.03397116
132	0xbc43b101	-0.0119440565
133	0x3d847739	0.064680524
134	0xbd3c1649	-0.04591969
135	0xbccb67f0	-0.024829835
136	0x3d161c34	0.03664799
137	0xbd876476	-0.06610958
138	0x3d209359	0.03920302
139	0x3d2a996e	0.04165023
140	0xbd6dc7ce	-0.058051877
141	0x3d870c40	0.065941334
142	0xbd835cd2	-0.064141884
143	0xbdf78fae	-0.120879516
144	0x3c800900	0.015629292
145	0xbd43674f	-0.047705945
146	0xbce9d972	-0.028546069
147	0xbd88cfa1	-0.06680227
148	0x3cb46abb	0.02202355
149	0xbc01a60f	-0.007913127
150	0xbc341a67	-0.010992623
151	0xbcf47443	-0.029840594
152	0xbdcca3aa	-0.09992154
153	0xbd1b0089	-0.037842307
154	0xbda95496	-0.082680866
155	0xbd738fdd	-0.05946337
156	0x3e032b9d	0.12809606
157	0xbc2d0b70	-0.010561809
158	0xbd02fa92	-0.031977244
159	0xbdaf1829	-0.0854953
160	0x3d08bb83	0.03338195
161	0xbd9ee0d5	-0.07757727
162	0xbcd75e1c	-0.026289992
163	0xbe14d649	-0.14534868
164	0xbd5bc173	-0.053651284
165	0xbe285293	-0.1643775
166	0xbd708b72	-0.058726735
167	0xbc3f7e5e	-0.011687843
168	0xbd8d4a79	-0.0689897
169	0xbdf4f21d	-0.11960242
170	0xbcc66cf1	-0.02422187
171	0xbd5e5ae3	-0.054285895
172	0xbd1ae3b0	-0.037814796
173	0xbdc7cafb	-0.09755512
174	0xbd847faa	-0.064696625
175	0xbc9b2917	-0.018940492
176	0xbd522b39	-0.05131075
177	0x3cbc8184	0.023010977
178	0xbd83c05a	-0.064331725
179	0xbdcca317	-0.099920444
180	0xbe03ddf8	-0.12877643
181	0x3de01905	0.10942272
182	0xbdfd48b3	-0.12367382
183	0x3d1a2239	0.037630294
184	0xbdee85b7	-0.11646598
185	0xbe2a22c7	-0.16614829
186	0xbba79d7b	-0.0051152087
187	0xbb15fb7f	-0.00228855
188	0xbde48f61	-0.1116016
189	0x3e1b0ff7	0.15142809
190	0x3d515b7c	0.051112637
191	0xbe2fbd63	-0.17162089
192	0x3d184b23	0.03718103
193	0x3d973340	0.07382822
194	0xbd7ca98c	-0.06168513
195	0xbcc127f4	-0.023578621
196	0x3e0d4442	0.1379557
197	0xbdba69e6	-0.0910223
198	0x3c3a1698	0.011357926
199	0x3ce6f7ca	0.028194327
200	0x3d81d89a	0.063401416
201	0x3d0a06eb	0.033698004
202	0xbcd61904	-0.026134975
203	0x3d998d80	0.07497692
204	0xbdd1f7ad	-0.102523185
205	0xbdad73ac	-0.08469328
206	0xbc97bbdb	-0.018522194
207	0xbc93e470	-0.018053263
208	0x3d0a85ac	0.033818886
209	0x3d9f0393	0.077643536
210	0x3c409e2b	0.01175646
211	0x3d05f24d	0.03270178
212	0xbbfd898a	-0.007737343
213	0x3b0ff50c	0.0021966128
214	0xbc873bdd	-0.016508037
215	0x3cb524a9	0.022112207
216	0xbd437c4c	-0.04772596
217	0xbe05c717	-0.13064228
218	0xbdb97db3	-0.09057178
219	0xbdff91c0	-0.124789715
220	0xbc8e0709	-0.017337339
221	0xbdf9a196	-0.12189023
222	0xbe05a2dd	-0.13050409
223	0xbe0cabde	-0.13737437
224	0xbd0304cd	-0.031987
225	0x3cd0b7a5	0.025478194
226	0x3d8562f7	0.06513017
227	0xbdb7b0d4	-0.08969274
228	0x3d7b5221	0.06135762
229	0x3df5714c	0.119845
230	0x3db2697f	0.08711528
231	0x3e1b3e17	0.15160404
232	0x3dfbf2f1	0.12302197
233	0xbdbb1cc8	-0.09136349
234	0xbdff3d9d	-0.12462924
235	0x3b623370	0.0034515522
236	0xbd92a14c	-0.07159671
237	0xbdd354ee	-0.103189334
238	0xbdbfb76e	-0.09361158
239	0xbd37cdda	-0.04487405
240	0xbdcefc5b	-0.10106727
241	0x3ce6b5de	0.028162893
242	0xbd95b2fa	-0.07309528
243	0x3d8adeb2	0.06780757
244	0x3cc184da	0.023622919
245	0x3d01fbc1	0.03173423
246	0xbd1eee93	-0.03880174
247	0x3cd1c7b5	0.025607923
248	0xbdb375a5	-0.08762673
249	0xbc7c18eb	-0.0153868
250	0xbe264282	-0.16236308
251	0xbdf56e65	-0.11983947
252	0x3db4e755	0.088331856
253	0x3df58fcd	0.119903184
254	0xbd343143	-0.043992292
255	0x3d908973	0.07057466

bias f4 [32]
0	0xbda548e1	-0.08070541
1	0xbd05985e	-0.03261601
2	0xbdcf1015	-0.10110489
3	0xbce35016	-0.027748149
4	0xbda6f2db	-0.0815179
5	0xbd66e7a8	-0.05637327
6	0xbdb4dad2	-0.08830799
7	0xbcb7dee6	-0.022445153
8	0xbd8d36c2	-0.0689521
9	0xbccfe366	-0.025376987
10	0xbd1417a0	-0.036155343
11	0x3c8ad62b	0.016947826
12	0xbdb199fd	-0.08671949
13	0xbd6f147e	-0.058369152
14	0xbd2d2c86	-0.04227879
15	0xbd8e780a	-0.069564894
16	0xbd14e4e2	-0.036351092
17	0xbd0a1612	-0.033712454
18	0xbdaed8e9	-0.08537466
19	0xbd7a280d	-0.06107335
20	0xbdbdc0d6	-0.09265296
21	0xbdaa4e37	-0.083156995
22	0xbd1102a3	-0.035402905
23	0xbc80fd37	-0.015745742
24	0xbd817064	-0.06320265
25	0xbd45631f	-0.048190232
26	0xbd53aa94	-0.051676348
27	0xbd516e30	-0.051130474
28	0xbdbcb86d	-0.09214864
29	0x3b6c80b3	0.0036087453
30	0xbd350e62	-0.04420317
31	0xbdbf170c	-0.09330568

weight f4 [4, 32, 3, 3]
0	0xbdbe3fad	-0.09289489
1	0xbde5ee58	-0.11227101
2	0x3c878eef	0.016547648
3	0xbda0a69f	-0.078442805
4	0x3d12f543	0.03587843
5	0x3cd72d7e	0.02626681
6	0x3b7fa2ab	0.003900687
7	0xbdd8ca40	-0.10585451
8	0x3d385770	0.045005262
9	0x3c9675d8	0.01836674
10	0xbd81192c	-0.06303629
11	0x3c37c7ce	0.011217071
12	0x3d8c21ef	0.0684241
13	0xbd8f5923	-0.06999423
14	0x3dc23768	0.09483224
15	0x3b9566ce	0.0045593744
16	0x3e21c55f	0.15797947
17	0xbcdcacdd	-0.026937896
18	0xbb3e3629	-0.0029023981
19	0x3d82677c	0.06367394
20	0x3e06d63f	0.13167666
21	0x3d68b384	0.056811824
22	0x3d7d16cd	0.061789323
23	0x3e0c95b0	0.13728976
24	0x3c95b209	0.01827337
25	0xbd0f9dfd	-0.03506278
26	0x3dabc096	0.08386342
27	0x3d834cba	0.06411119
28	0xbcb0c216	-0.021576922
29	0x3d8528e6	0.065019414
30	0x3cce661d	0.025195176
31	0xbbe7aea8	-0.007070381
32	0xbb6544fd	-0.0034983747
33	0x3d527f0a	0.051390685
34	0x3dc3e512	0.09565176
35	0xbd4137a3	-0.0471722
36	0xbb3eaf6e	-0.0029096263
37	0xbdc5cbb6	-0.096579954
38	0xbd807271	-0.06271828
39	0xbd8c6391	-0.06854928
40	0xbcecbacd	-0.028897667
41	0x3c8bea47	0.017079486
42	0xbd8ef037	-0.06979411
43	0xbd59df78	-0.053191632
44	0xbd8d6a20	-0.06905007
45	0xbd7527a5	-0.05985226
46	0xbcc3afd7	-0.023887558
47	0xbcc6e403	-0.024278646
48	0x3ddcdf21	0.10784746
49	0xbd1d3be8	-0.03838721
50	0xbd364784	-0.044501796
51	0xbd424ec9	-0.047438417
52	0xbd438cc7	-0.047741678
53	0x3cf56cca	0.029959101
54	0x3de42de8	0.111415684
55	0x3daef29b	0.08542367
56	0x3d84ff1d	0.064939715
57	0x3dad2971	0.0845517
58	0x3db8a1b5	0.09015218
59	0xbd20064f	-0.039068516
60	0x3d4b1fcc	0.04959087
61	0x3cedf148	0.029045716
62	0x3d345143	0.04402281
63	0x3d30b080	0.043137074
64	0x3dad2f43	0.0845628
65	0x3c72330e	0.01478268
66	0xbd890a82	-0.06691457
67	0x3ddd2b22	0.107992426
68	0x3df991ba	0.12185998
69	0x3d8a127a	0.067418054
70	0xbc0f0e46	-0.00873143
71	0xbd01acb8	-0.031658858
72	0x3d80eb2d	0.06294856
73	0xbdb16743	-0.08662274
74	0xbdc0a953	-0.09407296
75	0xbd768c58	-0.060192436
76	0xbc284cc6	-0.01027221
77	0xbd0b97a7	-0.034080174
78	0x3c9c2a94	0.019063272
79	0xbdafc365	-0.085821904
80	0xbd457d24	-0.048215047
81	0x3da425bb	0.08015009
82	0x3c689d43	0.01419765
83	0x3db52496	0.08844869
84	0x3bb7240b	0.0055890135
85	0x3d261654	0.040548638
86	0x3ca911d2	0.02063838
87	0x3bb5b7db	0.005545599
88	0xbdc3cb82	-0.095603004
89	0x3cd8146c	0.026376925
90	0x3d70cffd	0.058792103
91	0xbdd6f341	-0.10495616
92	0x3ccd5d28	0.025068834
93	0x3de3853c	0.11109397
94	0x3d5c82ef	0.053835806
95	0x3cb4bd94	0.022063054
96	0x3e0a5469	0.13508762
97	0x3e5dc6dd	0.21657892
98	0x3d8359a6	0.064135835
99	0x3c665b4e	0.014059855
100	0x3e0cad18	0.13737905
101	0xbcee56c8	-0.029094115
102	0x3d968614	0.07349792
103	0x3de6a89c	0.112626284
104	0xbc052360	-0.00812611
105	0x3bcb61bc	0.006206719
106	0x3ddef019	0.10885639
107	0x3d8556df	0.0651071
108	0x3daa8f8b	0.0832816
109	0x3d197fda	0.037475444
110	0x3cd4c48f	0.025972633
111	0xbd359eeb	-0.04434101
112	0xbcdf55f8	-0.027262673
113	0x3cb8b01c	0.022544913
114	0xbd276254	-0.040865257
115	0xbd0e7483	-0.034779083
116	0x3dfee435	0.12445871
117	0x3d65f49e	0.05614149
118	0xbd73555c	-0.059407577
119	0x3c982ced	0.01857611
120	0xbdd60c4d	-0.10451565
121	0x3d838801	0.06422425
122	0xbdadbef3	-0.08483686
123	0xbd3ddeb4	-0.046354964
124	0xbd14ee4a	-0.036360063
125	0xbd9aac54	-0.075524
126	0x3d6775d7	0.056508865
127	0x3d54f1b8	0.051988333
128	0x3e0c33b0	0.13691592
129	0xbc6088fc	-0.013704535
130	0xbd23ace3	-0.0399598
131	0x3cadf7e0	0.02123636
132	0x3d8560f7	0.06512635
133	0x3d94e9dd	0.072711684
134	0x3c575f0d	0.0131452205
135	0x3d8393ff	0.064247124
136	0xbccd2f23	-0.02504689
137	0xbcc9938d	-0.02460649
138	0x3dc5f17e	0.096652016
139	0x3d490575	0.04907747
140	0x3e008bec	0.12553376
141	0x3d4ac39c	0.049502954
142	0x3ddad0ed	0.10684381
143	0x3d492b37	0.04911348
144	0x3e06fc0f	0.1318209
145	0x3d9e2df9	0.07723612
146	0x3da5341a	0.08066578
147	0x3e09b6f0	0.13448691
148	0x3dbb373b	0.09141394
149	0x3d37ed2e	0.044903927
150	0x3cf97a32	0.030453775
151	0x3cc20e6e	0.023688521
152	0xbcb70737	-0.022342307
153	0xbdc17478	-0.09446043
154	0xbdac51d4	-0.08414045
155	0x3b8e98db	0.004351718
156	0xbd10d612	-0.035360403
157	0xbc14638e	-0.009056939
158	0xbd596d64	-0.05308284
159	0xbda57beb	-0.08080276
160	0xbde70ede	-0.112821326
161	0x3c543f64	0.012954567
162	0x3e00c28a	0.12574211
163	0x3c0a1bcf	0.008429482
164	0x38994693	7.308754e-05
165	0x3e197c1e	0.14988753
166	0x3d9405db	0.07227679
167	0x3ca36044	0.019943364
168	0x3d425e56	0.047453247
169	0x3e0405ad	0.1289279
170	0x3cc8a5cf	0.024493126
171	0x3b2e9ca8	0.0026643667
172	0xbd06ae19	-0.032880876
173	0xbe1e4fe7	-0.15460168
174	0x3d09eb83	0.033671867
175	0xbe1e7c64	-0.15477139
176	0xbdf88a30	-0.12135732
177	0x3ae14ec1	0.0017189608
178	0xbe142fef	-0.1447141
179	0x3cf44826	0.02981956
180	0xbd72fcf5	-0.05932327
181	0xbda5d66d	-0.08097539
182	0xbdf9d2a9	-0.12198383
183	0x3deadda0	0.11468053
184	0x3d9db6da	0.07700892
185	0xbca39c94	-0.019972123
186	0x3dd59674	0.10429087
187	0x3da02f61	0.07821537
188	0xbd8fcceb	-0.07021507
189	0xbd185a0b	-0.037195247
190	0xbc92fa82	-0.017941717
191	0xbcf15824	-0.029460974
192	0xbdcbf804	-0.099594146
193	0xbd9acd6f	-0.075587146
194	0xbdd36a6b	-0.10323032
195	0xbe181558	-0.14851892
196	0x3cdba4d7	0.026812
197	0xbd83e919	-0.06440944
198	0x3da7e189	0.08197314
199	0xbc37be9c	-0.011214878
200	0x3d8fc3cd	0.07019768
201	0x3e0bb35b	0.13642637
202	0x3c6502a0	0.013977677
203	0x3db04f8a	0.08608921
204	0x3d8e1e3e	0.06939362
205	0x3d7c215e	0.06155526
206	0x3c9abca2	0.018888775
207	0xbdc3f298	-0.095677555
208	0x3d4c137c	0.04982327
209	0xbc110c27	-0.008852995
210	0x3c486689	0.012231478
211	0xbd876c9a	-0.06612511
212	0xbdacb7fc	-0.0843353
213	0xbd7e9a5d	-0.06215893
214	0xbd792f31	-0.06083602
215	0xbdfffa18	-0.124988735
216	0xbd79b378	-0.06096217
217	0xbca6c296	-0.020356458
218	0xbd63174d	-0.055442143
219	0xbd228b08	-0.03968337
220	0xbd100dd3	-0.035169434
221	0xbc07b03e	-0.0082817655
222	0xbd978c08	-0.07399756
223	0xbcb542f6	-0.022126656
224	0x3d16bbe2	0.036800273
225	0x3b9a77cf	0.0047139893
226	0x3cca92c2	0.024728183
227	0x3c22ff3e	0.00994855
228	0x3ca1fc2f	0.01977357
229	0x3d94bc84	0.07262519
230	0x3dc95807	0.09831243
231	0x3da3b0f9	0.07992739
232	0x3e303869	0.17209019
233	0x3d9c4a49	0.07631356
234	0xbe198a39	-0.14994134
235	0xbd902ab9	-0.07039399
236	0xbc0152fc	-0.00789332
237	0x3bcc2e19	0.006231081
238	0x3d3aba79	0.04558799
239	0xbd967965	-0.07347373
240	0xbddeecb1	-0.10884989
241	0x3b9d18c1	0.0047942107
242	0x3cb8e74c	0.022571228
243	0xbce82b1e	-0.028340872
244	0xbd9657b6	-0.07340948
245	0x3d086107	0.033295657
246	0x3c95366f	0.018214433
247	0x3d5c70b5	0.053818423
248	0x3e572a48	0.21012223
249	0x3b881a48	0.0041535236
250	0x3ceb6298	0.028733537
251	0x3daebb9f	0.0853188
252	0x3cfba61e	0.03071886
253	0xbda68327	-0.08130484
254	0x3b51db9b	0.0032021764
255	0x3d8b1174	0.06790438

bias f4 [4]
0	0xbb9e154d	-0.0048243166
1	0x3c9b2249	0.018937247
2	0x3cbba323	0.022904938
3	0xbb20646f	-0.0024473926
