super_resolution/checkpoint_scale2/model_epoch_12.pth (torch_old, 247001 bytes, 8 tensors)

weight f4 [64, 1, 5, 5]
000000 4c 1d 5c 3e 17 85 ca bd 37 73 24 be bc 03 1b be
       0.21495551 -0.09888666 -0.16059576 -0.15138143
000010 6f 25 59 3e 27 63 34 bd 73 65 81 be 94 14 60 be
       0.21205686 -0.04403987 -0.25272712 -0.2188285
000020 35 f5 b3 3c 0e b3 3f be 4c 7f e0 be 36 54 55 be
       0.02196751 -0.18720648 -0.4384712 -0.20832905
000030 28 b2 9a be f8 4b 30 be f2 f5 07 bd 17 a8 81 be
       -0.30214047 -0.1721648 -0.033193536 -0.25323555
000040 11 b6 11 be 94 a5 85 bd a8 c2 8a be 64 f1 ef 3d
       -0.14229609 -0.06525722 -0.27101636 0.117159635
000050 0a b4 07 3d ef d4 c7 3c f5 1b 12 be 6f 15 c9 3c
       0.033130683 0.024393527 -0.14268477 0.024546353
000060 66 b7 bd 3d fd 7d 18 be 7c c8 d7 bd d0 7d 8d be
       0.09263496 -0.1489181 -0.10536286 -0.2763505
000070 03 2e 87 3d 0e 9e 23 be 7c 57 95 be 5b 63 bf bd
       0.06600573 -0.15978262 -0.29168308 -0.093451224
000080 b3 6f 54 be 09 09 5b 3d e9 92 01 bd 95 c5 f8 bd
       -0.20745735 0.053475413 -0.031634245 -0.12147061
000090 02 93 86 bd 74 e9 73 be 05 33 22 be 17 77 af 3d
       -0.06571008 -0.23819524 -0.15839775 0.085676365
0000a0 e8 a1 0b 3e 45 74 83 be e7 e9 a8 3c 68 30 8a 3e
       0.13635981 -0.25674644 0.020619346 0.26990056
0000b0 13 8b 3c be 0c ad de bd b6 62 ee bd 02 f3 21 be
       -0.18412428 -0.1087285 -0.11639921 -0.15815356
0000c0 f9 fe c1 bc 00 b2 74 bd cf 1c a8 be c4 91 bd 3d
       -0.02368115 -0.059740067 -0.3283448 0.09256318
0000d0 4a c6 01 bd f3 87 d2 3d 79 07 1a 3e 58 83 82 be
       -0.031683244 0.102798365 0.15041913 -0.25490832
0000e0 84 77 8a bc 7f 1b 8f bd 67 94 96 3d b2 8d e2 be
       -0.016902693 -0.06987666 0.07352524 -0.4424873
0000f0 53 3a 36 3d 64 6b 10 3d 13 48 78 3d df 30 8f bd
       0.044489216 0.035258666 0.06061561 -0.06991743
000100 47 63 99 bc 78 d2 3d be 76 d2 5b be bc f0 1f be
       -0.018724097 -0.18537319 -0.21467003 -0.15619177
000110 f4 05 b1 bd 89 20 4f be f5 49 0d be 44 4c cb 3b
       -0.086437136 -0.20227255 -0.13797744 0.00620416
000120 25 4c 28 be 65 6b 26 3e 62 1c e3 bd 88 d3 57 be
       -0.16435297 0.16251905 -0.11089398 -0.21076787
000130 05 fe 3e be f0 fc 97 3d 72 84 ae bd ac cf 73 be
       -0.18651588 0.07421291 -0.08521356 -0.2380969
000140 96 f2 3d 3d ab f5 a1 3d f0 b6 90 be 2a b9 9a be
       0.046373926 0.079081856 -0.2826457 -0.30219394
000150 a6 c2 c8 be 7d 84 a3 3d f3 82 74 bd 7e f1 54 be
       -0.39211005 0.079842545 -0.059695195 -0.20795247
000160 4f 2c 88 3b 2a 92 b6 be f9 03 0a be 3f f7 6e 3e
       0.0041556726 -0.3565839 -0.13478078 0.23336504
000170 99 f9 8b 3d 01 26 c5 bd 32 95 07 be 58 a1 ea bd
       0.06834716 -0.09626389 -0.13240507 -0.11456555
000180 a7 cc 93 be ec 78 ca bd 96 79 ce bb 69 43 2c be
       -0.28867075 -0.09886345 -0.0063011153 -0.1682259
000190 19 c8 35 be 47 55 70 3e a6 a9 55 3e 77 fa 1b be
       -0.17752112 0.2347003 0.20865497 -0.15232264
0001a0 f2 92 db 3d ba 74 35 3d 2d ca 9e be e7 5b 59 3b
       0.10721387 0.044300772 -0.31013623 0.003316635
0001b0 5d 61 44 3d 6d cc da bb 86 44 ca be 2d 89 98 3c
       0.047944415 -0.0066772015 -0.39505404 0.018620098
0001c0 07 38 87 3d c0 0b 14 be 70 44 41 be f8 66 79 bc
       0.06602483 -0.14457607 -0.18873763 -0.015222304
0001d0 98 c3 33 bd e0 69 94 be f0 e0 80 3e 43 c9 ad 3d
       -0.043887705 -0.28987026 0.25171614 0.08485653
0001e0 3f f1 85 be 8d b5 55 bd 12 0e c2 bd 6b 2a a8 be
       -0.2616062 -0.052175093 -0.0947534 -0.32844862
0001f0 af 4e 59 be 56 4a aa bd 3e 59 e2 bd c8 30 86 3a
       -0.21221422 -0.0831496 -0.11052178 0.0010237927
000200 f2 ab b3 bc c0 78 83 bd d3 bf a1 3d ce e9 82 3e
       -0.021932576 -0.064195156 0.07897916 0.25569004
000210 ef d6 1d 3e 66 93 e0 3d 08 3e f5 bd e9 c3 88 bd
       0.15414022 0.10965614 -0.11974722 -0.06677992
000220 52 22 d3 be f2 c2 34 3d 32 82 b7 3e 33 ac 96 be
       -0.41237122 0.044131227 0.3584152 -0.29428253
000230 11 d9 8e bb 26 d5 00 be 0a 11 1a bf a9 f0 0a be
       -0.0043593724 -0.1258131 -0.6018225 -0.13568367
000240 d5 93 cf bc 22 fb e1 bd 47 7d f1 bc 85 97 70 be
       -0.025339046 -0.11034228 -0.029478682 -0.234953
000250 62 8b 37 3e ff e8 68 3e 20 57 55 3c 9d 65 94 bd
       0.17924264 0.22745131 0.0130212605 -0.07245944
000260 5a 01 60 3e 63 09 72 be 7e c3 83 be 44 fc d5 bd
       0.21875516 -0.23636393 -0.25735086 -0.104485065
000270 93 68 52 3e 2d 65 3d 3e d5 0a 66 3d 7e db ba 3d
       0.20547704 0.18495627 0.056162674 0.09123896
000280 3d 5f 11 3e 9a 62 d2 3d 44 29 d8 be 47 df cc be
       0.14196487 0.10272713 -0.42218983 -0.40014097
000290 6a 06 83 3e 01 37 d6 3d 0c 54 94 bd 89 bd 54 be
       0.2559083 0.1045971 -0.07242593 -0.20775427
0002a0 d9 eb a5 be 88 06 a9 bc 49 55 6e be 08 ca 7c 3e
       -0.324065 -0.020632997 -0.23274721 0.24686444
0002b0 97 dd 8a be 2f dc e0 3b 5b af 75 bd 42 91 f0 bd
       -0.27122185 0.0068621854 -0.059981685 -0.11746456
0002c0 53 d4 2a bc 5b 1c e5 3d 6a 99 12 be ce 63 94 be
       -0.010426599 0.11187049 -0.14316335 -0.28982395
0002d0 77 9b d1 3c 99 8c 16 be b0 17 f9 3e f4 f5 c7 3d
       0.025586827 -0.14702071 0.48650885 0.09763709
0002e0 06 df 8f 3e 1b d1 5b 3d fe df 34 3e b5 88 8e 3b
       0.2809984 0.053666215 0.17663571 0.004349793
0002f0 2c 32 ef 3c 94 1a 8f bd 59 e5 04 be af fe 3b bc
       0.029198729 -0.06987491 -0.12978114 -0.0114742955
000300 f1 e9 85 be 82 15 83 be 17 38 1c be 65 d4 a2 3e
       -0.26155046 -0.25602347 -0.15255772 0.3180267
000310 90 63 c4 be 92 ca 1b 3e 64 06 78 be 14 42 32 be
       -0.3835721 0.15213993 -0.24221188 -0.1740802
000320 55 dc 60 3e ab 74 43 3e 35 48 06 3e 32 f6 7f be
       0.2195905 0.19087474 0.13113482 -0.2499626
000330 8f d9 17 bb 2c f4 2c bd 8b 99 a1 3e 18 d7 a9 be
       -0.0023170447 -0.042225048 0.31562456 -0.33171916
000340 20 06 31 3e 90 c4 f6 bc 6b 39 b1 be 70 80 b9 3e
       0.17287493 -0.030123025 -0.3461412 0.36230803
000350 4d ae 01 be 0f c5 6c be aa c2 83 be 30 7e d2 bc
       -0.12664147 -0.23122047 -0.25734454 -0.025694937
000360 72 82 d4 bb e2 96 14 3e 6b 7f 4d be b2 55 24 3e
       -0.006485277 0.14510682 -0.20068137 0.16048315
000370 50 d4 06 3f f0 8e 7c 3b 6b c4 93 bd 4f 19 76 3e
       0.52667713 0.0038537346 -0.07215198 0.24033092
000380 d0 43 3f 3e c1 b0 6b 3e a2 cc 97 be a5 05 1b 3e
       0.18678212 0.23016645 -0.2964831 0.15138872
000390 01 9f 2b be 58 59 21 3e 52 a4 54 3e 9c c7 35 3e
       -0.16759874 0.15756738 0.20765808 0.17751926
0003a0 9e c0 37 be 66 37 e0 bb 07 65 40 be 95 2e cb 3d
       -0.17944571 -0.0068425415 -0.18788539 0.09920994
0003b0 42 9b ca 3d 46 01 59 3e ef 7e 90 be b9 2f b7 bd
       0.09892894 0.21191892 -0.28221843 -0.08944649
0003c0 81 44 e9 bc c2 b1 c0 bd d4 62 be bc a5 e1 0d 3e
       -0.028475048 -0.094089046 -0.023240484 0.13855608
0003d0 34 c9 12 be 95 32 2b bd e3 6b 72 be 82 5a 3c 3e
       -0.14334565 -0.041796286 -0.23673968 0.18393901
0003e0 9a 30 58 be 1b 5e 55 bd d3 1d 2f be 44 bb 03 be
       -0.2111229 -0.0520917 -0.17101221 -0.12864405
0003f0 f4 06 4b be c4 6c 0e bf 25 b6 c1 3d f4 0a 34 bd
       -0.19826871 -0.55634713 0.094585694 -0.04395576

bias f4 [64]
000000 7b f2 7e 3c be b5 b6 3c 06 47 6a be d2 ec b5 bd
       0.015560742 0.022303458 -0.22878656 -0.088830605
000010 01 34 c8 bd 8b 18 78 3d 18 17 be 3d c2 be 9a bc
       -0.09775544 0.06057028 0.092817485 -0.018889789
000020 4d 1a 2a be 77 ef 65 be 2b 0e 0d 3e cd 16 f3 3d
       -0.16611595 -0.2245463 0.13774936 0.11869583
000030 63 98 ad 3d dc bb 07 be 05 3e 1e be 1f 86 35 3d
       0.08476331 -0.13255256 -0.15453346 0.04431736
000040 f8 5a 51 bd 51 d0 22 bc 19 15 6c be 58 21 f6 3d
       -0.051112145 -0.009937362 -0.23054923 0.120180786
000050 22 b1 19 3d 8f e6 1b 3e d7 10 7d 3d c3 13 18 3d
       0.037522443 0.1522467 0.061783638 0.03712822
000060 39 5b 32 bd 4f 78 5b be d1 55 3e be d5 05 90 bd
       -0.043544028 -0.21432613 -0.18587424 -0.07032362
000070 7a 25 92 3d 8e ee 3a bd 86 46 56 3d 1d a0 0e bd
       0.07136054 -0.04563766 0.05231335 -0.034820665
000080 e3 73 d2 bd 37 43 02 bd 26 d1 48 bd 4f ad 16 be
       -0.1027601 -0.031802382 -0.049027584 -0.1471455
000090 43 50 70 3c e1 37 a1 3d 4c 86 be 3d e5 40 98 bd
       0.014667573 0.07871986 0.09302959 -0.07434253
0000a0 4a 44 5b be ac 7f da 3d f5 16 83 bd 8c cd 4e bd
       -0.21412769 0.10668883 -0.06400863 -0.050488994
0000b0 81 0b f3 bb e3 ed 91 bd ca 49 e4 bc 4b 95 98 3d
       -0.007417143 -0.071254514 -0.027867217 0.074503504
0000c0 b9 98 21 3d 74 b1 73 be 53 e3 1d be f3 41 a3 bd
       0.03945229 -0.23798162 -0.15418749 -0.07971563
0000d0 9c 04 46 bc 2f 94 06 3d 4d 5f 02 be 14 7f 5b be
       -0.01208606 0.032856163 -0.12731667 -0.21435195
0000e0 92 40 f8 3d 89 e3 45 be ef 82 62 be 0e ea de 3d
       0.12121691 -0.19325079 -0.2212026 0.10884486
0000f0 d2 24 1b 3e e8 b5 b0 3c 42 4a 3f be 93 1e 2c be
       0.15150765 0.021571115 -0.18680671 -0.16808538

weight f4 [64, 64, 3, 3]
000000 cd b5 7a bb 91 bb 11 bd 83 72 d3 bd 10 ef 07 3c
       -0.0038255334 -0.035579268 -0.10324576 0.008296743
000010 64 7b 88 bd 97 45 75 3c 3c 23 75 bb 37 67 d9 bc
       -0.0666416 0.014970205 -0.0037405035 -0.026538474
000020 d9 e8 9d bd be d5 ba bd 2b 3d 3e 3c 47 a9 11 be
       -0.07710428 -0.09122799 0.011611263 -0.1422473
000030 b6 b9 04 3c a1 5e cf bd c6 1a c7 bd 66 69 ad bd
       0.008100918 -0.10125471 -0.097219035 -0.08467369
000040 c7 df 49 bd c8 e3 ee bd 70 4f f8 bd 60 d9 ed bd
       -0.049285676 -0.116645396 -0.121245265 -0.116137266
000050 ab b3 b4 bd 51 9b 04 be 9f cd 04 be ed e5 80 bd
       -0.088233314 -0.12949874 -0.12969063 -0.06293855
000060 f7 f0 47 bd 12 e3 df bd 53 53 07 be 44 ac 90 bc
       -0.048813786 -0.10931982 -0.1321538 -0.017660268
000070 54 68 17 bd 4b 7d fa bd f7 d2 da 3d 01 c4 e5 3d
       -0.03696473 -0.12230929 0.106847696 0.112190254
000080 ab b0 00 bc 2e 9a 5e bd c4 a9 7a bd dc 4c 1b bc
       -0.007854621 -0.054346256 -0.061197057 -0.009478774
000090 ad 7b 16 be bb 97 a3 3c f0 69 da bd 60 4b 2d bd
       -0.14695616 0.019969812 -0.10664737 -0.04230821
0000a0 4d b0 99 3d eb ce 69 bd 53 3a 6c 3d 1c e9 9c 3d
       0.0750433 -0.057082098 0.05767281 0.076616496
0000b0 90 5e 3a bc e5 82 00 be fd 1a c4 bd 44 db a3 bd
       -0.0113750845 -0.12549932 -0.0957546 -0.08000806
0000c0 fa 2d 54 3c ca 6d da bd 5d 4a 7b bc 19 a4 10 be
       0.012950415 -0.10665472 -0.015337554 -0.14125098
0000d0 70 0d a3 bd fb f5 dc bc af 3a 91 bd 4b a9 01 be
       -0.079615474 -0.026972761 -0.07091271 -0.12662236
0000e0 dd 18 5a bd 31 95 a3 bd 67 c5 97 3c 20 bb f1 bd
       -0.053246368 -0.079874404 0.018526746 -0.118032694
0000f0 6f 6b 50 3d 8c 3f 87 3a 93 40 93 bd 7b 7e 91 bd
       0.050883707 0.0010318621 -0.07190051 -0.07104202
000100 4e 41 9f bd b1 2c 03 3d f0 bd 25 3c 88 68 3b bc
       -0.07776128 0.032025043 0.010116085 -0.011438496
000110 b2 5a ba bd 6d 08 e1 bd 79 cb 99 bd 7a af 01 bd
       -0.0909933 -0.10987935 -0.075095125 -0.031661488
000120 fc f1 2d be 8b bb 55 bd 66 1d 7a bc 67 07 09 bd
       -0.16986841 -0.052180808 -0.015265798 -0.033454325
000130 93 d8 ab bd 37 da 48 bd 97 2f ae bc f3 8a 11 be
       -0.08390918 -0.04903623 -0.021262927 -0.14213161
000140 cf ff 9c 3c b3 d7 a2 bd 6c e5 c3 3c 48 ce 11 bd
       0.019164948 -0.079512976 0.023913108 -0.035597116
000150 c9 95 16 3d fb 67 00 be 98 89 e6 bd cd b7 a1 bd
       0.03676394 -0.12539665 -0.11256713 -0.07896385
000160 44 e9 de bd 6d 20 3e bd 23 b7 84 bd 96 67 45 bd
       -0.10884336 -0.046417642 -0.06480243 -0.04819449
000170 16 f1 c2 bd e0 7c dc bd 45 bb 87 bd 44 46 a4 3a
       -0.0951864 -0.107660055 -0.06627516 0.0012533148
000180 d6 0b 37 be 30 8d 47 bd ec 01 88 bd b3 61 01 3d
       -0.17875609 -0.04871863 -0.066409916 0.031587314
000190 33 02 9d bc 86 9c b4 3d e1 bf a4 3d a3 17 32 bc
       -0.019166088 0.08818917 0.080444105 -0.010869893
0001a0 8d 7d 8c bd b1 b7 f3 bc 6a aa 90 bd 79 f3 8f 3d
       -0.068598844 -0.029750677 -0.07063754 0.070288606
0001b0 17 db e7 3b 16 9b 34 3c 0a 6a dc bb b6 38 07 bd
       0.007075678 0.0110233035 -0.006726508 -0.03301307
0001c0 7e 73 53 bd 27 05 7b bc 34 09 a8 3d ec ed 24 3d
       -0.051623814 -0.015321053 0.0820488 0.040265962
0001d0 ec 0b 73 bd d3 3b cd bd 35 5b e1 bd 48 ef a6 3d
       -0.05933754 -0.10021176 -0.110037245 0.08151108
0001e0 25 fc b1 bd ba 94 a6 bc e4 c3 0f be f4 11 5a be
       -0.08690671 -0.02033459 -0.1403957 -0.21295911
0001f0 71 8a e2 bd 3c 9d 11 be 3b 64 40 bc f1 a3 1c 3d
       -0.11061562 -0.14220136 -0.011742647 0.038242284
000200 47 f9 65 bd dd 76 37 be fa f8 d0 3c cd 74 79 bd
       -0.056145933 -0.17916436 0.025509346 -0.060902406
000210 23 0e b8 bd 9a ee 1a 3c 48 11 b5 bd 62 83 90 bd
       -0.08987071 0.009456301 -0.08841187 -0.07056309
000220 c0 26 c7 bc aa 18 86 3a c6 c1 9c bd e5 2e 43 bd
       -0.02431047 0.0010230739 -0.07654147 -0.047652144
000230 58 5e 14 3d 7c 0d 79 bd b9 7c 04 bc 5a 61 17 bc
       0.036222786 -0.060803875 -0.008086377 -0.009239519
000240 99 45 92 bd ac 24 4c be 89 03 26 bc 18 07 0f bd
       -0.07142181 -0.19935864 -0.010132679 -0.034918875
000250 fd 40 0b be 38 4a f0 bd ff d0 f1 bd ab a0 30 bd
       -0.1359901 -0.11732906 -0.11807441 -0.043121975
000260 f0 56 b7 bd 5a f4 fe bc 1d 46 1f bc 4c d6 c8 bd
       -0.08952129 -0.031122375 -0.009721306 -0.09806499
000270 aa 04 24 be 28 aa 8b bd 1e 2f 39 bc 70 2a 16 be
       -0.16017404 -0.06819564 -0.0113027375 -0.14664626
000280 ec 27 47 bd 16 25 15 be 04 cb 0d 3d 9b 96 23 be
       -0.048622057 -0.14564928 0.03461744 -0.1597542
000290 84 76 82 bd 71 7a d6 bc 3f 14 d9 bd 8a ca c0 bd
       -0.06370261 -0.026181431 -0.10599565 -0.09413631
0002a0 2d 80 82 bd 3b e3 09 3c 45 6d 65 bd be a2 e2 bd
       -0.06372104 0.008415992 -0.05601241 -0.11066197
0002b0 0a 9b b6 bd 76 fd 43 bd 38 d7 eb bb 96 9b 29 bd
       -0.0891629 -0.04784914 -0.007197287 -0.041408144
0002c0 27 a0 5c bd f1 cf cb bd 49 66 e6 bc 55 21 88 3c
       -0.05386367 -0.09951771 -0.028124945 0.016617456
0002d0 b6 45 9a bc 98 43 e3 bb 7e 33 86 3c 39 09 8d bd
       -0.018832069 -0.006935548 0.016381975 -0.06886525
0002e0 33 15 07 bd 4b 6b f8 bc a4 9c b5 bd ee e7 ef bc
       -0.0329792 -0.030324599 -0.088677675 -0.029285397
0002f0 7c bb 2a bc 0a ac b8 ba bf 4f 0c 3d d5 25 af bd
       -0.010420676 -0.0014089358 0.03425574 -0.08552138
000300 8e 8f 6b 3c 59 d4 7b bd 23 98 5d 3d e1 eb ff bd
       0.014377488 -0.061481807 0.054100167 -0.12496162
000310 c3 84 e2 bd ce 34 1b bd 52 dc 85 bd fa 2f 4f bd
       -0.110604785 -0.037892155 -0.065361634 -0.050582863
000320 f2 b6 a1 bd 3f 9a 70 bd 2a 42 5f bc c9 57 ca bd
       -0.07896222 -0.05874085 -0.013626615 -0.09880025
000330 81 0c ca bd 9a 49 1b 3d 38 85 d8 3c 66 fd a8 bd
       -0.09865666 0.03791199 0.026430711 -0.08251457
000340 a7 14 dd bc 0b b6 98 bd 9e f6 b0 bd 9b 8e be bd
       -0.026987387 -0.07456597 -0.086407885 -0.093045436
000350 40 d3 bd bd 6d 58 c2 bd ac 5f 72 bd c5 01 dc 3b
       -0.09268808 -0.09489522 -0.05917327 0.006714078
000360 5e b3 de bd 8c cf b2 bd cc f3 1a be da 1e 0d bd
       -0.10874055 -0.08730993 -0.15132064 -0.03445325
000370 ca ce 9a 3c 0b f5 0e be 05 b1 b9 bd 61 2c ae bd
       0.018897433 -0.13960664 -0.09066967 -0.08504558
000380 09 a7 cb bc d2 27 a9 bd 25 2e 1d 3d 0b 9d 4f bd
       -0.024859922 -0.08259548 0.038374085 -0.050686877
000390 8e 5e 51 bd 84 d1 2b bd b3 8c f9 bd 65 5f 5e bd
       -0.051115565 -0.041947857 -0.12185039 -0.054290194
0003a0 2c 7f 43 bd ae f1 a1 bd 8e 67 c6 3d 07 66 13 bd
       -0.047728702 -0.07907425 0.0968772 -0.035985973
0003b0 e6 e9 1c 3c 90 b4 40 3c fa 59 56 3b 91 9c f1 bd
       0.00957725 0.011761799 0.0032707439 -0.11797441
0003c0 8d 83 41 3d 23 74 32 bd a9 4e 97 3d 53 08 bd 3b
       0.047244597 -0.043567788 0.0738805 0.0057688146
0003d0 d8 8b 25 3d d0 e6 8e bd f3 09 ca bd b4 58 e2 bd
       0.04041657 -0.06977618 -0.09865179 -0.11052075
0003e0 77 11 16 3d 08 0e e1 3c 10 96 d4 b9 e2 9e c9 bd
       0.03663775 0.027472511 -0.00040547596 -0.098447576
0003f0 d9 bb e2 bd d9 46 11 be e1 74 15 be 1b 6d 38 bd
       -0.11070985 -0.14187182 -0.14595367 -0.045025926

bias f4 [64]
000000 fa b1 00 bd 4b f4 2a bd af b0 21 bd f8 11 3b bd
       -0.03141973 -0.041736882 -0.03947514 -0.045671433
000010 6a 9a 4a bd ce b5 f4 bc cd 8a 9b bd 8a 4c b6 bd
       -0.049463667 -0.029871847 -0.075948335 -0.089013174
000020 2b 61 0c bd 0a 11 b6 bd 97 ac 87 bd 59 9d 9d bc
       -0.034272354 -0.08889969 -0.06624716 -0.019240068
000030 79 43 a8 3c 7c 83 93 bd 5f 8e 38 bd d4 43 68 bd
       0.020539986 -0.07202813 -0.04505765 -0.05670531
000040 2c 2c 8b bd 37 fb a4 39 62 d8 21 3d 28 96 21 bd
       -0.067955345 0.00031467687 0.039513 -0.03944984
000050 a7 fc 7c bd 5d ef c5 bd fd 2d 97 bd 6b 46 05 bd
       -0.061764386 -0.096647955 -0.073818184 -0.03253786
000060 ae 03 96 bd a0 f9 07 bd 03 61 94 bd 93 4f 47 bd
       -0.073249206 -0.033197045 -0.07245066 -0.048659872
000070 6e bb 3f bd 32 95 fe bc 14 6f 97 bd 7a 37 99 bd
       -0.046809606 -0.031077001 -0.07394233 -0.074812844
000080 ba 71 39 bd 6c a1 25 bc ae f2 6a bc 1d 65 c1 bd
       -0.045274474 -0.010109287 -0.014340086 -0.09443114
000090 40 13 58 bd c1 7d ee bc 63 34 bf bd 6b 3e 05 3d
       -0.052752733 -0.029112699 -0.09336164 0.03253023
0000a0 cd ff f8 bc ee 48 b6 bd d8 da bc bc a7 39 1e bd
       -0.030395413 -0.08900629 -0.023053572 -0.0386292
0000b0 69 16 9a bd ab 9f 95 bd de 1a 8e bd 31 ce 01 bd
       -0.07523806 -0.07305845 -0.06938718 -0.03169078
0000c0 f9 b5 83 bd 35 ea 8a bd 2d 77 75 bd 60 38 fb bc
       -0.06431193 -0.06782953 -0.059928108 -0.03066653
0000d0 65 5c 55 bd b1 b8 0a bc fa 86 a4 bd c4 cb e8 bc
       -0.052090067 -0.008466885 -0.08033557 -0.028417476
0000e0 56 77 b0 bd 8d 31 99 bc 59 e4 ae bc 11 86 41 bd
       -0.086165115 -0.018700385 -0.021349119 -0.047246996
0000f0 12 15 f5 bc 69 95 22 bc ed 4c 71 bd d7 d9 96 bd
       -0.029917274 -0.0099233175 -0.058911253 -0.073657684

weight f4 [32, 64, 3, 3]
000000 67 e8 dd 3d 3a aa 31 bc 48 b6 f3 3b f0 3b ef 3c
       0.10835343 -0.010843808 0.007437501 0.029203385
000010 e4 de a4 bd 7e 57 38 be c5 cf 45 3d c6 48 16 bc
       -0.080503255 -0.18002126 0.048293848 -0.009172624
000020 d2 dd a8 b9 26 2b ef 3c 40 75 de 3d ea e6 af bd
       -0.00032208726 0.02919538 0.108622074 -0.08588965
000030 ca 32 e3 bc 2f 4f 8b 3c c9 e7 76 bc cb 64 dc bc
       -0.027734179 0.017005531 -0.01506991 -0.02690353
000040 bf 26 9e 3d 2a 83 42 bd 09 96 e6 bd 23 96 ba bb
       0.07722234 -0.04748837 -0.11259086 -0.005694167
000050 28 3a a0 ba db 32 b7 bb 1e f2 89 bd 0f 05 9e bd
       -0.0012224363 -0.0055907792 -0.06735633 -0.077158086
000060 03 95 6f bd 98 88 18 be 67 53 39 be 4c 27 53 3e
       -0.058491718 -0.14895856 -0.18098222 0.2062046
000070 07 0e 81 bc 63 ab 92 3c 4b 79 04 3d f7 d0 ab bc
       -0.01575376 0.01790399 0.032342236 -0.020973666
000080 dd 87 a0 bc 10 1f e0 3b 92 68 f6 bc 6b 5d 93 bd
       -0.019596035 0.0068396404 -0.03007916 -0.071955524
000090 7b 11 a6 ba e4 c8 a2 3d cf 77 db bd 82 30 8c bd
       -0.0012670005 0.07948473 -0.10716211 -0.0684519
0000a0 5c a2 be bd 4f 58 84 bd 32 9b 8c bd 71 ff c0 bd
       -0.09308311 -0.06462156 -0.06865539 -0.094237216
0000b0 68 18 9e bc 27 f9 e3 bc 4d f5 6f bd ed 50 1a bd
       -0.019298747 -0.027828766 -0.058583546 -0.037674833
0000c0 77 3c 28 bc 17 5a 2b bb 52 c3 d8 bc 2e a8 9b bd
       -0.010268322 -0.0026146227 -0.026460323 -0.07600437
0000d0 7c 4c 44 bc 4f 94 ca bd 2c 4e 1d be 02 1e a6 3c
       -0.011981126 -0.09891569 -0.15361851 0.02027798
0000e0 db e3 8d 3d fc c0 42 bb ca d7 11 bc e1 ba fe bd
       0.069282256 -0.0029717078 -0.008901546 -0.12437988
0000f0 1c 55 c7 bc 42 80 90 3d 18 2e 5e bd 0c 49 d1 3d
       -0.024332576 0.07055713 -0.054243177 0.10219011
000100 cc 66 2f 3d 8e bc 55 3c d7 2c 11 3e 25 30 b1 3d
       0.042822644 0.013045443 0.14177261 0.08651761
000110 fc 36 7e bd 08 03 a7 3d 83 f6 0a bd ab 9b 34 be
       -0.062064156 0.08154875 -0.0339265 -0.17637508
000120 fb eb a0 3d f2 7a d5 3d d6 31 bd bd ce 11 60 3d
       0.0785751 0.104238406 -0.09238021 0.05470448
000130 a6 d3 bd bc 17 40 a0 bd e8 89 7d bd 52 ec 85 3d
       -0.02317221 -0.07824724 -0.061899096 0.06539215
000140 f8 21 41 be 23 7a 0b 3e bc f6 e0 3c 52 64 00 be
       -0.18860614 0.1362081 0.027461402 -0.12538269
000150 c4 fe 13 3c 44 66 51 bd 86 85 2f bd 31 5c 82 3d
       0.009032909 -0.05112292 -0.042851947 0.0636524
000160 98 3f 39 bd 16 44 f6 bd e3 87 5d bb d3 17 5c bd
       -0.045226663 -0.12024705 -0.0033802919 -0.053733658
000170 46 e7 bc 3d 64 1e d6 3a 85 a8 95 bd 49 3c 90 bd
       0.092237994 0.0016335961 -0.07307533 -0.070427485
000180 65 b7 74 bb cf 62 51 bc 64 14 4f 3d ca aa 44 3c
       -0.0037340757 -0.012779905 0.050556555 0.01200361
000190 83 a5 43 bd 26 c9 cf bd ba e7 e1 3d ab 37 58 3c
       -0.047765266 -0.10145788 0.110305265 0.013196866
0001a0 53 36 93 bc bb 49 1a 3e 52 f3 0f be 59 47 47 3d
       -0.01797024 0.15067188 -0.14057663 0.048652027
0001b0 12 82 03 bd 1e 98 96 bc c4 40 19 3c cc 94 ee bd
       -0.032106467 -0.018383082 0.00935382 -0.116494745
0001c0 17 c4 82 3c 32 7b 2b be 57 5d b8 bd 8b a2 32 be
       0.015962644 -0.16746214 -0.09002178 -0.17444818
0001d0 ee 93 05 be 03 79 7d 3d e9 b1 d9 3d 13 3d a5 bc
       -0.13044712 0.061882984 0.10629637 -0.020170724
0001e0 54 50 07 3d 4f a8 2c be bd 18 90 bd 95 88 d4 bb
       0.03303559 -0.1686108 -0.070359685 -0.0064860084
0001f0 fd 28 f2 bd f5 35 12 be 82 f6 32 3b 20 2f 50 bd
       -0.11824224 -0.14278395 0.0027307575 -0.050826192
000200 f6 82 a5 3b f5 e8 68 bd cf 0a e6 bc 61 25 0b 3d
       0.005051012 -0.05686279 -0.028081326 0.033971194
000210 6d bc 43 bc 38 77 84 3d e2 15 3c bd a5 5c cb bc
       -0.01194678 0.06468052 -0.045919307 -0.02482445
000220 5d 23 16 3d 1f 61 87 bd a7 8f 20 3d 8f a0 2a 3d
       0.03665482 -0.06610321 0.039199498 0.041657027
000230 17 c1 6d bd c8 09 87 3d 45 59 83 bd 75 8c f7 bd
       -0.058045473 0.065936625 -0.06413511 -0.12087337
000240 6e 19 80 3c 1a 5f 43 bd 04 c9 e9 bc 8b cb 88 bd
       0.015637126 -0.047698118 -0.028538235 -0.06679448
000250 29 7b b4 3c 31 85 01 bc 8a f9 33 bc d6 63 f4 bc
       0.022031384 -0.00790529 -0.010984788 -0.029832762
000260 94 9f cc bd 56 f8 1a bd 80 50 a9 bd a7 87 73 bd
       -0.099913746 -0.037834488 -0.08267307 -0.05945554
000270 a6 2d 03 3e 98 ea 2c bc 5c f2 02 bd 13 14 af bd
       0.12810382 -0.010553978 -0.031969413 -0.08548751
000280 b6 c3 08 3d bf dc 9e bd a2 63 d7 bc c0 d4 14 be
       0.03338977 -0.07756948 -0.026292626 -0.14534283
000290 1f bd 5b bd 8a 50 28 be 32 83 70 bd 75 5d 3f bc
       -0.053647157 -0.16436973 -0.058718868 -0.011679997
0002a0 75 46 8d bd e9 ed f4 bd 59 5c c6 bc b6 52 5e bd
       -0.06898204 -0.1195944 -0.024213957 -0.054278098
0002b0 83 db 1a bd e5 c6 c7 bd 97 7b 84 bd b5 18 9b bc
       -0.037807 -0.09754733 -0.064688854 -0.01893268
0002c0 03 23 52 bd e6 91 bc 3c 47 bc 83 bd 01 9f cc bd
       -0.05130292 0.023018789 -0.064323954 -0.09991265
0002d0 f8 db 03 be 05 1d e0 3d 9d 44 fd bd 4f 2a 1a 3d
       -0.1287688 0.10943035 -0.123666026 0.037638005
0002e0 bb 81 ee bd be 20 2a be e6 5c a7 bb 07 7c 15 bb
       -0.11645838 -0.16614053 -0.00510751 -0.0022809522
0002f0 4b 8b e4 bd 25 0e 1b 3e 22 54 51 3d e9 bb 2f be
       -0.111593805 0.15142114 0.051105626 -0.17161526
000300 ca 43 18 3d 97 2f 97 3d 19 a3 7c bd a7 36 c1 bc
       0.037174024 0.07382124 -0.06167898 -0.02358563
000310 70 42 0d 3e 25 67 ba bd 75 37 3a 3c 39 08 e7 3c
       0.13794875 -0.091017045 0.011365761 0.028202163
000320 b0 dc 81 3d 1f 0f 0a 3d 95 08 d6 bc 96 91 99 3d
       0.06340921 0.033705827 -0.02612714 0.074984714
000330 97 f3 d1 bd 96 6f ad bd 6c ab 97 bc cc e3 93 bc
       -0.10251539 -0.08468549 -0.018514358 -0.018052958
000340 ac 85 0a 3d 93 03 9f 3d 49 9e 40 3c 4d f2 05 3d
       0.033818886 0.077643536 0.011756488 0.03270178
000350 8a 89 fd bb 9a f5 0f 3b dd 3b 87 bc a9 24 b5 3c
       -0.007737343 0.0021966458 -0.016508037 0.022112207
000360 5e 7d 43 bd 04 c7 05 be 33 7d b9 bd 26 8f ff bd
       -0.04772698 -0.130642 -0.09057083 -0.12478475
000370 d4 fa 8d bc 85 9e f9 bd 24 a3 05 be 6b aa 0c be
       -0.017331518 -0.12188438 -0.13050514 -0.13736884
000380 25 ff 02 bd e0 a8 d0 3c 4a 5f 85 3d da ad b7 bd
       -0.031981606 0.02547115 0.065123156 -0.089687064
000390 c2 4a 7b 3d 9f 6d f5 3d 01 6c b2 3d 45 3c 1b 3e
       0.06135059 0.11983799 0.08712006 0.1515971
0003a0 44 ef fb 3d 1d 1a bb bd 5d 3a ff bd e0 a5 62 3b
       0.12301496 -0.0913584 -0.12462304 0.0034583732
0003b0 10 9e 92 bd ca 51 d3 bd e8 b3 bf bd 10 c7 37 bd
       -0.07159054 -0.103183344 -0.09360486 -0.044867575
0003c0 3a fb ce bd a7 c3 e6 3c a5 af 95 bd 85 e2 8a 3d
       -0.101065114 0.028169466 -0.07308892 0.067814864
0003d0 6c 94 c1 3c 4d 03 02 3d a5 e6 1e bd b2 d8 d1 3c
       0.023630343 0.03174143 -0.03879418 0.025616024
0003e0 b1 71 b3 bd df fc 7b bc 68 40 26 be 9c 6a f5 bd
       -0.08761919 -0.015380113 -0.16235507 -0.11983225
0003f0 aa e3 b4 3d 27 8c f5 3d f8 2d 34 bd c9 85 90 3d
       0.08832486 0.119896226 -0.04398915 0.070567675

bias f4 [32]
000000 e0 44 a5 bd 00 91 05 bd 66 0c cf bd 48 41 e3 bc
       -0.080697775 -0.032608986 -0.10109787 -0.02774109
000010 d4 ee a6 bd 3e 78 66 bd 23 d7 b4 bd 0e d0 b7 bc
       -0.081510216 -0.056267016 -0.088300966 -0.022438075
000020 a4 32 8d bd 9b d4 cf bc 3e 10 14 bd 3f 39 86 3c
       -0.068944246 -0.025369933 -0.036148302 0.016384719
000030 4e 96 b1 bd 4b 0b 6f bd 24 25 2d bd 5b 74 8e bd
       -0.086712465 -0.05836038 -0.04227175 -0.06955787
000040 80 dd 14 bd dc 0d 0a bd 3a d5 ae bd 8a 1f 7a bd
       -0.03634405 -0.033704624 -0.085367635 -0.061065234
000050 71 b9 bd bd 1e 4a aa bd 41 fb 10 bd 82 dd 80 bc
       -0.09263886 -0.08314918 -0.035395864 -0.015730623
000060 36 6c 81 bd ba 5b 45 bd 9d 9a 53 bd ce 66 51 bd
       -0.06319468 -0.04818318 -0.051661123 -0.051123433
000070 e0 b4 bc bd df 96 60 bb d5 d1 3a bd df 0e bf bd
       -0.09214187 -0.0034269614 -0.045610268 -0.09329008

weight f4 [4, 32, 3, 3]
000000 98 3b be bd 51 ea e5 bd 43 9f 87 3c 8e a2 a0 bd
       -0.0928871 -0.11226333 0.016555434 -0.07843505
000010 5c fd 12 3d d0 3d d7 3c c3 12 80 3b 37 c6 d8 bd
       0.035886154 0.026274592 0.0039084866 -0.105846815
000020 96 5f 38 3d ee 67 96 3c a4 1c 81 bd 71 ac 37 3c
       0.045013033 0.018360104 -0.06304291 0.011210547
000030 79 1e 8c 3d 91 5c 8f bd 04 34 c2 3d b7 36 95 3b
       0.0684175 -0.070000775 0.094825774 0.0045536417
000040 fa c3 21 3e 02 b6 dc bc 8a ac 3e bb cd 63 82 3d
       0.15797415 -0.026942257 -0.002909454 0.06366692
000050 6c d4 06 3e 23 ac 68 3d 6c 0f 7d 3d dd 93 0c 3e
       0.1316697 0.056804787 0.061782286 0.1372828
000060 3c a3 95 3c 5e a5 0f bd e7 bc ab 3d 0b 49 83 3d
       0.018266313 -0.035069816 0.0838564 0.06410416
000070 e4 d0 b0 bc 37 25 85 3d 4f 57 ce 3c d9 e9 e7 bb
       -0.021583982 0.06501239 0.025188116 -0.0070774374
000080 68 bb 65 bb a8 77 52 3d 63 e1 c3 3d 05 3f 41 bd
       -0.003505433 0.051383644 0.095644735 -0.04717924
000090 a2 2c 3e bb a5 c7 c5 bd 5f 6e 80 bd 7e 5f 8c bd
       -0.0029018302 -0.0965722 -0.062710516 -0.06854151
0000a0 7b aa ec bc 9b fa 8b 3c 24 ec 8e bd 52 d7 59 bd
       -0.028889885 0.017087271 -0.06978634 -0.05318386
0000b0 0e 66 8d bd 1f 04 73 bd 3c dc c1 bc 4f 28 c5 bc
       -0.06904231 -0.059330102 -0.023664586 -0.024067072
0000c0 5d f3 dd 3d b1 53 1c bd 1e 6c 35 bd 84 a7 40 bd
       0.108374335 -0.03816575 -0.04429256 -0.047034755
0000d0 58 ae 42 bd 4d d6 f6 3c 39 2a e4 3d ec ee ae 3d
       -0.04752955 0.030131483 0.11140866 0.085416645
0000e0 6e fb 84 3d c2 25 ad 3d 06 9e b8 3d b1 0d 20 bd
       0.06493269 0.08454467 0.090145156 -0.039075557
0000f0 6a 18 4b 3d 7a e2 ed 3c e1 49 34 3d 38 a9 30 3d
       0.04958383 0.029038657 0.04401577 0.04313013
000100 9d 2b ad 3d 7f 15 72 3c 28 0e 89 bd 77 27 dd 3d
       0.08455584 0.014775633 -0.06692153 0.10798543
000110 0b 8e f9 3d cb 0e 8a 3d d6 2b 0f bc 18 b4 01 bd
       0.12185296 0.06741103 -0.008738479 -0.03166589
000120 f2 ee 80 3d 7d 63 b1 bd 8b a5 c0 bd d0 84 76 bd
       0.06295575 -0.08661554 -0.09406575 -0.060185254
000130 91 2e 28 bc 1c 90 0b bd ac 39 9c 3c a3 bf af bd
       -0.010265009 -0.03407298 0.019070469 -0.08581474
000140 9c 75 45 bd 18 22 a4 3d f2 7f 68 3c f1 20 b5 3d
       -0.048207864 0.08014315 0.014190661 0.08844174
000150 ca e9 b6 3b fc 0e 26 3d 26 03 a9 3c 82 7d b5 3b
       0.005582069 0.040541634 0.020631384 0.0055386433
000160 28 cf c3 bd bc 05 d8 3c 9c c8 70 3d f0 f6 d6 bd
       -0.09560996 0.026369922 0.058785066 -0.10496318
000170 5b 4e cd 3c 8d 81 e3 3d 8e 7b 5c 3d c7 ae b4 3c
       0.025061777 0.11108694 0.05382877 0.022055997
000180 96 52 0a 3e 0a c5 5d 3e f7 55 83 3d c8 5c 81 3c
       0.13508067 0.21657196 0.06412881 0.015791312
000190 12 93 0f 3e 9d 17 dc bc fb e3 7d 3d 78 64 cf 3d
       0.14020947 -0.026866728 0.061984997 0.10126585
0001a0 20 ec 72 bc 70 24 eb 3c 11 6a 11 3e 29 c4 bd 3d
       -0.014826804 0.028703898 0.14200617 0.0926593
0001b0 e0 8b aa 3d 7b 78 19 3d cb b5 d4 3c 4a a6 35 bd
       0.0832746 0.037468415 0.025965592 -0.04434804
0001c0 bd 64 df bc 57 a1 b8 3c b3 69 27 bd e2 7b 0e bd
       -0.027269715 0.02253787 -0.040872287 -0.034786113
0001d0 88 e0 fe 3d e1 fc 65 3d 24 4d 73 bd 65 3d 98 3c
       0.1244517 0.056149367 -0.05939974 0.018583963
0001e0 35 08 d6 bd 17 8c 83 3d dc ba ad bd 7a d6 3d bd
       -0.10450784 0.064232044 -0.08482906 -0.04634712
0001f0 10 e6 14 bd 3e a8 9a bd 75 6e 67 3d 56 ea 54 3d
       -0.036352217 -0.07551621 0.056501824 0.051981293
000200 dc 31 0c 3e 99 a6 60 bc 45 b4 23 bd 12 e9 ad 3c
       0.13690895 -0.013711595 -0.03996684 0.0212293
000210 48 5d 85 3d 2e e6 94 3d 70 41 57 3c 50 90 83 3d
       0.065119326 0.07270466 0.01313816 0.0642401
000220 f1 3d cd bc 5b a2 c9 bc cf ed c5 3d 13 fe 48 3d
       -0.02505395 -0.02461355 0.09664499 0.04907043
000230 18 8a 00 3e 3a bc 4a 3d 3e cd da 3d d5 23 49 3d
       0.12552679 0.049495913 0.10683678 0.049106438
000240 3b fa 06 3e 4a 2a 9e 3d 6b 30 a5 3d 1c b5 09 3e
       0.13181393 0.0772291 0.080658756 0.13447994
000250 8c 33 bb 3d cc e5 37 3d 64 6b f9 3c a0 ff c1 3c
       0.09140691 0.044896886 0.030446716 0.023681462
000260 05 16 b7 bc 6e 70 c1 bd c8 4d ac bd 06 da 8e 3b
       -0.022349367 -0.094452724 -0.08413273 0.0043594865
000270 f4 cd 10 bd 15 43 14 bc 41 65 59 bd d6 77 a5 bd
       -0.035352662 -0.009049197 -0.05307508 -0.080794975
000280 c9 0a e7 bd 33 60 54 3c b6 c0 00 3e 33 fe 09 3c
       -0.11281354 0.012962389 0.12573513 0.008422422
000290 a0 78 8a 38 4a 7a 19 3e 2c 02 94 3d 76 51 a3 3c
       6.602821e-05 0.14988056 0.07226977 0.019936305
0002a0 f4 56 42 3d d9 03 04 3e 01 97 c8 3c 2e 20 2f 3b
       0.047446206 0.12892093 0.024486067 0.0026722061
0002b0 e3 a5 06 bd de 4d 1e be b9 f3 09 3d 5b 7a 1e be
       -0.032873046 -0.15459391 0.033679698 -0.15476362
0002c0 1a 86 f8 bd bf 55 e2 3a e6 2d 14 be 93 58 f4 3c
       -0.12134953 0.0017267986 -0.14470634 0.029827392
0002d0 9d f3 72 bd 12 d3 a5 bd 31 cd f9 bd b1 d4 ea 3d
       -0.05931436 -0.08096899 -0.1219734 0.11466349
0002e0 6a ad 9d 3d 88 c5 a3 bc 99 96 d5 3d fc 2c a0 3d
       0.07699092 -0.019991651 0.10429115 0.0782108
0002f0 fe c5 8f bd d5 51 18 bd 14 ea 92 bc b5 47 f1 bc
       -0.07020186 -0.037187416 -0.017933883 -0.029453138
000300 ee f3 cb bd 59 c9 9a bd 55 66 d3 bd 4f 13 18 be
       -0.09958635 -0.07557935 -0.10322253 -0.14851116
000310 45 b5 db 3c 03 e5 83 bd da dd a7 3d 39 dc 37 bc
       0.026819834 -0.06440165 0.08196612 -0.011221939
000320 1e c0 8f 3d 87 b1 0b 3e 03 e5 64 3c db 4b b0 3d
       0.07019065 0.1364194 0.013970616 0.08608218
000330 8f 1a 8e 3d fc 19 7c 3d d4 ad 9a 3c ca ee c3 bd
       0.069386594 0.061548218 0.018881716 -0.0956703
000340 1f 1b 4c 3d 93 ed 10 bc dc 84 48 3c ce 68 87 bd
       0.049830552 -0.008845705 0.012238707 -0.06611787
000350 30 b4 ac bd bb 92 7e bd 8a 27 79 bd 46 f6 ff bd
       -0.084328055 -0.06215165 -0.060828723 -0.12498145
000360 47 ab 79 bd 2e b2 a6 bc 1d 0f 63 bd d9 82 22 bd
       -0.06095436 -0.020348635 -0.055434335 -0.039675567
000370 a5 05 10 bd 74 8f 07 bc f2 87 97 bd 8e 32 b5 bc
       -0.035161633 -0.008273948 -0.073989764 -0.022118833
000380 13 c4 16 3d 9e 3c 9a 3b f4 83 ca 3c a1 e1 22 3c
       0.036808085 0.004706933 0.024721123 0.009941489
000390 61 ed a1 3c d5 b8 94 3d 58 54 c9 3d 4a ad a3 3d
       0.019766511 0.072618164 0.098305404 0.07992037
0003a0 95 36 30 3e 9a 46 9c 3d 3f 88 19 be ba 26 90 bd
       0.17208321 0.07630654 -0.1499338 -0.070386365
0003b0 2b 33 01 bc 74 6d cc 3b 97 c2 3a 3d 65 75 96 bd
       -0.007885735 0.0062386338 0.04559573 -0.0734661
0003c0 ba e8 de bd ee 59 9d 3b 4f f7 b8 3c ec 39 e8 bc
       -0.10884233 0.00480198 0.022578863 -0.028347932
0003d0 65 5b 96 bd a5 59 08 3d a1 27 95 3c 53 69 5c 3d
       -0.07341651 0.033288617 0.018207373 0.053811383
0003e0 74 28 57 3e 17 df 87 3b ca 53 eb 3c f0 b7 ae 3d
       0.21011525 0.0041464674 0.028726477 0.08531177
0003f0 3a a1 fb 3c 37 84 a6 bd fe bc 51 3b 69 10 8b 3d
       0.030716527 -0.08130687 0.0032003517 0.06790239

bias f4 [4]
000000 b3 05 c4 bb 27 5d 13 3d 67 31 0a 3d 2d ab d9 bc
       -0.0059821247 0.03597751 0.03373852 -0.02657088
