super_resolution/checkpoint_scale2/model_epoch_6.pth (torch_old, 247001 bytes, 8 tensors)

weight f4 [64, 1, 5, 5]
0	0x3e5cc1af	0.2155826
1	0xbdc94493	-0.098275326
2	0xbe23d60e	-0.15999624
3	0xbe1a67d4	-0.1507867
4	0x3e59c432	0.21266249
5	0xbd31d5c1	-0.043416742
6	0xbe81147f	-0.2521095
7	0xbe5f7542	-0.21822074
8	0x3cb8db72	0.022565577
9	0xbe3f143e	-0.18660066
10	0xbee02e36	-0.43785256
11	0xbe54b15b	-0.2077078
12	0xbe9a6235	-0.3015305
13	0xbe2faecd	-0.17156525
14	0xbd056c8d	-0.032574225
15	0xbe8157ff	-0.25262448
16	0xbe111551	-0.14168288
17	0xbd846977	-0.06465428
18	0xbe8a73f4	-0.2704159
19	0x3df13ffe	0.11779784
20	0x3d0a3114	0.03373821
21	0x3ccccb14	0.024999179
22	0xbe117ee9	-0.14208569
23	0x3cce1f32	0.02516136
24	0x3dbf0bf7	0.09328454
25	0xbe17e917	-0.1483501
26	0xbdd6a42d	-0.10480533
27	0xbe8d3786	-0.27581424
28	0x3d88430a	0.06653412
29	0xbe231564	-0.15926129
30	0xbe950c41	-0.2911091
31	0xbdbe3bbb	-0.092887364
32	0xbe53e1d0	-0.2069161
33	0x3d5d37a4	0.05400814
34	0xbcfed432	-0.031107042
35	0xbdf798db	-0.12089702
36	0xbd856aab	-0.06514486
37	0xbe735a92	-0.23765019
38	0xbe21a5f5	-0.15785964
39	0x3db08f05	0.08621029
40	0x3e0c3780	0.13693047
41	0xbe832a92	-0.25618416
42	0x3cad6146	0.021164548
43	0x3e8a7731	0.2704406
44	0xbe3bfed7	-0.18358932
45	0xbddd81a3	-0.10815742
46	0xbded3b7a	-0.1158361
47	0xbe2163a7	-0.1576067
48	0xbcbd8f0a	-0.023139495
49	0xbd727e55	-0.05920251
50	0xbea7c6c8	-0.32768846
51	0x3dbee6d0	0.09321368
52	0xbcfe426e	-0.031037536
53	0x3dd3da4c	0.10344371
54	0x3e1ab1fa	0.15106955
55	0xbe822d4e	-0.2542519
56	0xbc852293	-0.016251838
57	0xbd8dc87a	-0.069230035
58	0x3d97e7c2	0.07417251
59	0xbee2381f	-0.44183442
60	0x3d38ea96	0.045145594
61	0x3d1317b4	0.035911277
62	0x3d7af123	0.061265122
63	0xbd8ddc19	-0.06926746
64	0xbc9406af	-0.018069593
65	0xbe3d26d3	-0.18471842
66	0xbe5b2690	-0.21401429
67	0xbe1f4531	-0.15553738
68	0xbdafaf2b	-0.085783325
69	0xbe4e748c	-0.20161647
70	0xbe0c9e4e	-0.13732263
71	0x3be0c9a4	0.006859975
72	0xbe27a084	-0.16369826
73	0x3e2716c7	0.16317283
74	0xbde1c472	-0.11023797
75	0xbe5738e1	-0.21017791
76	0xbe3e638f	-0.18592666
77	0x3d9930ef	0.074800365
78	0xbdad2db7	-0.08455985
79	0xbe732c37	-0.23747335
80	0x3d405cec	0.046963617
81	0x3da32a2a	0.079670265
82	0xbe9069aa	-0.28205615
83	0xbe9a639c	-0.3015412
84	0xbec8709c	-0.39148414
85	0x3da4bd3f	0.08043908
86	0xbd721491	-0.059101645
87	0xbe545593	-0.20735769
88	0x3b9da5ba	0.004811016
89	0xbeb63e47	-0.3559439
90	0xbe096717	-0.13418232
91	0x3e6f92f1	0.23395897
92	0x3d8d30ad	0.0689405
93	0xbdc3ceaa	-0.095609024
94	0xbe06ec1e	-0.13176009
95	0xbde96105	-0.11395458
96	0xbe937cf3	-0.28806266
97	0xbdc93b44	-0.09825757
98	0xbbb90d7b	-0.005647359
99	0xbe2b9ee9	-0.16759838
100	0xbe354b37	-0.17704473
101	0x3e70d214	0.23517638
102	0x3e5625ca	0.20912853
103	0xbe1b7e77	-0.15184961
104	0x3ddc8adb	0.10768672
105	0x3d3767a2	0.044776566
106	0xbe9e8c07	-0.30966207
107	0x3b7845d2	0.0037883413
108	0x3d465059	0.04841647
109	0xbbcb5379	-0.006205019
110	0xbeca0641	-0.39457896
111	0x3c9c68fd	0.019093031
112	0x3d882f25	0.06649617
113	0xbe13901e	-0.14410445
114	0xbe40c8c2	-0.18826583
115	0xbc71a66d	-0.014749152
116	0xbd31d5e1	-0.04341686
117	0xbe942c56	-0.28940076
118	0x3e811e64	0.252185
119	0x3daebf87	0.08532625
120	0xbe85b1e3	-0.2611228
121	0xbd53c02f	-0.051696952
122	0xbdc11354	-0.09427515
123	0xbea7ebbb	-0.32797036
124	0xbe58d162	-0.21173623
125	0xbda936eb	-0.08262428
126	0xbde1428b	-0.1099902
127	0x3acd6b9f	0.0015672332
128	0xbcaf2e06	-0.02138425
129	0xbd825bbf	-0.063651554
130	0x3da2d23c	0.07950255
131	0x3e832ec7	0.25621626
132	0x3e1e64a3	0.15468077
133	0x3de1b500	0.11020851
134	0xbdf41ffa	-0.119201615
135	0xbd87b5a7	-0.06626444
136	0xbed2df0c	-0.41185796
137	0x3d36e8a2	0.04465545
138	0x3eb7c99e	0.3589601
139	0xbe9664c6	-0.2937376
140	0xbb7c27c0	-0.0038475841
141	0xbe004f99	-0.12530364
142	0xbf19ef54	-0.6013081
143	0xbe0a63d3	-0.13514642
144	0xbccb113d	-0.024788493
145	0xbde0edb8	-0.10982841
146	0xbced4a4d	-0.028966093
147	0xbe700fa0	-0.2344346
148	0x3e38194d	0.17978401
149	0x3e697bd1	0.22801138
150	0x3c5d70e4	0.013515685
151	0xbd9370db	-0.0719926
152	0x3e60798c	0.21921366
153	0xbe717bda	-0.23582402
154	0xbe837b66	-0.25680083
155	0xbdd5026c	-0.104008526
156	0x3e52de01	0.205925
157	0x3e3dda4e	0.18540308
158	0x3d683cc6	0.056698583
159	0x3dbbfd8d	0.0917922
160	0x3e11d744	0.14242274
161	0x3dd340ee	0.10315119
162	0xbed7f1de	-0.42176718
163	0xbecc9b3c	-0.39962184
164	0x3e834e50	0.25645685
165	0x3dd73432	0.10508002
166	0xbd936682	-0.07197286
167	0xbe544518	-0.20729482
168	0xbea5a32a	-0.32351047
169	0xbca447a7	-0.020053698
170	0xbe6dd501	-0.23225786
171	0x3e7d446d	0.24733134
172	0xbe8a9f2a	-0.27074558
173	0x3bf37e75	0.0074308463
174	0xbd734b0b	-0.05939774
175	0xbdef54aa	-0.1168607
176	0xbc2095eb	-0.009801368
177	0x3de66886	0.11250405
178	0xbe11e86a	-0.14248815
179	0xbe941068	-0.28918767
180	0x3cd70778	0.026248679
181	0xbe15dacf	-0.1463425
182	0x3ef9736b	0.4872087
183	0x3dc988a7	0.098405175
184	0x3e903f3e	0.2817325
185	0x3d5e5aa1	0.05428565
186	0x3e357d40	0.1772356
187	0x3ba1a9aa	0.0049335556
188	0x3cf4b9cc	0.029873751
189	0xbd8dbacc	-0.06920394
190	0xbe044cc1	-0.12919904
191	0xbc32fa01	-0.010923863
192	0xbe85a3ca	-0.26101524
193	0xbe82c320	-0.25539494
194	0xbe1b90b6	-0.15191922
195	0x3ea31e1e	0.31858915
196	0xbec41ca4	-0.383031
197	0x3e1c554b	0.15266912
198	0xbe77654e	-0.24159738
199	0xbe319f0a	-0.17345825
200	0x3e61987c	0.22030824
201	0x3e42df18	0.19030416
202	0x3e04981a	0.12948647
203	0xbe80ea6a	-0.25178844
204	0xbb8f7085	-0.004377427
205	0xbd2d6115	-0.042328913
206	0x3ea0d27d	0.3141059
207	0xbeaace04	-0.33360302
208	0x3e2faf45	0.17156704
209	0xbd00d6ec	-0.031454965
210	0xbeb14d2d	-0.34629193
211	0x3eb8e32d	0.3611082
212	0xbe02c507	-0.12770472
213	0xbe6cef55	-0.23138173
214	0xbe83e079	-0.25757197
215	0xbcd157c0	-0.025554538
216	0xbbeb5132	-0.00718131
217	0x3e140fb3	0.14459114
218	0xbe4d08d2	-0.20022896
219	0x3e24c06a	0.16089025
220	0x3f06facc	0.52726436
221	0x3b78987c	0.0037932685
222	0xbd938f23	-0.072050355
223	0x3e770629	0.24123444
224	0x3e401bc5	0.18760593
225	0x3e6c2ce9	0.23064007
226	0xbe979052	-0.29602295
227	0x3e1b79cd	0.15183182
228	0xbe2b18d7	-0.16708694
229	0x3e21df89	0.15807928
230	0x3e552090	0.20813203
231	0x3e364056	0.1779798
232	0xbe374d9c	-0.179007
233	0xbbcf8830	-0.0063333735
234	0xbe3fdf89	-0.18737616
235	0x3dcc22ad	0.099675514
236	0x3dcb89b0	0.09938371
237	0x3e597378	0.21235454
238	0xbe903c43	-0.28170976
239	0xbdb62538	-0.08893818
240	0xbce58fbb	-0.028022638
241	0xbdbfc774	-0.093642145
242	0xbcbacecf	-0.022803692
243	0x3e0e677f	0.13906668
244	0xbe1243ae	-0.1428363
245	0xbd295c90	-0.04134804
246	0xbe71f6d1	-0.23629309
247	0x3e3cce56	0.18438086
248	0xbe57aa0a	-0.21060959
249	0xbd534639	-0.05158064
250	0xbe2ed3af	-0.17072938
251	0xbe036363	-0.12830882
252	0xbe4abb2e	-0.19797966
253	0xbf0e6c1f	-0.5563373
254	0x3dbf2e76	0.093350336
255	0xbd326fe9	-0.043563757

bias f4 [64]
0	0x3c84dbb3	0.016218042
1	0x3cbb72ea	0.022881944
2	0xbe699c51	-0.22813536
3	0xbdb4b1d9	-0.08822984
4	0xbdc73aa5	-0.097279824
5	0x3d7ada3f	0.061243292
6	0x3dc0a704	0.09406856
7	0xbc94c61e	-0.018160876
8	0xbe2b5da9	-0.16734947
9	0xbe6576c2	-0.22408584
10	0x3e0cb216	0.1373981
11	0x3dd19289	0.102330275
12	0x3dc0635a	0.0939395
13	0xbe073a13	-0.13205747
14	0xbe1dc522	-0.15407231
15	0x3d389b1a	0.04506979
16	0xbd4f49d7	-0.05060753
17	0xbc1af673	-0.009458172
18	0xbe6b8d59	-0.23003139
19	0x3df78dd7	0.12087601
20	0x3d1e41be	0.038636915
21	0x3e1cbbbd	0.15305991
22	0x3d811f57	0.06304806
23	0x3d1c856f	0.03821319
24	0xbd304d97	-0.043042745
25	0xbe5af85b	-0.21383803
26	0xbe3deb3e	-0.18546769
27	0xbd8e9402	-0.06961824
28	0x3d935969	0.07194788
29	0xbd39783e	-0.045280688
30	0x3d58b736	0.0529091
31	0xbd136373	-0.035983514
32	0xbdd04791	-0.101699
33	0xbd005e8b	-0.031340163
34	0xbd47af26	-0.04875102
35	0xbe15d706	-0.14632806
36	0xbcf39016	-0.029731791
37	0x3da45251	0.08023513
38	0x3dc04beb	0.0938948
39	0xbd9728d9	-0.07380838
40	0xbe5abcac	-0.21361035
41	0x3dda6dc9	0.10665471
42	0xbde1faeb	-0.11034187
43	0xbd432775	-0.04764505
44	0xbbe15940	-0.0068770945
45	0xbd90a433	-0.070625685
46	0xbcddb008	-0.027061477
47	0x3d9b40c4	0.075807124
48	0x3d24644c	0.040134713
49	0xbe733318	-0.2374996
50	0xbe1d5f38	-0.15368354
51	0xbda1e6f3	-0.07905378
52	0xbc3684ac	-0.01114003
53	0x3d08f18d	0.033433486
54	0xbe01ca31	-0.12674786
55	0xbe5af61b	-0.21382944
56	0x3df8be4d	0.12145672
57	0xbe456f71	-0.19280793
58	0xbe61f288	-0.22065175
59	0x3de26f1a	0.11056347
60	0x3e15dec5	0.14635761
61	0x3cb5cccc	0.022192381
62	0xbe3ec198	-0.18628538
63	0xbe2b9a3b	-0.16758053

weight f4 [64, 64, 3, 3]
0	0xbb5f4dd7	-0.0034073496
1	0xbd0ffa1b	-0.03515063
2	0xbdd2940a	-0.102821425
3	0x3c0ee17d	0.008720753
4	0xbd8799d7	-0.066211395
5	0x3c7c4c3e	0.015399037
6	0xbb595946	-0.0033164783
7	0xbcd5df78	-0.026107535
8	0xbd9d0749	-0.07667405
9	0xbdb9f5ee	-0.090801105
10	0x3c454be1	0.012042017
11	0xbe11380d	-0.14181538
12	0x3c0ba364	0.008522842
13	0xbdce7db8	-0.10082573
14	0xbdc63907	-0.09678846
15	0xbdac8e12	-0.08425535
16	0xbd48203e	-0.048858874
17	0xbdee02aa	-0.11621602
18	0xbdf78ee2	-0.120877996
19	0xbded0d4d	-0.115748025
20	0xbdb3d99a	-0.087817386
21	0xbe04293b	-0.12906353
22	0xbe045b82	-0.12925532
23	0xbd800176	-0.06250279
24	0xbd46b589	-0.04851297
25	0xbddf29c8	-0.10896641
26	0xbe06e6ce	-0.13173983
27	0xbc8e15e7	-0.017344428
28	0xbd165bcd	-0.03670864
29	0xbdf9e33e	-0.12201546
30	0x3ddb6db0	0.107142806
31	0x3de5f649	0.11228616
32	0xbbff73c8	-0.0077957846
33	0xbd5d821c	-0.05407916
34	0xbd7a72f1	-0.061144773
35	0xbc1b380b	-0.009473811
36	0xbe160ad1	-0.14652564
37	0x3ca71ece	0.020400431
38	0xbdd98820	-0.10621667
39	0xbd2bc0da	-0.041931964
40	0x3d9a7b45	0.07543043
41	0xbd683cee	-0.056698732
42	0x3d6d034e	0.05786448
43	0x3d9d9144	0.07693723
44	0xbc34b890	-0.011030331
45	0xbe0010ee	-0.12506458
46	0xbdc336b3	-0.095319174
47	0xbda2f6c7	-0.07957225
48	0x3c5b5ab6	0.013388326
49	0xbdd98821	-0.10621668
50	0xbc741cdf	-0.0148994615
51	0xbe1032f0	-0.14081931
52	0xbda229d9	-0.07918138
53	0xbcd96500	-0.026537418
54	0xbd90558c	-0.07047567
55	0xbe0136c8	-0.12618554
56	0xbd584f08	-0.052809745
57	0xbda2af99	-0.07943649
58	0x3c9b5bb4	0.018964626
59	0xbdf0d59e	-0.11759494
60	0x3d523332	0.051318355
61	0x3ac01dcb	0.0014657316
62	0xbd925e6e	-0.07146917
63	0xbd9098f9	-0.07060427
64	0xbd9e5bd2	-0.07732357
65	0x3d04f7ab	0.032462757
66	0x3c2cecab	0.010554473
67	0xbc3439db	-0.011000122
68	0xbdb974db	-0.090554915
69	0xbde02598	-0.109446704
70	0xbd98e8e9	-0.07466299
71	0xbcffd6f3	-0.031230425
72	0xbe2d84e5	-0.16945226
73	0xbd5429d4	-0.051797703
74	0xbc7594d8	-0.0149891
75	0xbd0750c5	-0.033036012
76	0xbdab1a9b	-0.08354684
77	0xbd475cdf	-0.048672553
78	0xbcaab406	-0.020837795
79	0xbe112328	-0.14173567
80	0x3ca03462	0.019556228
81	0xbda1f1fd	-0.07907484
82	0x3cc77c31	0.024351211
83	0xbd1002e1	-0.035158996
84	0x3d1860fe	0.037201874
85	0xbdffea60	-0.12495875
86	0xbde5a406	-0.112129256
87	0xbda0d4f8	-0.078531206
88	0xbdde0962	-0.108416334
89	0xbd3c638a	-0.045993365
90	0xbd83dd76	-0.06438725
91	0xbd43aeaf	-0.047774013
92	0xbdc215dd	-0.09476826
93	0xbddb9fc9	-0.10723836
94	0xbd86dc05	-0.06584934
95	0x3adc0075	0.0016784804
96	0xbe36a00e	-0.17834494
97	0xbd45d43f	-0.048298117
98	0xbd8725f6	-0.06599037
99	0x3d019993	0.0316406
100	0xbc9cf95a	-0.019161869
101	0x3db4a11b	0.08819791
102	0x3da4e382	0.08051206
103	0xbc31fda5	-0.010863696
104	0xbd8c7d8d	-0.068598844
105	0xbcf30dd1	-0.029669674
106	0xbd909a8c	-0.070607275
107	0x3d8ff51d	0.070291735
108	0x3be7db17	0.007075678
109	0x3c349b16	0.0110233035
110	0xbbdc6a0a	-0.006726508
111	0xbd06712a	-0.032822765
112	0xbd52d2db	-0.05147062
113	0xbc79055c	-0.015199032
114	0x3da80a37	0.08205073
115	0x3d25017e	0.040284626
116	0xbd72fd86	-0.05932381
117	0xbdcc5899	-0.09977836
118	0xbde077d0	-0.109603524
119	0x3da7d321	0.081945665
120	0xbdb146e4	-0.086560994
121	0xbca37681	-0.019953968
122	0xbe0f57b3	-0.13998298
123	0xbe59b655	-0.2126096
124	0xbde1c7f1	-0.11024464
125	0xbe113467	-0.14180146
126	0xbc394610	-0.011308208
127	0x3d1e6ba1	0.03867686
128	0xbd6431cc	-0.055711553
129	0xbe370c8c	-0.1787588
130	0x3cd4622a	0.025925715
131	0xbd77c344	-0.060488954
132	0xbdb736e8	-0.089460194
133	0x3c21d79e	0.009878067
134	0xbdb434b7	-0.08799117
135	0xbd8fca32	-0.070209876
136	0xbcc41cf0	-0.02393958
137	0x3ab68cf3	0.0013927504
138	0xbd9bf47c	-0.07614991
139	0xbd418c41	-0.047252897
140	0x3d1602a8	0.036623627
141	0xbd779737	-0.060446944
142	0xbbfcba68	-0.007712651
143	0xbc11185e	-0.008855907
144	0xbd9161e4	-0.07098749
145	0xbe4bb3a9	-0.19892754
146	0xbc1ef74f	-0.009702518
147	0xbd0d3c68	-0.034481436
148	0xbe0ace66	-0.13555297
149	0xbdef6516	-0.116892025
150	0xbdf0ee24	-0.11764172
151	0xbd2ee017	-0.042694177
152	0xbdb67c1e	-0.08910392
153	0xbcfb5f6b	-0.030685147
154	0xbc181c05	-0.009284024
155	0xbdc7f105	-0.09762768
156	0xbe239233	-0.1597374
157	0xbd8ac538	-0.06775898
158	0xbc320750	-0.010866001
159	0xbe15bd3b	-0.14622967
160	0xbd456e15	-0.048200686
161	0xbe14b709	-0.14522947
162	0x3d0f945b	0.035053592
163	0xbe23243e	-0.15931794
164	0xbd8191c7	-0.06326633
165	0xbcd32d01	-0.025778295
166	0xbdd840c3	-0.10559227
167	0xbdbff780	-0.09373379
168	0xbd81c84b	-0.06337031
169	0x3c0fd11b	0.008777882
170	0xbd63f61a	-0.055654623
171	0xbde1bd2a	-0.11022408
172	0xbdb5b56e	-0.088724956
173	0xbd423235	-0.047411162
174	0xbbdd80cb	-0.006759738
175	0xbd27d0a2	-0.040970452
176	0xbd5ad520	-0.053425908
177	0xbdcaebb1	-0.09908236
178	0xbce2d3f0	-0.02768895
179	0x3c8bb4ad	0.017053926
180	0xbc971c37	-0.018446071
181	0xbbd63468	-0.006537009
182	0x3c8974d6	0.016779345
183	0xbd8c3308	-0.06845671
184	0xbd05608e	-0.032562785
185	0xbcf5053a	-0.029909719
186	0xbdb4ce6d	-0.08828435
187	0xbcec8f38	-0.028876886
188	0xbc240706	-0.01001144
189	0xba7f0730	-0.0009728549
190	0x3d0e1953	0.03469212
191	0xbdae40f8	-0.085084856
192	0x3c72b454	0.014813501
193	0xbd7a0aa8	-0.06104532
194	0x3d5f61ff	0.054536816
195	0xbdff0a5d	-0.124531485
196	0xbde1a184	-0.11017135
197	0xbd196d9f	-0.03745806
198	0xbd850a7c	-0.0649614
199	0xbd4d7e75	-0.050169427
200	0xbda0e2e7	-0.07855778
201	0xbd6ee2c6	-0.058321737
202	0xbc584e06	-0.013202196
203	0xbdc97a68	-0.098378
204	0xbdc9335e	-0.09824251
205	0x3d1d0337	0.038333144
206	0x3cdbf21a	0.026848841
207	0xbda817b2	-0.082076445
208	0xbcd97dc1	-0.026549222
209	0xbd97d051	-0.0741278
210	0xbdb010e9	-0.08596975
211	0xbdbda8de	-0.092607245
212	0xbdbced7e	-0.092249855
213	0xbdc1749a	-0.09446068
214	0xbd70970a	-0.058737792
215	0x3bea4c08	0.007150177
216	0xbdddce12	-0.108303204
217	0xbdb1ea1f	-0.08687233
218	0xbe1a810d	-0.15088291
219	0xbd0b5871	-0.03401989
220	0x3c9e5f3f	0.019332526
221	0xbe0e82e2	-0.13917115
222	0xbdb8d4aa	-0.090249375
223	0xbdad4aad	-0.08461509
224	0xbcc81acc	-0.02442684
225	0xbda85b94	-0.08220592
226	0x3d1ecba0	0.03876841
227	0xbd4dfbb9	-0.05028889
228	0xbd4f9598	-0.050679773
229	0xbd2a0882	-0.04151202
230	0xbdf8a829	-0.12141449
231	0xbd5da94d	-0.054116536
232	0xbd426fd2	-0.04746992
233	0xbda159fc	-0.07878491
234	0x3dc6678e	0.0968772
235	0xbd136607	-0.035985973
236	0x3c1ce9e6	0.00957725
237	0x3c40b490	0.011761799
238	0x3b5659fa	0.0032707439
239	0xbdf19c91	-0.11797441
240	0x3d41838d	0.047244597
241	0xbd327423	-0.043567788
242	0x3d974ea9	0.0738805
243	0x3bcb5dd9	0.006206256
244	0x3d2756c4	0.04085423
245	0xbd8e0159	-0.06933851
246	0xbdc9246a	-0.098213986
247	0xbde17312	-0.11008276
248	0x3d17dcb7	0.037075724
249	0x3ce4922e	0.027901735
250	0x37f1de08	2.883283e-05
251	0xbdc8bb59	-0.09801359
252	0xbde1e594	-0.11030117
253	0xbe10da4e	-0.14145777
254	0xbe1508d5	-0.1455415
255	0xbd36b09a	-0.044602014

bias f4 [64]
0	0xbcfdcb87	-0.030980838
1	0xbd292752	-0.041297264
2	0xbd1faa01	-0.038980488
3	0xbd39455a	-0.045232154
4	0xbd48b1fe	-0.04899787
5	0xbcf0ff53	-0.029418623
6	0xbd9aa578	-0.07551092
7	0xbdb56645	-0.08857397
8	0xbd0a91f3	-0.033830594
9	0xbdb52ac5	-0.08846048
10	0xbd86ce54	-0.06582323
11	0xbc9a043c	-0.018800847
12	0x3cab4df7	0.0209112
13	0xbd91ef9e	-0.071257815
14	0xbd360ced	-0.04444592
15	0xbd662184	-0.056184307
16	0xbd8a2c75	-0.06746761
17	0x3ac4fb83	0.001502857
18	0x3d16cf06	0.036818527
19	0xbd1faf03	-0.038985264
20	0xbd7b2d37	-0.061322417
21	0xbdc50917	-0.096208744
22	0xbd962e52	-0.07333054
23	0xbd030e47	-0.031996038
24	0xbd951d6e	-0.07281004
25	0xbd062d13	-0.03275783
26	0xbd87c318	-0.06629008
27	0xbd453476	-0.048145734
28	0xbd3deee5	-0.046370406
29	0xbcfb9867	-0.03071232
30	0xbd967408	-0.0734635
31	0xbd9842e5	-0.07434634
32	0xbd377243	-0.044786703
33	0xbc1e185d	-0.009649363
34	0xbc654b93	-0.013995069
35	0xbdc07ed8	-0.093991935
36	0xbd5646b5	-0.052313525
37	0xbcead787	-0.028667225
38	0xbdbe4e46	-0.09292273
39	0x3d007b42	0.031367548
40	0xbcf4fb9d	-0.029905135
41	0xbdb562a8	-0.08856708
42	0xbcb8dc58	-0.022566006
43	0xbd1c8fb9	-0.038223002
44	0xbd9905fe	-0.07471846
45	0xbd94b925	-0.07261876
46	0xbd8d1b50	-0.06889975
47	0xbd0001ac	-0.031251594
48	0xbd819ad4	-0.06328359
49	0xbd89f680	-0.06736469
50	0xbd73342e	-0.059375934
51	0xbcf78fb3	-0.030219888
52	0xbd537ddf	-0.051633712
53	0xbc0606d5	-0.00818034
54	0xbda39f9b	-0.07989427
55	0xbce51b79	-0.027967202
56	0xbd90e549	-0.07074983
57	0xbc95985b	-0.018261125
58	0xbcab4be3	-0.020910209
59	0xbd3fb985	-0.046807785
60	0xbce9f787	-0.028560413
61	0xbc1aa37d	-0.009438393
62	0xbd6f4db9	-0.05842373
63	0xbd95f62f	-0.073223464

weight f4 [32, 64, 3, 3]
0	0x3dddfe86	0.10839562
1	0xbc302829	-0.010751762
2	0x3bf3d68e	0.0074413484
3	0x3cf1cab7	0.029515607
4	0xbda44863	-0.08021619
5	0xbe3802ea	-0.17969862
6	0x3d45f3c5	0.04832818
7	0xbc145ff1	-0.009056077
8	0xb81fdc92	-3.8113976e-05
9	0x3cee7d68	0.029112533
10	0x3ddd902f	0.108185165
11	0xbdaf813b	-0.08569571
12	0xbce3f29c	-0.027825646
13	0x3c87bae3	0.016568607
14	0xbc742150	-0.01490052
15	0xbcdcb9fa	-0.02694415
16	0x3d9d41a9	0.07678539
17	0xbd421610	-0.04738432
18	0xbde59a99	-0.11211128
19	0xbbaaabe8	-0.005208481
20	0xba407b02	-0.00073425483
21	0xbba78013	-0.005111703
22	0xbd88f386	-0.066870734
23	0xbd9d04f7	-0.076669626
24	0xbd6d9fd8	-0.058013767
25	0xbe180974	-0.14847356
26	0xbe38d36a	-0.18049398
27	0x3e52b46a	0.20576635
28	0xbc7b2635	-0.0153289335
29	0x3c9629ae	0.018330421
30	0x3d02add3	0.031904053
31	0xbca859be	-0.020550605
32	0xbc9d0be7	-0.019170715
33	0x3bd1c293	0.006401369
34	0xbcf3005a	-0.029663254
35	0xbd928136	-0.07153551
36	0xba4c4e4a	-0.00077936484
37	0x3da3c7c7	0.07997089
38	0xbdda77b4	-0.10667363
39	0xbd8b30f9	-0.0679645
40	0xbdbda3bc	-0.092597455
41	0xbd835841	-0.064133175
42	0xbd8b9bb5	-0.06816808
43	0xbdc0012f	-0.09375226
44	0xbc9a18b6	-0.018810611
45	0xbce01058	-0.027351543
46	0xbd6e01da	-0.058107235
47	0xbd18515a	-0.037186958
48	0xbc206e31	-0.009791897
49	0xbb0c3458	-0.0021393504
50	0xbcd4c45d	-0.02597254
51	0xbd9aaeaf	-0.075528495
52	0xbc3c8653	-0.011506635
53	0xbdc99492	-0.09842791
54	0xbe1d37c9	-0.15353312
55	0x3ca6bb9f	0.020353137
56	0x3d8e12ea	0.06937201
57	0xbb396cf1	-0.0028293694
58	0xbc109e6a	-0.008826831
59	0xbdfe535d	-0.12418244
60	0xbcc7551c	-0.024332576
61	0x3d908042	0.07055713
62	0xbd5d1fa6	-0.05398526
63	0x3dd06373	0.101752184
64	0x3d2d9c47	0.042385366
65	0x3c5c6ace	0.013453199
66	0x3e10ba07	0.14133464
67	0x3db04ae4	0.08608034
68	0xbd7c9c68	-0.061672598
69	0x3da61d70	0.081110835
70	0xbd0cc108	-0.034363776
71	0xbe343b5e	-0.17600772
72	0x3da00866	0.07814102
73	0x3dd49ab0	0.10381067
74	0xbdbc4738	-0.091932714
75	0x3d5e4aa4	0.0542704
76	0xbcc155ae	-0.023600426
77	0xbd9f4f43	-0.0777879
78	0xbd7f50b8	-0.06233284
79	0x3d850c18	0.06496447
80	0xbe40a270	-0.18811965
81	0x3e0b0757	0.13577019
82	0x3ce30c3e	0.027715798
83	0xbdfff822	-0.124984995
84	0x3c0cd230	0.0085950345
85	0xbd5003ac	-0.05078475
86	0xbd2de737	-0.04245683
87	0x3d8176a4	0.06321457
88	0xbd37f01c	-0.04490672
89	0xbdf5746f	-0.119850986
90	0xbb5d87e3	-0.0033802919
91	0xbd5c17d3	-0.053733658
92	0x3dbce746	0.092237994
93	0x3ad61e64	0.0016335961
94	0xbd95a885	-0.07307533
95	0xbd903c49	-0.070427485
96	0xbb74b765	-0.0037340757
97	0xbc5162cf	-0.012779905
98	0x3d4f1464	0.050556555
99	0x3c3d85b3	0.011567521
100	0xbd41f4eb	-0.047352713
101	0xbdcef7ee	-0.101058826
102	0x3de1031e	0.10986923
103	0x3c5f01b6	0.013611248
104	0xbc8fe43a	-0.017564882
105	0x3e19d762	0.15023568
106	0xbe0f8aa4	-0.14017731
107	0x3d48e088	0.049042255
108	0xbd018426	-0.031620167
109	0xbc92a258	-0.017899677
110	0x3c2141cb	0.009842346
111	0xbded95cf	-0.11600839
112	0x3c86b93a	0.016445745
113	0xbe2afb0f	-0.16697334
114	0xbdb75e7b	-0.089535676
115	0xbe322427	-0.17396604
116	0xbe0513d0	-0.12995839
117	0x3d7bb673	0.061453294
118	0x3dda8a08	0.106708586
119	0xbca1cebd	-0.0197519
120	0x3d058c46	0.03260448
121	0xbe2c445d	-0.16822954
122	0xbd8f415b	-0.069948874
123	0xbbe2a9c6	-0.006917211
124	0xbdf17501	-0.11789895
125	0xbe11ccce	-0.14238283
126	0x3b4c660d	0.0031188757
127	0xbd4ebe58	-0.050474495
128	0x3ba583ae	0.005051098
129	0xbd67a4b6	-0.056553565
130	0xbce3c479	-0.027803646
131	0x3d0b2887	0.033974197
132	0xbc468d34	-0.012118626
133	0x3d8475e0	0.06467795
134	0xbd3bfb96	-0.045894228
135	0xbcc896dc	-0.024485998
136	0x3d17e131	0.037079994
137	0xbd868ef5	-0.06570236
138	0x3d1fa693	0.038977217
139	0x3d2c5cde	0.042080753
140	0xbd6c1d3a	-0.05764506
141	0x3d866dc5	0.065639056
142	0xbd827ba4	-0.06371239
143	0xbdf6c294	-0.120488316
144	0x3c8417f9	0.016124712
145	0xbd415fd4	-0.04721053
146	0xbce5ca6e	-0.028050628
147	0xbd87cbe8	-0.06630689
148	0x3cb879b4	0.02251897
149	0xbbf31018	-0.00741769
150	0xbc2bfca1	-0.010497243
151	0xbcf06565	-0.029345224
152	0xbdcb9ff4	-0.09942618
153	0xbd18f987	-0.037347343
154	0xbda850fd	-0.08218572
155	0xbd718842	-0.058967836
156	0x3e03ad5c	0.128591
157	0xbc24ee7e	-0.010066627
158	0xbd00f2f8	-0.031481713
159	0xbdae14a2	-0.08500029
160	0x3d0ac2bf	0.03387713
161	0xbd9ddd11	-0.07708181
162	0xbcd8c011	-0.026458772
163	0xbe1473d6	-0.14497313
164	0xbd5aac0c	-0.053386733
165	0xbe27d0d1	-0.16388251
166	0xbd6e80da	-0.05822835
167	0xbc375cfc	-0.011191603
168	0xbd8c4c7d	-0.068505265
169	0xbdf3e706	-0.119092986
170	0xbcc2527c	-0.023720972
171	0xbd5c5508	-0.05379203
172	0xbd18de14	-0.037321165
173	0xbdc6c6ff	-0.09705924
174	0xbd837cc8	-0.064202845
175	0xbc971dfd	-0.018446917
176	0xbd502313	-0.0508147
177	0x3cc08c9b	0.023504546
178	0xbd82bdca	-0.06383856
179	0xbdcb9f11	-0.09942449
180	0xbe035e1b	-0.12828867
181	0x3de115ee	0.10990511
182	0xbdfc4493	-0.12317767
183	0x3d1c2132	0.038117595
184	0xbded895b	-0.11598464
185	0xbe29a0c4	-0.16565233
186	0xbb97aa07	-0.004628423
187	0xbaecffda	-0.0018081621
188	0xbde38b5a	-0.111105636
189	0x3e1a9bb4	0.15098459
190	0x3d4f8a5c	0.05066906
191	0xbe2f5e30	-0.17125773
192	0x3d167a17	0.036737528
193	0x3d964abd	0.07338474
194	0xbd7b102f	-0.06129473
195	0xbcc4ca33	-0.024022197
196	0x3e0cd004	0.13751227
197	0xbdb9b989	-0.09068591
198	0x3c423450	0.011853293
199	0x3ceb0717	0.028689904
200	0x3d82dc61	0.0638969
201	0x3d0c0e50	0.034193337
202	0xbcd209bb	-0.025639405
203	0x3d9a9145	0.07547239
204	0xbdd0f3fe	-0.10202788
205	0xbdac6fe5	-0.0841978
206	0xbc93acb1	-0.018026682
207	0xbc93bab3	-0.018033361
208	0x3d0a85ac	0.033818886
209	0x3d9f0393	0.077643536
210	0x3c40a6ee	0.011758549
211	0x3d05f24d	0.03270178
212	0xbbfd898a	-0.007737343
213	0x3b1019d7	0.0021988058
214	0xbc873bdd	-0.016508037
215	0x3cb524a9	0.022112207
216	0xbd43c1ba	-0.047792174
217	0xbe05c193	-0.13062124
218	0xbdb95cd5	-0.090509094
219	0xbdfeec16	-0.124473736
220	0xbc8aff5c	-0.016967468
221	0xbdf8de04	-0.12151721
222	0xbe05b5ac	-0.13057584
223	0xbe0c4f6b	-0.1370217
224	0xbd019cc1	-0.031643633
225	0x3ccd11b2	0.025032852
226	0x3d847998	0.06468505
227	0xbdb6f2ea	-0.08933051
228	0x3d797f2f	0.060912307
229	0x3df487ea	0.11939986
230	0x3db309c2	0.087420955
231	0x3e1ac960	0.15115881
232	0x3dfb098f	0.122576825
233	0xbdba72c2	-0.091039196
234	0xbdfe6e1c	-0.124233454
235	0x3b7e8970	0.0038839243
236	0xbd91d2da	-0.07120295
237	0xbdd28b8f	-0.10280525
238	0xbdbed77e	-0.093184456
239	0xbd361d5c	-0.044461593
240	0xbdceb327	-0.10092764
241	0x3cea21ae	0.028580513
242	0xbd94de1f	-0.07268929
243	0x3d8bd1d2	0.068271294
244	0x3cc55f68	0.024093345
245	0x3d03daff	0.032191273
246	0xbd1cf8ab	-0.038323086
247	0x3cd5fb16	0.026120704
248	0xbdb27b5a	-0.08714934
249	0xbc75253d	-0.014962492
250	0xbe25bc94	-0.16185218
251	0xbdf47e61	-0.11938167
252	0x3db3fe57	0.08788746
253	0x3df4a7a4	0.119460374
254	0xbd335e17	-0.043790903
255	0x3d8fa07b	0.07013031

bias f4 [32]
0	0xbda44bf0	-0.080222964
1	0xbd03c5d5	-0.03217109
2	0xbdce2621	-0.10065866
3	0xbcdfa82a	-0.027301867
4	0xbda5ffe2	-0.081054464
5	0xbd647ca8	-0.055782944
6	0xbdb3f0dd	-0.087861754
7	0xbcb434a3	-0.021997755
8	0xbd8c36df	-0.06846403
9	0xbccc3c75	-0.024931172
10	0xbd1243b8	-0.035709113
11	0x3c600d83	0.013675096
12	0xbdb0b033	-0.08627357
13	0xbd6d0d99	-0.057874296
14	0xbd2b5898	-0.041832536
15	0xbd8d8e15	-0.069118656
16	0xbd1310f4	-0.03590484
17	0xbd080e81	-0.033216957
18	0xbdadeefb	-0.084928475
19	0xbd782082	-0.060577877
20	0xbdbbecc1	-0.091760166
21	0xbda94a9e	-0.08266185
22	0xbd0f2eb6	-0.034956656
23	0xbc7a578a	-0.01527966
24	0xbd8067d1	-0.062698014
25	0xbd438ef3	-0.04774375
26	0xbd51e35b	-0.051242214
27	0xbd4f9a43	-0.050684225
28	0xbdbbd6f8	-0.091718614
29	0xbc56c7be	-0.013109146
30	0xbd39bdcc	-0.04534702
31	0xbdbd114d	-0.092318155

weight f4 [4, 32, 3, 3]
0	0xbdbd3c4e	-0.09240018
1	0xbde4ee45	-0.11178259
2	0x3c8b9720	0.017039835
3	0xbd9fa4b1	-0.07795084
4	0x3d14f4ff	0.03636646
5	0x3cdb350d	0.026758695
6	0x3b8ff9d7	0.004393797
7	0xbdd7c985	-0.10536484
8	0x3d3a5bd9	0.04549775
9	0x3c9303b5	0.017946104
10	0xbd81f536	-0.063455984
11	0x3c31030e	0.010803951
12	0x3d8b45f8	0.06800455
13	0xbd903308	-0.070409834
14	0x3dc15fa5	0.09442071
15	0x3b897a31	0.0041954746
16	0x3e216bb6	0.15763745
17	0xbcdef48f	-0.027216224
18	0xbb5b737d	-0.0033485584
19	0x3d817d96	0.06322782
20	0x3e066155	0.13123067
21	0x3d66dfb3	0.05636568
22	0x3d7b4305	0.06134321
23	0x3e0c20c7	0.13684379
24	0x3c920a5c	0.017827205
25	0xbd1171c6	-0.035508893
26	0x3daad6bf	0.08341741
27	0x3d8262c6	0.06366496
28	0xbcb469fe	-0.022023197
29	0x3d843ef2	0.06457318
30	0x3ccabe35	0.0247489
31	0xbbf64e39	-0.007516649
32	0xbb814215	-0.003944645
33	0x3d50ab1e	0.05094444
34	0x3dc2fb1e	0.09520553
35	0xbd430b8f	-0.047618445
36	0xbb1e5f77	-0.0024165788
37	0xbdc4c977	-0.09608739
38	0xbd7ee061	-0.062225703
39	0xbd8b611f	-0.06805634
40	0xbce8b1d3	-0.028405106
41	0x3c8ff341	0.017572047
42	0xbd8dedaf	-0.069301
43	0xbd57dae3	-0.05269898
44	0xbd8c67db	-0.06855746
45	0xbd710455	-0.058842022
46	0xbcbddd79	-0.023176895
47	0xbcc12831	-0.023578735
48	0x3ddef299	0.108861156
49	0xbd1a560a	-0.03767971
50	0xbd336e25	-0.043806214
51	0xbd3ea90a	-0.046547927
52	0xbd40b07b	-0.047043305
53	0x3cfad290	0.030617982
54	0x3de343f4	0.110969454
55	0x3dae08a7	0.08497744
56	0x3d841529	0.064493485
57	0x3dac3f7d	0.08410547
58	0x3db7b7c1	0.08970595
59	0xbd21da3b	-0.03951476
60	0x3d494be0	0.049144626
61	0x3cea4962	0.028599445
62	0x3d327d57	0.043576565
63	0x3d2ee3a3	0.04269756
64	0x3dac473f	0.084120266
65	0x3c6ae5e9	0.014337041
66	0xbd89f291	-0.06735719
67	0x3ddc41f5	0.10754768
68	0x3df8a810	0.121414304
69	0x3d8928d0	0.066972375
70	0xbc165bc9	-0.009177157
71	0xbd038006	-0.032104515
72	0x3d81da12	0.06340422
73	0xbdb07838	-0.0861668
74	0xbdbfb9e3	-0.09361627
75	0xbd74aee9	-0.05973712
76	0xbc20d653	-0.009816724
77	0xbd09b974	-0.033624128
78	0x3c9fe51d	0.01951843
79	0xbdaed4bd	-0.0853667
80	0xbd439f5f	-0.04775941
81	0x3da33fba	0.07971139
82	0x3c615e7f	0.01375544
83	0x3db43caa	0.08800633
84	0x3ba8bf28	0.0051497407
85	0x3d244627	0.040105965
86	0x3ca57148	0.020195618
87	0x3ba74d7e	0.0051056733
88	0xbdc4b3d2	-0.096046105
89	0x3cd47383	0.025933987
90	0x3d6efc2d	0.058345962
91	0xbdd7dd27	-0.10540228
92	0x3cc9b57a	0.024622668
93	0x3de29b57	0.11064785
94	0x3d5aaf24	0.053389683
95	0x3cb115ea	0.021616895
96	0x3e09df7f	0.13464163
97	0x3e5d51f3	0.21613292
98	0x3d826fc5	0.063689746
99	0x3c47bcde	0.012191026
100	0x3e074df0	0.13213325
101	0xbd123006	-0.03569033
102	0x3d675707	0.05647948
103	0x3dbd7477	0.092507295
104	0xbcbe02ac	-0.023194633
105	0x3d233746	0.039847635
106	0x3e1c7556	0.15279135
107	0x3dd3a755	0.103346504
108	0x3da9a64c	0.08283672
109	0x3d17ad32	0.037030406
110	0x3cd11f5d	0.02552765
111	0xbd3771b2	-0.044786163
112	0xbce2fba6	-0.027707886
113	0x3cb50a98	0.022099778
114	0xbd29350a	-0.041310348
115	0xbd10473f	-0.035224196
116	0x3dfdfadf	0.124013655
117	0x3d67fc45	0.056637067
118	0xbd714df9	-0.05891225
119	0x3c9c3bbc	0.019071452
120	0xbdd50886	-0.10402016
121	0x3d848bab	0.06471952
122	0xbdacbb49	-0.08434159
123	0xbd3bd718	-0.045859426
124	0xbd12e6e3	-0.035864722
125	0xbd99a8ac	-0.07502875
126	0x3d65a1ea	0.056062616
127	0x3d531dcb	0.051542085
128	0x3e0bbeb7	0.1364697
129	0xbc67d8d0	-0.014150813
130	0xbd2580d0	-0.04040605
131	0x3caa4ff4	0.020790078
132	0x3d847702	0.064680114
133	0x3d93ffe8	0.072265446
134	0x3c500f39	0.012698942
135	0x3d82aa0b	0.06380089
136	0xbcd0d70b	-0.025493165
137	0xbccd3b75	-0.025052765
138	0x3dc5078a	0.096205786
139	0x3d473189	0.048631225
140	0x3e0016f4	0.12508756
141	0x3d48efb0	0.04905671
142	0x3dd9e6f9	0.10639758
143	0x3d47574b	0.048667233
144	0x3e068716	0.13137469
145	0x3d9d4404	0.076789886
146	0x3da44a25	0.080219544
147	0x3e0941f7	0.1340407
148	0x3dba4d46	0.0909677
149	0x3d361940	0.044457674
150	0x3cf5d246	0.030007493
151	0x3cbe6682	0.023242239
152	0xbcbaaf23	-0.02278859
153	0xbdc073a9	-0.093970604
154	0xbdab50e6	-0.083650395
155	0x3b9eb157	0.004842918
156	0xbd0ed4e5	-0.034871
157	0xbc0c5e1b	-0.008567358
158	0xbd576ac3	-0.05259205
159	0xbda47887	-0.08030801
160	0xbde60b85	-0.11232666
161	0x3c5c5a86	0.013449317
162	0x3e004d92	0.1252959
163	0x3c02cc13	0.007983225
164	0xb9c3a4f5	-0.000373162
165	0x3e190726	0.14944133
166	0x3d931be8	0.07183057
167	0x3c9fb86b	0.019497117
168	0x3d408a6a	0.047007002
169	0x3e0390b5	0.1284817
170	0x3cc4fdf3	0.024046874
171	0x3b4f17aa	0.0031599798
172	0xbd04a67f	-0.032385346
173	0xbe1dce06	-0.15410623
174	0x3d0bf32d	0.034167457
175	0xbe1dfa83	-0.15427594
176	0xbdf7866c	-0.12086186
177	0x3b1121f7	0.0022145489
178	0xbe13ae0e	-0.14421865
179	0x3cf8574c	0.030315064
180	0xbd70ad91	-0.058759276
181	0xbda5006b	-0.0805672
182	0xbdf877e8	-0.12132245
183	0x3de8a8b8	0.113603055
184	0x3d9b6146	0.07586913
185	0xbcadbae4	-0.02120728
186	0x3dd5a03c	0.10430953
187	0x3d9f967c	0.077923745
188	0xbd8e15b0	-0.0693773
189	0xbd165287	-0.036699798
190	0xbc8eeb6f	-0.017446248
191	0xbced48d8	-0.028965399
192	0xbdcaf449	-0.09909875
193	0xbd99c9b4	-0.07509175
194	0xbdd266a3	-0.10273483
195	0xbe17937c	-0.14802355
196	0x3cdfb3f1	0.027307482
197	0xbd82e54e	-0.06391393
198	0x3da6f795	0.08152691
199	0xbc3f0e69	-0.0116611505
200	0x3d8ed9d9	0.06975145
201	0x3e0b3e63	0.13598017
202	0x3c5db2d3	0.013531405
203	0x3daf6596	0.08564298
204	0x3d8d344a	0.06894739
205	0x3d7a4d72	0.061109014
206	0x3c9714bc	0.018442504
207	0xbdc300e1	-0.09521652
208	0x3d4df6d7	0.050284233
209	0xbc097e7b	-0.008391972
210	0x3c4ff45c	0.012692537
211	0xbd867ae5	-0.06566409
212	0xbdabc642	-0.08387424
213	0xbd7cb706	-0.061697982
214	0xbd774bd1	-0.06037504
215	0xbdff085b	-0.124527656
216	0xbd77acb9	-0.060467456
217	0xbca2b57b	-0.019861927
218	0xbd6110ab	-0.054947536
219	0xbd208475	-0.03918882
220	0xbd0e0780	-0.03467512
221	0xbbff2d96	-0.0077874167
222	0xbd968890	-0.07350266
223	0xbcb13567	-0.02163191
224	0x3d18c2ad	0.037295032
225	0x3b8bd834	0.004267717
226	0x3cc6ead6	0.0242819
227	0x3c1baf6c	0.009502273
228	0x3c9e5443	0.019327288
229	0x3d93d290	0.07217896
230	0x3dc86e13	0.0978662
231	0x3da2c705	0.07948116
232	0x3e2fc371	0.17164399
233	0x3d9b6057	0.07586735
234	0xbe190c4f	-0.14946102
235	0xbd8f2eda	-0.06991358
236	0xbbf2e684	-0.0074127335
237	0x3bdbe9c1	0.0067112152
238	0x3d3cb1f7	0.046068158
239	0xbd957dac	-0.07299361
240	0xbdddf0db	-0.10836955
241	0x3bacd6a5	0.005274611
242	0x3cbcd680	0.0230515
243	0xbcebd30a	-0.028787155
244	0xbd9741aa	-0.07385571
245	0x3d068d1a	0.03284941
246	0x3c918e83	0.01776815
247	0x3d5a9cc8	0.053372175
248	0x3e56b54f	0.20967601
249	0x3b72f55f	0.0037072522
250	0x3ce7baac	0.028287254
251	0x3dadd1ab	0.084872566
252	0x3cfa6cb4	0.030569412
253	0xbda6c7d1	-0.08143581
254	0x3b4a2de4	0.0030850107
255	0x3d8ace07	0.06777578

bias f4 [4]
0	0xbc770e24	-0.015079055
1	0x3d39718b	0.0452743
2	0x3d2142c5	0.039370317
3	0xbd1ae792	-0.0378185
