super_resolution/checkpoint_scale2/model_epoch_21.pth (torch_old, 247001 bytes, 8 tensors)

weight f4 [64, 1, 5, 5]
0	0x3e5c1a10	0.21494317
1	0xbdca8a0a	-0.0988961
2	0xbe2475d1	-0.16060568
3	0xbe1b0677	-0.15139185
4	0x3e592064	0.21203762
5	0xbd346ecd	-0.04405098
6	0xbe8166bd	-0.25273696
7	0xbe601724	-0.21883827
8	0x3cb3e02f	0.021957485
9	0xbe3fb7d4	-0.18722469
10	0xbee080b4	-0.43848193
11	0xbe5556f2	-0.20833948
12	0xbe9ab37b	-0.30215058
13	0xbe304eb5	-0.17217524
14	0xbd08076a	-0.033210196
15	0xbe81a97b	-0.25324616
16	0xbe11b8b8	-0.14230621
17	0xbd85aac6	-0.06526713
18	0xbe8ac407	-0.27102682
19	0x3defeb3a	0.11714788
20	0x3d07a385	0.03311493
21	0x3cc7bde4	0.02438254
22	0xbe121ecd	-0.14269562
23	0x3cc903eb	0.024538001
24	0x3dbdb26d	0.09262548
25	0xbe18805e	-0.14892718
26	0xbdd7cd2a	-0.10537179
27	0xbe8d7eec	-0.27635896
28	0x3d872994	0.06599727
29	0xbe23a03e	-0.15979096
30	0xbe9558b7	-0.29169247
31	0xbdbf6849	-0.09346063
32	0xbe547212	-0.2074664
33	0x3d5aff44	0.053466097
34	0xbd019cda	-0.031643726
35	0xbdf8cb09	-0.12148101
36	0xbd86985c	-0.06572029
37	0xbe73ebfc	-0.2382049
38	0xbe2235c3	-0.15840821
39	0x3daf719e	0.08566593
40	0x3e0b9f3d	0.13634963
41	0xbe837593	-0.2567564
42	0x3ca8d5be	0.020609733
43	0x3e8a2f04	0.26988995
44	0xbe3c8da6	-0.1841341
45	0xbddeb269	-0.10873873
46	0xbdee67f9	-0.11640925
47	0xbe21f586	-0.15816316
48	0xbcc213a9	-0.023691015
49	0xbd74bc14	-0.059749678
50	0xbea81e2f	-0.32835528
51	0x3dbd8c4e	0.092552766
52	0xbd01d12a	-0.031693615
53	0x3dd28283	0.102787994
54	0x3e1a04c0	0.15040874
55	0xbe8284b8	-0.2549188
56	0xbc8a8d6c	-0.016913138
57	0xbd8f20f0	-0.06988704
58	0x3d968ef6	0.073514864
59	0xbee28f0d	-0.44249764
60	0x3d362f47	0.04447868
61	0x3d106066	0.035248183
62	0x3d783d20	0.06060517
63	0xbd8f3653	-0.069927834
64	0xbc997950	-0.018734604
65	0xbe3dd533	-0.1853836
66	0xbe5bd532	-0.21468046
67	0xbe1ff377	-0.15620218
68	0xbdb10b72	-0.08644761
69	0xbe4f2345	-0.20228298
70	0xbe0d4cb0	-0.13798785
71	0x3bcaf3fc	0.006193636
72	0xbe284ee0	-0.16436338
73	0x3e2668aa	0.16250864
74	0xbde321e4	-0.110904485
75	0xbe57d600	-0.21077728
76	0xbe3f007d	-0.1865253
77	0x3d97f802	0.074203506
78	0xbdae89f0	-0.08522403
79	0xbe73d24a	-0.23810688
80	0x3d3de8a5	0.046364445
81	0x3da1f0bb	0.07907244
82	0xbe90b828	-0.282655
83	0xbe9aba85	-0.30220428
84	0xbec8c3f5	-0.39212003
85	0x3da37f7d	0.07983301
86	0xbd748cf0	-0.05970472
87	0xbe54f3fa	-0.20796195
88	0x3b87d419	0.004145157
89	0xbeb6937e	-0.35659403
90	0xbe0a067c	-0.13479036
91	0x3e6ef4c5	0.2333556
92	0x3d8bf49e	0.068337664
93	0xbdc52b83	-0.0962744
94	0xbe0797e3	-0.13241534
95	0xbdeaa679	-0.114575334
96	0xbe93cded	-0.28868046
97	0xbdca7e05	-0.098873176
98	0xbbced195	-0.006311605
99	0xbe2c460b	-0.16823594
100	0xbe35ca16	-0.17752871
101	0x3e70534e	0.23469278
102	0x3e55a815	0.208649
103	0xbe1bfbea	-0.15232816
104	0x3ddb902d	0.10720859
105	0x3d356cb8	0.044293135
106	0xbe9ecb23	-0.31014356
107	0x3b58ff80	0.0033111274
108	0x3d445b53	0.047938656
109	0xbbdafd06	-0.006682995
110	0xbeca4580	-0.3950615
111	0x3c987a24	0.018612929
112	0x3d8734dd	0.0660188
113	0xbe140d61	-0.14458229
114	0xbe41461c	-0.18874401
115	0xbc7986cf	-0.015229895
116	0xbd33cb9e	-0.043895356
117	0xbe946aa9	-0.28987625
118	0x3e80e047	0.2517111
119	0x3dadc625	0.08485059
120	0xbe85f23e	-0.2616138
121	0xbd55bdba	-0.05218289
122	0xbdc21227	-0.094761185
123	0xbea82b6d	-0.3284563
124	0xbe5950b4	-0.21222192
125	0xbdaa58bc	-0.08317706
126	0xbde26a54	-0.11055437
127	0x3a80ba46	0.0009821139
128	0xbcb401e6	-0.021973561
129	0xbd838d19	-0.064233966
130	0x3da1b118	0.07895106
131	0x3e82e5c6	0.25565928
132	0x3e1dcc1f	0.15409897
133	0x3de07ca5	0.10961274
134	0xbdf55236	-0.11978571
135	0xbd88d171	-0.06680573
136	0xbed3258f	-0.41239592
137	0x3d34a1fd	0.044099797
138	0x3eb77d49	0.35837772
139	0xbe96b109	-0.29431942
140	0xbb8f9e30	-0.004382871
141	0xbe00dab3	-0.12583427
142	0xbf1a1281	-0.60184485
143	0xbe0af819	-0.13571204
144	0xbccfde29	-0.025374489
145	0xbde2080d	-0.11036692
146	0xbcf1abf6	-0.029500943
147	0xbe709da1	-0.2349763
148	0x3e3783a7	0.17921315
149	0x3e68de87	0.22741137
150	0x3c53d3a9	0.012928882
151	0xbd947979	-0.072497316
152	0x3e60043f	0.2187662
153	0xbe720805	-0.23635872
154	0xbe83c217	-0.25734016
155	0xbdd62ffe	-0.104583725
156	0x3e5261cc	0.20545119
157	0x3e3d692c	0.18497151
158	0x3d661d8b	0.056180518
159	0x3dbaef1c	0.09127638
160	0x3e114785	0.14187439
161	0x3dd25d80	0.1027174
162	0xbed8268e	-0.42216915
163	0xbeccdd07	-0.4001238
164	0x3e830c63	0.25595388
165	0x3dd5ff8b	0.104491316
166	0xbd94612f	-0.07245099
167	0xbe54bf40	-0.20776081
168	0xbea5ee4d	-0.32408372
169	0xbca8ffa5	-0.020629713
170	0xbe6e6b9c	-0.23283237
171	0x3e7cc656	0.24685034
172	0xbe8adcd8	-0.27121615
173	0x3be07756	0.0068501635
174	0xbd75b0a2	-0.059982903
175	0xbdf0c5fc	-0.117565125
176	0xbc2cfb5e	-0.0105579775
177	0x3de4d2e6	0.11173038
178	0xbe12d0dd	-0.14337488
179	0xbe947954	-0.28998816
180	0x3cd06a2e	0.025441255
181	0xbe16bcc3	-0.14720444
182	0x3ef8fb36	0.4862916
183	0x3dc754ea	0.09732993
184	0x3e8fbe3d	0.28074828
185	0x3d5b591d	0.053551782
186	0x3e34c2dd	0.1765246
187	0x3b8b6237	0.0042536515
188	0x3ced6496	0.028978627
189	0xbd8f832b	-0.0700744
190	0xbe04f9dc	-0.12985939
191	0xbc3ce026	-0.0115280505
192	0xbe85ed36	-0.2615754
193	0xbe83277b	-0.2561606
194	0xbe1c5beb	-0.15269439
195	0x3ea2ca4c	0.31794965
196	0xbec46acd	-0.38362733
197	0x3e1bc40d	0.15211506
198	0xbe782575	-0.24233039
199	0xbe3260c3	-0.17419724
200	0x3e5dfca2	0.21678403
201	0x3e4231c5	0.18964298
202	0x3e0685b7	0.13136946
203	0xbe7f0d78	-0.24907482
204	0xba88f3cd	-0.0010448635
205	0xbd321856	-0.04348024
206	0x3ea23dc2	0.31687742
207	0xbea905bd	-0.3301219
208	0x3e32400b	0.17407243
209	0xbce93975	-0.02846978
210	0xbeb23004	-0.34802258
211	0x3eb970f1	0.3621898
212	0xbe01a747	-0.12661467
213	0xbe6cf4ff	-0.23140334
214	0xbe8341e4	-0.25636208
215	0xbce06183	-0.027390247
216	0xbbe3bc57	-0.006949942
217	0x3e146bcb	0.14494245
218	0xbe4dc1ab	-0.2009341
219	0x3e24e550	0.16103101
220	0x3f0667b0	0.52501965
221	0x3b7a258c	0.0038169352
222	0xbd93cf42	-0.07217266
223	0x3e75c16c	0.23999566
224	0x3e3f06b5	0.18654902
225	0x3e6bc274	0.23023397
226	0xbe97c31c	-0.29641044
227	0x3e1b1aea	0.15146986
228	0xbe2ba1ef	-0.16760992
229	0x3e21563f	0.15755557
230	0x3e54b636	0.20772633
231	0x3e35dac7	0.17759238
232	0xbe37aa8a	-0.17936149
233	0xbbe09d41	-0.0068546836
234	0xbe40681a	-0.18789712
235	0x3dcb5467	0.09928208
236	0x3dcac234	0.099003226
237	0x3e59179b	0.21200411
238	0xbe9080a8	-0.28223157
239	0xbdb735ee	-0.08945833
240	0xbce8addf	-0.02840322
241	0xbdc08caf	-0.09401833
242	0xbcbdbff9	-0.023162829
243	0x3e0dddfa	0.13854209
244	0xbe12cc3c	-0.14335722
245	0xbd2aee73	-0.04173131
246	0xbe725b62	-0.23667672
247	0x3e3c6c0a	0.18400589
248	0xbe583479	-0.21113767
249	0xbd556a14	-0.052103117
250	0xbe304d0b	-0.1721689
251	0xbe050399	-0.12989654
252	0xbe4c55be	-0.19954583
253	0xbf0eaedd	-0.5573557
254	0x3dc1fb1e	0.09471725
255	0xbd3728f2	-0.044716783

bias f4 [64]
0	0x3c7ec146	0.01554901
1	0x3cb691ec	0.022286378
2	0xbe6a49bf	-0.22879694
3	0xbdb5f1dd	-0.088840224
4	0xbdc83780	-0.09776211
5	0x3d777511	0.060414378
6	0x3dbd7749	0.092512675
7	0xbc9c8a39	-0.019108878
8	0xbe292dd6	-0.16521391
9	0xbe65dcfd	-0.22447582
10	0x3e0b60f0	0.13611197
11	0x3de8ea44	0.113728076
12	0x3deaf4e1	0.11472488
13	0xbe077acd	-0.13230439
14	0xbe1e4068	-0.15454257
15	0x3d34e4d8	0.044163555
16	0xbd51c9c2	-0.051217802
17	0xbc22f17e	-0.009945272
18	0xbe6c1e07	-0.2305833
19	0x3df54754	0.119764954
20	0x3d199d4e	0.037503533
21	0x3e1bf148	0.1522876
22	0x3d7c142f	0.061542686
23	0x3d16dfbe	0.03683447
24	0xbd325150	-0.043534577
25	0xbe5b7a58	-0.21433389
26	0xbe3e5784	-0.18588072
27	0xbd90725c	-0.07053062
28	0x3d90a065	0.07061843
29	0xbd3af491	-0.045643393
30	0x3d57f8e6	0.052727602
31	0xbd07f4fd	-0.033192623
32	0xbdd2c1ce	-0.102908716
33	0xbd0172de	-0.031603687
34	0xbd46c6b4	-0.04852934
35	0xbe16efad	-0.14739867
36	0xbc94799f	-0.0181244
37	0x3da070ba	0.07834001
38	0x3dbe1526	0.092813775
39	0xbd98029b	-0.07422372
40	0xbe5b4444	-0.2141276
41	0x3dd1e687	0.10249048
42	0xbcd2f80c	-0.025753044
43	0xbd51efc6	-0.051254056
44	0xbbf35837	-0.0074262875
45	0xbd9240d1	-0.07141269
46	0xbd033b1b	-0.03203879
47	0x3d97b613	0.07407775
48	0x3d2191ef	0.039445814
49	0xbe73b378	-0.2379893
50	0xbe1de4d0	-0.15419316
51	0xbda34780	-0.07972622
52	0xbc4d87b1	-0.012544558
53	0x3d069639	0.032858107
54	0xbe02915e	-0.12750766
55	0xbe5b8147	-0.21436034
56	0x3df493d2	0.11942257
57	0xbe45e020	-0.19323778
58	0xbe62871f	-0.22121857
59	0x3ddcf47d	0.1078882
60	0x3e2e912c	0.17047566
61	0x3cb009cd	0.021489048
62	0xbe3f4c71	-0.18681504
63	0xbe2c262a	-0.16811433

weight f4 [64, 64, 3, 3]
0	0xbb7b2645	-0.003832237
1	0xbd11c2c7	-0.035586145
2	0xbdd37613	-0.10325255
3	0x3c07d28c	0.008289944
4	0xbd887f03	-0.066648506
5	0x3c7528c0	0.014963329
6	0xbb759551	-0.0037473033
7	0xbcd975b7	-0.026545389
8	0xbd9dec78	-0.077111185
9	0xbdbad954	-0.09123483
10	0x3c3e2031	0.011604355
11	0xbe11ab13	-0.14225416
12	0x3c049d58	0.008094154
13	0xbdcf623c	-0.101261586
14	0xbdc71e66	-0.09722595
15	0xbdad6cea	-0.08468039
16	0xbd49e6f4	-0.04929252
17	0xbdeee763	-0.11665227
18	0xbdf85282	-0.12125112
19	0xbdeddca3	-0.11614349
20	0xbdb4b726	-0.08823995
21	0xbe049d20	-0.12950563
22	0xbe04cf6f	-0.12969755
23	0xbd80e993	-0.06294551
24	0xbd47f5fb	-0.04881857
25	0xbddfe609	-0.109325476
26	0xbe07550f	-0.13216041
27	0xbc90b6d7	-0.01766531
28	0xbd176c96	-0.03696879
29	0xbdfa7fbb	-0.12231394
30	0x3ddad084	0.106843024
31	0x3de5c338	0.11218876
32	0xbc00b48e	-0.007855548
33	0xbd5e9ea2	-0.054350503
34	0xbd7aaa9f	-0.061197873
35	0xbc1b4d2c	-0.009478848
36	0xbe167d79	-0.14696302
37	0x3ca3893f	0.019962905
38	0xbdda6d91	-0.106654294
39	0xbd2d51ad	-0.04231422
40	0x3d99ad0f	0.075037114
41	0xbd69d559	-0.05708823
42	0x3d6c3725	0.057669777
43	0x3d9ce66d	0.07661138
44	0xbc3a75aa	-0.011380592
45	0xbe0084b4	-0.12550622
46	0xbdc41ea2	-0.09576155
47	0xbda3deea	-0.08001502
48	0x3c541081	0.012943388
49	0xbdda7177	-0.10666173
50	0xbc7b67d7	-0.015344582
51	0xbe10a5e5	-0.14125784
52	0xbda31114	-0.07962242
53	0xbcdd04a1	-0.026979746
54	0xbd913e59	-0.0709197
55	0xbe01ab1d	-0.12662931
56	0xbd5a2038	-0.053253382
57	0xbda398dd	-0.07988141
58	0x3c97b6a6	0.01851971
59	0xbdf1becb	-0.11803969
60	0x3d50641d	0.050876725
61	0x3a865602	0.0010249021
62	0xbd934435	-0.07190744
63	0xbd918226	-0.07104902
64	0xbd9f44f9	-0.07776827
65	0x3d032555	0.032018024
66	0x3c25a070	0.010109052
67	0xbc3b8608	-0.01144553
68	0xbdba5e60	-0.09100032
69	0xbde10c11	-0.109886296
70	0xbd99cf1c	-0.07510206
71	0xbd01b6ba	-0.031668402
72	0xbe2df3bb	-0.16987507
73	0xbd55c1f8	-0.052186936
74	0xbc7a2fde	-0.0152702015
75	0xbd090e6c	-0.03346102
76	0xbdabdb98	-0.083914936
77	0xbd48e04f	-0.049042042
78	0xbcae3de2	-0.021269742
79	0xbe118c98	-0.14213789
80	0x3c9cf2aa	0.01915868
81	0xbda2db60	-0.07951999
82	0x3cc3d6aa	0.02390607
83	0xbd11d5a7	-0.035604145
84	0x3d168e6a	0.03675691
85	0xbe0069cd	-0.1254036
86	0xbde68d43	-0.11257412
87	0xbda1bb71	-0.0789708
88	0xbddeecda	-0.108850196
89	0xbd3e2790	-0.04642445
90	0xbd84ba9c	-0.064809054
91	0xbd456ea8	-0.048201233
92	0xbdc2f49a	-0.0951931
93	0xbddc806b	-0.10766681
94	0xbd87beda	-0.06628199
95	0x3aa3617e	0.0012464968
96	0xbe370d8e	-0.17876264
97	0xbd479443	-0.048725378
98	0xbd880572	-0.066416636
99	0x3d0160d3	0.03158648
100	0xbc9d0254	-0.01916615
101	0x3db49c77	0.08818906
102	0x3da4bf55	0.08044306
103	0xbc321806	-0.010869985
104	0xbd8c7d8d	-0.068598844
105	0xbcf3ba5f	-0.029751955
106	0xbd90aaa7	-0.07063799
107	0x3d8ff376	0.07028858
108	0x3be7db17	0.007075678
109	0x3c349b16	0.0110233035
110	0xbbdc6a0a	-0.006726508
111	0xbd073bdc	-0.03301607
112	0xbd537605	-0.051626224
113	0xbc7b0d3e	-0.015322981
114	0x3da80934	0.0820488
115	0x3d24ed9f	0.040265676
116	0xbd730c23	-0.059337746
117	0xbdcd3f77	-0.100218706
118	0xbde15ed9	-0.11004419
119	0x3da6eba4	0.08150414
120	0xbdb1ff0a	-0.08691223
121	0xbca6a182	-0.020340685
122	0xbe0fc59d	-0.14040227
123	0xbe5a136a	-0.21296468
124	0xbde28d8b	-0.110621534
125	0xbe119ee6	-0.14220771
126	0xbc408178	-0.011749618
127	0x3d1c9ca0	0.038235307
128	0xbd660098	-0.05615291
129	0xbe377890	-0.17917085
130	0x3cd0eafa	0.02550267
131	0xbd797bbf	-0.06090903
132	0xbdb81193	-0.08987727
133	0x3c1ad23f	0.009449541
134	0xbdb514d0	-0.0884186
135	0xbd908659	-0.07056875
136	0xbcc7332f	-0.024316398
137	0x3a85524b	0.001017162
138	0xbd9cc510	-0.07654774
139	0xbd433599	-0.047658537
140	0x3d14579c	0.036216363
141	0xbd791378	-0.060809582
142	0xbc0495cc	-0.008092355
143	0xbc177b1c	-0.00924566
144	0xbd92493d	-0.07142875
145	0xbe4c2678	-0.1993655
146	0xbc262076	-0.010139575
147	0xbd0f0e74	-0.034925893
148	0xbe0b42cf	-0.13599704
149	0xbdf04de2	-0.11733605
150	0xbdf1d4a3	-0.11808135
151	0xbd30a7de	-0.04312884
152	0xbdb75a74	-0.089527994
153	0xbcff0312	-0.031129394
154	0xbc1f638b	-0.009728323
155	0xbdc8d9f6	-0.09807198
156	0xbe24067c	-0.16018099
157	0xbd8badd2	-0.06820263
158	0xbc394c82	-0.011309745
159	0xbe162c30	-0.14665294
160	0xbd472f03	-0.04862882
161	0xbe1526d8	-0.14565599
162	0x3d0dc3ab	0.03461043
163	0xbe23986d	-0.15976115
164	0xbd827a2a	-0.06370957
165	0xbcd687fe	-0.026187893
166	0xbdd9179f	-0.106002085
167	0xbdc0cde7	-0.09414273
168	0xbd82831c	-0.063726634
169	0x3c09caf8	0.008410208
170	0xbd657348	-0.056018144
171	0xbde2a669	-0.110668965
172	0xbdb69eb6	-0.089169905
173	0xbd4404d5	-0.04785617
174	0xbbec121d	-0.0072043077
175	0xbd29a2f2	-0.041415162
176	0xbd5ca783	-0.05387069
177	0xbdcbd396	-0.09952466
178	0xbce674f7	-0.028131945
179	0x3c8812a5	0.016610453
180	0xbc9a52ae	-0.018838253
181	0xbbe37920	-0.0069419295
182	0x3c862623	0.016375607
183	0xbd8d0ca6	-0.06887178
184	0xbd071c32	-0.032985874
185	0xbcf8793f	-0.030331252
186	0xbdb59fef	-0.088683955
187	0xbceff5a6	-0.029291939
188	0xbc2ad6fc	-0.010427233
189	0xbab996ca	-0.0014159319
190	0x3d0c4866	0.034248732
191	0xbdaf297e	-0.08552836
192	0x3c6b7237	0.014370493
193	0xbd7bdbb2	-0.061488815
194	0x3d5d90c8	0.054093152
195	0xbdffef80	-0.12496853
196	0xbde28867	-0.11061173
197	0xbd1b3c1e	-0.03789913
198	0xbd85dfa9	-0.065368004
199	0xbd4f36ec	-0.050589487
200	0xbda1ba55	-0.07896868
201	0xbd70a14a	-0.058747567
202	0xbc5f5eb6	-0.013633421
203	0xbdca5b55	-0.098807015
204	0xbdca0ffa	-0.098663285
205	0x3d1b4283	0.037905227
206	0x3cd87727	0.026424004
207	0xbda90113	-0.08252158
208	0xbcdd2369	-0.026994424
209	0xbd98b9b8	-0.07457298
210	0xbdb0fa4b	-0.086414896
211	0xbdbe9248	-0.09305245
212	0xbdbdd6ed	-0.092695095
213	0xbdc25c11	-0.094902165
214	0xbd726704	-0.059180275
215	0x3bdbc711	0.00670708
216	0xbddeb708	-0.10874754
217	0xbdb2d337	-0.08731692
218	0xbe1af59e	-0.15132758
219	0xbd0d2627	-0.034460213
220	0x3c9ac025	0.01889045
221	0xbe0ef6db	-0.13961355
222	0xbdb9b48d	-0.090676405
223	0xbdae3000	-0.08505249
224	0xbccbb59c	-0.024866872
225	0xbda92b18	-0.082601726
226	0x3d1d2783	0.03836776
227	0xbd4fa3b7	-0.05069324
228	0xbd5165e6	-0.05112257
229	0xbd2bd8dc	-0.04195486
230	0xbdf99059	-0.12185735
231	0xbd5e6245	-0.054292936
232	0xbd43837b	-0.04773281
233	0xbda1f418	-0.07907885
234	0x3dc6678e	0.0968772
235	0xbd136607	-0.035985973
236	0x3c1ce9e6	0.00957725
237	0x3c40b490	0.011761799
238	0x3b5659fa	0.0032707439
239	0xbdf19c91	-0.11797441
240	0x3d41838d	0.047244597
241	0xbd327423	-0.043567788
242	0x3d974ea9	0.0738805
243	0x3bbccd71	0.005761795
244	0x3d25847c	0.04040955
245	0xbd8eea7b	-0.06978317
246	0xbdca0d9e	-0.098658785
247	0xbde25c60	-0.110527754
248	0x3d160a18	0.03663072
249	0x3ce0ff97	0.027465625
250	0xb9d83d3c	-0.00041244354
251	0xbdc9a286	-0.09845452
252	0xbde2bf46	-0.11071639
253	0xbe114895	-0.14187844
254	0xbe15769a	-0.14596024
255	0xbd38743c	-0.045032725

bias f4 [64]
0	0xbd00b95a	-0.031426765
1	0xbd2afbb0	-0.041743934
2	0xbd21b8fe	-0.039483063
3	0xbd3b195b	-0.045678478
4	0xbd4aa243	-0.04947115
5	0xbcf4c50b	-0.029879114
6	0xbd9b8e78	-0.07595533
7	0xbdb65039	-0.0890202
8	0xbd0c6898	-0.034279436
9	0xbdb614b9	-0.08890671
10	0xbd87b024	-0.06625393
11	0xbc9dac24	-0.019247122
12	0x3c99b41c	0.01876264
13	0xbda99abd	-0.08281467
14	0xbd3898ac	-0.045067474
15	0xbd684c9a	-0.056713678
16	0xbd8b3042	-0.06796314
17	0xbaae4003	-0.0013294223
18	0x3d256058	0.040375084
19	0xbd219dfb	-0.039457303
20	0xbd7d0419	-0.061771486
21	0xbdc5f30c	-0.09665498
22	0xbd973213	-0.07382598
23	0xbd05623c	-0.032564387
24	0xbd96075d	-0.07325623
25	0xbd080102	-0.033204086
26	0xbd510fb9	-0.051040385
27	0xbd47583b	-0.048668128
28	0xbd3fc2d0	-0.046816647
29	0xbd0445ef	-0.032293256
30	0xbd97731a	-0.07395001
31	0xbd993b66	-0.074820325
32	0xbd3979f0	-0.045282304
33	0xbc25c060	-0.010116667
34	0xbc6b0b36	-0.014345935
35	0xbdc168cc	-0.094438165
36	0xbd581aa2	-0.052759774
37	0xbcee8646	-0.029116761
38	0xbdbf3812	-0.093368664
39	0x3d052b5b	0.03251205
40	0xbcf9104b	-0.030403277
41	0xbdb64c9d	-0.089013316
42	0xbcbceb42	-0.023061398
43	0xbd1e407a	-0.03863571
44	0xbd9a1ac9	-0.0752464
45	0xbd95a35a	-0.073065475
46	0xbd8e1ef4	-0.069394976
47	0xbd01d593	-0.03169782
48	0xbd83be8c	-0.06432828
49	0xbd8aee20	-0.067837
50	0xbd758078	-0.05993697
51	0xbcfb4768	-0.030673698
52	0xbd556411	-0.052097384
53	0xbc0acc1a	-0.008471513
54	0xbda48aac	-0.08034262
55	0xbce8dae9	-0.028424697
56	0xbd8dbf30	-0.06921232
57	0xbc994058	-0.01870744
58	0xbcaef322	-0.02135617
59	0xbd418d73	-0.047254037
60	0xbcf6957f	-0.030100582
61	0xbc22b60e	-0.0099311005
62	0xbd715521	-0.058919076
63	0xbd96dd7b	-0.07366463

weight f4 [32, 64, 3, 3]
0	0x3ddde810	0.10835278
1	0xbc31b052	-0.010845261
2	0x3bf3b5ca	0.0074374424
3	0x3cef3180	0.029198408
4	0xbda4e149	-0.08050782
5	0xbe3858d2	-0.18002632
6	0x3d45cf37	0.04829332
7	0xbc16507d	-0.009174463
8	0xb9ab3cd2	-0.00032660976
9	0x3cef2ddf	0.029196678
10	0x3dde78ea	0.10862906
11	0xbdafe886	-0.08589272
12	0xbce32fc7	-0.027732743
13	0x3c8b5de3	0.017012542
14	0xbc76f30a	-0.015072593
15	0xbcdc6377	-0.026902897
16	0x3d9e2a69	0.07722933
17	0xbd4284df	-0.047489997
18	0xbde69a10	-0.11259854
19	0xbbbad781	-0.0057019596
20	0xbaa14104	-0.0012302701
21	0xbbb77356	-0.005598466
22	0xbd89f631	-0.067364104
23	0xbd9e0925	-0.07716588
24	0xbd6f9d0f	-0.058499392
25	0xbe188a9c	-0.14896625
26	0xbe395570	-0.18098998
27	0x3e53291e	0.20621154
28	0xbc811c51	-0.015760573
29	0x3c929d08	0.017897144
30	0x3d0480aa	0.032349266
31	0xbcabdf30	-0.020980448
32	0xbca0962a	-0.019602854
33	0x3be05a0e	0.006846673
34	0xbcf6768e	-0.030085828
35	0xbd9360f3	-0.07196226
36	0xbaa7180c	-0.0012748255
37	0x3da2c4d1	0.07947696
38	0xbddb7be5	-0.107169904
39	0xbd8c3498	-0.06845969
40	0xbdbea66f	-0.093090884
41	0xbd845c65	-0.06462935
42	0xbd8c9f48	-0.06866318
43	0xbdc10384	-0.09424499
44	0xbc9e28d7	-0.019306583
45	0xbce40939	-0.027836429
46	0xbd6ffd51	-0.05859119
47	0xbd1a5923	-0.037682664
48	0xbc285c89	-0.010275968
49	0xbb2bda0c	-0.0026222495
50	0xbcd8d3bd	-0.026468152
51	0xbd9bac31	-0.07601202
52	0xbc446c69	-0.011988738
53	0xbdca9865	-0.09892348
54	0xbe1d4e84	-0.15361983
55	0x3ca61b8a	0.020276804
56	0x3d8de323	0.069280885
57	0xbb42e6c3	-0.0029739595
58	0xbc11dcb9	-0.008902722
59	0xbdfebc81	-0.12438298
60	0xbcc7551c	-0.024332576
61	0x3d908042	0.07055713
62	0xbd5e3264	-0.054247275
63	0x3dd14cb8	0.10219711
64	0x3d2f6e28	0.042829663
65	0x3c55a127	0.01303891
66	0x3e112ea9	0.14177956
67	0x3db133cf	0.0865246
68	0xbd7e3d8f	-0.062070426
69	0x3da706b3	0.08155575
70	0xbd0aef27	-0.03391948
71	0xbe349d34	-0.17638093
72	0x3da0ef9f	0.07858204
73	0x3dd57e8a	0.10424526
74	0xbdbd3597	-0.09238737
75	0x3d60191f	0.054711457
76	0xbcbdc53e	-0.023165341
77	0xbda043ee	-0.078254566
78	0xbd7d8299	-0.061892126
79	0x3d85efea	0.065399006
80	0xbe4123fe	-0.18861386
81	0x3e0b7bf5	0.13621505
82	0x3ce0ee42	0.02745736
83	0xbe0065f7	-0.12538897
84	0x3c141c3c	0.009039935
85	0xbd516bed	-0.051128317
86	0xbd2f8c2b	-0.042858284
87	0x3d825fdc	0.0636594
88	0xbd3944f2	-0.045231767
89	0xbdf64766	-0.12025337
90	0xbb5d87e3	-0.0033802919
91	0xbd5c17d3	-0.053733658
92	0x3dbce746	0.092237994
93	0x3ad61e64	0.0016335961
94	0xbd95a885	-0.07307533
95	0xbd903c49	-0.070427485
96	0xbb74b765	-0.0037340757
97	0xbc5162cf	-0.012779905
98	0x3d4f1464	0.050556555
99	0x3c44c823	0.012010607
100	0xbd43ac70	-0.04777187
101	0xbdcfcc7c	-0.10146424
102	0x3de1eb60	0.11031222
103	0x3c581bd5	0.013190229
104	0xbc9343f3	-0.017976737
105	0x3e1a4b8d	0.15067883
106	0xbe0ff4fb	-0.14058296
107	0x3d4740cb	0.048645776
108	0xbd038a3f	-0.032114264
109	0xbc96a864	-0.018390842
110	0x3c191fe2	0.00934598
111	0xbdee98e0	-0.11650252
112	0x3c82b3d4	0.01595489
113	0xbe2b7d3c	-0.16746992
114	0xbdb8616a	-0.09002955
115	0xbe32a48f	-0.17445587
116	0xbe0595f8	-0.1304549
117	0x3d7d803f	0.061889883
118	0x3dd9ae75	0.10628978
119	0xbca54b29	-0.02017744
120	0x3d075794	0.033042505
121	0xbe2ca9e6	-0.16861686
122	0xbd901c2e	-0.07036625
123	0xbbd44e91	-0.0064790924
124	0xbdf22bdd	-0.118247725
125	0xbe1237a2	-0.14279035
126	0x3b328e58	0.0027245488
127	0xbd503503	-0.050831806
128	0x3ba582f6	0.005051012
129	0xbd68ee21	-0.056867722
130	0xbce61411	-0.02808574
131	0x3d0b2558	0.03397116
132	0xbc43b101	-0.0119440565
133	0x3d847739	0.064680524
134	0xbd3c1649	-0.04591969
135	0xbccb67f0	-0.024829835
136	0x3d161c34	0.03664799
137	0xbd876476	-0.06610958
138	0x3d209359	0.03920302
139	0x3d2a996e	0.04165023
140	0xbd6dc7ce	-0.058051877
141	0x3d870c40	0.065941334
142	0xbd835cd2	-0.064141884
143	0xbdf78fae	-0.120879516
144	0x3c800904	0.015629299
145	0xbd43674f	-0.047705945
146	0xbce9d96e	-0.028546061
147	0xbd88cfa1	-0.06680227
148	0x3cb46abf	0.022023557
149	0xbc01a605	-0.007913117
150	0xbc341a5d	-0.010992614
151	0xbcf4743f	-0.029840587
152	0xbdcca3aa	-0.09992154
153	0xbd1b0089	-0.037842307
154	0xbda95496	-0.082680866
155	0xbd738fdd	-0.05946337
156	0x3e032b9d	0.12809606
157	0xbc2d0b66	-0.0105618
158	0xbd02fa92	-0.031977244
159	0xbdaf1829	-0.0854953
160	0x3d08bb83	0.03338195
161	0xbd9ee0d5	-0.07757727
162	0xbcd75e1c	-0.026289992
163	0xbe14d649	-0.14534868
164	0xbd5bc173	-0.053651284
165	0xbe285293	-0.1643775
166	0xbd708b72	-0.058726735
167	0xbc3f7e53	-0.011687833
168	0xbd8d4a79	-0.0689897
169	0xbdf4f21d	-0.11960242
170	0xbcc66ced	-0.024221862
171	0xbd5e5ae3	-0.054285895
172	0xbd1ae3b0	-0.037814796
173	0xbdc7cafb	-0.09755512
174	0xbd847faa	-0.064696625
175	0xbc9b2913	-0.018940484
176	0xbd522b39	-0.05131075
177	0x3cbc8188	0.023010984
178	0xbd83c05a	-0.064331725
179	0xbdcca317	-0.099920444
180	0xbe03ddf8	-0.12877643
181	0x3de01905	0.10942272
182	0xbdfd48b3	-0.12367382
183	0x3d1a2239	0.037630294
184	0xbdee85b7	-0.11646598
185	0xbe2a22c7	-0.16614829
186	0xbba79d63	-0.0051151975
187	0xbb15fb4b	-0.0022885378
188	0xbde48f61	-0.1116016
189	0x3e1b0ff7	0.15142809
190	0x3d515b7c	0.051112637
191	0xbe2fbd63	-0.17162089
192	0x3d184b23	0.03718103
193	0x3d973340	0.07382822
194	0xbd7ca98c	-0.06168513
195	0xbcc127f7	-0.023578627
196	0x3e0d4442	0.1379557
197	0xbdba69e6	-0.0910223
198	0x3c3a16a2	0.011357935
199	0x3ce6f7ce	0.028194334
200	0x3d81d89a	0.063401416
201	0x3d0a06eb	0.033698004
202	0xbcd61900	-0.026134968
203	0x3d998d80	0.07497692
204	0xbdd1f7ad	-0.102523185
205	0xbdad73ac	-0.08469328
206	0xbc97bbd7	-0.018522186
207	0xbc93e470	-0.018053263
208	0x3d0a85ac	0.033818886
209	0x3d9f0393	0.077643536
210	0x3c409e2b	0.01175646
211	0x3d05f24d	0.03270178
212	0xbbfd898a	-0.007737343
213	0x3b0ff50c	0.0021966128
214	0xbc873bdd	-0.016508037
215	0x3cb524a9	0.022112207
216	0xbd437c4c	-0.04772596
217	0xbe05c717	-0.13064228
218	0xbdb97db3	-0.09057178
219	0xbdff91c0	-0.124789715
220	0xbc8e0708	-0.017337337
221	0xbdf9a196	-0.12189023
222	0xbe05a2dd	-0.13050409
223	0xbe0cabde	-0.13737437
224	0xbd0304cd	-0.031987
225	0x3cd0b7a2	0.025478188
226	0x3d8562f7	0.06513017
227	0xbdb7b0d4	-0.08969274
228	0x3d7b5221	0.06135762
229	0x3df5714c	0.119845
230	0x3db2697f	0.08711528
231	0x3e1b3e17	0.15160404
232	0x3dfbf2f1	0.12302197
233	0xbdbb1cc8	-0.09136349
234	0xbdff3d9d	-0.12462924
235	0x3b62339f	0.0034515632
236	0xbd92a14c	-0.07159671
237	0xbdd354ee	-0.103189334
238	0xbdbfb76e	-0.09361158
239	0xbd37cdda	-0.04487405
240	0xbdcefc5b	-0.10106727
241	0x3ce6b5e0	0.028162897
242	0xbd95b2fa	-0.07309528
243	0x3d8adeb2	0.06780757
244	0x3cc184dd	0.023622924
245	0x3d01fbc1	0.03173423
246	0xbd1eee93	-0.03880174
247	0x3cd1c7b9	0.02560793
248	0xbdb375a5	-0.08762673
249	0xbc7c18e2	-0.015386792
250	0xbe264282	-0.16236308
251	0xbdf56e65	-0.11983947
252	0x3db4e755	0.088331856
253	0x3df58fcd	0.119903184
254	0xbd343143	-0.043992292
255	0x3d908973	0.07057466

bias f4 [32]
0	0xbda548e1	-0.08070541
1	0xbd05985e	-0.03261601
2	0xbdcf1015	-0.10110489
3	0xbce35013	-0.027748143
4	0xbda6f2db	-0.0815179
5	0xbd66629c	-0.056246385
6	0xbdb4dad2	-0.08830799
7	0xbcb7dee3	-0.022445148
8	0xbd8d36c2	-0.0689521
9	0xbccfe363	-0.025376981
10	0xbd1417a0	-0.036155343
11	0x3c9baee3	0.01900429
12	0xbdb199fd	-0.08671949
13	0xbd6f13a6	-0.058368348
14	0xbd2d2c86	-0.04227879
15	0xbd8e780a	-0.069564894
16	0xbd14e4e2	-0.036351092
17	0xbd0a1612	-0.033712454
18	0xbdaed8e9	-0.08537466
19	0xbd7a280d	-0.06107335
20	0xbdbdc0d6	-0.09265296
21	0xbdaa4e37	-0.083156995
22	0xbd1102a3	-0.035402905
23	0xbc80fc30	-0.015745252
24	0xbd817064	-0.06320265
25	0xbd45631f	-0.048190232
26	0xbd53a6e6	-0.05167284
27	0xbd516e30	-0.051130474
28	0xbdbcb86d	-0.09214864
29	0x3b5cf4df	0.003371529
30	0xbd311f28	-0.043242604
31	0xbdbf170c	-0.09330568

weight f4 [4, 32, 3, 3]
0	0xbdbe3fad	-0.09289489
1	0xbde5ee58	-0.11227101
2	0x3c878ef3	0.016547656
3	0xbda0a69f	-0.078442805
4	0x3d12f543	0.03587843
5	0x3cd72d82	0.026266817
6	0x3b7fa2e1	0.0039006996
7	0xbdd8ca40	-0.10585451
8	0x3d385770	0.045005262
9	0x3c9675d6	0.018366735
10	0xbd81192c	-0.06303629
11	0x3c37c7c5	0.011217062
12	0x3d8c21ef	0.0684241
13	0xbd8f5923	-0.06999423
14	0x3dc23768	0.09483224
15	0x3b9566bd	0.0045593665
16	0x3e21c55f	0.15797947
17	0xbcdcacdd	-0.026937896
18	0xbb3e3659	-0.0029024093
19	0x3d82677c	0.06367394
20	0x3e06d63f	0.13167666
21	0x3d68b384	0.056811824
22	0x3d7d16cd	0.061789323
23	0x3e0c95b0	0.13728976
24	0x3c95b206	0.018273365
25	0xbd0f9dfd	-0.03506278
26	0x3dabc096	0.08386342
27	0x3d834cba	0.06411119
28	0xbcb0c219	-0.021576928
29	0x3d8528e6	0.065019414
30	0x3cce661a	0.02519517
31	0xbbe7aebd	-0.007070391
32	0xbb65452d	-0.003498386
33	0x3d527f0a	0.051390685
34	0x3dc3e512	0.09565176
35	0xbd4137a3	-0.0471722
36	0xbb3eaf39	-0.002909614
37	0xbdc5cbb6	-0.096579954
38	0xbd807271	-0.06271828
39	0xbd8c6391	-0.06854928
40	0xbcecbac9	-0.02889766
41	0x3c8bea4b	0.017079493
42	0xbd8ef037	-0.06979411
43	0xbd59df78	-0.053191632
44	0xbd8d6a20	-0.06905007
45	0xbd741fe9	-0.059600744
46	0xbcc2d960	-0.023785293
47	0xbcc608eb	-0.024174174
48	0x3ddd6672	0.108105555
49	0xbd1ccb05	-0.038279552
50	0xbd35dccd	-0.044400025
51	0xbd418125	-0.047242302
52	0xbd431b6e	-0.04763358
53	0x3cf61b26	0.030042242
54	0x3de42de8	0.111415684
55	0x3daef29b	0.08542367
56	0x3d84ff1d	0.064939715
57	0x3dad2971	0.0845517
58	0x3db8a1b5	0.09015218
59	0xbd20064f	-0.039068516
60	0x3d4b1fcc	0.04959087
61	0x3cedf145	0.02904571
62	0x3d345143	0.04402281
63	0x3d30b080	0.043137074
64	0x3dad2f43	0.0845628
65	0x3c723305	0.014782672
66	0xbd890a82	-0.06691457
67	0x3ddd2b22	0.107992426
68	0x3df991ba	0.12185998
69	0x3d8a127a	0.067418054
70	0xbc0f0e4f	-0.008731439
71	0xbd01acb8	-0.031658858
72	0x3d80eb2d	0.06294856
73	0xbdb16743	-0.08662274
74	0xbdc0a953	-0.09407296
75	0xbd768c58	-0.060192436
76	0xbc284cbc	-0.010272201
77	0xbd0b97a7	-0.034080174
78	0x3c9c2a97	0.019063277
79	0xbdafc365	-0.085821904
80	0xbd457d24	-0.048215047
81	0x3da425bb	0.08015009
82	0x3c689d3a	0.014197642
83	0x3db52496	0.08844869
84	0x3bb723f6	0.0055890037
85	0x3d261654	0.040548638
86	0x3ca911cf	0.020638375
87	0x3bb5b7c6	0.005545589
88	0xbdc3cb82	-0.095603004
89	0x3cd81469	0.02637692
90	0x3d70cffd	0.058792103
91	0xbdd6f341	-0.10495616
92	0x3ccd5d25	0.025068829
93	0x3de3853c	0.11109397
94	0x3d5c82ef	0.053835806
95	0x3cb4bd91	0.022063049
96	0x3e0a5469	0.13508762
97	0x3e5dc6dd	0.21657892
98	0x3d8359a6	0.064135835
99	0x3c818582	0.015810732
100	0x3e0ef720	0.13961458
101	0xbcf07c30	-0.029356092
102	0x3d8ed1fd	0.06973646
103	0x3ddd66be	0.10810612
104	0xbc3c7906	-0.011503464
105	0x3c603baa	0.0136861
106	0x3df9c60a	0.12195976
107	0x3d97f365	0.07419471
108	0x3daa8f8b	0.0832816
109	0x3d197fda	0.037475444
110	0x3cd4c48c	0.025972627
111	0xbd359eeb	-0.04434101
112	0xbcdf55fb	-0.027262678
113	0x3cb8b019	0.022544907
114	0xbd276254	-0.040865257
115	0xbd0e7483	-0.034779083
116	0x3dfee435	0.12445871
117	0x3d65f4a7	0.05614152
118	0xbd73555c	-0.059407577
119	0x3c982cfa	0.018576134
120	0xbdd60c4d	-0.10451565
121	0x3d838801	0.06422425
122	0xbdadbef3	-0.08483686
123	0xbd3ddeb4	-0.046354964
124	0xbd14ee4a	-0.036360063
125	0xbd9aac54	-0.075524
126	0x3d6775d7	0.056508865
127	0x3d54f1b8	0.051988333
128	0x3e0c33b0	0.13691592
129	0xbc608905	-0.013704543
130	0xbd23ace3	-0.0399598
131	0x3cadf7dd	0.021236354
132	0x3d8560f7	0.06512635
133	0x3d94e9dd	0.072711684
134	0x3c575f04	0.013145212
135	0x3d8393ff	0.064247124
136	0xbccd2f26	-0.025046896
137	0xbcc99390	-0.024606496
138	0x3dc5f17e	0.096652016
139	0x3d490575	0.04907747
140	0x3e008bec	0.12553376
141	0x3d4ac39c	0.049502954
142	0x3ddad0ed	0.10684381
143	0x3d492b37	0.04911348
144	0x3e06fc0f	0.1318209
145	0x3d9e2df9	0.07723612
146	0x3da5341a	0.08066578
147	0x3e09b6f0	0.13448691
148	0x3dbb373b	0.09141394
149	0x3d37ed2e	0.044903927
150	0x3cf97a2f	0.03045377
151	0x3cc20e6b	0.023688516
152	0xbcb7073a	-0.022342313
153	0xbdc17478	-0.09446043
154	0xbdac51d4	-0.08414045
155	0x3b8e98f3	0.004351729
156	0xbd10d612	-0.035360403
157	0xbc146384	-0.0090569295
158	0xbd596d64	-0.05308284
159	0xbda57beb	-0.08080276
160	0xbde70ede	-0.112821326
161	0x3c543f6e	0.012954576
162	0x3e00c28a	0.12574211
163	0x3c0a1bc6	0.008429473
164	0x3899403d	7.307574e-05
165	0x3e197c1e	0.14988753
166	0x3d9405db	0.07227679
167	0x3ca36041	0.019943358
168	0x3d425e56	0.047453247
169	0x3e0405ad	0.1289279
170	0x3cc8a5cc	0.02449312
171	0x3b2e9cde	0.0026643793
172	0xbd06ae19	-0.032880876
173	0xbe1e4fe7	-0.15460168
174	0x3d09eb83	0.033671867
175	0xbe1e7c64	-0.15477139
176	0xbdf88a30	-0.12135732
177	0x3ae14f2f	0.0017189736
178	0xbe142fef	-0.1447141
179	0x3cf4482a	0.029819567
180	0xbd72fcf5	-0.05932327
181	0xbda5d66d	-0.08097539
182	0xbdf9d2a9	-0.12198383
183	0x3deadda0	0.11468053
184	0x3d9db6da	0.07700892
185	0xbca39ca3	-0.019972151
186	0x3dd59674	0.10429087
187	0x3da02f61	0.07821537
188	0xbd8fcceb	-0.07021507
189	0xbd185a0b	-0.037195247
190	0xbc92fa7e	-0.01794171
191	0xbcf15820	-0.029460967
192	0xbdcbf804	-0.099594146
193	0xbd9acd6f	-0.075587146
194	0xbdd36a6b	-0.10323032
195	0xbe181558	-0.14851892
196	0x3cdba4db	0.026812008
197	0xbd83e919	-0.06440944
198	0x3da7e189	0.08197314
199	0xbc37bea5	-0.011214887
200	0x3d8fc3cd	0.07019768
201	0x3e0bb35b	0.13642637
202	0x3c650297	0.013977668
203	0x3db04f8a	0.08608921
204	0x3d8e1e3e	0.06939362
205	0x3d7c215e	0.06155526
206	0x3c9abc9f	0.01888877
207	0xbdc3f298	-0.095677555
208	0x3d4c137c	0.04982327
209	0xbc110c1d	-0.008852986
210	0x3c486692	0.012231486
211	0xbd876c9a	-0.06612511
212	0xbdacb7fc	-0.0843353
213	0xbd7e9a5d	-0.06215893
214	0xbd792f31	-0.06083602
215	0xbdfffa18	-0.124988735
216	0xbd79b378	-0.06096217
217	0xbca6c292	-0.02035645
218	0xbd63174d	-0.055442143
219	0xbd228b08	-0.03968337
220	0xbd100dd3	-0.035169434
221	0xbc07b034	-0.008281756
222	0xbd978c08	-0.07399756
223	0xbcb542f2	-0.022126649
224	0x3d16bbe2	0.036800273
225	0x3b9a77ba	0.0047139795
226	0x3cca92bf	0.024728177
227	0x3c22ff35	0.009948541
228	0x3ca1fc2c	0.019773565
229	0x3d94bc84	0.07262519
230	0x3dc95807	0.09831243
231	0x3da3b0f9	0.07992739
232	0x3e303869	0.17209019
233	0x3d9c4a49	0.07631356
234	0xbe198a3b	-0.14994137
235	0xbd902ab5	-0.07039396
236	0xbc015304	-0.007893328
237	0x3bcc2df0	0.006231062
238	0x3d3abaa3	0.045588147
239	0xbd96795c	-0.07347366
240	0xbddeecb3	-0.108849905
241	0x3b9d1a4b	0.004794394
242	0x3cb8e76a	0.022571284
243	0xbce82b21	-0.028340878
244	0xbd9657b6	-0.07340948
245	0x3d086107	0.033295657
246	0x3c95366c	0.018214427
247	0x3d5c70b5	0.053818423
248	0x3e572a48	0.21012223
249	0x3b881a33	0.004153514
250	0x3ceb6295	0.028733531
251	0x3daebb9f	0.0853188
252	0x3cfba61e	0.03071886
253	0xbda68327	-0.08130484
254	0x3b51db91	0.003202174
255	0x3d8b1174	0.06790438

bias f4 [4]
0	0xbb731405	-0.003709079
1	0x3ccac5c9	0.024752514
2	0x3cd9ccb4	0.026586868
3	0xbc2a94bb	-0.010411437
