super_resolution/checkpoint_scale2/model_epoch_2.pth (torch_old, 247001 bytes, 8 tensors)

weight f4 [64, 1, 5, 5]
0.22372918 -0.09014963 -0.15196866 -0.14284039 0.22059399 -0.0352048 -0.24386728 -0.21009538
0.03056403 -0.17864984 -0.42961404 -0.1994243 -0.2933902 -0.16356543 -0.024579508 -0.24446774
-0.13349101 -0.0565968 -0.26246712 0.12581638 0.041825235 0.033097852 -0.13408555 0.0331445
0.10133816 -0.1406597 -0.09725701 -0.26855445 0.07368626 -0.15220411 -0.28334272 -0.08525922
-0.19959466 0.061208613 -0.023984749 -0.113138765 -0.057500456 -0.23027912 -0.15059547 0.0934168
0.14465035 -0.248577 0.028536573 0.2777282 -0.17636141 -0.10043181 -0.10821824 -0.15021122
-0.01581982 -0.05193412 -0.31880215 0.10202094 -0.022294912 0.11218108 0.15987563 -0.24536537
-0.0074396683 -0.060475092 0.082936116 -0.4329945 0.054032497 0.044747263 0.07005901 -0.060467564
-0.009208057 -0.17585328 -0.205136 -0.14667773 -0.0769309 -0.19273338 -0.12845728 0.015739268
-0.15483394 0.17202464 -0.101355985 -0.20219027 -0.17794934 0.08275419 -0.07570871 -0.22902822
0.054947723 0.08763724 -0.2740732 -0.29270342 -0.38300675 0.088515714 -0.05106536 -0.19930491
0.013684192 -0.34727803 -0.12607902 0.24200122 0.0769739 -0.08674206 -0.12302654 -0.105682276
-0.27982947 -0.090054534 0.0032043187 -0.1591012 -0.17059451 0.24160226 0.215542 -0.14543669
0.11410091 0.05121847 -0.3032498 0.010189438 0.054820135 0.00020034169 -0.38814604 0.025492657
0.07288805 -0.1377093 -0.18186988 -0.008343018 -0.037045263 -0.2830295 0.2585595 0.09170242
-0.2545785 -0.045227252 -0.08780343 -0.32149795 -0.20526668 -0.075948246 -0.1033075 0.008264528
-0.014672241 -0.05692832 0.08616676 0.26288176 0.16136502 0.11691672 -0.11248328 -0.05961977
-0.4052204 0.051307533 0.3656486 -0.28702626 0.0028258462 -0.11863775 -0.5946348 -0.12843028
-0.018028297 -0.10314423 -0.022284316 -0.22774182 0.18652648 0.23480551 0.020432305 -0.0652426
0.2257713 -0.22909392 -0.2500165 -0.097194284 0.2125225 0.19176045 0.06327189 0.09850925
0.1491343 0.10956551 -0.4156449 -0.39322582 0.26310268 0.11199706 -0.06534192 -0.20095031
-0.3168789 -0.013167396 -0.2253269 0.2540536 -0.2642724 0.014184337 -0.052430347 -0.11055784
-0.0035290038 0.11874222 -0.13607098 -0.2827531 0.03246362 -0.14017586 0.4933427 0.10473854
0.28810653 0.0604664 0.1833474 0.011005021 0.03618109 -0.06283106 -0.12264661 -0.0044361134
-0.25455463 -0.24869797 -0.14517076 0.32523063 -0.37645164 0.15921666 -0.23483326 -0.16665724
0.22112738 0.18956757 0.12844612 -0.25094667 -0.0015876519 -0.04327405 0.31130412 -0.336296
0.17163347 -0.02866384 -0.3472463 0.35848475 -0.12988842 -0.23028857 -0.25338057 -0.02476147
-0.0075464873 0.14485575 -0.19672915 0.16724923 0.53041553 0.0064281537 -0.06861305 0.24751624
0.19613302 0.23727848 -0.28943068 0.15837725 -0.16031 0.16487074 0.21475938 0.18455729
-0.17248683 0.00042356126 -0.18059981 0.106274955 0.10593438 0.21885745 -0.27496314 -0.0821687
-0.02140873 -0.08706647 -0.016258018 0.14585367 -0.13603234 -0.034703605 -0.22967587 0.19097829
-0.20377927 -0.044741344 -0.16589737 -0.12353941 -0.19327517 -0.55161077 0.097795896 -0.03862281
00000000: 4319 653e 5fa0 b8bd ac9d 1bbe c044 12be
00000010: 64e3 613e e932 10bd 58b8 79be 3e23 57be
00000020: 6b61 fa3c fcef 36be 5ff6 dbbe e235 4cbe
00000030: 3e37 96be b27d 27be f75a c9bc c055 7abe
00000040: deb1 08be 0cd2 67bd 1762 86be 02d6 003e
00000050: f050 2b3d 9d91 073d b94d 09be 87c2 073d
00000060: 628a cf3d 1909 10be af2e c7bd f87f 89be
00000070: d2e8 963d 65db 1bbe 4c12 91be 639c aebd
00000080: 8b62 4cbe e2b5 7a3d aa7b c4bc 4cb5 e7bd
00000090: 9985 6bbd 4ace 6bbe b335 1abe 4f51 bf3d
000000a0: 391f 143e f88a 7ebe 88c5 e93c 6432 8e3e
000000b0: 1698 34be 31af cdbd 86a1 ddbd f8d0 19be
000000c0: 9198 81bc dfb8 54bd 093a a3be 5bf0 d03d
000000d0: d2a3 b6bc 32bf e53d 70b6 233e 0f41 7bbe
000000e0: 76c8 f3bb bbb4 77bd 69da a93d 75b1 ddbe
000000f0: 2e51 5d3d e848 373d 197b 8f3d d6ac 77bd
00000100: 64dd 16bc e212 34be 2c0f 52be b032 16be
00000110: f38d 9dbd e65b 45be 4e8a 03be a3ef 803c
00000120: ca8c 1ebe 3a27 303e ba93 cfbd f70a 4fbe
00000130: 5a38 36be 077b a93d 2b0d 9bbd 6086 6abe
00000140: dd10 613d 277b b33d 5353 8cbe 39dd 95be
00000150: 7619 c4be ba47 b53d e929 51bd 9616 4cbe
00000160: a933 603c 6dce b1be dc1a 01be 2bcf 773e
00000170: 7ea4 9d3d d2a5 b1bd 57f5 fbbd f36f d8bd
00000180: cf45 8fbe 836e b8bd 8cff 513b 6deb 22be
00000190: 54b0 2ebe 9566 773e 0bb7 5c3e 5bed 14be
000001a0: bdad e93d 75ca 513d 8f43 9bbe 9af1 263c
000001b0: 148b 603d d012 5239 14bb c6be fad5 d03c
000001c0: 5446 953d ab03 0dbe 193c 3abe 27b1 08bc
000001d0: c6bc 17bd 3ee9 90be e961 843e 7ace bb3d
000001e0: 1d58 82be 3640 39bd 49d2 b3bd 619b a4be
000001f0: 6e31 52be c18a 9bbd e292 d3bd f167 073c
00000200: d763 70bc ac2d 69bd 3378 b03d 7098 863e
00000210: df3c 253e 0972 ef3d a25d e6bd dc33 74bd
00000220: 0c79 cfbe d927 523d 4b36 bb3e 1bf5 92be
00000230: d531 393b 59f8 f2bd fc39 18bf 3a83 03be
00000240: 14b0 93bc 483d d3bd 998d b6bc 2735 69be
00000250: cc00 3f3e db70 703e a661 a73c ea9d 85bd
00000260: 9730 673e 9997 6abe 2a02 80be cc0d c7bd
00000270: 809f 593e da5c 443e b194 813d 38bf c93d
00000280: a9b6 183e e263 e03d 69cf d4be e554 c9be
00000290: 65b5 863e b75e e53d fcd1 85bd ebc5 4dbe
000002a0: f43d a2be 10bc 57bc 18bc 66be 5013 823e
000002b0: b64e 87be 6c65 683c 34c1 56bd 266c e2bd
000002c0: dc46 67bb 1f2f f33d 3156 0bbe 04c5 90be
000002d0: 93f8 043d 438a 0fbe 6a97 fc3e 2981 d63d
000002e0: b382 933e 9eab 773d 6cbf 3b3e 674e 343c
000002f0: 9f32 143d 92ad 80bd 252e fbbd d15c 91bb
00000300: fc54 82be aeaa 7ebe a5a7 14be a184 a63e
00000310: 45be c0be b109 233e 2178 70be 32a8 2abe
00000320: 376f 623e 001e 423e 6187 033e 157c 80be
00000330: c218 d0ba 2140 31bd 4163 9f3e fd2e acbe
00000340: afc0 2f3e 6ed0 eabc 44ca b1be 508b b73e
00000350: 7801 05be c4d0 6bbe 19bb 81be 91d8 cabc
00000360: 8648 f7bb 1155 143e 5e73 49be 6243 2b3e
00000370: 50c9 073f 43a3 d23b 0085 8cbd e674 7d3e
00000380: 18d7 483e 21f9 723e 4230 94be a52d 223e
00000390: 4e28 24be e0d3 283e e2e9 5b3e 96fc 3c3e
000003a0: 63a0 30be 6e11 de39 28ef 38be afa6 d93d
000003b0: 20f4 d83d 2b1c 603e f8c7 8cbe 1048 a8bd
000003c0: 5c61 afbc e84f b2bd 892f 85bc aa5a 153e
000003d0: 104c 0bbe 5e25 0ebd 2730 6bbe d08f 433e
000003e0: 83ab 50be b342 37bd 00e1 29be 3b02 fdbd
000003f0: ede9 45be 5d36 0dbf 3749 c83d f432 1ebd

bias f4 [64]
0.024522658 0.03065749 -0.21931891 -0.08009614 -0.090843365 0.06856176 0.105010666 -0.011624053
-0.16650864 -0.21748061 0.13941935 0.008597504 0.059742074 -0.12602754 -0.1478474 0.054966852
-0.043605037 -0.0030125722 -0.22340065 0.1297312 0.05371626 0.16089043 0.08005504 0.046693925
-0.03631255 -0.20722932 -0.17995815 -0.06210382 0.0792496 -0.04044464 0.060245857 -0.028559143
-0.09410409 -0.024723291 -0.043883417 -0.14044201 -0.06613139 0.09221674 0.10174175 -0.06717342
-0.20694086 0.11248836 -0.11649549 -0.03355038 0.0004278153 -0.06358104 -0.01797685 0.09223293
0.048713423 -0.23097348 -0.1471613 -0.07009309 0.0010934 0.041131128 -0.11873128 -0.20675488
0.12557374 -0.18621218 -0.21328062 0.12392235 0.11827948 0.029291846 -0.17921127 -0.1611935
00000000: bee3 c83c 6b25 fb3c 2395 60be 7209 a4bd
00000010: 160c babd 1c6a 8c3d d50f d73d d072 3ebc
00000020: 3e81 2abe 3db3 5ebe f2c3 0e3e 8cdc 0c3c
00000030: 1bb4 743d 5d0d 01be 4f65 17be ec24 613d
00000040: 329b 32bd 936e 45bb 24c3 64be 41d8 043e
00000050: 9505 5c3d 76c0 243e e6f3 a33d 2142 3f3d
00000060: 78bc 14bd ec33 54be f346 38be 9360 7ebd
00000070: 9d4d a23d 47a9 25bd 5cc4 763d ddf4 e9bc
00000080: a5b9 c0bd 8088 cabc 19bf 33bd 08d0 0fbe
00000090: e56f 87bd 21dc bc3d fb5d d03d 3892 89bd
000000a0: 4ee8 53be 4c60 e63d 3095 eebd 206c 09bd
000000b0: 664c e039 c736 82bd 3044 93bc 9ee4 bc3d
000000c0: ba87 473d 5084 6cbe 74b1 16be f78c 8fbd
000000d0: 6a50 8f3a 1d79 283d 6329 f3bd 8db7 53be
000000e0: 6796 003e 68ae 3ebe 3c66 5abe 00cb fd3d
000000f0: 833c f23d 74f5 ef3c 2983 37be e90f 25be

weight f4 [64, 64, 3, 3]
0.0022584877 -0.029345151 -0.09707298 0.014464425 -0.060385406 0.021207128 0.0024273926 -0.02027133
-0.07084737 -0.085019015 0.01787573 -0.13596602 0.014238662 -0.09501562 -0.09095736 -0.07858746
-0.04307797 -0.1104007 -0.115893595 -0.11046935 -0.08218157 -0.123170115 -0.12336039 -0.056602098
-0.044421494 -0.10416795 -0.1261305 -0.013050716 -0.033220552 -0.11801828 0.11115734 0.11359914
-0.0069890777 -0.05044229 -0.060427703 -0.009405692 -0.14069565 0.02623239 -0.100383535 -0.036827296
0.08068092 -0.051498637 0.060480785 0.08129655 -0.0063480902 -0.11917736 -0.08942283 -0.07367133
0.0193176 -0.10028584 -0.0089678075 -0.13497336 -0.0733028 -0.020642437 -0.06455797 -0.12027057
-0.0468975 -0.073506884 0.024893431 -0.11166773 0.057204124 0.007341057 -0.06562788 -0.0646769
-0.07139682 0.03838939 0.016490076 -0.005064694 -0.08461964 -0.10358764 -0.06881069 -0.025392698
-0.16381426 -0.04660125 -0.01122267 -0.027368568 -0.078628816 -0.043736387 -0.0150790475 -0.13636817
0.02486225 -0.07314266 0.030283008 -0.029226933 0.043131564 -0.11903019 -0.10620039 -0.07267207
-0.10263217 -0.040246177 -0.058761254 -0.04207744 -0.089103125 -0.10152583 -0.060081705 0.0074375924
-0.17277332 -0.042601 -0.06030626 0.03237151 -0.019103942 0.08831825 0.08144323 -0.010778574
-0.068598844 -0.028559856 -0.07019166 0.07033463 0.007075678 0.0110233035 -0.006726508 -0.030225167
-0.049376596 -0.013529553 0.0820774 0.040540855 -0.05913519 -0.09390931 -0.103730366 0.08783057
-0.08186605 -0.014790551 -0.13439064 -0.20786306 -0.1052106 -0.13638055 -0.005425304 0.04456166
-0.049829297 -0.1732619 0.031567227 -0.05488635 -0.083896965 0.015591798 -0.082292065 -0.065413825
-0.018906718 0.00640938 -0.07084009 -0.041840263 0.04205765 -0.055601127 -0.0026417458 -0.0036525074
-0.06510588 -0.1930893 -0.0038767152 -0.02855853 -0.12963416 -0.110974565 -0.111782245 -0.036899924
-0.083449066 -0.024764972 -0.0033631695 -0.091706194 -0.15382573 -0.06184623 -0.0049523893 -0.14058495
-0.0424922 -0.13954239 0.040959395 -0.15341099 -0.05735893 -0.020313675 -0.100124516 -0.08827682
-0.058607753 0.013690055 -0.050797254 -0.10429507 -0.08279524 -0.04148092 -0.0008352857 -0.03504428
-0.047498602 -0.09318698 -0.021785231 0.022963969 -0.013210756 -0.0011338477 0.022166876 -0.06291975
-0.026920665 -0.024287961 -0.08295127 -0.02334041 -0.004465226 0.0049319863 0.04060084 -0.07917414
0.02071744 -0.05513493 0.06044921 -0.11870605 -0.104301676 -0.03157966 -0.059535336 -0.04456704
-0.07307575 -0.05264335 -0.0074530877 -0.09265794 -0.092630714 0.044038728 0.03251397 -0.0761446
-0.020616537 -0.06819499 -0.08003778 -0.0866741 -0.08631636 -0.088576615 -0.052841023 0.013055278
-0.10238132 -0.08094699 -0.14495675 -0.028151318 0.02522421 -0.13327459 -0.084554985 -0.07878459
-0.018562028 -0.07692303 0.044115167 -0.04489306 -0.04477877 -0.03561041 -0.11551182 -0.05174457
-0.043945197 -0.07484785 0.0968772 -0.035985973 0.00957725 0.011761799 0.0032707439 -0.11797441
0.047244597 -0.043567788 0.0738805 0.012129254 0.0467802 -0.06341211 -0.092285834 -0.10415257
0.04300591 0.033715054 0.005910023 -0.09213666 -0.10476187 -0.13584657 -0.13995628 -0.03885976
00000000: 2303 143b 3e65 f0bc 33ce c6bd 32fc 6c3c
00000010: b056 77bd 92ba ad3c e414 1f3b 0f10 a6bc
00000020: 6d18 91bd 731e aebd 1f70 923c ad3a 0bbe
00000030: 4749 693c 8d97 c2bd da47 babd 76f2 a0bd
00000040: 8772 30bd c319 e2bd 9f59 edbd c13d e2bd
00000050: d04e a8bd 9d40 fcbd 5fa4 fcbd 9ad7 67bd
00000060: 50f3 35bd 0256 d5bd 5b28 01be acd2 55bc
00000070: 4612 08bd 91b3 f1bd 76a6 e33d aaa6 e83d
00000080: a204 e5bb 939c 4ebd 0a83 77bd 551a 1abc
00000090: 8512 10be 4fe5 d63c e295 cdbd 38d8 16bd
000000a0: 0a3c a53d 3cf0 52bd b3ba 773d ce7e a63d
000000b0: a403 d0bb 4213 f4bd 5123 b7bd ffe0 96bd
000000c0: f23f 9e3c aa62 cdbd b6ed 12bc 7536 0abe
000000d0: c71f 96bd 541a a9bc f836 84bd 6b50 f6bd
000000e0: 9817 40bd c78a 96bd 4fed cb3c 0db2 e4bd
000000f0: df4e 6a3d 408d f03b e967 86bd 5375 84bd
00000100: 7f38 92bd 313e 1d3d 3216 873c bcf5 a5bb
00000110: 104d adbd c225 d4bd 9eec 8cbd 5904 d0bc
00000120: edbe 27be f4e0 3ebd 4adf 37bc 0c34 e0bc
00000130: 2508 a1bd ed24 33bd 1c0e 77bc 19a4 0bbe
00000140: ebab cb3c d2cb 95bd 1214 f83c 526d efbc
00000150: b9aa 303d 1ac6 f3bd 977f d9bd 18d5 94bd
00000160: d130 d2bd 2dd9 24bd a4af 70bd 6559 2cbd
00000170: b37b b6bd c6ec cfbd 3c18 76bd 0cb7 f33b
00000180: 7deb 30be 637e 2ebd b203 77bd fd97 043d
00000190: df7f 9cbc 33e0 b43d b5cb a63d 9e98 30bc
000001a0: 8d7d 8cbd 5cf6 e9bc a5c0 8fbd 9a0b 903d
000001b0: 17db e73b 169b 343c 0a6a dcbb c59a f7bc
000001c0: 1d3f 4abd 0fab 5dbc 3218 a83d 2b0e 263d
000001d0: be37 72bd 8653 c0bd 9670 d4bd 84e0 b33d
000001e0: 63a9 a7bd 1154 72bc b39d 09be 0eda 54be
000001f0: a878 d7bd 58a7 0bbe c0c6 b1bb 4a86 363d
00000200: ce19 4cbd 916b 31be a34c 013d 82d0 60bd
00000210: 2cd2 abbd be74 7f3c be88 a8bd aff7 85bd
00000220: 43e2 9abc c705 d23b 9c14 91bd b260 2bbd
00000230: a444 2c3d 02be 63bd 2421 2dbb e85e 6fbb
00000240: 3b56 85bd 34b9 45be 7d10 7ebb 94f3 e9bc
00000250: d1be 04be a246 e3bd 17ee e4bd 6024 17bd
00000260: 58e7 aabd e9df cabc 9f68 5cbb 75d0 bbbd
00000270: 7e84 1dbe 7952 7dbd a747 a2bb 80f5 0fbe
00000280: 4d0c 2ebd 33e4 0ebe 0ac5 273d c517 1dbe
00000290: 33f1 6abd dd68 a6bc 150e cdbd 7aca b4bd
000002a0: af0e 70bd 414c 603c c810 50bd a798 d5bd
000002b0: 8d90 a9bd e6e7 29bd 13f7 5aba 978a 0fbd
000002c0: e58d 42bd d1d8 bebd f176 b2bc ef1e bc3c
000002d0: ed71 58bc 9e9d 94ba 4f97 b53c 12dc 80bd
000002e0: ba88 dcbc 8cf7 c6bc 5be2 a9bd 6334 bfbc
000002f0: 0851 92bb 809c a13b 114d 263d 0d26 a2bd
00000300: 9fb7 a93c 2ad5 61bd 9799 773d 281c f3bd
00000310: 1e9c d5bd ac59 01bd 53db 73bd ee8b 36bd
00000320: bda8 95bd 8ea0 57bd 0839 f4bb 72c3 bdbd
00000330: 2cb5 bdbd f461 343d 5e2d 053d b3f1 9bbd
00000340: 03e4 a8bc d1a9 8bbd d9ea a3bd 3182 b1bd
00000350: a2c6 b0bd a867 b5bd d46f 58bd cee5 553c
00000360: 4cad d1bd 89c7 a5bd 8b6f 14be 989d e6bc
00000370: 01a3 ce3c 2279 08be 2a2b adbd d159 a1bd
00000380: 650f 98bc d289 9dbd 1bb2 343d c9e1 37bd
00000390: f269 37bd 39dc 11bd 7691 ecbd 1df2 53bd
000003a0: e1ff 33bd d449 99bd 8e67 c63d 0766 13bd
000003b0: e6e9 1c3c 90b4 403c fa59 563b 919c f1bd
000003c0: 8d83 413d 2374 32bd a94e 973d c7b9 463c
000003d0: 989c 3f3d 35de 81bd 5b00 bdbd f14d d5bd
000003e0: f726 303d cc18 0a3d dea8 c13b 25b2 bcbd
000003f0: 648d d6bd 5d1b 0bbe b350 0fbe 692b 1fbd

bias f4 [64]
-0.025038466 -0.03534504 -0.03228331 -0.039284687 -0.042691328 -0.023282284 -0.069588 -0.08262728
-0.027849516 -0.08251382 -0.060072675 -0.0128541775 0.021114597 -0.065313414 -0.036163434 -0.049130302
-0.06086354 0.008293006 0.040763475 -0.032695178 -0.055338472 -0.090261996 -0.06672806 -0.024929207
-0.06686404 -0.026811117 -0.072067976 -0.041184537 -0.04042401 -0.02472975 -0.06698076 -0.06803056
-0.03818264 -0.0034223432 -0.009331832 -0.08804527 -0.04636684 -0.02260565 -0.086980246 0.027465679
-0.023267098 -0.08262037 -0.015964704 -0.03272338 -0.067683555 -0.06666592 -0.062300164 -0.0253055
-0.049288314 -0.061071303 -0.051899802 -0.024172643 -0.045454927 -0.004302632 -0.07394751 -0.021870768
-0.0648052 -0.012313814 -0.014967641 -0.040861074 -0.016718587 -0.0028728324 -0.05182303 -0.0673442
00000000: 781d cdbc f6c5 10bd 813b 04bd fbe8 20bd
00000010: 1add 2ebd 7dba bebc 2784 8ebd 7e38 a9bd
00000020: ab24 e4bc 01fd a8bd c40e 76bd 549a 52bc
00000030: 85f8 ac3c 0ac3 85bd 1c20 14bd db3c 49bd
00000040: 0c4c 79bd 63df 073c 9af7 263d 61eb 05bd
00000050: 98aa 62bd 48db b8bd b9a8 88bd 5638 ccbc
00000060: 04f0 88bd fda2 dbbc 6098 93bd 1eb1 28bd
00000070: a693 25bd 0b96 cabc 352d 89bd 9b53 8bbd
00000080: 6665 1cbd 6449 60bb 8ae4 18bc 1451 b4bd
00000090: 28eb 3dbd 7c2f b9bc b322 b2bd b4ff e03c
000000a0: a49a bebc de34 a9bd 69c8 82bc f308 06bd
000000b0: ad9d 8abd 2488 88bd 752e 7fbd 7b4d cfbc
000000c0: 8be2 49bd e725 7abd e394 54bd b505 c6bc
000000d0: f22e 3abd 18fd 8cbb cb71 97bd 532a b3bc
000000e0: 97b8 84bd e1bf 49bc d63a 75bc f15d 27bd
000000f0: 6bf5 88bc 2146 3cbb 6344 54bd c2eb 89bd

weight f4 [32, 64, 3, 3]
0.10897452 -0.009491152 0.0074941805 0.03376058 -0.07631007 -0.17531385 0.048799306 -0.007461195
0.0038264042 0.027977576 0.10226927 -0.0830484 -0.029078418 0.010652458 -0.012586543 -0.027501458
0.07086917 -0.045960028 -0.10561808 0.0013673804 0.005875392 0.0013746584 -0.06029611 -0.07005622
-0.051542602 -0.14190687 -0.1738831 0.19983241 -0.009574286 0.024106406 0.025971055 -0.014819646
-0.013409497 0.00046728883 -0.024027916 -0.06584538 0.0058228928 0.086552866 -0.10005996 -0.06136537
-0.08602209 -0.057520844 -0.06157055 -0.08718613 -0.012201511 -0.02089027 -0.051658265 -0.03058148
-0.0033414 0.0042955205 -0.019368231 -0.06908539 -0.005082319 -0.09182326 -0.15236339 0.021383045
0.0706014 -0.0008832184 -0.007802982 -0.121487685 -0.024332576 0.07055713 -0.050472286 0.09582255
0.036464635 0.018979672 0.13540499 0.08015932 -0.056362838 0.07518141 -0.040284485 -0.17102216
0.07226378 0.09801907 -0.08586939 0.04839283 -0.029398562 -0.07156308 -0.068205856 0.059173584
-0.18152414 0.1298411 0.031181216 -0.11959316 0.0026662806 -0.046190932 -0.037099447 0.057285998
-0.040557742 -0.11448095 -0.0033802919 -0.053733658 0.092237994 0.0016335961 -0.07307533 -0.070427485
-0.0037340757 -0.012779905 0.050556555 0.0056625884 -0.041762095 -0.09564905 0.10396485 0.019226309
-0.012070531 0.14432901 -0.1347632 0.054334115 -0.025035871 -0.011354683 0.016456608 -0.10942335
0.0229866 -0.1603555 -0.082954265 -0.16743752 -0.12334185 0.055633612 0.11229425 -0.014077553
0.026766095 -0.16305749 -0.064381704 -0.012756935 -0.11323633 -0.13694532 0.008384313 -0.04569394
0.0050522694 -0.05235213 -0.024020616 0.034015365 -0.014465933 0.06464276 -0.04554993 -0.019878624
0.042839136 -0.060267907 0.035953738 0.047820296 -0.052216906 0.06159233 -0.05798604 -0.11526246
0.022726366 -0.0406089 -0.021448813 -0.059705194 0.029120632 -0.00081587414 -0.003896178 -0.02274421
-0.09282499 -0.030751655 -0.07558725 -0.05236458 0.13518691 -0.0034681957 -0.024878541 -0.07840397
0.040475763 -0.07047881 -0.028724054 -0.13995321 -0.049831 -0.15728582 -0.05158689 -0.0045789345
-0.06204876 -0.112302735 -0.017044459 -0.047210995 -0.030743318 -0.09045066 -0.057622418 -0.011869961
-0.04420452 0.030081442 -0.057266492 -0.092814974 -0.12178822 0.11633295 -0.11656569 0.044610843
-0.10957061 -0.15904252 0.0018581131 0.00459309 -0.104495995 0.14507383 0.04475754 -0.16640362
0.03082708 0.06747436 -0.056082852 -0.029933533 0.13160221 -0.08618545 0.018454129 0.03529363
0.07050017 0.04079385 -0.019035915 0.0820755 -0.09542707 -0.077594444 -0.0114238495 -0.017764285
0.033818886 0.077643536 0.01178687 0.03270178 -0.007737343 0.0022284796 -0.016508037 0.022112207
-0.04868588 -0.13033615 -0.089662924 -0.12024519 -0.012026211 -0.11653428 -0.13154443 -0.13230757
-0.027052322 0.019098463 0.058753245 -0.08449023 0.054977942 0.11346794 0.09151348 0.14522444
0.11664481 -0.08670025 -0.11893177 0.00965665 -0.06592972 -0.09766176 -0.08748256 -0.038950004
-0.09904768 0.034158964 -0.06726017 0.07445672 0.030371273 0.038288686 -0.031941347 0.03295788
-0.08078458 -0.009296038 -0.1550315 -0.11327428 0.0819647 0.11355885 -0.04108508 0.06420811
00000000: 082e df3d c780 1bbc be91 f53b 8948 0a3d
00000010: 7448 9cbd 7985 33be c8e1 473d 0a7d f4bb
00000020: 69c4 7a3b 3b31 e53c 8d72 d13d 4815 aabd
00000030: dd35 eebc a687 2e3c ca37 4ebc bd4a e1bc
00000040: db23 913d 9540 3cbd 4b4e d8bd ac39 b33a
00000050: 5c86 c03b e22d b43a 0ef9 76bd a379 8fbd
00000060: 561e 53bd 0950 11be 690e 32be dea0 4c3e
00000070: 77dd 1cbc cc7a c53c 40c1 d43c 1ace 72bc
00000080: 82b3 5bbc 72fe f439 31d6 c4bc f1d9 86bd
00000090: f7cd be3b a142 b13d 3cec ccbd 415a 7bbd
000000a0: 592c b0bd fa9a 6bbd 6731 7cbd a48e b2bd
000000b0: d9e8 47bc 1222 abbc 9e97 53bd 0386 fabc
000000c0: 64fb 5abb 70c1 8c3b 20aa 9ebc a47c 8dbd
000000d0: 9589 a6bb d50d bcbd 2605 1cbe 7f2b af3c
000000e0: 7897 903d c987 67ba 28b0 ffbb 89ce f8bd
000000f0: 1c55 c7bc 4280 903d 07bc 4ebd 9d3e c43d
00000100: f15b 153d 427b 9b3c 9ba7 0a3e 922a a43d
00000110: b8dc 66bd b6f8 993d 5801 25bd 6f20 2fbe
00000120: 08ff 933d 39be c83d 4adc afbd 8f37 463d
00000130: 41d5 f0bc aa8f 92bd 83af 8bbd 0060 723d
00000140: 77e1 39be 11f5 043e c06f ff3c 42ed f4bd
00000150: c4bc 2e3b b432 3dbd 97f5 17bd b9a4 6a3d
00000160: e01f 26bd fd74 eabd e387 5dbb d317 5cbd
00000170: 46e7 bc3d 641e d63a 85a8 95bd 493c 90bd
00000180: 65b7 74bb cf62 51bc 6414 4f3d 3c8d b93b
00000190: bb0e 2bbd a6e3 c3bd 86eb d43d 7e80 9d3c
000001a0: 7ac3 45bc fcca 133e 5dff 09be 738d 5e3d
000001b0: 0718 cdbc fe08 3abc 02d0 863c 5919 e0bd
000001c0: 654e bc3c 3b34 24be ede3 a9bd be74 2bbe
000001d0: a79a fcbd 12e0 633d 87fa e53d 89a5 66bc
000001e0: 9244 db3c 8bf8 26be 8eda 83bd 7702 51bc
000001f0: 73e8 e7bd 653b 0cbe 5c5e 093c 9229 3bbd
00000200: 828d a53b 306f 56bd e2c6 c4bc b253 0b3d
00000210: 8502 6dbc 6c63 843d 9092 3abd 7fd8 a2bc
00000220: 1778 2f3d 7bdb 76bd 3a44 133d 37df 433d
00000230: 65e1 55bd 3d48 7c3d c582 6dbd ba0e ecbd
00000240: a52c ba3c 8555 26bd 6cb5 afbc 6f8d 74bd
00000250: 648e ee3c 63e0 55ba 0557 7fbb 1152 babc
00000260: 071b bebd e5ea fbbc 7dcd 9abd 3e7c 56bd
00000270: 706e 0a3e ab4a 63bb 15ce cbbc 4392 a0bd
00000280: eac9 253d 3257 90bd b54e ebbc e54f 0fbe
00000290: 971b 4cbd 890f 21be c64c 53bd e30a 96bb
000002a0: d726 7ebd fafe e5bd d2a0 8bbc 5160 41bd
000002b0: 69d9 fbbc 323e b9bd 7c05 6cbd 3a7a 42bc
000002c0: cc0f 35bd 5b6d f63c 4590 6abd c715 bebd
000002d0: 1a6c f9bd f83f ee3d feb9 eebd dcb9 363d
000002e0: 8e66 e0bd 0bdc 22be ee8b f33a a281 963b
000002f0: ff01 d6bd 3c8e 143e af53 373d b665 2abe
00000300: 1389 fc3c ff2f 8a3d 22b7 65bd 2b37 f5bc
00000310: bbc2 063e ff81 b0bd 1d2d 973c 0e90 103d
00000320: 6562 903d 7417 273d 35f1 9bbc 3317 a83d
00000330: 456f c3bd d6e9 9ebd 192b 3bbc 6886 91bc
00000340: ac85 0a3d 9303 9f3d b71d 413c 4df2 053d
00000350: 8a89 fdbb af0b 123b dd3b 87bc a924 b53c
00000360: d86a 47bd d776 05be 32a1 b7bd 1c43 f6bd
00000370: 9609 45bc 86a9 eebd 95b3 06be a37b 07be
00000380: d59c ddbc 6174 9c3c 3ea7 703d 3709 adbd
00000390: 8d30 613d e161 e83d 6b6b bb3d b7b5 143e
000003a0: 79e3 ee3d e78f b1bd 8092 f3bd ed36 1e3c
000003b0: 2906 87bd e402 c8bd 0e2a b3bd 0a8a 1fbd
000003c0: 83d9 cabd 45ea 0b3d b3bf 89bd c47c 983d
000003d0: 2dcd f83c 99d4 1c3d eed4 02bd d8fe 063d
000003e0: 6372 a5bd 694e 18bc 94c0 1ebe 59fc e7bd
000003f0: 1cdd a73d 8b91 e83d d448 28bd 8b7f 833d

bias f4 [32]
-0.07379432 -0.026242014 -0.094712116 -0.021355154 -0.07495545 -0.04921583 -0.08191505 -0.016036129
-0.062457737 -0.018990625 -0.029762894 0.011739391 -0.08033129 -0.05129812 -0.035885833 -0.06317195
-0.029958127 -0.026614388 -0.07898266 -0.053980697 -0.07986284 -0.07606386 -0.029009996 -0.0092103835
-0.056120403 -0.041794095 -0.04620366 -0.044737533 -0.08598536 -0.018656382 -0.04064662 -0.07915926
00000000: 7a21 97bd 7ef9 d6bc 6df8 c1bd 01f1 aebc
00000010: 3e82 99bd 8a96 49bd 14c3 a7bd 335e 83bc
00000020: afd3 7fbd 3a92 9bbc 50d1 f3bc 9356 403c
00000030: bb84 a4bd fa1d 52bd 06fd 12bd 4c60 81bd
00000040: bf6a f5bc 6b06 dabc a9c1 a1bd dd1a 5dbd
00000050: 218f a3bd 5ec7 9bbd 5fa6 edbc 26e7 16bc
00000060: 82de 65bd 4930 2bbd 0d40 3dbd b43e 37bd
00000070: 1819 b0bd 45d5 98bc 127d 26bd 401e a2bd

weight f4 [4, 32, 3, 3]
-0.08580745 -0.105273694 0.023598319 -0.07139532 0.0428694 0.03331314 0.010964564 -0.09883925
0.05206039 0.012336227 -0.069053896 0.0052930345 0.062408667 -0.075953506 0.088930316 -0.0006668173
0.15306355 -0.030945864 -0.009293751 0.057282824 0.12528692 0.050420545 0.055398297 0.13090019
0.011882074 -0.041453864 0.077473626 0.05771834 -0.027969826 0.058626562 0.018802274 -0.013463279
-0.009891275 0.04499782 0.0892589 -0.053565066 0.004153867 -0.08952175 -0.05566064 -0.061486322
-0.021839691 0.024136895 -0.06272934 -0.046132296 -0.06199159 -0.052240904 -0.016575519 -0.016977051
0.11546255 -0.031078095 -0.037204336 -0.039944958 -0.04044018 0.037221182 0.10502286 0.079030834
0.05854687 0.07815886 0.083759345 -0.045461383 0.043198008 0.022652825 0.037629943 0.036840737
0.07822293 0.008398688 -0.07325581 0.10162048 0.115475245 0.061033137 -0.0151166 -0.038043257
0.06948055 -0.08008655 -0.08752767 -0.05366445 -0.0037414948 -0.02754123 0.025588207 -0.07929553
-0.041682236 0.07386434 0.007862102 0.08211031 -0.0007050097 0.034206614 0.014295048 -0.00075764867
-0.10195161 0.020031052 0.052400842 -0.11134747 0.018677467 0.10470288 0.047444664 0.015671832
0.12869717 0.21018848 0.057745244 -0.0050420756 0.11368145 -0.05186582 0.04123458 0.076004386
-0.03774395 0.03162157 0.14352132 0.09563742 0.0769077 0.031099968 0.01959794 -0.050718404
-0.033640634 0.01616814 -0.04724159 -0.041155882 0.11808292 0.06324019 -0.05231202 0.025671678
-0.09741696 0.07131985 -0.07774137 -0.03925631 -0.029264439 -0.068428524 0.05011592 0.045595385
0.13052301 -0.020097515 -0.046352748 0.014843375 0.058733422 0.06631874 0.0067522414 0.057854272
-0.031439792 -0.030999392 0.09025916 0.042684603 0.11914093 0.043110076 0.10045095 0.042720612
0.12542798 0.07084318 0.074272834 0.12809399 0.08502099 0.038510963 0.024060784 0.01729553
-0.028735297 -0.08744328 -0.07711997 0.011388233 -0.028349781 -0.0020436295 -0.046052173 -0.07371487
-0.10573497 0.02004197 0.11934939 0.002036789 -0.0063194963 0.14349486 0.06588411 0.013550743
0.041060526 0.122535266 0.018100418 0.009764094 -0.025782257 -0.14750318 0.040771272 -0.14767319
-0.11425907 0.008818364 -0.13761584 0.03691787 -0.051240325 -0.07512475 -0.1125065 0.099242054
0.06067747 -0.03767174 0.10455975 0.07401757 -0.05820662 -0.03009774 -0.010844047 -0.02236172
-0.09249681 -0.06848973 -0.09613123 -0.14142129 0.03390984 -0.057310034 0.07558031 -0.01760777
0.06380484 0.13003355 0.007584786 0.07969637 0.0630008 0.055162396 0.012495898 -0.08907274
0.056426916 -0.0022487699 0.01883736 -0.059520107 -0.077729404 -0.055555478 -0.054232292 -0.11838367
-0.053875063 -0.013272917 -0.048358705 -0.03259588 -0.02808525 -0.0011975073 -0.066905156 -0.015036715
0.043890443 -0.0016789733 0.018335216 0.00355559 0.013380587 0.06623227 0.091919646 0.073534474
0.16569743 0.069920994 -0.1430574 -0.063511945 -0.0010105586 0.0131154815 0.05247049 -0.0665909
-0.10196355 0.011679233 0.02945645 -0.03473383 -0.0798024 0.026902733 0.011821476 0.047425497
0.20372935 -0.0022394229 0.022340583 0.0789259 0.028558329 -0.08319963 0.0015065714 0.06604367
00000000: d1bb afbd bc99 d7bd 4351 c13c b637 92bd
00000010: d397 2f3d 5c73 083d b7a4 333c 3c6c cabd
00000020: 473d 553d e31d 4a3c 216c 8dbd 3171 ad3b
00000030: 3ba0 7f3d 838d 9bbd 1921 b63d 5acd 2eba
00000040: b1bc 1c3e 2e82 fdbc d144 18bc 65a1 6a3d
00000050: 374b 003e c685 4e3d 53e9 623d b30a 063e
00000060: 08ad 423c 87cb 29bd 7eaa 9e3d 116a 6c3d
00000070: fa20 e5bc 6822 703d 3a07 9a3c 1695 5cbc
00000080: 040f 22bc a24f 383d 5fcd b63d 0b67 5bbd
00000090: 291d 883b 2e57 b7bd 69fc 63bd 15d9 7bbd
000000a0: 27e9 b2bc bdba c53c 3d78 80bd 38f5 3cbd
000000b0: e5ea 7dbd 8ffa 55bd 62c9 87bc 7513 8bbc
000000c0: a177 ec3d 7d97 febc 9363 18bd 539d 23bd
000000d0: 9aa4 25bd 3d75 183d 3a16 d73d ebda a13d
000000e0: d8ce 6f3d c111 a03d 058a ab3d b735 3abd
000000f0: 65f0 303d 6b92 b93c db21 1a3d 50e6 163d
00000100: 5833 a03d a79a 093c 2407 96bd 661e d03d
00000110: 497e ec3d e2fd 793d 9eab 77bc 3fd3 1bbd
00000120: d24b 8e3d 6b04 a4bd b541 b3bd 41cf 5bbd
00000130: de33 75bb 259e e1bc 5c9e d13c b265 a2bd
00000140: feba 2abd 3046 973d 0cd0 003c 7329 a83d
00000150: 66d0 38ba 3c1c 0c3d c735 6a3c f19c 46ba
00000160: 01cc d0bd 2918 a43c 44a2 563d 240a e4bd
00000170: 7d01 993c 776e d63d 5655 423d 3762 803c
00000180: 31c9 033e a63b 573e 4786 6c3d ff37 a5bb
00000190: d2d1 e83d 4171 54bd 97e5 283d 30a8 9b3d
000001a0: 6699 1abd 9f85 013d 41f7 123e 8ddd c33d
000001b0: c981 9d3d 5cc5 fe3c dc8b a03c 1abe 4fbd
000001c0: c3ca 09bd 0c73 843c 6680 41bd 1293 28bd
000001d0: 75d5 f13d 1384 813d 2145 56bd 694d d23c
000001e0: 8b82 c7bd 2410 923d de36 9fbd 39cb 20bd
000001f0: fabb efbc 4124 8cbd 5a46 4d3d 3ac2 3a3d
00000200: d3a7 053e 8ba3 a4bc 61dc 3dbd a131 733c
00000210: 7592 703d 1fd2 873d e841 dd3b 9af8 6c3d
00000220: 03c7 00bd 70f2 fdbc cbd9 b83d 0dd6 2e3d
00000230: 2900 f43d 3194 303d 3ab9 cd3d cffb 2e3d
00000240: 3170 003e 3b16 913d 5b1c 983d 122b 033e
00000250: 7c1f ae3d acbd 1d3d 1f1b c53c 5baf 8d3c
00000260: 4966 ebbc 7615 b3bd 13f1 9dbd b695 3a3c
00000270: cd3d e8bc 6aee 05bb 34a1 3cbd d2f7 96bd
00000280: 938b d8bd 0f2f a43c 746d f43d a67b 053b
00000290: c713 cfbb 51f0 123e 40ee 863d f003 5e3c
000002a0: 152f 283d c5f3 fa3d 5447 943c 94f9 1f3c
000002b0: 5035 d3bc 130b 17be c7ff 263d a437 17be
000002c0: a900 eabd e67a 103c 2beb 0cbe 3137 173d
000002d0: 60e1 51bd 01db 99bd cf69 e6bd 6b3f cb3d
000002e0: f088 783d af4d 1abd 6c23 d63d 8696 973d
000002f0: 116a 6ebd 898f f6bc 3bab 31bc ed2f b7bc
00000300: f86e bdbd 5844 8cbd 73e0 c4bd bed0 10be
00000310: 0be5 0a3d edbd 6abd d9c9 9a3d 2c3e 90bc
00000320: 1dac 823d 8427 053e cc89 f83b da37 a33d
00000330: 9006 813d f7f1 613d 98bb 4c3c c56b b6bd
00000340: e91f 673d 1960 13bb cf50 9a3c 5bcb 73bd
00000350: 9830 9fbd 248e 63bd ae22 5ebd 2373 f2bd
00000360: 19ac 5cbd a676 59bc c713 46bd 4283 05bd
00000370: 0a13 e6bc adf5 9cba 9205 89bd 8e5c 76bc
00000380: 77c6 333d ff10 dcba bc33 963c e704 693b
00000390: 403a 5b3c c9a4 873d 5e40 bc3d 3e99 963d
000003a0: 96ac 293e bd32 8f3d a47d 12be 8d12 82bd
000003b0: b874 84ba 51e2 563c 4ceb 563d cf60 88bd
000003c0: 44d2 d0bd 415a 3f3c a74e f13c 0f45 0ebd
000003d0: 716f a3bd 1f63 dc3c ddae 413c 3d41 423d
000003e0: 6d9e 503e 48c3 12bb 9903 b73c e7a3 a13d
000003f0: 28f3 e93c 9164 aabd 2678 c53a e741 873d

bias f4 [4]
-0.02690254 0.043794878 0.037284195 -0.04489599
00000000: b762 dcbc 4262 333d 50b7 183d dce4 37bd
