super_resolution/checkpoint_scale2/model_epoch_11.pth (torch_old, 247001 bytes, 8 tensors)

weight f4 [64, 1, 5, 5]
0	0x3e5c202e	0.2149665
1	0xbdca7fab	-0.09887632
2	0xbe247092	-0.16058567
3	0xbe1b0118	-0.15137136
4	0x3e59285f	0.21206807
5	0xbd3457d4	-0.044029072
6	0xbe816414	-0.25271666
7	0xbe6011e1	-0.2188182
8	0x3cb40a72	0.021977637
9	0xbe3fb025	-0.18719538
10	0xbee07de9	-0.43846062
11	0xbe55516e	-0.20831844
12	0xbe9ab0ca	-0.30213004
13	0xbe304949	-0.17215456
14	0xbd07e979	-0.03318164
15	0xbe81a6b8	-0.2532251
16	0xbe11b357	-0.14228569
17	0xbd85a036	-0.065246984
18	0xbe8ac146	-0.2710058
19	0x3deff853	0.11717286
20	0x3d07bf21	0.03314126
21	0x3cc7ea7d	0.024403805
22	0xbe121946	-0.14267454
23	0x3cc92da5	0.024557898
24	0x3dbdbebe	0.09264897
25	0xbe187b90	-0.14890885
26	0xbdd7c3ba	-0.10535379
27	0xbe8d7cac	-0.2763418
28	0x3d873286	0.066014335
29	0xbe239bd5	-0.15977414
30	0xbe955641	-0.2916737
31	0xbdbf5e88	-0.09344202
32	0xbe546d62	-0.20744851
33	0x3d5b1232	0.05348415
34	0xbd0189d4	-0.031625584
35	0xbdf8c0aa	-0.12146123
36	0xbd868e2a	-0.065700844
37	0xbe73e71e	-0.23818633
38	0xbe2230b1	-0.15838887
39	0x3daf7bb5	0.08568517
40	0x3e0ba45a	0.13636914
41	0xbe837311	-0.25673726
42	0x3ca8fc93	0.02062825
43	0x3e8a3192	0.26990944
44	0xbe3c88c5	-0.18411548
45	0xbddea827	-0.10871916
46	0xbdee5de3	-0.11639001
47	0xbe21f0ab	-0.15814464
48	0xbcc1ec5f	-0.02367228
49	0xbd74a8c7	-0.05973127
50	0xbea81b6a	-0.32833415
51	0x3dbd9751	0.09257377
52	0xbd01bb44	-0.03167273
53	0x3dd28d76	0.10280888
54	0x3e1a0a40	0.15042973
55	0xbe8281f3	-0.25489768
56	0xbc8a614a	-0.016892094
57	0xbd8f15f9	-0.06986613
58	0x3d9699ed	0.07353578
59	0xbee28c4e	-0.4424767
60	0x3d364588	0.044499904
61	0x3d10768a	0.035269298
62	0x3d78532a	0.060626186
63	0xbd8f2b52	-0.069906846
64	0xbc994cec	-0.018713437
65	0xbe3dcfad	-0.18536253
66	0xbe5bcfab	-0.21465938
67	0xbe1fedf1	-0.15618111
68	0xbdb1005f	-0.08642649
69	0xbe4f1dbc	-0.20226187
70	0xbe0d472a	-0.13796678
71	0x3bcba5dd	0.006214841
72	0xbe28495a	-0.16434231
73	0x3e266e30	0.1625297
74	0xbde316c7	-0.11088329
75	0xbe57d103	-0.21075825
76	0xbe3efb80	-0.18650627
77	0x3d9801f3	0.07422247
78	0xbdae7ede	-0.08520292
79	0xbe73cd04	-0.23808676
80	0x3d3dfca9	0.046383534
81	0x3da1fab2	0.079091445
82	0xbe90b5ae	-0.2826361
83	0xbe9ab7c6	-0.30218333
84	0xbec8c150	-0.39209986
85	0x3da38996	0.07985227
86	0xbd7478d0	-0.05968553
87	0xbe54eef3	-0.20794277
88	0x3b8885d6	0.004166345
89	0xbeb690cd	-0.3565735
90	0xbe0a016b	-0.13477103
91	0x3e6ef9c8	0.23337471
92	0x3d8bfeab	0.068356834
93	0xbdc52069	-0.09625322
94	0xbe079272	-0.13239458
95	0xbdea9c21	-0.114555605
96	0xbe93cb5a	-0.28866082
97	0xbdca73bf	-0.09885358
98	0xbbce2046	-0.0062904684
99	0xbe2c40bc	-0.16821569
100	0xbe35c610	-0.17751336
101	0x3e705751	0.23470809
102	0x3e55aba0	0.20866251
103	0xbe1bf881	-0.15231515
104	0x3ddb96dc	0.107221335
105	0x3d357cda	0.04430852
106	0xbe9ec92a	-0.3101285
107	0x3b59d8bd	0.0033240758
108	0x3d446936	0.0479519
109	0xbbda8d91	-0.006669708
110	0xbeca4383	-0.39504632
111	0x3c98993f	0.018627761
112	0x3d873bf2	0.066032305
113	0xbe1409c8	-0.14456856
114	0xbe414275	-0.18873008
115	0xbc7946a6	-0.015214598
116	0xbd33bb8b	-0.043880027
117	0xbe9468e5	-0.28986278
118	0x3e80e1e5	0.25172344
119	0x3dadcd28	0.08486396
120	0xbe85f038	-0.26159835
121	0xbd55ad5f	-0.052167293
122	0xbdc209fb	-0.0947456
123	0xbea82966	-0.32844085
124	0xbe594ca5	-0.21220644
125	0xbdaa44e2	-0.083139196
126	0xbde25352	-0.11051048
127	0x3a87d86b	0.001036418
128	0xbcb390a8	-0.021919563
129	0xbd83725b	-0.06418296
130	0x3da1c540	0.078989506
131	0x3e82eb3d	0.25570098
132	0x3e1dda42	0.1541529
133	0x3de09a9c	0.109669894
134	0xbdf5376c	-0.119734615
135	0xbd88beb4	-0.06676999
136	0xbed32105	-0.4123613
137	0x3d34cea8	0.044142395
138	0x3eb783e7	0.3584282
139	0xbe96aa94	-0.29427016
140	0xbb8e89d0	-0.0043499246
141	0xbe00d2b8	-0.12580383
142	0xbf1a1068	-0.60181284
143	0xbe0aedae	-0.1356723
144	0xbccf7b20	-0.025327265
145	0xbde1f625	-0.110332765
146	0xbcf1698b	-0.029469272
147	0xbe7094fb	-0.23494332
148	0x3e378e3c	0.17925352
149	0x3e68ec08	0.22746289
150	0x3c558255	0.013031562
151	0xbd9462c2	-0.07245399
152	0x3e6002c5	0.21876056
153	0xbe720664	-0.2363525
154	0xbe83c23f	-0.25734136
155	0xbdd5f887	-0.104477935
156	0x3e52696c	0.20548028
157	0x3e3d6686	0.18496141
158	0x3d66161f	0.05617344
159	0x3dbadee9	0.09124548
160	0x3e116073	0.14196949
161	0x3dd263e6	0.1027296
162	0xbed82867	-0.42218325
163	0xbeccddb2	-0.4001289
164	0x3e83071d	0.25591365
165	0x3dd6388b	0.104600035
166	0xbd94536f	-0.07242476
167	0xbe54bb8b	-0.20774667
168	0xbea5ea20	-0.32405186
169	0xbca8fae5	-0.020627448
170	0xbe6e549e	-0.23274466
171	0x3e7cca21	0.24686481
172	0xbe8adc9f	-0.27121446
173	0x3be149fd	0.006875275
174	0xbd75a961	-0.059975985
175	0xbdf07842	-0.11741687
176	0xbc29f8f1	-0.010374294
177	0x3de53936	0.11192553
178	0xbe128ce4	-0.14311558
179	0xbe945e33	-0.28978118
180	0x3cd214e4	0.025644727
181	0xbe167c59	-0.14695872
182	0x3ef92088	0.48657632
183	0x3dc8180e	0.09770213
184	0x3e8fe6f6	0.28105897
185	0x3d5c07e6	0.05371847
186	0x3e34ed6a	0.17668691
187	0x3b903b2a	0.004401584
188	0x3cefa0f6	0.029251557
189	0xbd8eff0c	-0.0698224
190	0xbe04dcc9	-0.12974848
191	0xbc3b8325	-0.0114448415
192	0xbe85e634	-0.26152194
193	0xbe8311e6	-0.25599593
194	0xbe1c3099	-0.15252914
195	0x3ea2d89f	0.31805894
196	0xbec45f9d	-0.38354197
197	0x3e1bd1f1	0.15216805
198	0xbe77ffd9	-0.24218692
199	0xbe323b71	-0.17405488
200	0x3e60ce47	0.21953689
201	0x3e433591	0.19063403
202	0x3e05dc89	0.13072409
203	0xbe803be8	-0.25045705
204	0xbb3b655b	-0.0028594348
205	0xbd2daece	-0.042403035
206	0x3ea16615	0.31523195
207	0xbeaa1334	-0.33217776
208	0x3e308f5d	0.17242189
209	0xbcfadf40	-0.030624032
210	0xbeb15562	-0.34635454
211	0x3eb952af	0.36195895
212	0xbe02054a	-0.1269733
213	0xbe6d169f	-0.2315316
214	0xbe83f81d	-0.25775233
215	0xbcd47ff6	-0.025939923
216	0xbbe0004e	-0.006835974
217	0x3e14450a	0.14479461
218	0xbe4dc883	-0.2009602
219	0x3e23f642	0.16011909
220	0x3f06c4c0	0.52643967
221	0x3b65b0e7	0.003504807
222	0xbd946862	-0.07246472
223	0x3e75d0b2	0.24005392
224	0x3e3eee1d	0.1864552
225	0x3e6bb3da	0.23017827
226	0xbe97cb25	-0.29647174
227	0x3e1b0863	0.15139918
228	0xbe2b9cbe	-0.16759011
229	0x3e215ba6	0.15757617
230	0x3e54a77c	0.20767015
231	0x3e35ca98	0.17753065
232	0xbe37bdf0	-0.17943549
233	0xbbdfee62	-0.0068338374
234	0xbe4062bf	-0.18787669
235	0x3dcb34a1	0.099221475
236	0x3dcaa11b	0.0989401
237	0x3e5903e5	0.21192892
238	0xbe907dc8	-0.28220963
239	0xbdb72b2e	-0.08943783
240	0xbce92e48	-0.028464451
241	0xbdc0ac32	-0.09407844
242	0xbcbe4dec	-0.023230515
243	0x3e0de3e5	0.13856466
244	0xbe12c6fe	-0.14333722
245	0xbd2b2761	-0.0417856
246	0xbe72690a	-0.23672882
247	0x3e3c5d42	0.1839495
248	0xbe582e5b	-0.21111433
249	0xbd555556	-0.052083336
250	0xbe2ec6ab	-0.17067973
251	0xbe035f13	-0.12829237
252	0xbe4aa9d8	-0.19791353
253	0xbf0e5966	-0.5560516
254	0x3dc1e050	0.09466612
255	0xbd32bc11	-0.043636385

bias f4 [64]
0	0x3c7f2969	0.015573838
1	0x3cb6c9db	0.022313049
2	0xbe6a443e	-0.22877595
3	0xbdb5e7b1	-0.08882082
4	0xbdc83002	-0.09774782
5	0x3d782be6	0.06058874
6	0x3dbe3ca7	0.09288912
7	0xbc9a283e	-0.018818017
8	0xbe2a64e3	-0.16640048
9	0xbe65ecdd	-0.22453637
10	0x3e0db780	0.13839531
11	0x3df5a754	0.11994806
12	0x3daaf81a	0.08348103
13	0xbe07b8d4	-0.132541
14	0xbe1e3c00	-0.15452576
15	0x3d3596bd	0.04433321
16	0xbd5154e2	-0.05110634
17	0xbc22aed3	-0.009929377
18	0xbe6c1234	-0.23053819
19	0x3df6983b	0.120407544
20	0x3d19c466	0.037540816
21	0x3e1bf19c	0.15228885
22	0x3d7d27f3	0.061805677
23	0x3d185a8a	0.03719572
24	0xbd325259	-0.043535564
25	0xbe5b7639	-0.21431817
26	0xbe3e5415	-0.18586762
27	0xbd8ff1e3	-0.07028558
28	0x3d923220	0.07138467
29	0xbd3ae877	-0.045631852
30	0x3d564fa3	0.05232204
31	0xbd0f41d4	-0.034974888
32	0xbdd25fa0	-0.10272145
33	0xbd022719	-0.031775568
34	0xbd490dce	-0.04908543
35	0xbe16a065	-0.14709623
36	0x3b4a1996	0.0030838004
37	0x3da147ab	0.07874998
38	0x3dbe9b89	0.0930701
39	0xbd983d0b	-0.07433518
40	0xbe5b41a5	-0.2141176
41	0x3ddabe3e	0.10680817
42	0xbd849491	-0.06473649
43	0xbd4e428d	-0.050356437
44	0xbbf2bf80	-0.0074080825
45	0xbd91e0a0	-0.07122922
46	0xbce02a32	-0.02736387
47	0x3d989a96	0.0745136
48	0x3d21a76f	0.039466318
49	0xbe73af65	-0.23797376
50	0xbe1de0c3	-0.15417771
51	0xbda33c4d	-0.07970486
52	0xbc4595d9	-0.012059652
53	0x3d069d8a	0.032865085
54	0xbe025b09	-0.1273004
55	0xbe5b7cd9	-0.21434344
56	0x3df8eff1	0.1215514
57	0xbe45e2b4	-0.19324762
58	0xbe628050	-0.2211926
59	0x3ddf280b	0.108963095
60	0x3e17b08e	0.14813444
61	0x3cb0e914	0.021595515
62	0xbe3f480a	-0.18679824
63	0xbe2c1bf8	-0.16807544

weight f4 [64, 64, 3, 3]
0	0xbb7a439e	-0.0038187276
1	0xbd11b43f	-0.035572287
2	0xbdd36ee5	-0.10323886
3	0x3c080c03	0.008303645
4	0xbd8877b8	-0.066634595
5	0x3c7562e0	0.014977187
6	0xbb74af6f	-0.0037336012
7	0xbcd95880	-0.026531458
8	0xbd9de52d	-0.077097274
9	0xbdbad21a	-0.09122105
10	0x3c3e5a96	0.011618277
11	0xbe11a76f	-0.14224027
12	0x3c04d684	0.008107785
13	0xbdcf5af8	-0.10124773
14	0xbdc71718	-0.09721202
15	0xbdad65d5	-0.084666885
16	0xbd49d87d	-0.049278725
17	0xbdeee01e	-0.11663841
18	0xbdf84c4f	-0.1212393
19	0xbdedd60f	-0.11613094
20	0xbdb4b020	-0.08822656
21	0xbe049975	-0.12949164
22	0xbe04cbc3	-0.12968354
23	0xbd80e235	-0.062931456
24	0xbd47ebda	-0.04880891
25	0xbddfe010	-0.109314084
26	0xbe075190	-0.13214707
27	0xbc90a185	-0.017655144
28	0xbd1763fb	-0.036960583
29	0xbdfa7acc	-0.12230453
30	0x3ddad579	0.10685248
31	0x3de5c4d0	0.1121918
32	0xbc00acb3	-0.007853675
33	0xbd5e95a5	-0.05434193
34	0xbd7aa8e1	-0.06119621
35	0xbc1b4c86	-0.009478694
36	0xbe1679d6	-0.14694914
37	0x3ca3a66d	0.019976819
38	0xbdda6642	-0.106640354
39	0xbd2d44f6	-0.042302094
40	0x3d99b399	0.07504959
41	0xbd69c862	-0.057075866
42	0x3d6c3d91	0.0576759
43	0x3d9cebd7	0.076621704
44	0xbc3a4716	-0.011369487
45	0xbe008109	-0.12549223
46	0xbdc41745	-0.09574751
47	0xbda3d78c	-0.08000097
48	0x3c544be4	0.012957547
49	0xbdda6a0c	-0.10664758
50	0xbc7b2c70	-0.015330419
51	0xbe10a241	-0.14124395
52	0xbda309bb	-0.0796084
53	0xbcdce71d	-0.026965672
54	0xbd9136f4	-0.070905596
55	0xbe01a76c	-0.12661523
56	0xbd5a116a	-0.053239264
57	0xbda39174	-0.07986727
58	0x3c97d45c	0.018533878
59	0xbdf1b763	-0.11802556
60	0x3d5072db	0.050890785
61	0x3a882c99	0.0010389268
62	0xbd933ce4	-0.07189348
63	0xbd917abe	-0.07103489
64	0xbd9f3d91	-0.07775415
65	0x3d03342b	0.032032173
66	0x3c25dbe2	0.010123225
67	0xbc3b4a96	-0.011431357
68	0xbdba56f3	-0.090986155
69	0xbde104bc	-0.10987231
70	0xbd99c7ca	-0.0750881
71	0xbd01a81d	-0.031654466
72	0xbe2df035	-0.16986163
73	0xbd55b502	-0.052174576
74	0xbc7a0a99	-0.015261316
75	0xbd090043	-0.033447515
76	0xbdabd57d	-0.08390329
77	0xbd48d406	-0.049030326
78	0xbcae2114	-0.021256007
79	0xbe118941	-0.14212514
80	0x3c9d0d28	0.019171312
81	0xbda2d3f5	-0.07950584
82	0x3cc3f464	0.023920245
83	0xbd11c6ce	-0.035589986
84	0x3d169d43	0.03677107
85	0xbe00661c	-0.12538952
86	0xbde685db	-0.11256
87	0xbda1b41c	-0.07895681
88	0xbddee5a0	-0.10883641
89	0xbd3e192e	-0.046410732
90	0xbd84b399	-0.06479568
91	0xbd456069	-0.048187647
92	0xbdc2ed85	-0.095179595
93	0xbddc7946	-0.107653186
94	0xbd87b7a2	-0.06626822
95	0x3aa52e7e	0.0012602357
96	0xbe370a14	-0.17874938
97	0xbd478603	-0.048711788
98	0xbd87fe58	-0.06640309
99	0x3d016298	0.031588167
100	0xbc9d020e	-0.019166019
101	0x3db49c99	0.08818931
102	0x3da4c075	0.08044521
103	0xbc321738	-0.010869794
104	0xbd8c7d8d	-0.068598844
105	0xbcf3b4f5	-0.029749373
106	0xbd90aa2a	-0.07063706
107	0x3d8ff380	0.07028866
108	0x3be7db17	0.007075678
109	0x3c349b16	0.0110233035
110	0xbbdc6a0a	-0.006726508
111	0xbd07357b	-0.033009987
112	0xbd5370e7	-0.051621344
113	0xbc7afce7	-0.015319086
114	0x3da80939	0.08204884
115	0x3d24ee3b	0.040266257
116	0xbd730bb1	-0.05933732
117	0xbdcd381f	-0.1002047
118	0xbde15780	-0.110030174
119	0x3da6f2fd	0.08151815
120	0xbdb1f933	-0.08690109
121	0xbca687c1	-0.020328404
122	0xbe0fc221	-0.14038898
123	0xbe5a1077	-0.21295343
124	0xbde28748	-0.11060959
125	0xbe119b88	-0.14219487
126	0xbc404690	-0.011735573
127	0x3d1cab5d	0.038249362
128	0xbd65f1dd	-0.056138862
129	0xbe377521	-0.17915775
130	0x3cd10731	0.025516124
131	0xbd796dbf	-0.060895678
132	0xbdb80aa2	-0.08986403
133	0x3c1b0b66	0.009463167
134	0xbdb50db0	-0.08840501
135	0xbd908060	-0.070557356
136	0xbcc71a1d	-0.024304444
137	0x3a86e238	0.0010290807
138	0xbd9cbe70	-0.076535106
139	0xbd432816	-0.04764565
140	0x3d14652e	0.036229305
141	0xbd790767	-0.060798075
142	0xbc04633e	-0.008080302
143	0xbc174732	-0.009233283
144	0xbd9241e4	-0.07141474
145	0xbe4c22d5	-0.19935162
146	0xbc25e629	-0.010125675
147	0xbd0eff9e	-0.034911744
148	0xbe0b3f1e	-0.13598296
149	0xbdf0467d	-0.117321946
150	0xbdf1cd4e	-0.11806737
151	0xbd30995e	-0.043115012
152	0xbdb7535f	-0.08951449
153	0xbcfee56c	-0.031115256
154	0xbc1f283e	-0.009714184
155	0xbdc8d291	-0.09805787
156	0xbe2402cb	-0.1601669
157	0xbd8ba66d	-0.068188526
158	0xbc391148	-0.011295624
159	0xbe1628a9	-0.14663948
160	0xbd4720bc	-0.048615202
161	0xbe15234b	-0.14564244
162	0x3d0dd277	0.034624543
163	0xbe2394be	-0.1597471
164	0xbd8272ca	-0.063695505
165	0xbcd66cb0	-0.026174873
166	0xbdd910ce	-0.10598908
167	0xbdc0c71c	-0.09412977
168	0xbd827d31	-0.063715346
169	0x3c09fbe4	0.008421872
170	0xbd65672d	-0.0560066
171	0xbde29f01	-0.11065484
172	0xbdb6974d	-0.08915577
173	0xbd43f5fc	-0.04784201
174	0xbbeb9b71	-0.007190161
175	0xbd29941c	-0.041401014
176	0xbd5c98ad	-0.05385654
177	0xbdcbcc39	-0.09951062
178	0xbce65766	-0.028117847
179	0x3c88303d	0.016624564
180	0xbc9a388d	-0.018825794
181	0xbbe30d39	-0.0069290665
182	0x3c86410c	0.016388439
183	0xbd8d05be	-0.06885861
184	0xbd070e18	-0.032972425
185	0xbcf85d22	-0.030317847
186	0xbdb59949	-0.088671274
187	0xbcefd9fd	-0.02927875
188	0xbc2a9f8e	-0.010414017
189	0xbab7bdc5	-0.0014018348
190	0x3d0c5732	0.034262843
191	0xbdaf221a	-0.08551426
192	0x3c6bad56	0.014384588
193	0xbd7bcce6	-0.061474703
194	0x3d5d9f96	0.05410727
195	0xbdffe835	-0.12495462
196	0xbde2810f	-0.11059772
197	0xbd1b2d64	-0.037885085
198	0xbd85d8e9	-0.06535513
199	0xbd4f28ec	-0.050576136
200	0xbda1b37e	-0.078955635
201	0xbd709318	-0.05873403
202	0xbc5f252f	-0.013619705
203	0xbdca542e	-0.09879337
204	0xbdca08f7	-0.09864991
205	0x3d1b50c9	0.03791884
206	0x3cd8937d	0.026437515
207	0xbda8f9a8	-0.08250743
208	0xbcdd05af	-0.02698025
209	0xbd98b24d	-0.07455883
210	0xbdb0f2e0	-0.08640075
211	0xbdbe8add	-0.0930383
212	0xbdbdcf82	-0.092680946
213	0xbdc254b8	-0.09488815
214	0xbd72583c	-0.059166178
215	0x3bdc3d57	0.0067211795
216	0xbddeafa3	-0.10873344
217	0xbdb2cbd0	-0.087302804
218	0xbe1af1ed	-0.1513135
219	0xbd0d1775	-0.0344462
220	0x3c9adda6	0.018904518
221	0xbe0ef32f	-0.13959955
222	0xbdb9ad70	-0.09066284
223	0xbdae28b3	-0.085038565
224	0xbccb983f	-0.02485287
225	0xbda92480	-0.08258915
226	0x3d1d34de	0.038380496
227	0xbd4f9642	-0.050680406
228	0xbd51571b	-0.05110846
229	0xbd2bca11	-0.041940752
230	0xbdf988fb	-0.1218433
231	0xbd5e5c76	-0.054287396
232	0xbd437ac7	-0.04772451
233	0xbda1ef39	-0.07906956
234	0x3dc6678e	0.0968772
235	0xbd136607	-0.035985973
236	0x3c1ce9e6	0.00957725
237	0x3c40b490	0.011761799
238	0x3b5659fa	0.0032707439
239	0xbdf19c91	-0.11797441
240	0x3d41838d	0.047244597
241	0xbd327423	-0.043567788
242	0x3d974ea9	0.0738805
243	0x3bbd4414	0.005775938
244	0x3d259352	0.0404237
245	0xbd8ee314	-0.069769055
246	0xbdca0636	-0.09864466
247	0xbde254f7	-0.11051362
248	0x3d1618f1	0.03664488
249	0x3ce11cb1	0.027479501
250	0xb9d0e0e1	-0.000398404
251	0xbdc99b2d	-0.098440506
252	0xbde2b85d	-0.11070321
253	0xbe114516	-0.1418651
254	0xbe15731e	-0.14594695
255	0xbd3865de	-0.045019023

bias f4 [64]
0	0xbd00aa7c	-0.031412587
1	0xbd2aecc9	-0.041729722
2	0xbd21a83c	-0.03946708
3	0xbd3b0a78	-0.04566428
4	0xbd4a9276	-0.049456082
5	0xbcf4a653	-0.029864466
6	0xbd9b8712	-0.07594122
7	0xbdb648ca	-0.08900602
8	0xbd0c599f	-0.034265157
9	0xbdb60d4a	-0.088892534
10	0xbd87a8fa	-0.066240266
11	0xbc9d8e59	-0.019232916
12	0x3cab8881	0.020939114
13	0xbd94928e	-0.072545156
14	0xbd3883ec	-0.045047686
15	0xbd683aee	-0.056696825
16	0xbd8b2803	-0.06794741
17	0x3a58843c	0.00082594506
18	0x3d22335b	0.039599758
19	0xbd218e39	-0.039442275
20	0xbd7cf51a	-0.061757185
21	0xbdc5eb9d	-0.0966408
22	0xbd9729d4	-0.07381025
23	0xbd053cbb	-0.03252862
24	0xbd95ffee	-0.07324205
25	0xbd07f220	-0.033189893
26	0xbd9a5189	-0.07535083
27	0xbd4746cb	-0.048651498
28	0xbd3fb3ee	-0.046802454
29	0xbcff0685	-0.031131038
30	0xbd976afc	-0.073934525
31	0xbd99337f	-0.07480525
32	0xbd396966	-0.04526653
33	0xbc258202	-0.010101797
34	0xbc6adb01	-0.014334441
35	0xbdc1615d	-0.09442399
36	0xbd580bc0	-0.05274558
37	0xbcee7016	-0.029106181
38	0xbdbf30a4	-0.09335449
39	0x3d056921	0.032570962
40	0xbcf8ef0d	-0.030387426
41	0xbdb6452e	-0.08899914
42	0xbcbcca30	-0.02304563
43	0xbd1e32b7	-0.038622584
44	0xbd9a11fa	-0.0752296
45	0xbd959bea	-0.07305129
46	0xbd8e16b5	-0.06937925
47	0xbd01c6b2	-0.03168363
48	0xbd83ad3d	-0.06429527
49	0xbd8ae63c	-0.06782195
50	0xbd756dbe	-0.05991911
51	0xbcfb2920	-0.030659258
52	0xbd55549a	-0.052082635
53	0xbc0aa512	-0.008462207
54	0xbda48336	-0.08032839
55	0xbce8bc63	-0.028410142
56	0xbd961ef1	-0.0733012
57	0xbc99228d	-0.018693233
58	0xbcaed55a	-0.021341968
59	0xbd417e91	-0.047239844
60	0xbcf2c121	-0.029633107
61	0xbc22744a	-0.009915421
62	0xbd714499	-0.05890331
63	0xbd96d622	-0.07365061

weight f4 [32, 64, 3, 3]
0	0x3ddde8c2	0.10835411
1	0xbc31a402	-0.010842325
2	0x3bf3b6ce	0.0074375635
3	0x3cef468f	0.02920845
4	0xbda4dc73	-0.0804986
5	0xbe385620	-0.18001604
6	0x3d45d059	0.0482944
7	0xbc1640e6	-0.009170746
8	0xb9a6743b	-0.00031748586
9	0x3cef285b	0.029194048
10	0x3dde7185	0.10861496
11	0xbdafe546	-0.08588652
12	0xbce335e0	-0.02773565
13	0x3c8b4043	0.016998416
14	0xbc76dc51	-0.015067176
15	0xbcdc6628	-0.02690418
16	0x3d9e2304	0.077215225
17	0xbd428167	-0.04748669
18	0xbde691f1	-0.11258305
19	0xbbba53c9	-0.0056862575
20	0xba9f2f62	-0.0012144858
21	0xbbb6f168	-0.005582977
22	0xbd89edf9	-0.06734843
23	0xbd9e00e3	-0.07715013
24	0xbd6f8cda	-0.058483936
25	0xbe188686	-0.14895067
26	0xbe395151	-0.18097426
27	0x3e53256d	0.20619746
28	0xbc80ff87	-0.015746845
29	0x3c92b9f2	0.017910931
30	0x3d0471d0	0.032335103
31	0xbcabc286	-0.02096678
32	0xbca07958	-0.019589111
33	0x3bdfe330	0.006832503
34	0xbcf65a60	-0.030072391
35	0xbd9359d6	-0.07194869
36	0xbaa50701	-0.0012590588
37	0x3da2cd0b	0.07949265
38	0xbddb73a3	-0.10715415
39	0xbd8c2c59	-0.06844396
40	0xbdbe9e37	-0.09307521
41	0xbd845424	-0.06461361
42	0xbd8c9709	-0.06864745
43	0xbdc0fb4d	-0.09422932
44	0xbc9e07bd	-0.0192908
45	0xbce3e8da	-0.027820993
46	0xbd6fed2b	-0.05857579
47	0xbd1a4898	-0.037666887
48	0xbc281beb	-0.010260562
49	0xbb2ad83b	-0.0026068825
50	0xbcd8b2a9	-0.02645238
51	0xbd9ba41e	-0.07599662
52	0xbc442c13	-0.011973399
53	0xbdca9026	-0.098907754
54	0xbe1d4dcf	-0.15361713
55	0x3ca6208b	0.02027919
56	0x3d8de49d	0.0692837
57	0xbb429a77	-0.002969412
58	0xbc11d2be	-0.0089003425
59	0xbdfeb936	-0.1243767
60	0xbcc7551c	-0.024332576
61	0x3d908042	0.07055713
62	0xbd5e29b7	-0.054239
63	0x3dd1454f	0.10218298
64	0x3d2f5f54	0.04281552
65	0x3c55d860	0.013052076
66	0x3e112af8	0.14176548
67	0x3db12c6a	0.086510494
68	0xbd7e304f	-0.06205779
69	0x3da6ff4b	0.08154162
70	0xbd0afdfb	-0.03393362
71	0xbe349a1a	-0.1763691
72	0x3da0e846	0.07856803
73	0x3dd5774b	0.10423144
74	0xbdbd2e05	-0.09237293
75	0x3d600a64	0.05469741
76	0xbcbde246	-0.023179185
77	0xbda03c2d	-0.078239776
78	0xbd7d9150	-0.06190616
79	0x3d85e8ab	0.065385185
80	0xbe411fe6	-0.18859825
81	0x3e0b7844	0.13620096
82	0x3ce0ff5f	0.02746552
83	0xbe0062a0	-0.12537622
84	0x3c13e0db	0.009025778
85	0xbd516083	-0.05111743
86	0xbd2f7ec8	-0.042845517
87	0x3d825874	0.06364527
88	0xbd393a26	-0.04522147
89	0xbdf640b5	-0.12024061
90	0xbb5d87e3	-0.0033802919
91	0xbd5c17d3	-0.053733658
92	0x3dbce746	0.092237994
93	0x3ad61e64	0.0016335961
94	0xbd95a885	-0.07307533
95	0xbd903c49	-0.070427485
96	0xbb74b765	-0.0037340757
97	0xbc5162cf	-0.012779905
98	0x3d4f1464	0.050556555
99	0x3c448d02	0.0119965095
100	0xbd439e79	-0.047758553
101	0xbdcfc5bf	-0.10145139
102	0x3de1e401	0.110298164
103	0x3c5853f2	0.013203608
104	0xbc93287f	-0.017963646
105	0x3e1a47de	0.15066478
106	0xbe0ff1a0	-0.14057016
107	0x3d474e01	0.048658375
108	0xbd0379c4	-0.032098547
109	0xbc96879c	-0.01837521
110	0x3c196223	0.0093617765
111	0xbdee90a5	-0.116486825
112	0x3c82d498	0.015970513
113	0xbe2b791b	-0.16745417
114	0xbdb85930	-0.09001386
115	0xbe32a07b	-0.17444031
116	0xbe0591d7	-0.13043915
117	0x3d7d71ad	0.061875988
118	0x3dd9b56d	0.10630307
119	0xbca52ec8	-0.020163909
120	0x3d0748f7	0.03302857
121	0xbe2ca6af	-0.1686046
122	0xbd90153c	-0.070353
123	0xbbd4c37a	-0.006493029
124	0xbdf22610	-0.11823666
125	0xbe12343f	-0.14277743
126	0x3b336057	0.0027370655
127	0xbd502924	-0.050820485
128	0x3ba582f8	0.005051013
129	0xbd68e3b2	-0.056857772
130	0xbce60162	-0.028076831
131	0x3d0b256d	0.03397124
132	0xbc43c810	-0.011949554
133	0x3d847731	0.064680465
134	0xbd3c1576	-0.045918904
135	0xbccb5126	-0.024818968
136	0x3d162a9f	0.03666174
137	0xbd875db4	-0.06609669
138	0x3d208be0	0.039195895
139	0x3d2aa7c9	0.04166392
140	0xbd6dba41	-0.058038954
141	0x3d870741	0.065931804
142	0xbd8355aa	-0.064128235
143	0xbdf7892d	-0.12086711
144	0x3c802a16	0.015645068
145	0xbd4356c6	-0.047690175
146	0xbce9b85c	-0.028530292
147	0xbd88c762	-0.06678654
148	0x3cb48bd1	0.022039326
149	0xbc0163e4	-0.007897351
150	0xbc33d83d	-0.010976848
151	0xbcf45330	-0.029824823
152	0xbdcc9b6b	-0.09990581
153	0xbd1af004	-0.037826553
154	0xbda94c57	-0.08266514
155	0xbd737f53	-0.059447598
156	0x3e032fba	0.12811175
157	0xbc2cc94e	-0.010546042
158	0xbd02ea08	-0.03196147
159	0xbdaf0fea	-0.08547957
160	0x3d08cc08	0.033397704
161	0xbd9ed896	-0.07756154
162	0xbcd76945	-0.026295314
163	0xbe14d32e	-0.14533684
164	0xbd5bb8b6	-0.05364295
165	0xbe284e76	-0.1643618
166	0xbd707ad2	-0.05871088
167	0xbc3f3c19	-0.011672043
168	0xbd8d4263	-0.06897428
169	0xbdf4e9a0	-0.11958623
170	0xbcc64b83	-0.024205929
171	0xbd5e4a69	-0.05427018
172	0xbd1ad336	-0.037799083
173	0xbdc7c2bc	-0.097539395
174	0xbd847771	-0.06468094
175	0xbc9b081d	-0.018924767
176	0xbd521aac	-0.051294968
177	0x3cbca27e	0.023026701
178	0xbd83b822	-0.06431605
179	0xbdcc9ad7	-0.09990471
180	0xbe03d9ea	-0.12876096
181	0x3de02113	0.109438084
182	0xbdfd4072	-0.123658076
183	0x3d1a3280	0.037645817
184	0xbdee7db0	-0.11645067
185	0xbe2a1ea8	-0.16613257
186	0xbba71b73	-0.0050997077
187	0xbb14fad9	-0.0022732525
188	0xbde48721	-0.11158586
189	0x3e1b0c46	0.151414
190	0x3d514caf	0.05109852
191	0xbe2fba63	-0.17160945
192	0x3d183c57	0.03716692
193	0x3d972bdc	0.073814124
194	0xbd7c9c8d	-0.061672736
195	0xbcc14590	-0.02359274
196	0x3e0d4092	0.13794163
197	0xbdba6454	-0.09101167
198	0x3c3a58c2	0.011373701
199	0x3ce718e2	0.028210107
200	0x3d81e0d9	0.063417144
201	0x3d0a1772	0.033713765
202	0xbcd5f7ec	-0.026119195
203	0x3d9995bf	0.07499265
204	0xbdd1ef6e	-0.10250746
205	0xbdad6b6d	-0.084677555
206	0xbc979ac3	-0.018506413
207	0xbc93e323	-0.018052643
208	0x3d0a85ac	0.033818886
209	0x3d9f0393	0.077643536
210	0x3c409e6e	0.011756523
211	0x3d05f24d	0.03270178
212	0xbbfd898a	-0.007737343
213	0x3b0ff62e	0.0021966803
214	0xbc873bdd	-0.016508037
215	0x3cb524a9	0.022112207
216	0xbd437e77	-0.04772803
217	0xbe05c6ee	-0.13064167
218	0xbdb97cad	-0.09056983
219	0xbdff8c80	-0.1247797
220	0xbc8dee6d	-0.017325604
221	0xbdf99b64	-0.121878415
222	0xbe05a371	-0.13050629
223	0xbe0ca8f1	-0.13736321
224	0xbd02f964	-0.03197612
225	0x3cd099e8	0.025464013
226	0x3d855b8c	0.06511602
227	0xbdb7aad0	-0.08968127
228	0x3d7b4347	0.061343458
229	0x3df569e1	0.119830854
230	0x3db26e90	0.087124944
231	0x3e1b3a66	0.15158996
232	0x3dfbeb86	0.12300782
233	0xbdbb1766	-0.09135322
234	0xbdff370e	-0.12461673
235	0x3b6319ee	0.0034652906
236	0xbd929ac5	-0.07158426
237	0xbdd34e95	-0.10317723
238	0xbdbfb053	-0.09359803
239	0xbd37c026	-0.04486098
240	0xbdcefa10	-0.101062894
241	0x3ce6d1aa	0.028176147
242	0xbd95ac3f	-0.07308244
243	0x3d8ae669	0.067822285
244	0x3cc1a437	0.023637874
245	0x3d020afa	0.03174875
246	0xbd1ede9c	-0.038786516
247	0x3cd1e9eb	0.025624236
248	0xbdb36dae	-0.08761154
249	0xbc7be067	-0.015373326
250	0xbe263e42	-0.16234687
251	0xbdf566c4	-0.119824916
252	0x3db4dfef	0.088317744
253	0x3df5886f	0.11988913
254	0xbd342a9d	-0.04398595
255	0x3d90820e	0.07056056

bias f4 [32]
0	0xbda540d2	-0.08069004
1	0xbd058986	-0.032601856
2	0xbdcf08a6	-0.101090714
3	0xbce33248	-0.027733937
4	0xbda6eabc	-0.08150241
5	0xbd66743a	-0.056263186
6	0xbdb4d363	-0.08829381
7	0xbcb7c104	-0.022430904
8	0xbd8d2e85	-0.068936385
9	0xbccfc59e	-0.025362786
10	0xbd1408be	-0.03614115
11	0x3c865f90	0.01640299
12	0xbdb1928f	-0.08670532
13	0xbd6f02f5	-0.05835243
14	0xbd2d1da4	-0.042264596
15	0xbd8e709b	-0.069550715
16	0xbd14d600	-0.0363369
17	0xbd0a0588	-0.03369668
18	0xbdaed17a	-0.08536048
19	0xbd7a1722	-0.061057217
20	0xbdbdb1f0	-0.092624545
21	0xbdaa45f5	-0.083141245
22	0xbd10f3c1	-0.03538871
23	0xbc80cab1	-0.01572165
24	0xbd8167f7	-0.06318658
25	0xbd455438	-0.04817602
26	0xbd5390c3	-0.051651727
27	0xbd515f4e	-0.05111628
28	0xbdbcb143	-0.092134975
29	0xbb8ab53b	-0.00423303
30	0xbd38f046	-0.045151018
31	0xbdbf0692	-0.09327425

weight f4 [4, 32, 3, 3]
0	0xbdbe376f	-0.09287917
1	0xbde5e636	-0.1122555
2	0x3c87afcd	0.01656332
3	0xbda09e6b	-0.07842716
4	0x3d13058f	0.035893973
5	0x3cd74e59	0.026282476
6	0x3b805511	0.0039163907
7	0xbdd8c219	-0.10583896
8	0x3d3867dd	0.045020927
9	0x3c9659cc	0.018353365
10	0xbd81202a	-0.06304963
11	0x3c3790b2	0.011203932
12	0x3d8c1af3	0.06841078
13	0xbd8f600f	-0.070007436
14	0x3dc2308f	0.09481918
15	0x3b9505eb	0.0045478246
16	0x3e21c28b	0.15796869
17	0xbcdcbf50	-0.026946694
18	0xbb3f2484	-0.0029166052
19	0x3d82600d	0.063659765
20	0x3e06d28c	0.13166255
21	0x3d68a4a4	0.05679764
22	0x3d7d07ee	0.06177514
23	0x3e0c91fd	0.13727565
24	0x3c95943c	0.01825916
25	0xbd0facdc	-0.03507696
26	0x3dabb928	0.08384925
27	0x3d83454b	0.06409701
28	0xbcb0dfe4	-0.021591134
29	0x3d852177	0.065005235
30	0x3cce484f	0.025180964
31	0xbbe825da	-0.0070845904
32	0xbb66336a	-0.003512586
33	0x3d527028	0.05137649
34	0x3dc3dda3	0.09563758
35	0xbd414685	-0.047186393
36	0xbb3da817	-0.00289393
37	0xbdc5c382	-0.09656431
38	0xbd806a3c	-0.062702626
39	0xbd8c5b5a	-0.068533614
40	0xbcec99f2	-0.028882
41	0x3c8c0b25	0.017095158
42	0xbd8ee800	-0.06977844
43	0xbd59cf0b	-0.053175967
44	0xbd8d61eb	-0.06903442
45	0xbd72fb69	-0.059321795
46	0xbcc1cb3c	-0.02365648
47	0xbcc5172f	-0.024058906
48	0x3dddf797	0.1083824
49	0xbd1c4b81	-0.038157944
50	0xbd3563d8	-0.04428467
51	0xbd409f1d	-0.047026742
52	0xbd42a61c	-0.047521695
53	0x3cf6e6ea	0.030139405
54	0x3de42679	0.111401506
55	0x3daeeb2c	0.08540949
56	0x3d84f7ae	0.06492554
57	0x3dad2202	0.08453752
58	0x3db89a46	0.090138
59	0xbd201531	-0.03908271
60	0x3d4b10ea	0.049576677
61	0x3cedd37a	0.029031504
62	0x3d344261	0.044008616
63	0x3d30a1d4	0.04312308
64	0x3dad27e5	0.08454875
65	0x3c71f789	0.01476849
66	0xbd8911e0	-0.066928625
67	0x3ddd23ba	0.1079783
68	0x3df98a4c	0.12184581
69	0x3d8a0b0c	0.06740388
70	0xbc0f49ce	-0.008745624
71	0xbd01bb96	-0.031673037
72	0x3d80f2c7	0.06296306
73	0xbdb15fa8	-0.08660823
74	0xbdc0a1b4	-0.094058424
75	0xbd767d29	-0.060177956
76	0xbc280ff2	-0.010257708
77	0xbd0b8872	-0.03406567
78	0x3c9c48f9	0.019077765
79	0xbdafbbd0	-0.08580744
80	0xbd456df3	-0.04820056
81	0x3da41e69	0.08013613
82	0x3c686239	0.014183574
83	0x3db51d39	0.088434644
84	0x3bb6aebd	0.0055750296
85	0x3d26078b	0.040534537
86	0x3ca8f445	0.02062429
87	0x3bb5425f	0.0055315937
88	0xbdc3d2e1	-0.09561706
89	0x3cd7f6d9	0.026362823
90	0x3d70c11d	0.058777917
91	0xbdd6fab0	-0.104970336
92	0x3ccd3f5b	0.025054624
93	0x3de37dcd	0.11107979
94	0x3d5c7410	0.053821623
95	0x3cb49fc7	0.022048844
96	0x3e0a50b6	0.13507351
97	0x3e5dc32a	0.2165648
98	0x3d835238	0.06412166
99	0x3c814532	0.015780065
100	0x3e0f14b9	0.13972749
101	0xbce157b5	-0.027507642
102	0x3d7ae047	0.061249044
103	0x3dcd45e4	0.10023096
104	0xbc8184d0	-0.0158104
105	0x3cff4165	0.031159112
106	0x3e141c7d	0.14463992
107	0x3dc2bce4	0.09508684
108	0x3daa8823	0.08326747
109	0x3d197101	0.037461285
110	0x3cd4a6d6	0.02595846
111	0xbd35adc4	-0.04435517
112	0xbcdf73b5	-0.027276853
113	0x3cb8925f	0.022530733
114	0xbd27712d	-0.040879417
115	0xbd0e835c	-0.034793243
116	0x3dfedcca	0.12444456
117	0x3d660535	0.05615731
118	0xbd7344d1	-0.0593918
119	0x3c984e0b	0.018591901
120	0xbdd6040c	-0.10449991
121	0x3d839040	0.06423998
122	0xbdadb6b3	-0.08482113
123	0xbd3dce26	-0.046339177
124	0xbd14ddbc	-0.036344275
125	0xbd9aa415	-0.075508274
126	0x3d6766f5	0.05649467
127	0x3d54e2d6	0.05197414
128	0x3e0c2ffc	0.1369018
129	0xbc60c49a	-0.013718748
130	0xbd23bbc5	-0.039973993
131	0x3cadda12	0.021222148
132	0x3d855988	0.06511217
133	0x3d94e26e	0.072697505
134	0x3c57236f	0.013131007
135	0x3d838c90	0.064232945
136	0xbccd4cf1	-0.025061103
137	0xbcc9b15b	-0.024620702
138	0x3dc5ea0f	0.09663784
139	0x3d48f693	0.049063276
140	0x3e008838	0.12551963
141	0x3d4ab4ba	0.04948876
142	0x3ddac97e	0.10682963
143	0x3d491c55	0.049099285
144	0x3e06f85b	0.13180678
145	0x3d9e268a	0.077221945
146	0x3da52cab	0.0806516
147	0x3e09b33c	0.13447279
148	0x3dbb2fcc	0.09139976
149	0x3d37de4c	0.044889733
150	0x3cf95c64	0.030439563
151	0x3cc1f0a0	0.02367431
152	0xbcb72505	-0.02235652
153	0xbdc16c4f	-0.09444486
154	0xbdac49a9	-0.08412487
155	0x3b8f1c11	0.0043673594
156	0xbd10c5ba	-0.035344817
157	0xbc14222b	-0.009041349
158	0xbd595d01	-0.05306721
159	0xbda573ad	-0.08078704
160	0xbde706a0	-0.112805605
161	0x3c548177	0.01297032
162	0x3e00bed6	0.12572798
163	0x3c09e034	0.008415271
164	0x3876f12b	5.8875576e-05
165	0x3e19786a	0.1498734
166	0x3d93fe6c	0.072262615
167	0x3ca34276	0.019929152
168	0x3d424f74	0.047439054
169	0x3e0401f9	0.12891378
170	0x3cc88801	0.024478914
171	0x3b2fa575	0.00268015
172	0xbd069d8f	-0.032865103
173	0xbe1e4bc9	-0.15458597
174	0x3d09fc0d	0.03368764
175	0xbe1e7846	-0.15475568
176	0xbdf881f1	-0.12134159
177	0x3ae36045	0.0017347416
178	0xbe142bd1	-0.1446984
179	0x3cf4693b	0.029835334
180	0xbd72ea23	-0.05930532
181	0xbda5cfa4	-0.08096245
182	0xbdf9c7a4	-0.121962816
183	0x3deacba3	0.11464622
184	0x3d9da3d7	0.076972656
185	0xbca3ef09	-0.020011442
186	0x3dd596c2	0.104291454
187	0x3da02a8b	0.078206144
188	0xbd8fbef5	-0.07018844
189	0xbd184981	-0.037179474
190	0xbc92d96b	-0.017925939
191	0xbcf1370c	-0.029445194
192	0xbdcbefc5	-0.09957842
193	0xbd9ac530	-0.07557142
194	0xbdd3622c	-0.10321459
195	0xbe18113a	-0.14850321
196	0x3cdbc5ee	0.026827779
197	0xbd83e0da	-0.064393714
198	0x3da7da1a	0.081958964
199	0xbc37fa39	-0.011229091
200	0x3d8fbc5e	0.0701835
201	0x3e0bafa7	0.13641225
202	0x3c64c703	0.013963464
203	0x3db0481b	0.08607503
204	0x3d8e16cf	0.06937944
205	0x3d7c127c	0.061541066
206	0x3c9a9ed4	0.018874563
207	0xbdc3eaea	-0.09566291
208	0x3d4c22df	0.049837943
209	0xbc10ce94	-0.008838315
210	0x3c48a3ca	0.012246082
211	0xbd8764ef	-0.066110484
212	0xbdacb051	-0.08432067
213	0xbd7e8afc	-0.062144265
214	0xbd791fca	-0.060821332
215	0xbdfff265	-0.12497405
216	0xbd79a2f7	-0.06094643
217	0xbca6a18f	-0.020340709
218	0xbd6306cd	-0.055426408
219	0xbd227a89	-0.03966764
220	0xbd0ffd57	-0.035153713
221	0xbc076e38	-0.008266024
222	0xbd9783c9	-0.07398183
223	0xbcb521ed	-0.022110904
224	0x3d16cc63	0.036816012
225	0x3b9a009d	0.00469978
226	0x3cca74f4	0.02471397
227	0x3c22c3a0	0.009934336
228	0x3ca1de61	0.019759359
229	0x3d94b515	0.07261101
230	0x3dc95098	0.09829825
231	0x3da3a98a	0.079913214
232	0x3e3034b5	0.17207606
233	0x3d9c42da	0.076299384
234	0xbe19863c	-0.14992613
235	0xbd9022b0	-0.07037866
236	0xbc0112de	-0.007878033
237	0x3bccaded	0.0062463195
238	0x3d3acaa7	0.04560342
239	0xbd96715d	-0.07345841
240	0xbddee4b2	-0.10883464
241	0x3b9d9a74	0.004809672
242	0x3cb9076e	0.02258655
243	0xbce848ec	-0.028355084
244	0xbd965f25	-0.07342366
245	0x3d085225	0.033281464
246	0x3c9518a1	0.01820022
247	0x3d5c61d3	0.05380423
248	0x3e572694	0.2101081
249	0x3b87a316	0.0041393144
250	0x3ceb44ca	0.028719325
251	0x3daeb430	0.08530462
252	0x3cfb9c40	0.030714154
253	0xbda6854e	-0.081308946
254	0x3b519dce	0.0031984928
255	0x3d8b0f58	0.06790036

bias f4 [4]
0	0xbbe03655	-0.0068424144
1	0x3d198506	0.037480377
2	0x3d0ed5ba	0.034871794
3	0xbce86007	-0.028366102
