super_resolution/checkpoint_scale2/model_epoch_5.pth (torch_old, 247001 bytes, 8 tensors)

weight f4 [64, 1, 5, 5]
000000 0f 5f 5d 3e 01 0e c8 bd 3a 3d 23 be 7d d0 19 be
       0.21618293 -0.09768296 -0.15941325 -0.15020938
000010 30 5c 5a 3e c7 5f 2f bd eb c5 80 be 7f da 5e be
       0.21324229 -0.04281595 -0.25151 -0.21763037
000020 f3 9d bd 3c fb 7b 3e be 9f df df be 6a 13 54 be
       0.023146605 -0.18601982 -0.43725297 -0.20710531
000030 a2 14 9a be 55 16 2f be 23 04 03 bd 45 0a 81 be
       -0.30093867 -0.17098363 -0.031986367 -0.25203148
000040 3e 79 10 be 80 36 83 bd fd 27 8a be 3a 78 f2 3d
       -0.1410875 -0.064068794 -0.26983634 0.11839338
000050 bf 99 0c 3d ff 9c d1 3c 82 e6 10 be 44 ec d2 3c
       0.03432631 0.025587557 -0.14150432 0.025747426
000060 fd 46 c0 3d 54 57 17 be 07 86 d5 bd b3 f2 8c be
       0.0938854 -0.14779407 -0.10425954 -0.27528915
000070 3c 52 89 3d 9a 8f 22 be a4 c2 94 be 7f 1a bd bd
       0.06705138 -0.15875092 -0.2905475 -0.09233569
000080 fb 56 53 be e1 59 5f 3d 88 9b fa bc a6 72 f6 bd
       -0.20638649 0.054529075 -0.030591741 -0.12033586
000090 c1 48 84 bd c6 ce 72 be 24 1c 21 be 79 a0 b1 3d
       -0.06459189 -0.2371169 -0.15733391 0.08673186
0000a0 df c9 0c 3e 74 e2 82 be f3 bf b1 3c 58 bc 8a 3e
       0.13748883 -0.25563395 0.021697974 0.2709682
0000b0 bc 75 3b be b0 5c dc bd 9b 1a ec bd 63 d7 20 be
       -0.18306631 -0.10759866 -0.11528512 -0.15707164
0000c0 2f 38 b9 bc f8 56 70 bd 92 72 a7 be a8 34 c0 3d
       -0.022609798 -0.05867669 -0.32704598 0.093850434
0000d0 d8 14 f9 bc 80 25 d5 3d e1 58 1b 3e 18 d9 81 be
       -0.030405447 0.10407543 0.15170623 -0.25360942
0000e0 e4 d4 7f bc 9c 7c 8c bd f3 33 99 3d 59 e4 e1 be
       -0.015614722 -0.06859705 0.07480612 -0.44119528
0000f0 52 8c 3b 3d 94 b5 15 3d d0 8b 7d 3d 87 8e 8c bd
       0.045788117 0.03655012 0.061900914 -0.068631224
000100 12 c7 8e bc ce 7e 3c be 4b 7e 5a be 47 9d 1e be
       -0.017428908 -0.18407747 -0.2133724 -0.15489684
000110 9c 5f ae bd 30 cc 4d be 48 f6 0b be de d2 f5 3b
       -0.0851433 -0.20097423 -0.13668168 0.007501944
000120 84 f8 26 be 8c be 27 3e c4 73 e0 bd 7e a1 56 be
       -0.16305739 0.16381282 -0.109595805 -0.20960042
000130 5e cc 3d be 6d 5e 9a 3d 37 de ab bd 2e 8c 72 be
       -0.18534991 0.075375415 -0.083919935 -0.23686287
000140 35 ba 42 3d 28 58 a4 3d 04 1e 90 be dc 0f 9a be
       0.047540862 0.08024627 -0.281479 -0.30090225
000150 4a 20 c8 be 66 ef a5 3d 53 b3 6f bd f3 bc 53 be
       -0.39087135 0.08102302 -0.058520626 -0.20677547
000160 25 ab b2 3b 2b ec b5 be 83 cd 08 be 5c 2b 70 3e
       0.005452531 -0.35531744 -0.13359646 0.2345404
000170 2f 61 8e 3d 8f 7e c2 bd 9b 46 06 be 73 27 e8 bd
       0.0695213 -0.094967954 -0.13112871 -0.11335649
000180 ee 2e 93 be 53 04 c8 bd 16 15 a4 bb e1 fd 2a be
       -0.28746742 -0.0976645 -0.0050073965 -0.1669841
000190 f7 d0 34 be e1 4b 71 3e 41 9f 56 3e 0c 05 1b be
       -0.17657839 0.23564102 0.20959188 -0.15138644
0001a0 bb 7d dd 3d 01 50 39 3d 42 4f 9e be 4c 49 8b 3b
       0.10814997 0.045242313 -0.30919844 0.004250681
0001b0 68 35 48 3d e3 29 bc bb 4a c9 c9 be 23 33 a0 3c
       0.048879057 -0.005742298 -0.39411384 0.019555634
0001c0 3d 21 89 3d ff 16 13 be 9a 4f 40 be c7 0f 6a bc
       0.06695793 -0.14364241 -0.18780366 -0.014285988
0001d0 c8 f2 2f bd 00 f0 93 be ba 5a 81 3e 09 b1 af 3d
       -0.042956144 -0.28894043 0.2526453 0.08578689
0001e0 df 73 85 be a3 d5 51 bd fd 1d c0 bd 63 ae a7 be
       -0.26064965 -0.05122913 -0.0938072 -0.32750234
0001f0 c1 56 58 be 17 38 a8 bd 46 43 e0 bd bf c9 06 3b
       -0.21126844 -0.08213823 -0.109503314 0.0020567027
000200 89 26 ab bc 22 59 81 bd 42 d0 a3 3d 47 6e 83 3e
       -0.020892398 -0.06315829 0.079987064 0.25670072
000210 77 e4 1e 3e cd b6 e2 3d 71 1d f3 bd ea b8 86 bd
       0.1551684 0.11070023 -0.1187085 -0.06578238
000220 03 a0 d2 be 65 e3 38 3d c3 09 b8 3e 2c 24 96 be
       -0.41137704 0.045138735 0.35944948 -0.29324472
000230 b5 27 5c bb b4 9f ff bd 4d cf 19 bf dc e1 09 be
       -0.0033593003 -0.12481633 -0.6008194 -0.13465065
000240 b5 f2 c6 bc 05 ed df bd 32 48 e9 bc cc 8e 6f be
       -0.024285654 -0.1093388 -0.028476808 -0.23394316
000250 65 9c 38 3e 3a 01 6a 3e d4 93 65 3c be 75 92 bd
       0.1802841 0.2285203 0.014012296 -0.07151364
000260 4f f1 60 3e 2f f9 70 be 90 38 83 be c0 02 d4 bd
       0.21967052 -0.23532556 -0.2562909 -0.10352087
000270 b3 57 53 3e 17 4d 3e 3e fb 39 6a 3d 50 08 bd 3d
       0.20638923 0.18584095 0.0571842 0.09230101
000280 3d 54 12 3e 28 2a d4 3d 9f bb d7 be db 5d cc be
       0.14289947 0.10359603 -0.4213533 -0.39915356
000290 6e 90 83 3e 39 42 d8 3d 08 68 92 bd ca cd 53 be
       0.2569613 0.10559506 -0.07148749 -0.20683971
0002a0 4c 60 a5 be 6b cc 9f bc a5 4d 6d be 61 c6 7d 3e
       -0.3230003 -0.019506654 -0.2317415 0.24782707
0002b0 a6 61 8a be ac 51 02 3c bc 04 71 bd 5c a4 ee bd
       -0.27027625 0.007954042 -0.058842406 -0.11652443
0002c0 e0 1e 1b bc 46 15 e7 3d 28 84 11 be 03 de 93 be
       -0.00946781 0.112833545 -0.1421057 -0.2888032
0002d0 27 bb d9 3c e5 85 15 be 54 9d f9 3e 58 4e ca 3d
       0.026578499 -0.14601858 0.48752844 0.09878224
0002e0 81 71 90 3e 75 af 5f 3d 4a d0 35 3e d7 e3 ab 3b
       0.28211597 0.05461069 0.17755237 0.0052456665
0002f0 f3 cd f7 3c 6a f0 8c bd 2f de 03 be cb 25 2c bc
       0.030249571 -0.06881793 -0.12877725 -0.010507057
000300 3f 6d 85 be 5e 84 82 be 76 11 1b be e0 56 a3 3e
       -0.2605991 -0.25491613 -0.1514338 0.31902218
000310 54 e4 c3 be 8c c5 1c 3e a2 e5 76 be 31 1e 31 be
       -0.38260138 0.15309733 -0.24111035 -0.17296673
000320 ba 2d 62 3e bf 23 43 3e a4 bd 04 3e 52 ad 80 be
       0.22087756 0.19056605 0.12962967 -0.25132233
000330 fe c4 6d bb 31 38 2c bd 40 ca a0 3e b2 d4 aa be
       -0.0036280747 -0.042045776 0.31404305 -0.333654
000340 dc 2d 30 3e cb 16 fa bc 6e 21 b1 be 14 eb b8 3e
       0.17204994 -0.030528447 -0.34595817 0.3611685
000350 13 97 02 be f8 14 6c be b9 2f 83 be e0 0d cc bc
       -0.12752943 -0.23054874 -0.25622347 -0.02490896
000360 f4 47 db bb 89 b9 14 3e 99 b1 4b be 6b 94 26 3e
       -0.006691927 0.14523901 -0.19891967 0.16267554
000370 d4 40 07 3f b6 a1 9e 3b 91 02 91 bd f7 e4 78 3e
       0.52833295 0.004841055 -0.07080568 0.24306093
000380 e7 58 42 3e 14 a3 6c 3e f4 55 97 be f5 ec 1b 3e
       0.18979226 0.23109084 -0.29557765 0.1522711
000390 41 98 2a be 62 60 22 3e 51 96 55 3e a1 b4 36 3e
       -0.16659643 0.1585708 0.20858122 0.17842342
0003a0 3e db 36 be 8a 84 bf bb 04 5f 3f be 81 0c cd 3d
       -0.17857072 -0.0058446573 -0.1868859 0.100121506
0003b0 c4 70 cc 3d 67 e5 59 3e 4e fc 8f be 7b 24 b5 bd
       0.09982446 0.21278916 -0.2812218 -0.08844849
0003c0 0c e5 e1 bc b8 de be bd a4 33 b7 bc 8f e8 0e 3e
       -0.027575038 -0.09319824 -0.022363491 0.13955902
0003d0 64 c2 11 be 94 84 27 bd 63 81 71 be 35 43 3d 3e
       -0.1423431 -0.04089792 -0.23584513 0.18482669
0003e0 f5 27 57 be 0a 3e 51 bd 08 c9 2e be 3c 5c 03 be
       -0.21011336 -0.051084556 -0.17068875 -0.12828153
0003f0 3a ba 4a be fc 6c 0e bf 87 d7 be 3d d9 21 32 bd
       -0.19797602 -0.55635047 0.09318452 -0.04348931

bias f4 [64]
000000 be e8 89 3c 05 13 c0 3c 37 f5 68 be 89 7d b3 bd
       0.016834613 0.02344657 -0.22749792 -0.08764178
000010 c9 46 c6 bd 11 31 7d 3d 27 97 c2 3d 56 e7 91 bc
       -0.0968147 0.06181437 0.09501486 -0.017810505
000020 3c b6 2b be b3 00 65 be 3e f7 0b 3e 85 ed 86 3d
       -0.16768736 -0.22363548 0.13668534 0.06588272
000030 cf 98 c2 3d 33 ca 06 be 1d 4f 1d be d5 8d 3b 3d
       0.09501802 -0.1316307 -0.1536221 0.04578956
000040 8b 33 4d bd 2f 52 13 bc 5e 0f 6b be 3b 79 f7 3d
       -0.050097983 -0.008991762 -0.22955081 0.1208367
000050 5b b9 22 3d bd 61 1d 3e 27 98 83 3d 51 1b 1f 3d
       0.03972755 0.15369315 0.06425505 0.03884441
000060 ac 4f 2e bd 1a 7b 5a be e0 82 3d be 84 6f 8d bd
       -0.04255645 -0.21336022 -0.18506956 -0.069060355
000070 e4 6d 94 3d bb 09 38 bd 6a ea 5a 3d 1e a3 14 bd
       0.072475225 -0.044931155 0.05344621 -0.036288373
000080 03 ca ce bd 77 56 fd bc 71 fc 45 bd b5 4f 15 be
       -0.100971244 -0.030925019 -0.04833645 -0.14581187
000090 5d b0 34 bd 94 63 a6 3d b6 a3 c1 3d 17 22 96 bd
       -0.044113506 0.08124462 0.094550535 -0.07330721
0000a0 4f 3d 5a be 6a c0 d9 3d a6 27 ea bd 1a 50 3b bd
       -0.2131245 0.10632403 -0.114333436 -0.045730688
0000b0 bc 12 d0 bb 6d 94 8f bd 9a 53 e9 bc 39 f9 9d 3d
       -0.0063498896 -0.07010732 -0.028482247 0.07713551
0000c0 e2 0c 27 3d 68 b7 72 be ea e2 1c be 49 93 a0 bd
       0.04078377 -0.23702776 -0.15320936 -0.078405924
0000d0 0a 69 27 bc b5 46 0b 3d 79 38 01 be 05 70 5a be
       -0.010217914 0.03400298 -0.12619199 -0.21331795
0000e0 05 80 f8 3d 4a f4 44 be c0 66 61 be 61 c5 e4 3d
       0.12133793 -0.19233814 -0.22011852 0.111704595
0000f0 80 cb 17 3e 87 12 ba 3c af 3b 3e be 06 20 2b be
       0.14823723 0.022713913 -0.18577455 -0.16711435

weight f4 [64, 64, 3, 3]
000000 d0 77 44 bb 12 42 0e bd 33 ba d1 bd c5 ae 15 3c
       -0.002997864 -0.03473098 -0.10240593 0.009135907
000010 0a bd 86 bd 9a 96 81 3c e8 23 3e bb b2 6a d2 bc
       -0.06579025 0.015818883 -0.00290131 -0.025685642
000020 76 2a 9c bd ce 1a b9 bd aa 34 4c 3c 34 c9 10 be
       -0.07625286 -0.09038316 0.012463728 -0.14139253
000030 2a 68 12 3c 86 a1 cd bd 07 5c c5 bd 4e b7 ab bd
       0.008935967 -0.10040574 -0.096366934 -0.08384572
000040 13 6a 46 bd 44 26 ed bd 2f d2 f6 bd 62 45 ec bd
       -0.048441004 -0.11579564 -0.12051808 -0.11536671
000050 0f 04 b3 bd 8a b9 03 be ca eb 03 be 9c 43 7e bd
       -0.087410085 -0.12863746 -0.12882915 -0.062076196
000060 1c 80 45 bd 2b 74 de bd 8a 7c 06 be 4c 8c 8b bc
       -0.048217878 -0.10862001 -0.13133445 -0.017034672
000070 37 54 15 bd 1c 4c f9 bd 7a 05 dc 3d c1 27 e6 3d
       -0.036457267 -0.1217272 0.10743232 0.11238051
000080 d0 8d fd bb 3a 6f 5c bd f4 3c 7a bd 8d 23 1b bc
       -0.0077378526 -0.05381701 -0.061093286 -0.009468925
000090 58 9c 15 be ef 92 aa 3c 0c ab d8 bd 49 3e 2a bd
       -0.14610422 0.020822017 -0.105794996 -0.041563306
0000a0 1d 42 9b 3d 17 b3 66 bd ca c8 6d 3d 2b 36 9e 3d
       0.075809695 -0.056323137 0.058052815 0.077251755
0000b0 0d 2f 2f bc b6 42 ff bd 36 57 c2 bd 1c 17 a2 bd
       -0.01069237 -0.12463896 -0.094892904 -0.07914564
0000c0 b3 60 62 3c 52 a7 d8 bd 29 16 6d bc 27 c4 0f be
       0.013817 -0.10578789 -0.014470615 -0.1403967
0000d0 09 4b a1 bd 40 e7 d5 bc 3e 75 8f bd ae c6 00 be
       -0.0787564 -0.026111245 -0.07004784 -0.1257579
0000e0 d7 8e 56 bd d5 ce a1 bd a0 de 9e 3c f3 f4 ef bd
       -0.052382316 -0.07900778 0.019393265 -0.11716642
0000f0 5f f1 53 3d d2 c9 f7 3a 0b 81 91 bd 4c b8 8f bd
       0.05174386 0.0018904752 -0.07104691 -0.07017574
000100 2a 7b 9d bd f8 b8 06 3d 98 f4 33 3c fd 31 2d bc
       -0.07689507 0.032891244 0.010983609 -0.010571
000110 e1 93 b8 bd 86 47 df bd 1a 0b 98 bd f1 61 fc bc
       -0.09012581 -0.10902314 -0.074239925 -0.03080842
000120 16 1a 2d be 44 a0 52 bd f7 21 71 bc 43 a3 05 bd
       -0.16904482 -0.051422372 -0.0147175705 -0.0326264
000130 6f 60 aa bd 27 e7 45 bd 15 4b a7 bc 81 bd 10 be
       -0.083191745 -0.048316147 -0.020421544 -0.1413479
000140 39 58 a3 3c 22 11 a1 bd 92 ff ca 3c 2b 41 0e bd
       0.019939529 -0.07864596 0.024780069 -0.034730118
000150 85 22 1a 3d a8 09 ff bd 4a c3 e4 bd e6 f6 9f bd
       0.037630577 -0.12453014 -0.11170061 -0.07810764
000160 2d 2e dd bd f4 af 3a bd 4b 08 83 bd f6 fe 41 bd
       -0.10799823 -0.04557796 -0.06398066 -0.04736229
000170 34 3f c1 bd 50 c7 da bd 73 01 86 bd 38 48 09 3b
       -0.09435883 -0.10682547 -0.06543245 0.0020947587
000180 83 36 36 be 7b 24 44 bd 93 4e 86 bd 9b d0 01 3d
       -0.17794232 -0.047886353 -0.065579556 0.031693082
000190 a2 f0 9c bc a2 a5 b4 3d 92 06 a5 3d 08 e4 31 bc
       -0.019157711 0.088206545 0.08057894 -0.01085759
0001a0 8d 7d 8c bd 9c 66 f2 bc e7 8a 90 bd ba f6 8f 3d
       -0.068598844 -0.029589944 -0.070577435 0.07029481
0001b0 17 db e7 3b 16 9b 34 3c 0a 6a dc bb 19 ad 05 bd
       0.007075678 0.0110233035 -0.006726508 -0.032635782
0001c0 e9 34 52 bd f0 0d 77 bc 39 0b a8 3d c6 14 25 3d
       -0.05131999 -0.015079007 0.082052656 0.040303014
0001d0 55 ef 72 bd 27 7a cb bd 36 99 df bd 2e b2 a8 3d
       -0.059310276 -0.09935408 -0.109178945 0.0823711
0001e0 39 95 b0 bd 6b 68 a0 bc c2 ed 0e be 83 5c 59 be
       -0.08622212 -0.01958104 -0.13957885 -0.21226697
0001f0 59 09 e1 bd bb cd 10 be 3e 4e 32 bc ba 29 20 3d
       -0.10988111 -0.1414098 -0.010882912 0.039102294
000200 e4 73 62 bd 6e a4 36 be 33 b9 d7 3c b7 1a 76 bd
       -0.055286303 -0.17836162 0.026333427 -0.06008407
000210 22 64 b6 bd c1 9b 28 3c c1 5c b3 bd ac 14 8f bd
       -0.089058176 0.010291041 -0.08757926 -0.06986365
000220 c2 22 c1 bc 3c 08 e6 3a 62 2b 9b bd 33 f2 3f bd
       -0.023576144 0.0017550061 -0.07576634 -0.04686184
000230 56 9e 17 3d 61 28 76 bd 7c ba f0 bb ff ef 0a bc
       0.037016235 -0.060097102 -0.0073464494 -0.008480071
000240 f6 82 90 bd 06 45 4b be f1 10 18 bc 66 7b 0b bd
       -0.07056229 -0.19850549 -0.009281383 -0.03405323
000250 3a 5e 0a be ca 84 ee bd 0e 10 f0 bd e8 28 2d bd
       -0.13512507 -0.11646421 -0.11721812 -0.04227534
000260 d9 a5 b5 bd d2 dd f7 bc 9b 18 11 bc 93 10 c7 bd
       -0.088695236 -0.03025714 -0.008855964 -0.09719958
000270 29 22 23 be 1a e5 89 bd 1c 06 2b bc 4b 52 15 be
       -0.15931 -0.06733151 -0.010438468 -0.14582174
000280 73 bd 43 bd 49 4b 14 be 10 54 11 3d 4c b4 22 be
       -0.047788095 -0.14481844 0.03548056 -0.1588909
000290 dd b1 80 bd f8 f0 cf bc a1 71 d7 bd c7 28 bf bd
       -0.06283925 -0.025383458 -0.1051972 -0.093339495
0002a0 0c 14 81 bd ad a0 15 3c 64 86 62 bd 6c dc e0 bd
       -0.06302652 0.009132546 -0.055303946 -0.10979542
0002b0 a9 d4 b4 bd a2 70 40 bd c4 77 cf bb 5f 0f 26 bd
       -0.08829624 -0.046982415 -0.006331416 -0.040542003
0002c0 c8 13 59 bd 3d 0c ca bd da 54 df bc bc 34 8f 3c
       -0.05299738 -0.098656155 -0.02726214 0.0174812
0002d0 29 03 94 bc c6 69 c9 bb 1d a5 8c 3c 43 61 8b bd
       -0.018067913 -0.0061466424 0.017168576 -0.068056606
0002e0 fe b4 03 bd 34 b1 f1 bc 70 04 b4 bd 36 48 e9 bc
       -0.03215503 -0.029503442 -0.08789909 -0.028476816
0002f0 0b 76 1d bc d2 1e 0f ba 41 d9 0f 3d ed 60 ad bd
       -0.009610663 -0.00054596097 0.0351193 -0.08465753
000300 92 b2 79 3c 9a 4a 78 bd 35 22 61 3d 94 2d fe bd
       0.015240328 -0.06061802 0.054964263 -0.12411037
000310 0a c3 e0 bd 04 b0 17 bd f2 3c 84 bd ed d5 4b bd
       -0.10974701 -0.037033096 -0.06456937 -0.049764562
000320 3b 13 a0 bd 70 34 6d bd 15 7f 51 bc a6 a1 c8 bd
       -0.07816168 -0.057911336 -0.012786646 -0.09796457
000330 bf 5e c8 bd a0 b3 1e 3d c0 4c df 3c d8 36 a7 bd
       -0.097836964 0.038745522 0.027258277 -0.081647575
000340 3c fa d5 bc 6e ef 96 bd 0e 30 af bd f9 c7 bc bd
       -0.026120298 -0.07369886 -0.085540876 -0.09217829
000350 95 0c bc bd 94 95 c0 bd 06 d8 6e bd 3c 49 f8 3b
       -0.09182087 -0.0940353 -0.058311485 0.0075770896
000360 9a ed dc bd 86 09 b1 bd bc 10 1a be 94 9b 09 bd
       -0.107875064 -0.086443946 -0.15045446 -0.033595636
000370 7f dc a1 3c 21 13 0e be e2 fc b7 bd b3 6d ac bd
       0.019758461 -0.13874485 -0.089837804 -0.08419361
000380 a7 a1 c4 bc 81 93 a7 bd a6 60 20 3d f3 62 4c bd
       -0.024002863 -0.08182431 0.03915467 -0.049899053
000390 42 d6 4d bd 20 49 28 bd 6c c8 f7 bd 51 f6 5c bd
       -0.05025316 -0.041085362 -0.12098774 -0.053945843
0003a0 75 65 41 bd 25 c5 a0 bd 8e 67 c6 3d 07 66 13 bd
       -0.047215898 -0.07850102 0.0968772 -0.035985973
0003b0 e6 e9 1c 3c 90 b4 40 3c fa 59 56 3b 91 9c f1 bd
       0.00957725 0.011761799 0.0032707439 -0.11797441
0003c0 8d 83 41 3d 23 74 32 bd a9 4e 97 3d fd 65 d9 3b
       0.047244597 -0.043567788 0.0738805 0.0066344724
0003d0 03 18 29 3d b4 20 8d bd b5 43 c8 bd 4a 92 e0 bd
       0.041282665 -0.06891003 -0.09778539 -0.109654024
0003e0 49 9e 19 3d 76 03 e8 3c 53 07 ee 39 99 dc c7 bd
       0.037504468 0.028321963 0.00045400354 -0.097588725
0003f0 b8 13 e1 bd 01 70 10 be 08 9f 14 be 64 fd 34 bd
       -0.10990089 -0.14105226 -0.1451379 -0.044186965

bias f4 [64]
000000 89 46 fa bc 11 64 27 bd 48 ae 1d bd 76 82 37 bd
       -0.030551212 -0.040866915 -0.038496286 -0.04480215
000010 e2 d3 46 bd ea 5c ed bc f6 c4 99 bd db 84 b4 bd
       -0.04854191 -0.028974969 -0.075082704 -0.08814403
000020 83 cc 08 bd 5b 49 b4 bd 92 f4 85 bd 94 7e 96 bc
       -0.033398163 -0.08803054 -0.06540789 -0.018370904
000030 9f 43 9a 3c a4 0f 91 bd 05 99 33 bd be 0a 64 bd
       0.018831072 -0.07083061 -0.043847103 -0.055674307
000040 1f 32 89 bd cd 61 d5 3a aa aa 0e 3d 28 d2 1d bd
       -0.06699013 0.0016279757 0.034830727 -0.0385305
000050 90 67 79 bd ad 27 c4 bd 0d 34 95 bd 25 f6 00 bd
       -0.06088978 -0.0957788 -0.072853185 -0.03148474
000060 0b 3c 94 bd 3f 6a 04 bd d0 c9 74 bd b9 24 43 bd
       -0.07238015 -0.032327887 -0.059762776 -0.047642443
000070 18 2c 3c bd 81 0a f8 bc 4c 7e 95 bd 7d 53 97 bd
       -0.04594049 -0.030278446 -0.0729948 -0.07388971
000080 99 7d 35 bd 0a b8 16 bc 09 c5 5f bc 6e 9d bf bd
       -0.044309232 -0.009199152 -0.013657817 -0.09356199
000090 e2 83 54 bd 73 40 e7 bc 05 6d bd bd 41 d0 f6 3c
       -0.051883586 -0.028228974 -0.092493095 0.0301286
0000a0 21 0d f1 bc 3e 81 b4 bd 6f f3 b4 bc ca ee 1a bd
       -0.029425206 -0.088137135 -0.022088734 -0.037825383
0000b0 54 fb 97 bd 7f d7 93 bd 27 21 8c bd c7 7d fc bc
       -0.07420984 -0.07218837 -0.06842261 -0.030821694
0000c0 9a 13 7f bd f2 07 89 bd 67 fd 70 bd cc fa f3 bc
       -0.062274553 -0.066909686 -0.058835413 -0.029782675
0000d0 73 a9 51 bd b7 6e 01 bc 21 be a2 bd 1c 7f e1 bc
       -0.05118699 -0.007899932 -0.079464205 -0.02752643
0000e0 f4 03 90 bd 9c 12 92 bc db c6 a7 bc b1 f6 3d bd
       -0.07032004 -0.01783114 -0.020480564 -0.04637784
0000f0 6c 20 e5 bc 81 dc 12 bc 50 59 6d bd 54 17 95 bd
       -0.027969562 -0.008963705 -0.057946503 -0.0727984

weight f4 [32, 64, 3, 3]
000000 4f 14 de 3d 3b ac 2e bc 59 f6 f3 3b e7 4c f4 3c
       0.10843717 -0.01066118 0.0074451384 0.029821826
000010 b8 b4 a3 bd fb af 37 be 3c 17 46 3d 10 7f 12 bc
       -0.07993454 -0.17938225 0.048362 -0.008941427
000020 0d 35 7c 39 68 d2 ed 3c f2 af dc 3d 52 1d af bd
       0.00024052356 0.029030994 0.107757464 -0.08550514
000030 64 af e4 bc e6 39 84 3c f5 66 71 bc e2 0d dd bc
       -0.027915664 0.01614089 -0.0147340195 -0.026984159
000040 69 61 9c 3d b9 aa 41 bd 78 a4 e4 bd b2 17 9b bb
       0.07635767 -0.047281954 -0.111641824 -0.0047330493
000050 d1 6a 86 b9 25 22 98 bb 4f fa 87 bd 47 0a 9c bd
       -0.00025638056 -0.004642742 -0.066395395 -0.07619148
000060 40 b5 6b bd fe 8c 17 be 1f 56 38 be f3 43 52 3e
       -0.0575459 -0.14799878 -0.18001603 0.20533733
000070 93 55 74 bc 42 95 99 3c 0b ec 00 3d 0b f5 a4 bc
       -0.014912981 0.01874793 0.031475108 -0.020136377
000080 95 a2 99 bc a9 b3 c3 3b 41 aa ef bc 98 a9 91 bd
       -0.018754283 0.005972345 -0.029255988 -0.071124256
000090 19 59 9e b9 46 c1 a4 3d 02 7d d9 bd d3 36 8a bd
       -0.0003020249 0.080446765 -0.106195465 -0.06748738
0000a0 7e aa bc bd 9c 5d 82 bd a0 a1 8a bd 4a 08 bf bd
       -0.09212206 -0.06365511 -0.06769109 -0.09327753
0000b0 9e 2e 96 bc aa 3c dc bc f2 18 6c bd 96 5c 16 bd
       -0.018332776 -0.026884396 -0.057640977 -0.03670939
0000c0 1b ca 18 bc e3 6d db ba 00 db d0 bc 73 ba 99 bd
       -0.009325529 -0.0016741123 -0.025495052 -0.075062655
0000d0 2c ea 34 bc 37 9a c8 bd c1 21 1d be c6 56 a7 3c
       -0.011042159 -0.09795039 -0.15344907 0.020427119
0000e0 3a 41 8e 3d b0 40 30 bb f0 69 0f bc a8 ed fd bd
       0.06946035 -0.0026894026 -0.008753285 -0.12398845
0000f0 1c 55 c7 bc 42 80 90 3d 2e 16 5c bd af 82 cf 3d
       -0.024332576 0.07055713 -0.05373209 0.10132348
000100 6f db 2b 3d c1 f5 62 3c a5 49 10 3e 75 6a af 3d
       0.041957315 0.013852538 0.14090593 0.08565227
000110 33 0a 7b bd b0 3c a5 3d e0 81 0e bd fe dc 33 be
       -0.061289024 0.08068216 -0.034791827 -0.1756477
000120 9f 29 9f 3d 28 bf d3 3d 77 61 bb bd 12 8d 5c 3d
       0.077716105 0.103391945 -0.09149449 0.053845473
000130 c7 c4 c4 bc 69 63 9e bd fa 86 80 bd 98 30 84 3d
       -0.024019612 -0.07733805 -0.06275745 0.06454581
000140 84 25 40 be f8 96 0a 3e f7 17 e5 3c e5 2b ff bd
       -0.18764311 0.13534153 0.027965529 -0.12459544
000150 5c cc 05 3c 08 a8 4e bd 61 51 2c bd ec 95 80 3d
       0.008166399 -0.050453216 -0.042069796 0.06278595
000160 19 a7 36 bd 08 a9 f4 bd e3 87 5d bb d3 17 5c bd
       -0.04459295 -0.11946303 -0.0033802919 -0.053733658
000170 46 e7 bc 3d 64 1e d6 3a 85 a8 95 bd 49 3c 90 bd
       0.092237994 0.0016335961 -0.07307533 -0.070427485
000180 65 b7 74 bb cf 62 51 bc 64 14 4f 3d 26 87 36 3c
       -0.0037340757 -0.012779905 0.050556555 0.01114062
000190 48 4d 40 bd 04 2b ce bd 51 23 e0 3d b6 a7 65 3c
       -0.0469487 -0.10066798 0.10944236 0.014017036
0001a0 a8 a3 8c bc 70 67 19 3e 18 24 0f be 5f 71 4a 3d
       -0.017167881 0.14980865 -0.13978612 0.049424525
0001b0 f6 21 ff bc f8 c1 8e bc 8b 17 29 3c 34 9c ec bd
       -0.031144124 -0.017426476 0.0103205545 -0.11553231
0001c0 f9 98 8a 3c a0 7d 2a be 02 65 b6 bd 6b a8 31 be
       0.016918646 -0.16649485 -0.089059845 -0.17349403
0001d0 68 96 04 be 53 fd 79 3d a9 5d db 3d b0 72 9e bc
       -0.12948 0.061032604 0.10711224 -0.019341797
0001e0 b9 d1 03 3d 71 e2 2b be 6f 6e 8e bd 08 7f f0 bb
       0.03218243 -0.167856 -0.06954657 -0.007339362
0001f0 90 c4 f0 bd d2 65 11 be 14 52 65 3b b2 54 4d bd
       -0.11756241 -0.14198998 0.003499155 -0.0501296
000200 63 84 a5 3b cc 66 66 bd cb 88 e1 bc 9f 2b 0b 3d
       0.005051182 -0.05625038 -0.027531048 0.033977147
000210 a6 51 49 bc 8d 74 84 3d ad e1 3b bd 4f de c5 bc
       -0.012287533 0.06467543 -0.045869518 -0.024153857
000220 b4 95 19 3d 1a c1 85 bd ed c1 1e 3d e3 0f 2e 3d
       0.037496284 -0.06530972 0.03875916 0.04249562
000230 fe 81 6a bd bd d4 85 3d a3 a2 81 bd bb fc f5 bd
       -0.057252876 0.06534717 -0.063298486 -0.12011095
000240 f0 00 88 3c 59 6b 3f bd 72 e1 e1 bc aa d1 86 bd
       0.01660201 -0.046733234 -0.027573321 -0.06582959
000250 ab 62 bc 3c 27 6c e3 bb e3 2a 24 bc 88 7c ec bc
       0.022996267 -0.006940383 -0.010019991 -0.028867975
000260 bc a5 ca bd 80 05 17 bd de 56 a7 bd a8 93 6f bd
       -0.098948926 -0.03687048 -0.081708655 -0.058490425
000270 60 2a 04 3e 8b 1d 1d bc bf fc fd bc 98 1a ad bd
       0.1290679 -0.009589563 -0.031004308 -0.08452338
000280 00 b7 0c 3d c6 e2 9c bd 42 16 da bc d6 14 14 be
       0.03435421 -0.07660441 -0.026621941 -0.14461073
000290 b2 9f 59 bd cb 53 27 be 5d 89 6c bd be 87 2f bc
       -0.053130813 -0.16340558 -0.057748187 -0.010713516
0002a0 c6 57 8b bd ab e5 f2 bd 53 5e be bc 1d 62 5a bd
       -0.06803851 -0.11860212 -0.023238337 -0.053316224
0002b0 67 eb 16 bd 7e cc c5 bd 58 83 82 bd c6 38 93 bc
       -0.03684559 -0.096581444 -0.06372708 -0.017971408
0002c0 f2 2d 4e bd d0 71 c4 3c ab c4 81 bd 86 a4 ca bd
       -0.050336786 0.023980051 -0.063363396 -0.098946616
0002d0 e6 e2 02 be 96 09 e2 3d f1 49 fb bd 75 0d 1e 3d
       -0.12781867 0.110369846 -0.122699626 0.038587052
0002e0 3a 96 ec bd 7c 23 29 be fd 4b 88 bb 9b 56 b0 ba
       -0.11552091 -0.16517442 -0.004159449 -0.0013453545
0002f0 ce 90 e2 bd ae 2b 1a 3e 38 ca 4d 3d 52 02 2f be
       -0.110627756 0.15055725 0.05024168 -0.17090729
000300 07 ba 14 3d b6 6a 95 3d 75 85 79 bd 75 4a c8 bc
       0.036310222 0.07295744 -0.06091829 -0.024449566
000310 03 60 0c 3e 49 0f b9 bd fe 05 4a 3c 5e f0 ee 3c
       0.137085 -0.090361185 0.01233053 0.02916735
000320 ad d6 83 3d b6 02 0e 3d 7e 20 ce bc 91 8b 9b 3d
       0.064374305 0.034670554 -0.025161978 0.075949796
000330 c8 f9 cf bd 96 75 ab bd 8d c3 8f bc 36 92 93 bc
       -0.10155064 -0.08372037 -0.0175493 -0.018014055
000340 ac 85 0a 3d 93 03 9f 3d 73 af 40 3c 4d f2 05 3d
       0.033818886 0.077643536 0.01176058 0.03270178
000350 8a 89 fd bb 8f 3d 10 3b dd 3b 87 bc a9 24 b5 3c
       -0.007737343 0.0022009348 -0.016508037 0.022112207
000360 08 05 44 bd 36 bc 05 be f9 3c b9 bd 2a 4c fe bd
       -0.04785636 -0.13060078 -0.09044833 -0.12416871
000370 24 13 88 bc 5f 21 f8 bd e9 c7 05 be 36 f6 0b be
       -0.01661069 -0.1211574 -0.13064541 -0.13668141
000380 4d 41 00 bd ed 8d c9 3c be 98 83 3d b6 3b b6 bd
       -0.031312276 0.024603808 0.06425618 -0.08898108
000390 4c bd 77 3d 10 a7 f3 3d 81 a4 b3 3d e8 58 1a 3e
       0.060483262 0.11897099 0.08771611 0.15072978
0003a0 b4 28 fa 3d a1 ce b9 bd b2 a5 fd bd 3d ee 8c 3b
       0.12214795 -0.090726145 -0.123851195 0.004300861
0003b0 7b 0b 91 bd 15 c9 d1 bd 8d ff bd bd 20 7c 34 bd
       -0.07082268 -0.102434315 -0.09277258 -0.044063687
0003c0 47 6c ce bd 70 6e ed 3c b2 10 94 bd 2b bc 8c 3d
       -0.10079246 0.028983325 -0.07229747 0.06871828
0003d0 8b 16 c9 3c f8 a8 05 3d 00 15 1b bd 6d 07 da 3c
       0.024546882 0.032631844 -0.037861824 0.026614869
0003e0 28 8a b1 bd e3 70 6e bc 6d 3b 25 be 03 97 f3 bd
       -0.08668929 -0.0145532815 -0.1613595 -0.118940376
0003f0 d8 1d b3 3d f1 c7 f3 3d d5 91 32 bd 01 c0 8e 3d
       0.087459266 0.1190337 -0.043596108 0.069702156

bias f4 [32]
000000 42 58 a3 bd 59 04 02 bd b8 44 cd bd 81 22 dc bc
       -0.07975818 -0.031742427 -0.10022873 -0.026871921
000010 aa 18 a5 bd 63 8a 62 bd 73 0f b3 bd b7 ac b0 bc
       -0.08061345 -0.055307757 -0.08743181 -0.021566732
000020 cb 4e 8b bd bf b7 c8 bc ed 80 10 bd e1 1f 34 3c
       -0.06802138 -0.02450168 -0.035279203 0.010993929
000030 f4 ce af bd 0b 1b 6b bd c4 95 29 bd ab ac 8c bd
       -0.08584395 -0.057398837 -0.041402593 -0.06868871
000040 20 4e 11 bd f3 19 06 bd 99 0d ad bd 5c 2c 76 bd
       -0.035474896 -0.03273959 -0.08449859 -0.0601009
000050 c8 29 ba bd 83 50 a8 bd e3 6b 0d bd 0c 27 73 bc
       -0.090900004 -0.082184814 -0.034526717 -0.0148408525
000060 3c db 7e bd e6 cb 41 bd fc 62 50 bd 70 d7 4d bd
       -0.062220797 -0.047313593 -0.05087565 -0.050254285
000070 b6 fd ba bd 0b 97 85 bc 93 da 33 bd 80 1e bb bd
       -0.09130423 -0.016307374 -0.04390962 -0.09136677

weight f4 [4, 32, 3, 3]
000000 67 42 bc bd 8a f7 e3 bd 8b 79 8f 3c 33 ac 9e bd
       -0.09192353 -0.11131199 0.01751401 -0.07747688
000010 fe e1 16 3d da 16 df 3c f5 8a 9f 3b 29 d2 d6 bd
       0.036836617 0.027232576 0.00486886 -0.104893036
000020 5f 4d 3c 3d 7f b1 8f 3c 4f c9 82 bd da 7c 2a 3c
       0.045972224 0.017540691 -0.06386053 0.0104057435
000030 f3 71 8a 3d 0e 05 91 bd a7 8f c0 3d ea f2 7b 3b
       0.06760015 -0.07081042 0.094023995 0.0038444349
000040 2e 15 21 3e 68 28 e1 bc e8 9e 77 bb 3c 9c 80 3d
       0.15730736 -0.027485088 -0.0037783924 0.06279799
000050 ae f0 05 3e fd 1c 65 3d 54 80 79 3d 20 b0 0b 3e
       0.13080093 0.05593585 0.0609134 0.13641405
000060 f2 84 8e 3c 79 34 13 bd 72 f5 a9 3d 5c 81 81 3d
       0.017397378 -0.035938714 0.08298768 0.063235015
000070 a4 ef b7 bc 88 5d 83 3d 8f 38 c7 3c 67 32 02 bc
       -0.022453137 0.06414324 0.024318961 -0.007946587
000080 ac 58 8f bb 4b e8 4e 3d b4 19 c2 3d 62 ce 44 bd
       -0.004374584 0.0505145 0.09477559 -0.048048384
000090 3d 7b fe ba 98 d0 c3 bd ad ee 7c bd 14 68 8a bd
       -0.001941539 -0.095612705 -0.061751056 -0.067581326
0000a0 5c ce e4 bc a5 d6 93 3c 95 f4 8c bd 0f e9 55 bd
       -0.027930431 0.018046686 -0.06882588 -0.052224215
0000b0 f8 6e 8b bd e6 0f 6f bd 8e f4 b9 bc 33 3f bd bc
       -0.06808275 -0.05836477 -0.02269962 -0.023101425
0000c0 d1 ec df 3d 98 61 18 bd ac 79 31 bd 7a b4 3c bd
       0.10933841 -0.037202448 -0.043328926 -0.046070553
0000d0 eb bb 3e bd b4 bb fe 3c 8b 62 e2 3d 3d 27 ad 3d
       -0.04656593 0.031095363 0.11053952 0.0845475
0000e0 bf 33 83 3d 13 5e ab 3d 57 d6 b6 3d 0e 9d 23 bd
       0.06406354 0.083675526 0.08927601 -0.0399447
0000f0 0d 89 47 3d bd c3 e6 3c 84 ba 30 3d a1 27 2d 3d
       0.048714686 0.028169507 0.043146625 0.04227412
000100 b4 67 ab 3d 26 dd 63 3c 27 d2 8a bd 48 61 db 3d
       0.08369389 0.013907706 -0.06778365 0.10711914
000110 f0 c6 f7 3d af 47 88 3d e2 64 1d bc 3e 42 05 bd
       0.12098491 0.066542976 -0.009606572 -0.032533877
000120 5c c0 82 3d c9 91 af bd 21 d3 be bd a0 e2 72 bd
       0.06384346 -0.08572728 -0.093176134 -0.059298158
000130 6b a4 19 bc 66 ec 07 bd 43 7d a3 3c a8 ee ad bd
       -0.009377579 -0.03318443 0.01995719 -0.08492786
000140 bf d2 41 bd 1f 62 a2 3d 7d 63 5a 3c 2f 5d b3 3d
       -0.047320124 0.07928871 0.013329384 0.08758008
000150 b8 e0 9a 3b f1 86 22 3d ac f2 a1 3c d3 69 99 3b
       0.0047264956 0.03967947 0.019769035 0.0046818047
000160 a9 93 c5 bd 8a f4 d0 3c 78 39 6d 3d 83 be d8 bd
       -0.096473046 0.02550723 0.057916135 -0.10583212
000170 0c 30 c6 3c fd b9 e1 3d 71 ec 58 3d 81 90 ad 3c
       0.024192832 0.110218026 0.052959863 0.021187069
000180 d6 6e 09 3e 4a e1 5c 3e 70 8e 81 3d 6e 0a 36 3c
       0.13421187 0.21570316 0.06325996 0.011110885
000190 e5 cf 05 3e 4c fa 15 bd 47 ef 64 3d 4a ae bb 3d
       0.13067587 -0.036615655 0.055892255 0.091641024
0001a0 fd be c0 bc a2 38 29 3d bb e6 1d 3e 62 82 d7 3d
       -0.02352857 0.041313775 0.15420048 0.105229154
0001b0 8e c5 a8 3d 9c eb 15 3d 4d 9c cd 3c 6c 33 39 bd
       0.082408056 0.036601648 0.025098944 -0.045215055
0001c0 2b 7f e6 bc 3c 87 b1 3c b0 f6 2a bd ed 08 12 bd
       -0.02813681 0.02167093 -0.041739166 -0.035653044
0001d0 11 1a fd 3d dd f0 69 3d 99 59 6f bd 7c 24 a0 3c
       0.123584874 0.05711447 -0.058435056 0.019548647
0001e0 3a 0e d4 bd db 85 85 3d 1a c1 ab bd 81 e2 39 bd
       -0.10354276 0.065196715 -0.083864406 -0.045382027
0001f0 82 f2 10 bd 7d ae 98 bd 16 df 63 3d f7 5a 51 3d
       -0.035387523 -0.07455156 0.055632673 0.05111214
000200 02 4e 0b 3e 21 e4 6e bc a4 43 27 bd 4b ca a6 3c
       0.13603976 -0.014580757 -0.04083599 0.020360133
000210 98 95 83 3d 7e 1e 93 3d e9 03 49 3c a1 c8 81 3d
       0.06425017 0.0718355 0.012268999 0.06337095
000220 b1 5c d4 bc 1b c1 d0 bc 20 26 c4 3d b6 6e 45 3d
       -0.025923105 -0.025482705 0.09577584 0.048201285
000230 7d 4c ff 3d dd 2c 47 3d 8f 05 d9 3d 78 94 45 3d
       0.12465761 0.04862677 0.10596763 0.048237294
000240 61 16 06 3e 9a 62 9c 3d bb 68 a3 3d 42 d1 08 3e
       0.13094474 0.07635994 0.0797896 0.13361076
000250 dc 6b b9 3d 6c 56 34 3d 9d 4c f2 3c d9 e0 ba 3c
       0.09053776 0.04402773 0.029577548 0.022812294
000260 cc 34 be bc 3d 7c bf bd 5b 59 aa bd 06 33 ae 3b
       -0.023218535 -0.093498684 -0.083178245 0.005316141
000270 82 e6 0c bd cf a3 04 bc f7 7a 55 bd 9d 7e a3 bd
       -0.034399517 -0.008095696 -0.05211922 -0.07983134
000280 a8 11 e5 bd b8 29 64 3c bc b9 ff 3d ad 81 f7 3b
       -0.11185008 0.013925962 0.12486598 0.0075533004
000290 bd 85 52 ba 73 96 18 3e 80 3a 92 3d cf 32 9c 3c
       -0.0008030793 0.14901142 0.07140064 0.019067196
0002a0 9a c7 3e 3d 02 20 03 3e 54 78 c1 3c 5c 62 6e 3b
       0.046577074 0.12805179 0.023616947 0.0036374545
0002b0 e8 b1 02 bd e0 50 1d be d3 e7 0d 3d 60 7d 1d be
       -0.031907946 -0.15362883 0.034644913 -0.15379858
0002c0 22 8c f6 bd 4d 6c 30 3b eb 30 13 be 70 40 fc 3c
       -0.12038447 0.002692002 -0.1437413 0.030792445
0002d0 ae 73 6e bd 2b 32 a4 bd c7 29 f7 bd 6d 88 e6 3d
       -0.05821579 -0.08017381 -0.12068515 0.1125649
0002e0 7e 21 99 3d d3 7a b7 bc b2 a9 d5 3d d1 02 9f 3d
       0.07477091 -0.022397434 0.104327574 0.07764209
0002f0 64 6e 8c bd 03 5e 14 bd 63 02 8b bc 93 5f e9 bc
       -0.06856993 -0.03622247 -0.016968912 -0.028487956
000300 0a fa c9 bd 73 cf 98 bd 53 6c d1 bd 5a 16 17 be
       -0.09862144 -0.07461443 -0.10225739 -0.1475462
000310 03 9d e3 3c fb ea 81 bd 2b 16 a6 3d b3 19 46 bc
       0.02778483 -0.06343647 0.08109697 -0.012091088
000320 6f f8 8d 3d af cd 0a 3e 89 a7 56 3c 2c 84 ae 3d
       0.069321506 0.13555025 0.013101467 0.085213035
000330 e1 52 8c 3d 9f 8a 78 3d 18 8f 93 3c ff 17 c2 bd
       0.068517454 0.060679074 0.018012568 -0.09477233
000340 86 c8 4f 3d 94 37 02 bc c2 3b 57 3c 00 92 85 bd
       0.050728343 -0.007947821 0.013136806 -0.06521988
000350 55 dd aa bd 5a e5 7a bd 1f 7a 75 bd 76 1f fe bd
       -0.08342997 -0.061253883 -0.059930917 -0.124083444
000360 f1 b8 75 bd 67 ce 9e bc 20 1d 5f bd ac 90 1e bd
       -0.059990827 -0.01938553 -0.054471135 -0.03871219
000370 f3 13 0c bd 23 91 ef bb 80 8e 95 bd 7d 4d ad bc
       -0.034198713 -0.007311003 -0.0730257 -0.021155113
000380 a6 b6 1a 3d 28 83 7b 3b 2e 65 c3 3c 1c a4 14 3c
       0.037771843 0.0038377736 0.023851957 0.00907233
000390 9a ce 9a 3c 26 f1 92 3d aa 8c c7 3d 9b e5 a1 3d
       0.018897343 0.07174902 0.097436264 0.07905122
0003a0 bd 52 2f 3e f0 7e 9a 3d f2 92 18 be 32 3c 8e bd
       0.17121406 0.07543743 -0.14899805 -0.06945075
0003b0 92 bb e3 bb b5 15 eb 3b 4f 97 3e 3d fc 8a 94 bd
       -0.0069498504 0.0071742185 0.046531018 -0.07253072
0003c0 0b fe dc bd d2 02 bc 3b 98 a1 c0 3c b2 58 ef bc
       -0.10790642 0.005737641 0.023514554 -0.029217098
0003d0 14 23 98 bd 47 ca 04 3d db 08 8e 3c f5 d9 58 3d
       -0.074285656 0.03241947 0.017338207 0.052942235
0003e0 9b 44 56 3e 25 c8 56 3b 04 35 e4 3c 41 f0 ac 3d
       0.20924608 0.0032773104 0.027857311 0.08444262
0003f0 5b 3d f9 3c 4f 0a a7 bd 3f be 42 3b bb 8c 8a 3d
       0.030424764 -0.08156263 0.0029715446 0.067651235

bias f4 [4]
000000 ac 0a 8d bc 32 1d 33 3d 48 d3 21 3d 9b d0 1f bd
       -0.017217003 0.043729015 0.039508134 -0.0390173
