super_resolution/checkpoint_scale2/model_epoch_23.pth (torch_old, 247001 bytes, 8 tensors)

weight f4 [64, 1, 5, 5]
000000 46 19 5c 3e 6e 8a ca bd df 75 24 be 88 06 1b be
       0.21494016 -0.098896846 -0.16060589 -0.1513921
000010 06 20 59 3e 59 70 34 bd c7 66 81 be 31 17 60 be
       0.21203622 -0.044052456 -0.25273725 -0.21883847
000020 bf df b3 3c 2e b8 3f be c7 80 e0 be 09 57 55 be
       0.021957276 -0.18722603 -0.4384825 -0.20833983
000030 85 b3 9a be c5 4e 30 be 80 08 08 bd 86 a9 81 be
       -0.30215088 -0.17217548 -0.03321123 -0.2532465
000040 c7 b8 11 be e1 aa 85 bd 0e c4 8a be 28 eb ef 3d
       -0.14230643 -0.06526733 -0.27102703 0.11714774
000050 43 a2 07 3d 18 bd c7 3c e4 1e 12 be 00 04 c9 3c
       0.03311373 0.02438216 -0.14269596 0.02453804
000060 7b b2 bd 3d 5e 80 18 be 2a cd d7 bd ec 7e 8d be
       0.09262558 -0.14892718 -0.10537179 -0.27635896
000070 94 29 87 3d 3e a0 23 be b7 58 95 be 49 68 bf bd
       0.06599727 -0.15979096 -0.29169247 -0.09346063
000080 12 72 54 be 25 ff 5a 3d 06 9d 01 bd 31 cb f8 bd
       -0.2074664 0.05346598 -0.03164389 -0.12148131
000090 83 98 86 bd 0a ec 73 be da 35 22 be 6e 71 af 3d
       -0.06572058 -0.2382051 -0.15840855 0.08566557
0000a0 2e 9f 0b 3e 9e 75 83 be 58 d5 a8 3c f6 2e 8a 3e
       0.13634941 -0.25675672 0.020609543 0.26988953
0000b0 b5 8d 3c be 90 b2 de bd 1d 68 ee bd 94 f5 21 be
       -0.18413432 -0.10873902 -0.11640952 -0.15816337
0000c0 26 14 c2 bc 52 bc 74 bd 2f 1e a8 be 4e 8c bd 3d
       -0.023691248 -0.05974991 -0.32835528 0.092552766
0000d0 2a d1 01 bd 83 82 d2 3d c0 04 1a 3e b8 84 82 be
       -0.031693615 0.102787994 0.15040874 -0.2549188
0000e0 73 8d 8a bc f0 20 8f bd f6 8e 96 3d 0d 8f e2 be
       -0.016913151 -0.06988704 0.073514864 -0.44249764
0000f0 47 2f 36 3d 66 60 10 3d 20 3d 78 3d 53 36 8f bd
       0.04447868 0.035248183 0.06060517 -0.069927834
000100 57 79 99 bc 33 d5 3d be 32 d5 5b be 77 f3 1f be
       -0.018734617 -0.1853836 -0.21468046 -0.15620218
000110 72 0b b1 bd 45 23 4f be b0 4c 0d be e0 f3 ca 3b
       -0.08644761 -0.20228298 -0.13798785 0.006193623
000120 e0 4e 28 be aa 68 26 3e e4 21 e3 bd 00 d6 57 be
       -0.16436338 0.16250864 -0.110904485 -0.21077728
000130 7d 00 3f be 02 f8 97 3d f0 89 ae bd 4a d2 73 be
       -0.1865253 0.074203506 -0.08522403 -0.23810688
000140 a5 e8 3d 3d bb f0 a1 3d 28 b8 90 be 85 ba 9a be
       0.046364445 0.07907244 -0.282655 -0.30220428
000150 f5 c3 c8 be 7d 7f a3 3d f0 8c 74 bd fa f3 54 be
       -0.39212003 0.07983301 -0.05970472 -0.20796195
000160 fd d3 87 3b 7e 93 b6 be 7c 06 0a be c5 f4 6e 3e
       0.004145144 -0.35659403 -0.13479036 0.2333556
000170 9e f4 8b 3d 83 2b c5 bd e3 97 07 be 79 a6 ea bd
       0.068337664 -0.0962744 -0.13241534 -0.114575334
000180 ed cd 93 be 05 7e ca bd b1 d1 ce bb 0b 46 2c be
       -0.28868046 -0.098873176 -0.0063116183 -0.16823594
000190 16 ca 35 be 46 53 70 3e 1a a8 55 3e e2 fb 1b be
       -0.17752871 0.23469266 0.20864907 -0.15232804
0001a0 45 90 db 3d b8 6c 35 3d 23 cb 9e be 85 02 59 3b
       0.107208766 0.044293135 -0.31014356 0.0033113074
0001b0 7d 5b 44 3d a7 fb da bb 80 45 ca be 2b 7a 98 3c
       0.047938813 -0.0066828313 -0.3950615 0.018612942
0001c0 ef 34 87 3d 59 0d 14 be 15 46 41 be d9 86 79 bc
       0.06601893 -0.14458217 -0.1887439 -0.015229904
0001d0 aa cb 33 bd a6 6a 94 be 4e e0 80 3e 39 c6 ad 3d
       -0.0438954 -0.28987616 0.2517113 0.084850736
0001e0 3e f2 85 be c7 bd 55 bd 28 12 c2 bd 6d 2b a8 be
       -0.2616138 -0.05218294 -0.09476119 -0.3284563
0001f0 b4 50 59 be f6 59 aa bd 79 6c e2 bd d9 e5 7f 3a
       -0.21222192 -0.0831794 -0.11055846 0.0009761728
000200 c6 0e b4 bc 64 90 83 bd 54 af a1 3d 37 e5 82 3e
       -0.0219797 -0.06424025 0.07894769 0.25565502
000210 91 ca 1d 3e 03 79 e0 3d a0 55 f5 bd cf d2 88 bd
       0.15409304 0.10960581 -0.11979222 -0.066808335
000220 df 25 d3 be 64 9e 34 3d 81 7c b7 3e e8 b1 96 be
       -0.4123983 0.044096366 0.35837176 -0.29432607
000230 33 c0 8f bb 99 db 00 be bb 12 1a bf c9 f9 0a be
       -0.0043869256 -0.1258377 -0.6018483 -0.13571848
000240 a2 f0 cf bc 77 0a e2 bd ba b3 f1 bc a3 9e 70 be
       -0.025383297 -0.11037152 -0.029504646 -0.23498015
000250 e7 81 37 3e ce db 68 3e 3b 6c 53 3c f2 86 94 bd
       0.17920648 0.22740099 0.012904222 -0.07252301
000260 ff fe 5f 3e 77 0b 72 be d4 c3 83 be 39 40 d6 bd
       0.21874617 -0.23637186 -0.25735343 -0.10461468
000270 20 5b 52 3e 38 64 3d 3e f4 12 66 3d 39 e9 ba 3d
       0.20542574 0.18495262 0.05617042 0.09126515
000280 08 3f 11 3e 91 52 d2 3d f2 27 d8 be 7f dd cc be
       0.14184201 0.102696545 -0.42217976 -0.40012738
000290 62 0b 83 3e 6c e9 d5 3d a7 6f 94 bd 64 c3 54 be
       0.25594622 0.10444912 -0.072478585 -0.2077766
0002a0 a2 ef a5 be 5f 20 a9 bc 40 75 6e be b9 bf 7c 3e
       -0.32409388 -0.020645319 -0.23286915 0.24682511
0002b0 81 de 8a be e8 31 e0 3b b9 bf 75 bd f0 b6 f0 bd
       -0.27122882 0.006841887 -0.059997294 -0.117536426
0002c0 55 8c 2c bc 75 e2 e4 3d 20 d1 12 be 1b 79 94 be
       -0.010531505 0.11176006 -0.14337587 -0.28998646
0002d0 0a a3 d0 3c c1 b6 16 be 65 fe f8 3e af 51 c7 3d
       0.025468368 -0.14718153 0.48631588 0.09732377
0002e0 35 be 8f 3e 63 7a 5b 3d da cb 34 3e e0 cb 8c 3b
       0.28074804 0.053583514 0.17655888 0.0042967647
0002f0 cd 69 ed 3c 37 82 8f bd 09 f3 04 be f5 68 3c bc
       0.028981114 -0.070072584 -0.12983336 -0.011499633
000300 a8 e8 85 be e4 27 83 be e7 5c 1c be 5b cd a2 3e
       -0.26154065 -0.25616372 -0.15269814 0.317973
000310 a9 67 c4 be c9 cb 1b 3e 2e 26 78 be 9c 61 32 be
       -0.38360336 0.15214457 -0.24233314 -0.17420048
000320 c5 2f 5d 3e d4 8f 41 3e c4 24 06 3e 7d 5f 7f be
       0.21600254 0.18902522 0.13099962 -0.2493877
000330 88 7d b5 ba a6 7d 34 bd b6 36 a2 3e 82 03 a9 be
       -0.0013846615 -0.04406514 0.31682366 -0.3301049
000340 64 0f 32 3e 96 1b eb bc 2f 91 b2 be f1 4a b9 3e
       0.17388684 -0.028699677 -0.3487639 0.36189988
000350 6c d1 01 be 86 52 6d be 9a 62 83 be 53 67 e5 bc
       -0.12677544 -0.23176011 -0.25661165 -0.02800337
000360 75 d2 ef bb df 3f 14 3e b9 0f 4e be 09 98 24 3e
       -0.0073187896 0.1447749 -0.20123185 0.16073622
000370 97 31 06 3f 34 3b 5b 3b fe 76 94 bd 8e 53 75 3e
       0.5241942 0.0033452036 -0.072492585 0.23957655
000380 38 70 3e 3e 51 ce 6b 3e 11 bd 97 be 53 27 1b 3e
       0.18597496 0.23027922 -0.29636434 0.1515172
000390 07 a2 2b be 13 56 21 3e f2 c1 54 3e c2 e6 35 3e
       -0.16761027 0.15755491 0.2077711 0.17763808
0003a0 0d 9e 37 be f6 a0 e0 bb 41 68 40 be c5 6b cb 3d
       -0.17931385 -0.0068551255 -0.1878977 0.09932665
0003b0 dc d9 ca 3d fa 23 59 3e bf 80 90 be 44 36 b7 bd
       0.09904835 0.2120513 -0.28223225 -0.08945897
0003c0 b9 54 e8 bc 95 76 c0 bd 89 64 bd bc be dd 0d 3e
       -0.028360711 -0.09397618 -0.023119228 0.13854119
0003d0 60 cc 12 be 55 c5 2a bd 3f 51 72 be 6a 76 3c 3e
       -0.14335775 -0.041692097 -0.23663805 0.18404546
0003e0 c6 34 58 be ac 6a 55 bd d6 3c 30 be 55 00 05 be
       -0.21113881 -0.052103683 -0.17210707 -0.12988408
0003f0 58 58 4c be 27 ae 0e bf d4 3f c2 3d 20 90 36 bd
       -0.19955575 -0.55734485 0.094848305 -0.044571042

bias f4 [64]
000000 98 bb 7e 3c b8 8d b6 3c bf 49 6a be dd f1 b5 bd
       0.0155476555 0.022284374 -0.22879694 -0.088840224
000010 82 37 c8 bd 18 59 77 3d 75 4a bd 3d c3 6c 9c bc
       -0.09776212 0.0603877 0.09242717 -0.01909483
000020 68 5c 29 be a3 d2 65 be 8d eb 0b 3e 43 50 e3 3d
       -0.16539156 -0.22443633 0.13664074 0.11099293
000030 76 e8 e7 3d 36 5c 07 be 7a 40 1e be a5 c3 34 3d
       0.11323635 -0.1321877 -0.15454283 0.044131894
000040 ac f8 51 bd 70 f1 22 bc d0 1f 6c be de 23 f5 3d
       -0.051262543 -0.0099452585 -0.2305901 0.11969732
000050 92 9d 19 3d d7 e5 1b 3e a4 e8 7b 3d d4 c4 16 3d
       0.037503786 0.15224396 0.06150116 0.036808804
000060 0c 4b 32 bd 58 7a 5b be 84 57 3e be 40 81 90 bd
       -0.0435286 -0.21433389 -0.18588072 -0.070559025
000070 fc 0e 90 3d 91 f4 3a bd 94 ed 57 3d 72 93 07 bd
       0.07034108 -0.045643393 0.052716807 -0.0330996
000080 e3 b6 d2 bd ab 0a 01 bd 59 56 46 bd 0e fa 16 be
       -0.10288789 -0.031504314 -0.04842219 -0.14743826
000090 9e 5a bb bc c0 5d a0 3d 13 02 be 3d d7 fa 97 bd
       -0.022870358 0.078303814 0.092777394 -0.07420891
0000a0 26 43 5b be f9 ac d2 3d 0b 04 c8 bc 19 f7 52 bd
       -0.21412334 0.10286898 -0.02441599 -0.051505182
0000b0 27 54 f3 bb 9c 50 92 bd f2 06 09 bd c7 85 97 3d
       -0.007425803 -0.07144281 -0.03345389 0.07398563
0000c0 77 7c 21 3d 78 b3 73 be 86 e3 1d be 80 47 a3 bd
       0.03942534 -0.2379893 -0.15418825 -0.07972622
0000d0 2b 40 4f bc 3d 93 06 3d 5b 94 02 be 47 81 5b be
       -0.012649576 0.03285526 -0.12751906 -0.21436034
0000e0 31 7f f4 3d 4b df 45 be 5b 87 62 be de b6 dc 3d
       0.11938322 -0.19323461 -0.22121947 0.10777067
0000f0 16 a7 2e 3e c6 0a b0 3c 71 4c 3f be 76 27 2c be
       0.17055926 0.021489512 -0.18681504 -0.16811928

weight f4 [64, 64, 3, 3]
000000 6a 26 7b bb c7 c2 11 bd 13 76 d3 bd 83 d2 07 3c
       -0.0038322457 -0.035586145 -0.10325255 0.008289936
000010 03 7f 88 bd b7 28 75 3c 77 95 75 bb b9 75 d9 bc
       -0.066648506 0.01496332 -0.0037473121 -0.026545392
000020 78 ec 9d bd 54 d9 ba bd 28 20 3e 3c 13 ab 11 be
       -0.077111185 -0.09123483 0.011604346 -0.14225416
000030 4f 9d 04 3c 3c 62 cf bd 66 1e c7 bd ea 6c ad bd
       0.008094146 -0.101261586 -0.09722595 -0.08468039
000040 f4 e6 49 bd 63 e7 ee bd 82 52 f8 bd a3 dc ed bd
       -0.04929252 -0.11665227 -0.12125112 -0.11614349
000050 26 b7 b4 bd 20 9d 04 be 6f cf 04 be 93 e9 80 bd
       -0.08823995 -0.12950563 -0.12969755 -0.06294551
000060 fb f5 47 bd 09 e6 df bd 0f 55 07 be d7 b6 90 bc
       -0.04881857 -0.109325476 -0.13216041 -0.01766531
000070 96 6c 17 bd bb 7f fa bd 84 d0 da 3d 38 c3 e5 3d
       -0.03696879 -0.12231394 0.106843024 0.11218876
000080 8e b4 00 bc a2 9e 5e bd 9f aa 7a bd 2c 4d 1b bc
       -0.007855548 -0.054350503 -0.061197873 -0.009478848
000090 79 7d 16 be 3d 89 a3 3c 91 6d da bd ad 51 2d bd
       -0.14696302 0.019962901 -0.106654294 -0.04231422
0000a0 0f ad 99 3d 59 d5 69 bd 25 37 6c 3d 6d e6 9c 3d
       0.075037114 -0.05708823 0.057669777 0.07661138
0000b0 b1 75 3a bc b4 84 00 be a2 1e c4 bd ea de a3 bd
       -0.011380599 -0.12550622 -0.09576155 -0.08001502
0000c0 78 10 54 3c 77 71 da bd e0 67 7b bc e5 a5 10 be
       0.01294338 -0.10666173 -0.01534459 -0.14125784
0000d0 14 11 a3 bd a4 04 dd bc 59 3e 91 bd 1d ab 01 be
       -0.07962242 -0.026979752 -0.0709197 -0.12662931
0000e0 38 20 5a bd dd 98 a3 bd a3 b6 97 3c cb be f1 bd
       -0.053253382 -0.07988141 0.018519705 -0.11803969
0000f0 1d 64 50 3d b4 55 86 3a 35 44 93 bd 26 82 91 bd
       0.050876725 0.001024893 -0.07190744 -0.07104902
000100 f9 44 9f bd 55 25 03 3d 67 a0 25 3c 11 86 3b bc
       -0.07776827 0.032018024 0.010109044 -0.011445538
000110 60 5e ba bd 11 0c e1 bd 1c cf 99 bd ba b6 01 bd
       -0.09100032 -0.109886296 -0.07510206 -0.031668402
000120 bb f3 2d be f8 c1 55 bd e3 2f 7a bc 6c 0e 09 bd
       -0.16987507 -0.052186936 -0.015270206 -0.03346102
000130 98 db ab bd 4f e0 48 bd e4 3d ae bc 98 8c 11 be
       -0.083914936 -0.049042042 -0.021269746 -0.14213789
000140 a9 f2 9c 3c 60 db a2 bd a7 d6 c3 3c a7 d5 11 bd
       0.019158678 -0.07951999 0.023906065 -0.035604145
000150 6a 8e 16 3d cd 69 00 be 43 8d e6 bd 71 bb a1 bd
       0.03675691 -0.1254036 -0.11257412 -0.0789708
000160 da ec de bd 90 27 3e bd 9c ba 84 bd a8 6e 45 bd
       -0.108850196 -0.04642445 -0.064809054 -0.048201233
000170 9a f4 c2 bd 6b 80 dc bd da be 87 bd 32 61 a3 3a
       -0.0951931 -0.10766681 -0.06628199 0.001246488
000180 8e 0d 37 be 43 94 47 bd 72 05 88 bd d3 60 01 3d
       -0.17876264 -0.048725378 -0.066416636 0.03158648
000190 54 02 9d bc 77 9c b4 3d 55 bf a4 3d 06 18 32 bc
       -0.01916615 0.08818906 0.08044306 -0.010869985
0001a0 8d 7d 8c bd 5f ba f3 bc a7 aa 90 bd 76 f3 8f 3d
       -0.068598844 -0.029751955 -0.07063799 0.07028858
0001b0 17 db e7 3b 16 9b 34 3c 0a 6a dc bb dc 3b 07 bd
       0.007075678 0.0110233035 -0.006726508 -0.03301607
0001c0 05 76 53 bd 3e 0d 7b bc 34 09 a8 3d 9f ed 24 3d
       -0.051626224 -0.015322981 0.0820488 0.040265676
0001d0 23 0c 73 bd 77 3f cd bd d9 5e e1 bd a4 eb a6 3d
       -0.059337746 -0.100218706 -0.11004419 0.08150414
0001e0 0a ff b1 bd 83 a1 a6 bc 9d c5 0f be 6a 13 5a be
       -0.08691223 -0.020340687 -0.14040227 -0.21296468
0001f0 8b 8d e2 bd e6 9e 11 be 81 81 40 bc a0 9c 1c 3d
       -0.110621534 -0.14220771 -0.011749626 0.038235307
000200 98 00 66 bd 90 78 37 be f8 ea d0 3c bf 7b 79 bd
       -0.05615291 -0.17917085 0.025502667 -0.06090903
000210 93 11 b8 bd 36 d2 1a 3c d0 14 b5 bd 59 86 90 bd
       -0.08987727 0.009449532 -0.0884186 -0.07056875
000220 30 33 c7 bc 09 52 85 3a 10 c5 9c bd 99 35 43 bd
       -0.0243164 0.0010171543 -0.07654774 -0.047658537
000230 9c 57 14 3d 78 13 79 bd d4 95 04 bc 24 7b 17 bc
       0.036216363 -0.060809582 -0.008092362 -0.009245668
000240 3d 49 92 bd 78 26 4c be 7f 20 26 bc 74 0e 0f bd
       -0.07142875 -0.1993655 -0.010139584 -0.034925893
000250 cf 42 0b be e2 4d f0 bd a3 d4 f1 bd de a7 30 bd
       -0.13599704 -0.11733605 -0.11808135 -0.04312884
000260 74 5a b7 bd 15 03 ff bc 94 63 1f bc f6 d9 c8 bd
       -0.089527994 -0.0311294 -0.009728331 -0.09807198
000270 7c 06 24 be d2 ad 8b bd 8b 4c 39 bc 30 2c 16 be
       -0.16018099 -0.06820263 -0.011309753 -0.14665294
000280 03 2f 47 bd d8 26 15 be ab c3 0d 3d 6d 98 23 be
       -0.04862882 -0.14565599 0.03461043 -0.15976115
000290 2a 7a 82 bd 00 88 d6 bc 9f 17 d9 bd e7 cd c0 bd
       -0.06370957 -0.026187897 -0.106002085 -0.09414273
0002a0 1c 83 82 bd f1 ca 09 3c 48 73 65 bd 69 a6 e2 bd
       -0.063726634 0.008410201 -0.056018144 -0.110668965
0002b0 b6 9e b6 bd d5 04 44 bd 30 12 ec bb f2 a2 29 bd
       -0.089169905 -0.04785617 -0.0072043166 -0.041415162
0002c0 83 a7 5c bd 96 d3 cb bd fa 74 e6 bc a2 12 88 3c
       -0.05387069 -0.09952466 -0.02813195 0.016610447
0002d0 af 52 9a bc 32 79 e3 bb 21 26 86 3c a6 0c 8d bd
       -0.018838255 -0.006941938 0.016375603 -0.06887178
0002e0 32 1c 07 bd 41 79 f8 bc ef 9f b5 bd a8 f5 ef bc
       -0.032985874 -0.030331256 -0.088683955 -0.029291943
0002f0 05 d7 2a bc 18 97 b9 ba 66 48 0c 3d 7e 29 af bd
       -0.010427241 -0.0014159409 0.034248732 -0.08552836
000300 2e 72 6b 3c b2 db 7b bd c8 90 5d 3d 80 ef ff bd
       0.014370484 -0.061488815 0.054093152 -0.12496853
000310 67 88 e2 bd 1e 3c 1b bd a9 df 85 bd ec 36 4f bd
       -0.11061173 -0.03789913 -0.065368004 -0.050589487
000320 55 ba a1 bd 4a a1 70 bd bf 5e 5f bc 55 5b ca bd
       -0.07896868 -0.058747567 -0.013633429 -0.098807015
000330 fa 0f ca bd 83 42 1b 3d 25 77 d8 3c 13 01 a9 bd
       -0.098663285 0.037905227 0.026424 -0.08252158
000340 6c 23 dd bc b8 b9 98 bd 4b fa b0 bd 48 92 be bd
       -0.02699443 -0.07457298 -0.086414896 -0.09305245
000350 ed d6 bd bd 11 5c c2 bd 04 67 72 bd fe c6 db 3b
       -0.092695095 -0.094902165 -0.059180275 0.0067070713
000360 08 b7 de bd 37 d3 b2 bd 9e f5 1a be 27 26 0d bd
       -0.10874754 -0.08731692 -0.15132758 -0.034460213
000370 22 c0 9a 3c db f6 0e be 8d b4 b9 bd 00 30 ae bd
       0.018890444 -0.13961355 -0.090676405 -0.08505249
000380 9f b5 cb bc 18 2b a9 bd 83 27 1d 3d b7 a3 4f bd
       -0.024866877 -0.082601726 0.03836776 -0.05069324
000390 e6 65 51 bd dc d8 2b bd 59 90 f9 bd 45 62 5e bd
       -0.05112257 -0.04195486 -0.12185735 -0.054292936
0003a0 7b 83 43 bd 18 f4 a1 bd 8e 67 c6 3d 07 66 13 bd
       -0.04773281 -0.07907885 0.0968772 -0.035985973
0003b0 e6 e9 1c 3c 90 b4 40 3c fa 59 56 3b 91 9c f1 bd
       0.00957725 0.011761799 0.0032707439 -0.11797441
0003c0 8d 83 41 3d 23 74 32 bd a9 4e 97 3d 5e cd bc 3b
       0.047244597 -0.043567788 0.0738805 0.0057617864
0003d0 7c 84 25 3d 7b ea 8e bd 9e 0d ca bd 60 5c e2 bd
       0.04040955 -0.06978317 -0.098658785 -0.110527754
0003e0 18 0a 16 3d 95 ff e0 3c 70 3e d8 b9 86 a2 c9 bd
       0.03663072 0.027465621 -0.0004124525 -0.09845452
0003f0 46 bf e2 bd 95 48 11 be 9a 76 15 be 3c 74 38 bd
       -0.11071639 -0.14187844 -0.14596024 -0.045032725

bias f4 [64]
000000 5a b9 00 bd b0 fb 2a bd fe b8 21 bd 5b 19 3b bd
       -0.031426765 -0.041743934 -0.039483063 -0.045678478
000010 43 a2 4a bd 0e c5 f4 bc 78 8e 9b bd 39 50 b6 bd
       -0.04947115 -0.02987912 -0.07595533 -0.0890202
000020 98 68 0c bd b9 14 b6 bd 24 b0 87 bd 27 ac 9d bc
       -0.034279436 -0.08890671 -0.06625393 -0.019247128
000030 12 64 92 3c 70 b2 b8 bd ac 98 38 bd 9a 4c 68 bd
       0.017869983 -0.09018409 -0.045067474 -0.056713678
000040 42 30 8b bd 10 ce be ba be c9 22 3d fb 9d 21 bd
       -0.06796314 -0.0014557261 0.039743178 -0.039457303
000050 19 04 7d bd 0c f3 c5 bd 13 32 97 bd ef 62 05 bd
       -0.061771486 -0.09665498 -0.07382598 -0.032565054
000060 5d 07 96 bd 02 01 08 bd 9c 5f 4c bd 3b 58 47 bd
       -0.07325623 -0.033204086 -0.049895868 -0.048668128
000070 d0 c2 3f bd 05 bc 03 bd 1a 73 97 bd 66 3b 99 bd
       -0.046816647 -0.03216173 -0.07395001 -0.074820325
000080 f0 79 39 bd 6a c0 25 bc 01 0b 6b bc cc 68 c1 bd
       -0.045282304 -0.010116676 -0.014345885 -0.094438165
000090 a2 1a 58 bd 46 86 ee bc 12 38 bf bd aa 4c 03 3d
       -0.052759774 -0.029116761 -0.093368664 0.032055534
0000a0 4f 10 f9 bc 9d 4c b6 bd 46 eb bc bc 7a 40 1e bd
       -0.030403284 -0.089013316 -0.023061406 -0.03863571
0000b0 c9 1a 9a bd 5a a3 95 bd f4 1e 8e bd 93 d5 01 bd
       -0.0752464 -0.073065475 -0.069394976 -0.03169782
0000c0 8c be 83 bd 20 ee 8a bd 78 80 75 bd 6b 47 fb bc
       -0.06432828 -0.067837 -0.05993697 -0.030673703
0000d0 11 64 55 bd 1f cc 0a bc ac 8a a4 bd ec da e8 bc
       -0.052097384 -0.008471518 -0.08034262 -0.028424703
0000e0 64 8a 78 bd 5b 40 99 bc 25 f3 ae bc 73 8d 41 bd
       -0.060678855 -0.018707445 -0.021356175 -0.047254037
0000f0 1a 0e f4 bc 18 b6 22 bc 21 55 71 bd 7b dd 96 bd
       -0.02979188 -0.00993111 -0.058919076 -0.07366463

weight f4 [32, 64, 3, 3]
000000 10 e8 dd 3d 52 b0 31 bc ca b5 f3 3b 80 31 ef 3c
       0.10835278 -0.010845261 0.0074374424 0.029198408
000010 49 e1 a4 bd d2 58 38 be 37 cf 45 3d 7d 50 16 bc
       -0.08050782 -0.18002632 0.04829332 -0.009174463
000020 98 3d ab b9 df 2d ef 3c ea 78 de 3d 86 e8 af bd
       -0.00032661553 0.029196678 0.10862906 -0.08589272
000030 c7 2f e3 bc e6 5d 8b 3c 0a f3 76 bc 77 63 dc bc
       -0.027732743 0.017012548 -0.015072593 -0.026902897
000040 69 2a 9e 3d df 84 42 bd 10 9a e6 bd 96 d7 ba bb
       0.07722933 -0.047489997 -0.11259854 -0.0057019694
000050 5a 41 a1 ba 6b 73 b7 bb 31 f6 89 bd 25 09 9e bd
       -0.0012302801 -0.0055984757 -0.067364104 -0.07716588
000060 0f 9d 6f bd 9c 8a 18 be 70 55 39 be 1e 29 53 3e
       -0.058499392 -0.14896625 -0.18098998 0.20621154
000070 53 1c 81 bc 06 9d 92 3c aa 80 04 3d 32 df ab bc
       -0.015760576 0.01789714 0.032349266 -0.020980451
000080 2c 96 a0 bc 21 5a e0 3b 90 76 f6 bc f3 60 93 bd
       -0.019602858 0.0068466817 -0.030085832 -0.07196226
000090 62 18 a7 ba d1 c4 a2 3d e5 7b db bd 98 34 8c bd
       -0.0012748356 0.07947696 -0.107169904 -0.06845969
0000a0 6f a6 be bd 65 5c 84 bd 48 9f 8c bd 84 03 c1 bd
       -0.093090884 -0.06462935 -0.06866318 -0.09424499
0000b0 db 28 9e bc 3c 09 e4 bc 51 fd 6f bd 23 59 1a bd
       -0.01930659 -0.027836435 -0.05859119 -0.037682664
0000c0 93 5c 28 bc 36 da 2b bb c1 d3 d8 bc 31 ac 9b bd
       -0.010275978 -0.0026222593 -0.02646816 -0.07601202
0000d0 73 6c 44 bc 65 98 ca bd 84 4e 1d be 8a 1b a6 3c
       -0.011988747 -0.09892348 -0.15361983 0.020276804
0000e0 23 e3 8d 3d d0 e6 42 bb b9 dc 11 bc 81 bc fe bd
       0.069280885 -0.0029739626 -0.008902722 -0.12438298
0000f0 1c 55 c7 bc 42 80 90 3d 64 32 5e bd b8 4c d1 3d
       -0.024332576 0.07055713 -0.054247275 0.10219711
000100 28 6e 2f 3d 1e a1 55 3c a9 2e 11 3e cf 33 b1 3d
       0.042829663 0.013038902 0.14177956 0.0865246
000110 8f 3d 7e bd b3 06 a7 3d 27 ef 0a bd 34 9d 34 be
       -0.062070426 0.08155575 -0.03391948 -0.17638093
000120 9f ef a0 3d 8a 7e d5 3d 97 35 bd bd 1f 19 60 3d
       0.07858204 0.10424526 -0.09238737 0.054711457
000130 3c c5 bd bc ee 43 a0 bd 99 82 7d bd ea ef 85 3d
       -0.023165338 -0.078254566 -0.061892126 0.065399006
000140 fe 23 41 be f5 7b 0b 3e 42 ee e0 3c f7 65 00 be
       -0.18861386 0.13621505 0.02745736 -0.12538897
000150 45 1c 14 3c ed 6b 51 bd 2b 8c 2f bd dc 5f 82 3d
       0.009039943 -0.051128317 -0.042858284 0.0636594
000160 f2 44 39 bd 66 47 f6 bd e3 87 5d bb d3 17 5c bd
       -0.045231767 -0.12025337 -0.0033802919 -0.053733658
000170 46 e7 bc 3d 64 1e d6 3a 85 a8 95 bd 49 3c 90 bd
       0.092237994 0.0016335961 -0.07307533 -0.070427485
000180 65 b7 74 bb cf 62 51 bc 64 14 4f 3d 2c c8 44 3c
       -0.0037340757 -0.012779905 0.050556555 0.012010615
000190 70 ac 43 bd 7c cc cf bd 60 eb e1 3d cc 1b 58 3c
       -0.04777187 -0.10146424 0.11031222 0.013190221
0001a0 f5 43 93 bc 8d 4b 1a 3e fb f4 0f be cb 40 47 3d
       -0.01797674 0.15067883 -0.14058296 0.048645776
0001b0 3f 8a 03 bd 68 a8 96 bc d7 1f 19 3c e0 98 ee bd
       -0.032114264 -0.01839085 0.00934597 -0.11650252
0001c0 d0 b3 82 3c 3c 7d 2b be 6a 61 b8 bd 8f a4 32 be
       0.015954882 -0.16746992 -0.09002955 -0.17445587
0001d0 f8 95 05 be 3f 80 7d 3d 75 ae d9 3d 2b 4b a5 bc
       -0.1304549 0.061889883 0.10628978 -0.020177444
0001e0 94 57 07 3d e6 a9 2c be 2e 1c 90 bd 7e 4e d4 bb
       0.033042505 -0.16861686 -0.07036625 -0.0064790836
0001f0 dd 2b f2 bd a2 37 12 be 36 8e 32 3b 03 35 50 bd
       -0.118247725 -0.14279035 0.002724541 -0.050831806
000200 f6 82 a5 3b 21 ee 68 bd 11 14 e6 bc 58 25 0b 3d
       0.005051012 -0.056867722 -0.02808574 0.03397116
000210 01 b1 43 bc 39 77 84 3d 49 16 3c bd f0 67 cb bc
       -0.0119440565 0.064680524 -0.04591969 -0.024829835
000220 34 1c 16 3d 76 64 87 bd 59 93 20 3d 6e 99 2a 3d
       0.03664799 -0.06610958 0.03920302 0.04165023
000230 ce c7 6d bd 40 0c 87 3d d2 5c 83 bd ae 8f f7 bd
       -0.058051877 0.065941334 -0.064141884 -0.120879516
000240 00 09 80 3c 4f 67 43 bd 72 d9 e9 bc a1 cf 88 bd
       0.015629292 -0.047705945 -0.028546069 -0.06680227
000250 bb 6a b4 3c 0f a6 01 bc 67 1a 34 bc 43 74 f4 bc
       0.02202355 -0.007913127 -0.010992623 -0.029840594
000260 aa a3 cc bd 89 00 1b bd 96 54 a9 bd dd 8f 73 bd
       -0.09992154 -0.037842307 -0.082680866 -0.05946337
000270 9d 2b 03 3e 70 0b 2d bc 92 fa 02 bd 29 18 af bd
       0.12809606 -0.010561809 -0.031977244 -0.0854953
000280 83 bb 08 3d d5 e0 9e bd 1c 5e d7 bc 49 d6 14 be
       0.03338195 -0.07757727 -0.026289992 -0.14534868
000290 73 c1 5b bd 93 52 28 be 72 8b 70 bd 5e 7e 3f bc
       -0.053651284 -0.1643775 -0.058726735 -0.011687843
0002a0 79 4a 8d bd 1d f2 f4 bd f1 6c c6 bc e3 5a 5e bd
       -0.0689897 -0.11960242 -0.02422187 -0.054285895
0002b0 b0 e3 1a bd fb ca c7 bd aa 7f 84 bd 17 29 9b bc
       -0.037814796 -0.09755512 -0.064696625 -0.018940492
0002c0 39 2b 52 bd 84 81 bc 3c 5a c0 83 bd 17 a3 cc bd
       -0.05131075 0.023010977 -0.064331725 -0.099920444
0002d0 f8 dd 03 be 05 19 e0 3d b3 48 fd bd 39 22 1a 3d
       -0.12877643 0.10942272 -0.12367382 0.037630294
0002e0 b7 85 ee bd c7 22 2a be 78 9d a7 bb 75 fb 15 bb
       -0.11646598 -0.16614829 -0.0051152073 -0.0022885476
0002f0 61 8f e4 bd f7 0f 1b 3e 7c 5b 51 3d 63 bd 2f be
       -0.1116016 0.15142809 0.051112637 -0.17162089
000300 23 4b 18 3d 40 33 97 3d 8c a9 7c bd f4 27 c1 bc
       0.03718103 0.07382822 -0.06168513 -0.023578621
000310 42 44 0d 3e e6 69 ba bd 98 16 3a 3c ca f7 e6 3c
       0.1379557 -0.0910223 0.011357926 0.028194327
000320 9a d8 81 3d eb 06 0a 3d 04 19 d6 bc 80 8d 99 3d
       0.063401416 0.033698004 -0.026134975 0.07497692
000330 ad f7 d1 bd ac 73 ad bd db bb 97 bc 70 e4 93 bc
       -0.102523185 -0.08469328 -0.018522194 -0.018053263
000340 ac 85 0a 3d 93 03 9f 3d 2b 9e 40 3c 4d f2 05 3d
       0.033818886 0.077643536 0.01175646 0.03270178
000350 8a 89 fd bb 0c f5 0f 3b dd 3b 87 bc a9 24 b5 3c
       -0.007737343 0.0021966128 -0.016508037 0.022112207
000360 4c 7c 43 bd 17 c7 05 be b3 7d b9 bd c0 91 ff bd
       -0.04772596 -0.13064228 -0.09057178 -0.124789715
000370 09 07 8e bc 96 a1 f9 bd dd a2 05 be de ab 0c be
       -0.017337339 -0.12189023 -0.13050409 -0.13737437
000380 cd 04 03 bd a5 b7 d0 3c f7 62 85 3d d4 b0 b7 bd
       -0.031987 0.025478194 0.06513017 -0.08969274
000390 21 52 7b 3d 4c 71 f5 3d 7f 69 b2 3d 17 3e 1b 3e
       0.06135762 0.119845 0.08711528 0.15160404
0003a0 f1 f2 fb 3d c8 1c bb bd 9d 3d ff bd 79 33 62 3b
       0.12302197 -0.09136349 -0.12462924 0.0034515543
0003b0 4c a1 92 bd ee 54 d3 bd 6e b7 bf bd da cd 37 bd
       -0.07159671 -0.103189334 -0.09361158 -0.04487405
0003c0 5b fc ce bd de b5 e6 3c fa b2 95 bd b2 de 8a 3d
       -0.10106727 0.028162893 -0.07309528 0.06780757
0003d0 da 84 c1 3c c1 fb 01 3d 93 ee 1e bd b5 c7 d1 3c
       0.023622919 0.03173423 -0.03880174 0.025607923
0003e0 a5 75 b3 bd eb 18 7c bc 82 42 26 be 65 6e f5 bd
       -0.08762673 -0.0153868 -0.16236308 -0.11983947
0003f0 55 e7 b4 3d cd 8f f5 3d 43 31 34 bd 73 89 90 3d
       0.088331856 0.119903184 -0.043992292 0.07057466

bias f4 [32]
000000 e1 48 a5 bd 5e 98 05 bd 15 10 cf bd 16 50 e3 bc
       -0.08070541 -0.03261601 -0.10110489 -0.027748149
000010 db f2 a6 bd ee 55 66 bd d2 da b4 bd e6 de b7 bc
       -0.0815179 -0.056234293 -0.08830799 -0.022445153
000020 c2 36 8d bd 66 e3 cf bc a0 17 14 bd 1c 9a 98 3c
       -0.0689521 -0.025376987 -0.036155343 0.018628173
000030 fd 99 b1 bd f3 13 6f bd 86 2c 2d bd 0a 78 8e bd
       -0.08671949 -0.058368634 -0.04227879 -0.069564894
000040 e2 e4 14 bd 12 16 0a bd e9 d8 ae bd 0d 28 7a bd
       -0.036351092 -0.033712454 -0.08537466 -0.06107335
000050 d6 c0 bd bd 37 4e aa bd a3 02 11 bd f1 fc 80 bc
       -0.09265296 -0.083156995 -0.035402905 -0.015745612
000060 64 70 81 bd 1f 63 45 bd 77 a7 53 bd 30 6e 51 bd
       -0.06320265 -0.048190232 -0.05167338 -0.051130474
000070 6d b8 bc bd e7 8e 65 3b ef 0a 2f bd 0c 17 bf bd
       -0.09214864 0.0035027803 -0.042735036 -0.09330568

weight f4 [4, 32, 3, 3]
000000 ad 3f be bd 58 ee e5 bd ef 8e 87 3c 9f a6 a0 bd
       -0.09289489 -0.11227101 0.016547648 -0.078442805
000010 43 f5 12 3d 7e 2d d7 3c b5 a2 7f 3b 40 ca d8 bd
       0.03587843 0.02626681 0.0039006893 -0.10585451
000020 70 57 38 3d d8 75 96 3c 2c 19 81 bd ce c7 37 3c
       0.045005262 0.01836674 -0.06303629 0.011217071
000030 ef 21 8c 3d 23 59 8f bd 68 37 c2 3d ce 66 95 3b
       0.0684241 -0.06999423 0.09483224 0.0045593744
000040 5f c5 21 3e dd ac dc bc 32 36 3e bb 7c 67 82 3d
       0.15797947 -0.026937896 -0.0029024002 0.06367394
000050 3f d6 06 3e 84 b3 68 3d cd 16 7d 3d b0 95 0c 3e
       0.13167666 0.056811824 0.061789323 0.13728976
000060 09 b2 95 3c fd 9d 0f bd 96 c0 ab 3d ba 4c 83 3d
       0.01827337 -0.03506278 0.08386342 0.06411119
000070 16 c2 b0 bc e6 28 85 3d 1d 66 ce 3c aa ae e7 bb
       -0.021576922 0.065019414 0.025195176 -0.007070382
000080 06 45 65 bb 0a 7f 52 3d 12 e5 c3 3d a3 37 41 bd
       -0.0034983768 0.051390685 0.09565176 -0.0471722
000090 64 af 3e bb b6 cb c5 bd 71 72 80 bd 91 63 8c bd
       -0.002909624 -0.096579954 -0.06271828 -0.06854928
0000a0 cd ba ec bc 47 ea 8b 3c 37 f0 8e bd 78 df 59 bd
       -0.028897667 0.017079486 -0.06979411 -0.053191632
0000b0 20 6a 8d bd 65 85 74 bd 6c 25 c3 bc ef 43 c6 bc
       -0.06905007 -0.059697527 -0.023821555 -0.024202315
0000c0 1e 32 dd 3d 4d f3 1c bd b0 f8 35 bd 66 cb 41 bd
       0.10800575 -0.038317967 -0.04442662 -0.047313116
0000d0 e1 3d 43 bd ad f5 f5 3c e8 2d e4 3d 9b f2 ae 3d
       -0.047666434 0.030024374 0.111415684 0.08542367
0000e0 1d ff 84 3d 71 29 ad 3d b5 a1 b8 3d 4f 06 20 bd
       0.064939715 0.0845517 0.09015218 -0.039068516
0000f0 cc 1f 4b 3d 48 f1 ed 3c 43 51 34 3d 80 b0 30 3d
       0.04959087 0.029045716 0.04402281 0.043137074
000100 43 2f ad 3d 0e 33 72 3c 82 0a 89 bd 22 2b dd 3d
       0.0845628 0.01478268 -0.06691457 0.107992426
000110 ba 91 f9 3d 7a 12 8a 3d 46 0e 0f bc b8 ac 01 bd
       0.12185998 0.067418054 -0.00873143 -0.031658858
000120 2d eb 80 3d 43 67 b1 bd 53 a9 c0 bd 58 8c 76 bd
       0.06294856 -0.08662274 -0.09407296 -0.060192436
000130 c6 4c 28 bc a7 97 0b bd 94 2a 9c 3c 65 c3 af bd
       -0.01027221 -0.034080174 0.019063272 -0.085821904
000140 24 7d 45 bd bb 25 a4 3d 43 9d 68 3c 96 24 b5 3d
       -0.048215047 0.08015009 0.01419765 0.08844869
000150 09 24 b7 3b 54 16 26 3d d2 11 a9 3c d9 b7 b5 3b
       0.0055890125 0.040548638 0.02063838 0.005545598
000160 82 cb c3 bd 6c 14 d8 3c fd cf 70 3d 41 f3 d6 bd
       -0.095603004 0.026376925 0.058792103 -0.10495616
000170 28 5d cd 3c 3c 85 e3 3d ef 82 5c 3d 94 bd b4 3c
       0.025068834 0.11109397 0.053835806 0.022063054
000180 69 54 0a 3e dd c6 5d 3e a6 59 83 3d c7 ba 81 3c
       0.13508762 0.21657892 0.064135835 0.015836133
000190 f5 07 0e 3e 0b ba f1 bc 7d 56 92 3d 73 40 df 3d
       0.13870223 -0.029507658 0.071454026 0.109009646
0001a0 22 a4 2c bc 06 a0 37 3c dd f4 ef 3d d5 8c 91 3d
       -0.010537179 0.011207586 0.11716626 0.0710694
0001b0 8b 8f aa 3d da 7f 19 3d 8f c4 d4 3c eb 9e 35 bd
       0.0832816 0.037475444 0.025972633 -0.04434101
0001c0 f8 55 df bc 1c b0 b8 3c 54 62 27 bd 83 74 0e bd
       -0.027262673 0.022544913 -0.040865257 -0.034779083
0001d0 35 e4 fe 3d 9e f4 65 3d 5c 55 73 bd ed 2c 98 3c
       0.12445871 0.05614149 -0.059407577 0.01857611
0001e0 4d 0c d6 bd 01 88 83 3d f3 be ad bd b4 de 3d bd
       -0.10451565 0.06422425 -0.08483686 -0.046354964
0001f0 4a ee 14 bd 54 ac 9a bd d7 75 67 3d b8 f1 54 3d
       -0.036360063 -0.075524 0.056508865 0.051988333
000200 b0 33 0c 3e fc 88 60 bc e3 ac 23 bd e0 f7 ad 3c
       0.13691592 -0.013704535 -0.0399598 0.02123636
000210 f7 60 85 3d dd e9 94 3d 0d 5f 57 3c ff 93 83 3d
       0.06512635 0.072711684 0.0131452205 0.064247124
000220 23 2f cd bc 8d 93 c9 bc 7e f1 c5 3d 75 05 49 3d
       -0.02504689 -0.02460649 0.096652016 0.04907747
000230 ec 8b 00 3e 9c c3 4a 3d ed d0 da 3d 37 2b 49 3d
       0.12553376 0.049502954 0.10684381 0.04911348
000240 0f fc 06 3e f9 2d 9e 3d 1a 34 a5 3d f0 b6 09 3e
       0.1318209 0.07723612 0.08066578 0.13448691
000250 3b 37 bb 3d 2e ed 37 3d 32 7a f9 3c 6e 0e c2 3c
       0.09141394 0.044903927 0.030453775 0.023688521
000260 37 07 b7 bc 78 74 c1 bd d4 51 ac bd de 98 8e 3b
       -0.022342307 -0.09446043 -0.08414045 0.0043517193
000270 12 d6 10 bd 8e 63 14 bc 64 6d 59 bd eb 7b a5 bd
       -0.035360403 -0.009056939 -0.05308284 -0.08080276
000280 de 0e e7 bd 64 3f 54 3c 8a c2 00 3e cf 1b 0a 3c
       -0.112821326 0.012954567 0.12574211 0.008429482
000290 22 45 99 38 1e 7c 19 3e db 05 94 3d 44 60 a3 3c
       7.3084855e-05 0.14988753 0.07227679 0.019943364
0002a0 56 5e 42 3d ad 05 04 3e cf a5 c8 3c b2 9c 2e 3b
       0.047453247 0.1289279 0.024493126 0.002664369
0002b0 19 ae 06 bd e7 4f 1e be 83 eb 09 3d 64 7c 1e be
       -0.032880876 -0.15460168 0.033671867 -0.15477139
0002c0 30 8a f8 bd d9 4e e1 3a ef 2f 14 be 26 48 f4 3c
       -0.12135732 0.0017189636 -0.1447141 0.02981956
0002d0 f5 fc 72 bd 6d d6 a5 bd a9 d2 f9 bd a0 dd ea 3d
       -0.05932327 -0.08097539 -0.12198383 0.11468053
0002e0 da b6 9d 3d 94 9c a3 bc 74 96 d5 3d 61 2f a0 3d
       0.07700892 -0.019972123 0.10429087 0.07821537
0002f0 eb cc 8f bd 0b 5a 18 bd 82 fa 92 bc 24 58 f1 bc
       -0.07021507 -0.037195247 -0.017941717 -0.029460974
000300 04 f8 cb bd 6f cd 9a bd 6b 6a d3 bd 58 15 18 be
       -0.099594146 -0.075587146 -0.10323032 -0.14851892
000310 d7 a4 db 3c 19 e9 83 bd 89 e1 a7 3d 9c be 37 bc
       0.026812 -0.06440944 0.08197314 -0.011214878
000320 cd c3 8f 3d 5b b3 0b 3e a0 02 65 3c 8a 4f b0 3d
       0.07019768 0.13642637 0.013977677 0.08608921
000330 3e 1e 8e 3d 5e 21 7c 3d a2 bc 9a 3c 98 f2 c3 bd
       0.06939362 0.06155526 0.018888775 -0.095677555
000340 7c 13 4c 3d 27 0c 11 bc 89 66 48 3c 9a 6c 87 bd
       0.04982327 -0.008852995 0.012231478 -0.06612511
000350 fc b7 ac bd 5d 9a 7e bd 31 2f 79 bd 18 fa ff bd
       -0.0843353 -0.06215893 -0.06083602 -0.124988735
000360 78 b3 79 bd 96 c2 a6 bc 4d 17 63 bd 08 8b 22 bd
       -0.06096217 -0.020356458 -0.055442143 -0.03968337
000370 d3 0d 10 bd 3e b0 07 bc 08 8c 97 bd f6 42 b5 bc
       -0.035169434 -0.0082817655 -0.07399756 -0.022126656
000380 e2 bb 16 3d cd 77 9a 3b c2 92 ca 3c 3e ff 22 3c
       0.036800273 0.0047139884 0.024728183 0.00994855
000390 2f fc a1 3c 84 bc 94 3d 07 58 c9 3d f9 b0 a3 3d
       0.01977357 0.07262519 0.09831243 0.07992739
0003a0 69 38 30 3e 49 4a 9c 3d 3b 8a 19 be b5 2a 90 bd
       0.17209019 0.07631356 -0.14994137 -0.07039396
0003b0 12 53 01 bc db 2d cc 3b a3 ba 3a 3d 5c 79 96 bd
       -0.007893341 0.0062310523 0.045588147 -0.07347366
0003c0 b3 ec de bd 2e 1a 9d 3b 68 e7 b8 3c 1e 2b e8 bc
       -0.108849905 0.0047943806 0.02257128 -0.028340872
0003d0 b6 57 96 bd 07 61 08 3d 6f 36 95 3c b5 70 5c 3d
       -0.07340948 0.033295657 0.018214433 0.053818423
0003e0 48 2a 57 3e 46 1a 88 3b 98 62 eb 3c 9f bb ae 3d
       0.21012223 0.0041535227 0.028733537 0.0853188
0003f0 1e a6 fb 3c 27 83 a6 bd 9b db 51 3b 74 11 8b 3d
       0.03071886 -0.08130484 0.0032021764 0.06790438

bias f4 [4]
000000 5f 25 7e bb e4 21 ba 3c 80 c9 cf 3c 20 b5 f8 bb
       -0.00387796 0.022721238 0.025364637 -0.007589951
