super_resolution/checkpoint_scale2/model_epoch_13.pth (torch_old, 247001 bytes, 8 tensors)

weight f4 [64, 1, 5, 5]
00000000: bd1b 5c3e e287 cabd 9074 24be 1805 1bbe
00000010: cc23 593e 1c69 34bd 2766 81be f415 60be
00000020: 5dea b33c a8b4 3fbe 0380 e0be a355 55be
00000030: dbb2 9abe 584d 30be d4fc 07bd cca8 81be
00000040: 75b7 11be 50a8 85bd 5fc3 8abe 8ced ef3d
00000050: 2dae 073d e6c9 c73c 561d 12be b008 c93c
00000060: 50b3 bd3d 317f 18be dcca d7bd 627e 8dbe
00000070: c42b 873d 2a9f 23be 1958 95be c265 bfbd
00000080: db70 54be 7604 5b3d 7397 01bd 0cc8 f8bd
00000090: 6f95 86bd 9eea 73be 3034 22be c574 af3d
000000a0: aea0 0b3e e074 83be 91e0 a83c d22f 8a3e
000000b0: 398c 3cbe 7eaf debd 2065 eebd 2cf4 21be
000000c0: 4808 c2bc 9db6 74bd 831d a8be 008f bd3d
000000d0: c8cb 01bd 3485 d23d 1506 1a3e 0c84 82be
000000e0: 9682 8abc 3f1e 8fbd a791 963d 638e e2be
000000f0: bf34 363d d865 103d 8d42 783d a233 8fbd
00000100: 686e 99bc dcd3 3dbe dad3 5bbe 20f2 1fbe
00000110: bc08 b1bd ed21 4fbe 594b 0dbe a71f cb3b
00000120: 894d 28be 016a 263e 2b1f e3bd cad4 57be
00000130: 47ff 3ebe 71fa 973d 3a87 aebd ffd0 73be
00000140: 92ed 3d3d 2bf3 a13d 8fb7 90be dbb9 9abe
00000150: 51c3 c8be f581 a33d ff87 74bd c1f2 54be
00000160: bdff 873b d892 b6be 3f05 0abe fcf5 6e3e
00000170: 14f7 8b3d ca28 c5bd 8f96 07be f1a3 eabd
00000180: 4ccd 93be 807b cabd 0ea6 cebb be44 2cbe
00000190: 1cc9 35be 4354 703e ada8 553e 6bfb 1bbe
000001a0: 0b91 db3d af70 353d aeca 9ebe 201f 593b
000001b0: 885d 443d 25eb dabb 0645 cabe 3281 983c
000001c0: 1c36 873d b70c 14be 6a45 41be 1077 79bc
000001d0: 9cc7 33bd 5a6a 94be 7ae0 803e 5cc7 ad3d
000001e0: c2f1 85be a1b9 55bd 1c10 c2bd ee2a a8be
000001f0: b34f 59be 964d aabd d15c e2bd 2c2f 853a
00000200: 3dbc b3bc 6f7c 83bd 9bbc a13d f4e8 823e
00000210: e8d4 1d3e 088f e03d dd41 f5bd f5c6 88bd
00000220: 1523 d3be febb 343d 3181 b73e 22ad 96be
00000230: 2504 8fbb 75d6 00be 6011 1abf 41f2 0abe
00000240: 26a1 cfbc d3fd e1bd d787 f1bc dd98 70be
00000250: e389 373e 62e7 683e 7554 553c 3a63 94bd
00000260: fc02 603e f709 72be a8c3 83be 19fb d5bd
00000270: 566a 523e d566 3d3e 6609 663d a8dc ba3d
00000280: 8960 113e 7266 d23d ba28 d8be b1df ccbe
00000290: d706 833e 4a3a d63d f44f 94bd ebbc 54be
000002a0: 84ec a5be 4603 a9bc 8d53 6ebe 41cc 7c3e
000002b0: 38dd 8abe 7cb2 e03b 67ae 75bd 77ad f0bd
000002c0: 2fc7 2bbc 4cfd e43d 21a8 12be 5c6a 94be
000002d0: 3916 d13c 419e 16be 440e f93e 8acf c73d
000002e0: 32d6 8f3e 2294 5b3d 48d1 343e 3cba 8c3b
000002f0: 7ab3 ee3c a539 8fbd 0ded 04be 5b65 3cbc
00000300: c4ec 85be cd18 83be e83e 1cbe d2d0 a23e
00000310: 9a66 c4be 5bc5 1b3e 1d0c 78be de47 32be
00000320: 389d 603e 156c 433e c06f 063e b0ba 7fbe
00000330: c5f4 05bb 5264 2dbd caac a13e 63bb a9be
00000340: be37 313e ebbe f4bc 4e3f b1be dc91 b93e
00000350: ca8f 01be 7ab1 6cbe 99aa 83be 793a d2bc
00000360: 86bc cebb ddba 143e a56c 4dbe b17c 243e
00000370: cdd6 063f 2981 843b c877 93bd 812b 763e
00000380: 195c 3f3e 3eaf 6b3e 4ecd 97be 9004 1b3e
00000390: 46a0 2bbe 1258 213e b7a2 543e 39c6 353e
000003a0: a0c1 37be 6060 e0bb 4866 40be 9f2b cb3d
000003b0: a798 ca3d 5600 593e 957f 90be 3d32 b7bd
000003c0: c74d e9bc e2b3 c0bd 9269 bebc 6ee0 0d3e
000003d0: 5dca 12be 0c37 2bbd f86c 72be 8e59 3c3e
000003e0: cb31 58be a662 55bd 746e 2fbe 980f 04be
000003f0: 335b 4bbe 867e 0ebf 6589 c13d 7c34 35bd
0.21494956 -0.09889199 -0.1606009 -0.15138662 0.21205062 -0.044045553 -0.2527325 -0.21883374
0.021962339 -0.18721259 -0.43847665 -0.20833449 -0.3021458 -0.17217004 -0.0332001 -0.25324094
-0.1423014 -0.06526244 -0.2710218 0.1171523 0.03312509 0.024388265 -0.14269003 0.024540275
0.09262717 -0.1489227 -0.10536739 -0.27635485 0.066001445 -0.15978685 -0.29168776 -0.09345581
-0.20746176 0.05347105 -0.031638574 -0.12147531 -0.06571471 -0.23819968 -0.1584022 0.08567194
0.13635513 -0.25675106 0.020614894 0.2698961 -0.18412866 -0.10873316 -0.11640382 -0.158158
-0.02368559 -0.059744466 -0.32835016 0.09255791 -0.03168848 0.10279313 0.15041383 -0.2549137
-0.016907971 -0.06988191 0.07352 -0.44249257 0.044483896 0.035253376 0.060610343 -0.0699227
-0.018729404 -0.18537849 -0.21467534 -0.15619707 -0.08644244 -0.20227785 -0.13798274 0.0061988416
-0.16435827 0.16251375 -0.11089929 -0.21077266 -0.18652068 0.07420815 -0.08521886 -0.23810194
0.046369143 0.07907709 -0.28265044 -0.3021992 -0.39211515 0.07983772 -0.05970001 -0.20795728
0.0041503594 -0.35658908 -0.13478564 0.23336023 0.06834236 -0.096269205 -0.13241027 -0.114570506
-0.28867567 -0.09886837 -0.0063064164 -0.16823098 -0.17752498 0.23469643 0.20865126 -0.15232627
0.10721024 0.044296917 -0.31014007 0.0033130124 0.04794076 -0.0066808634 -0.39505786 0.018616293
0.066021174 -0.14457975 -0.18874136 -0.015226141 -0.043891534 -0.2898739 0.25171262 0.084852904
-0.2616101 -0.052178983 -0.09475729 -0.32845253 -0.21221809 -0.083155796 -0.110528596 0.0010161153
-0.021940345 -0.06420218 0.07897302 0.25568354 0.15413249 0.10964781 -0.11975453 -0.06678573
-0.41237703 0.044124596 0.35840753 -0.29428965 -0.0043645077 -0.12581809 -0.6018276 -0.13568975
-0.025345396 -0.11034741 -0.029483719 -0.23495813 0.17923693 0.22744516 0.013020624 -0.072454885
0.21876138 -0.23636614 -0.2573521 -0.10448284 0.20548376 0.18496259 0.056161307 0.09124118
0.14196981 0.10273446 -0.42218572 -0.40014413 0.25591156 0.104603365 -0.07241812 -0.20775191
-0.3240701 -0.020631444 -0.2327406 0.24687292 -0.27121902 0.0068572145 -0.059980776 -0.11751836
-0.010484501 0.11181125 -0.14321949 -0.28987396 0.025523292 -0.14708807 0.48643696 0.09756382
0.28093106 0.053608067 0.1765796 0.004294662 0.029138315 -0.06993417 -0.12981053 -0.011498774
-0.261572 -0.2560486 -0.15258372 0.31799942 -0.3835953 0.15212004 -0.24223371 -0.17410228
0.21934974 0.19084199 0.13128567 -0.2497356 -0.0020440083 -0.042332 0.3157714 -0.33150777
0.1730642 -0.029876193 -0.3461861 0.36244094 -0.12652507 -0.23114577 -0.25716093 -0.025662648
-0.006309095 0.14524408 -0.20060976 0.16063191 0.5267151 0.0040437174 -0.07200581 0.24040033
0.18687476 0.23016068 -0.29648823 0.15138459 -0.16760358 0.15756252 0.20765196 0.17751397
-0.17944956 -0.0068474263 -0.18789017 0.099204294 0.098923974 0.21191534 -0.28222337 -0.08945129
-0.02847947 -0.0940931 -0.0232437 0.13855144 -0.14335008 -0.041800544 -0.23674381 0.18393537
-0.21112745 -0.05209603 -0.17131978 -0.12896574 -0.19859008 -0.5566181 0.09450034 -0.044239506

bias f4 [64]
00000000: ebd3 7e3c 5cab b63c 6a48 6abe 61ef b5bd
00000010: fb35 c8bd e10a 783d e506 be3d 0158 9bbc
00000020: a3f3 29be 94f0 65be 917f 0c3e 8865 f33d
00000030: c179 b33d b9ba 07be 0e3f 1ebe f778 353d
00000040: fb5b 51bd 55e1 22bc fd16 6cbe f4ff f53d
00000050: 68a7 193d 27e3 1b3e 7d01 7d3d 04db 173d
00000060: 055f 32bd 5879 5bbe ae56 3ebe 3115 90bd
00000070: 5a1b 923d 97f1 3abd 4054 563d 5a3a 0ebd
00000080: ae7a d2bd d653 02bd e38f 48bd ddb7 16be
00000090: 3e45 b33c 722d a13d 7c77 be3d 9641 98bd
000000a0: ab45 5bbe e573 da3d cd37 7cbd 7a35 4fbd
000000b0: b632 f3bb 20f9 91bd 593b e8bc d893 983d
000000c0: eb8e 213d 7bb2 73be 9fe4 1dbe c344 a3bd
000000d0: 3a7f 46bc 488f 063d 3362 02be 3280 5bbe
000000e0: 02ae f73d 37e3 45be 7384 62be e8b5 de3d
000000f0: ee68 1d3e 0a8f b03c 5c4b 3fbe 3320 2cbe
0.015553455 0.022298507 -0.22879186 -0.088835485 -0.09775921 0.06055725 0.09278659 -0.018962862
-0.16596846 -0.22455055 0.13720538 0.118846 0.08763457 -0.13254823 -0.15453741 0.044304814
-0.05111311 -0.009941419 -0.23055644 0.1201171 0.037513167 0.1522337 0.061768997 0.037074104
-0.04354765 -0.21433008 -0.18587753 -0.07035292 0.07134123 -0.045640554 0.05232644 -0.034723617
-0.102773055 -0.031818233 -0.048965346 -0.14718576 0.021883603 0.07869996 0.093001336 -0.074343845
-0.21413295 0.106666364 -0.061576653 -0.05058811 -0.0074218167 -0.07127595 -0.028348612 0.07450074
0.039442938 -0.23798554 -0.15419243 -0.079721 -0.012115294 0.032851487 -0.12732773 -0.21435621
0.12093736 -0.19324957 -0.22120838 0.108745396 0.15372059 0.021552581 -0.18681091 -0.16809158

weight f4 [64, 64, 3, 3]
00000000: a3ee 7abb 35bf 11bd 5174 d3bd a6e0 073c
00000010: 387d 88bd 0337 753c e35c 75bb 8b6e d9bc
00000020: adea 9dbd 8ed7 babd 872e 3e3c 31aa 11be
00000030: 5fab 043c 7360 cfbd 9b1c c7bd 2d6b adbd
00000040: 67e3 49bd 9ae5 eebd ff50 f8bd 06db edbd
00000050: 6eb5 b4bd 3e9c 04be 8dce 04be c6e7 80bd
00000060: 83f3 47bd 92e4 dfbd 3554 07be 9db1 90bc
00000070: 7d6a 17bd 887e fabd b8d1 da3d 9ac3 e53d
00000080: a3b2 00bc 6f9c 5ebd 34aa 7abd 064d 1bbc
00000090: 977c 16be 6a90 a33c c66b dabd 914e 2dbd
000000a0: a9ae 993d 2bd2 69bd b638 6c3d c0e7 9c3d
000000b0: 3e6a 3abc d283 00be d61c c4bd 1ddd a3bd
000000c0: 161f 543c a76f dabd 4259 7bbc 03a5 10be
000000d0: 480f a3bd 61fd dcbc 8b3c 91bd 39aa 01be
000000e0: 941c 5abd 0e97 a3bd f4bd 973c fcbc f1bd
000000f0: be67 503d 85c9 863a 6942 93bd 5780 91bd
00000100: 2a43 9fbd f928 033d 06af 253c 7277 3bbc
00000110: 905c babd 450a e1bd 50cd 99bd 23b3 01bd
00000120: dff2 2dbe cabe 55bd bd26 7abc f40a 09bd
00000130: 1cda abbd 4cdd 48bd cf36 aebc ca8b 11be
00000140: 2cf9 9c3c 90d9 a2bd f9dd c33c 02d2 11bd
00000150: 0f92 163d e968 00be 748b e6bd a5b9 a1bd
00000160: 14eb debd 0824 3ebd e6b8 84bd 296b 45bd
00000170: ddf2 c2bd ab7e dcbd 15bd 87bd a6d2 a33a
00000180: b50c 37be c390 47bd b403 88bd 4061 013d
00000190: 4502 9dbc 7d9c b43d 99bf a43d d717 32bc
000001a0: 8d7d 8cbd 0db9 f3bc 8baa 90bd 76f3 8f3d
000001b0: 17db e73b 169b 343c 0a6a dcbb 503a 07bd
000001c0: c774 53bd 3f09 7bbc 3409 a83d c3ed 243d
000001d0: 0a0c 73bd ab3d cdbd 0d5d e1bd 70ed a63d
000001e0: 9cfd b1bd 319b a6bc c3c4 0fbe b212 5abe
000001f0: 038c e2bd 169e 11be 0173 40bc 40a0 1c3d
00000200: f8fc 65bd ba77 37be e6f1 d03c 5078 79bd
00000210: e10f b8bd 44e0 1a3c 1013 b5bd e284 90bd
00000220: 0a2d c7bc 5fb4 853a 70c3 9cbd 4932 43bd
00000230: f15a 143d 8110 79bd 6689 04bc 5f6e 17bc
00000240: 7147 92bd 9625 4cbe 2812 26bc d00a 0fbd
00000250: eb41 0bbe 144c f0bd d7d2 f1bd 4ea4 30bd
00000260: b758 b7bd cafb febc fc54 1fbc 28d8 c8bd
00000270: 9805 24be 04ac 8bbd f83d 39bc 542b 16be
00000280: 802b 47bd fa25 15be 4fc7 0d3d 8997 23be
00000290: 5d78 82bd 4981 d6bc f515 d9bd 3fcc c0bd
000002a0: a981 82bd f6d6 093c 4e70 65bd 9aa4 e2bd
000002b0: e79c b6bd 3001 44bd fbf4 ebbb 4e9f 29bd
000002c0: dfa3 5cbd cad1 cbbd b56d e6bc e919 883c
000002d0: 444c 9abc a85e e3bb c02c 863c f50a 8dbd
000002e0: bd18 07bd 5872 f8bc 4f9e b5bd dfee efbc
000002f0: 62c9 2abc ad22 b9ba 0a4c 0c3d b027 afbd
00000300: bb80 6b3c 0ed8 7bbd 6c94 5d3d b5ed ffbd
00000310: 9b86 e2bd 7e38 1bbd 04de 85bd 7d33 4fbd
00000320: aab8 a1bd d09d 70bd 9850 5fbc 9559 cabd
00000330: 440e cabd 0646 1b3d 1c7e d83c 43ff a8bd
00000340: 1a1c ddbc e8b7 98bd 7bf8 b0bd 7890 bebd
00000350: 1dd5 bdbd 455a c2bd 6063 72bd 1ce4 db3b
00000360: 3ab5 debd 68d1 b2bd baf4 1abe 8922 0dbd
00000370: 64c7 9a3c f9f5 0ebe cdb2 b9bd 352e aebd
00000380: 66ae cbbc 7929 a9bd cb2a 1d3d 6ca0 4fbd
00000390: 4262 51bd 38d5 2bbd 8c8e f9bd db60 5ebd
000003a0: 5c81 43bd e7f2 a1bd 8e67 c63d 0766 13bd
000003b0: e6e9 1c3c 90b4 403c fa59 563b 919c f1bd
000003c0: 8d83 413d 2374 32bd a94e 973d 91ea bc3b
000003d0: 2088 253d ace8 8ebd cf0b cabd 915a e2bd
000003e0: bd0d 163d bc06 e13c a76e d6b9 baa0 c9bd
000003f0: 95bd e2bd bb47 11be c075 15be b670 38bd
-0.0038289211 -0.03558274 -0.1032492 0.008293306 -0.066645086 0.014966729 -0.0037439398 -0.026541969
-0.077107765 -0.09123145 0.011607773 -0.14225079 0.008097499 -0.10125818 -0.09722253 -0.08467708
-0.049289133 -0.11664887 -0.12124824 -0.11614041 -0.088236675 -0.12950227 -0.12969418 -0.06294207
-0.048816215 -0.10932268 -0.13215716 -0.017662818 -0.03696679 -0.12231165 0.10684532 0.11218949
-0.00785509 -0.054348405 -0.061197475 -0.009478813 -0.14695965 0.019966323 -0.106650874 -0.042311255
0.07504017 -0.057085197 0.05767127 0.0766139 -0.011377869 -0.12550285 -0.095758125 -0.080011584
0.012946865 -0.10665827 -0.015341105 -0.14125447 -0.07961899 -0.02697629 -0.07091626 -0.12662591
-0.05324991 -0.07987796 0.018523194 -0.11803624 0.050880186 0.0010283446 -0.07190401 -0.07104557
-0.077764824 0.032021496 0.01011253 -0.011442052 -0.09099686 -0.10988287 -0.075098634 -0.03166498
-0.16987179 -0.052183904 -0.015268025 -0.03345771 -0.083912104 -0.04903917 -0.02126637 -0.14213482
0.019161783 -0.07951653 0.023909556 -0.03560067 0.036760386 -0.1254002 -0.11257067 -0.07896737
-0.10884681 -0.04642108 -0.06480579 -0.0481979 -0.09518979 -0.107663475 -0.066278614 0.0012498691
-0.17875941 -0.04872204 -0.06641331 0.031586885 -0.019166121 0.0881891 0.08044357 -0.010869942
-0.068598844 -0.029751325 -0.070637785 0.07028858 0.007075678 0.0110233035 -0.006726508 -0.033014596
-0.05162504 -0.015322029 0.0820488 0.04026581 -0.059337653 -0.10021528 -0.11004076 0.08150756
-0.0869095 -0.020337673 -0.14039902 -0.21296194 -0.11061861 -0.14220461 -0.011746169 0.038238764
-0.056149453 -0.17916766 0.025505971 -0.060905755 -0.08987404 0.009452883 -0.088415265 -0.070565954
-0.024313468 0.001020085 -0.07654464 -0.047655378 0.03621954 -0.060806755 -0.008089399 -0.009242623
-0.071425326 -0.19936213 -0.010136165 -0.03492242 -0.13599364 -0.11733261 -0.11807793 -0.043125443
-0.08952468 -0.031125922 -0.009724852 -0.098068535 -0.16017759 -0.06819919 -0.011306278 -0.14664966
-0.04862547 -0.14565268 0.034613904 -0.15975775 -0.06370614 -0.026184695 -0.10599891 -0.09413957
-0.06372387 0.008413067 -0.056015305 -0.110665515 -0.089166455 -0.047852695 -0.007200835 -0.04141169
-0.053867217 -0.099521235 -0.028128484 0.016613917 -0.018835194 -0.006938774 0.01637876 -0.068868555
-0.032982577 -0.03032796 -0.088680856 -0.029288707 -0.01042399 -0.0014124714 0.034252204 -0.08552492
0.014373953 -0.061485343 0.054096624 -0.12496511 -0.1106083 -0.037895672 -0.06536487 -0.050586212
-0.0789655 -0.05874425 -0.013630055 -0.09880368 -0.09866002 0.037908576 0.026427321 -0.08251812
-0.026990939 -0.07456952 -0.08641144 -0.09304899 -0.09269164 -0.09489874 -0.059176803 0.0067105424
-0.1087441 -0.08731347 -0.15132418 -0.034456763 0.018893905 -0.13961019 -0.09067307 -0.08504907
-0.024863433 -0.082598634 0.03837089 -0.0506901 -0.051119097 -0.041951388 -0.12185392 -0.054291587
-0.04773079 -0.07907658 0.0968772 -0.035985973 0.00957725 0.011761799 0.0032707439 -0.11797441
0.047244597 -0.043567788 0.0738805 0.005765267 0.040413022 -0.069779724 -0.098655336 -0.110524304
0.036634196 0.027469032 -0.00040899703 -0.09845109 -0.11071316 -0.14187519 -0.145957 -0.045029365

bias f4 [64]
00000000: b5b5 00bd 08f8 2abd e3b4 21bd b515 3bbd
00000010: 609e 4abd 82bd f4bc a98c 9bbd 694e b6bd
00000020: ed64 0cbd e912 b6bd 63ae 87bd d0a4 9dbc
00000030: 6a02 a63c 6a0f 93bd 9393 38bd 4348 68bd
00000040: 3e2e 8bbd 7303 54b9 1992 213d 1c9a 21bd
00000050: 6a00 7dbd 3cf1 c5bd 0f30 97bd 3d4b 05bd
00000060: 8d05 96bd 5cfd 07bd 34e1 89bd f153 47bd
00000070: 2abf 3fbd 0bef febc 1d71 97bd 7639 99bd
00000080: e175 39bd 12b1 25bc 9cfe 6abc fc66 c1bd
00000090: fc16 58bd f783 eebc 4236 bfbd 4b17 053d
000000a0: 2408 f9bc cd4a b6bd 22e3 bcbc 1b3d 1ebd
000000b0: a018 9abd 8aa1 95bd f01c 8ebd edd1 01bd
000000c0: 50ba 83bd 30ec 8abd df7b 75bd f83f fbbc
000000d0: 4760 55bd 7dc2 0abc da88 a4bd 6bd3 e8bc
000000e0: 6799 afbd 0439 99bc d0eb aebc cd89 41bd
000000f0: 573f f7bc e6a5 22bc 1251 71bd afdb 96bd
-0.03142329 -0.041740447 -0.039479148 -0.045675 -0.049467444 -0.02987552 -0.07595188 -0.08901674
-0.034275938 -0.088903256 -0.066250585 -0.019243628 0.020264823 -0.071806744 -0.045062613 -0.05670954
-0.06795929 -0.0002021918 0.03944597 -0.03945361 -0.061767973 -0.096651524 -0.07382213 -0.032542456
-0.073252775 -0.033200607 -0.06732407 -0.048664037 -0.046813168 -0.031119844 -0.073946215 -0.07481663
-0.045278434 -0.010113018 -0.01434293 -0.09443471 -0.052756295 -0.02911566 -0.09336521 0.032492917
-0.03039939 -0.08900986 -0.023057524 -0.038632493 -0.07524228 -0.07306202 -0.06939113 -0.03169434
-0.06432021 -0.067833304 -0.059932586 -0.030670151 -0.05209377 -0.008469221 -0.08033915 -0.028421124
-0.08574181 -0.018703945 -0.021352679 -0.047250558 -0.03018157 -0.009927249 -0.058915205 -0.0736612

weight f4 [32, 64, 3, 3]
00000000: 39e8 dd3d 50ad 31bc 07b6 f33b a936 ef3c
00000010: 1ae0 a4bd 2c58 38be 7ccf 453d af4c 16bc
00000020: ef10 aab9 8a2c ef3c 1c77 de3d bbe7 afbd
00000030: 4131 e3bc 9b56 8b3c 7ced 76bc 1d64 dcbc
00000040: 9b28 9e3d 0984 42bd 1398 e6bd 2db7 babb
00000050: fcbe a0ba 7153 b7bb 2ff4 89bd 2107 9ebd
00000060: 1499 6fbd 9f89 18be 7054 39be 3a28 533e
00000070: 3f15 81bc 23a4 923c 057d 043d 28d8 abbc
00000080: 178f a0bc df3c e03b a26f f6bc 335f 93bd
00000090: 2896 a6ba d3c6 a23d e179 dbbd 9432 8cbd
000000a0: 6da4 bebd 615a 84bd 449d 8cbd 8201 c1bd
000000b0: b520 9ebc 4501 e4bc 59f9 6fbd 1455 1abd
000000c0: ac4c 28bc c09a 2bbb 9dcb d8bc 35aa 9bbd
000000d0: a05c 44bc 6196 cabd 5a4e 1dbe c01c a63c
000000e0: 7ce3 8d3d 1ed4 42bb 4ada 11bc b5bb febd
000000f0: 1c55 c7bc 4280 903d 4530 5ebd e94a d13d
00000100: 846a 2f3d b4ae 553c c52d 113e 0132 b13d
00000110: 4f3a 7ebd e404 a73d cbf2 0abd 739c 34be
00000120: d3ed a03d c37c d53d bd33 bdbd 7f15 603d
00000130: 5fcc bdbc 0942 a0bd 3986 7dbd 23ee 853d
00000140: 0023 41be 117b 0b3e 71f2 e03c 2965 00be
00000150: a80d 143c 2169 51bd e088 2fbd 0d5e 823d
00000160: 4d42 39bd c545 f6bd e387 5dbb d317 5cbd
00000170: 46e7 bc3d 641e d63a 85a8 95bd 493c 90bd
00000180: 65b7 74bb cf62 51bc 6414 4f3d 9eb9 443c
00000190: 04a9 43bd d8ca cfbd 93e9 e13d 9729 583c
000001a0: 353d 93bc a94a 1a3e 2bf4 0fbe 0a44 473d
000001b0: 3486 03bd 57a0 96bc 2730 193c de96 eebd
000001c0: e0bb 823c 3c7c 2bbe 685f b8bd 92a3 32be
000001d0: f894 05be ab7c 7d3d 28b0 d93d 3144 a5bc
000001e0: fd53 073d 1da9 2cbe 7b1a 90bd 436b d4bb
000001f0: 722a f2bd d036 12be d6c1 323b 1a32 50bd
00000200: f682 a53b 95eb 68bd 7f0f e6bc 5a25 0b3d
00000210: a5b6 43bc 3977 843d 1816 3cbd 5d62 cbbc
00000220: c01f 163d d162 87bd 8791 203d f49c 2a3d
00000230: 7dc4 6dbd 0a0b 873d 115b 83bd 178e f7bd
00000240: 2411 803c 4063 43bd 4ed1 e9bc 9dcd 88bd
00000250: df72 b43c c795 01bc 200a 34bc 1f6c f4bc
00000260: a6a1 ccbd 7afc 1abd 9252 a9bd ce8b 73bd
00000270: 9d2c 033e 2cfb 2cbc 83f6 02bd 2516 afbd
00000280: 92bf 083d d1de 9ebd d560 d7bc 88d5 14be
00000290: 50bf 5bbd 9351 28be 5e87 70bd 116e 3fbc
000002a0: 7c48 8dbd 0af0 f4bd ba64 c6bc d856 5ebd
000002b0: a5df 1abd f7c8 c7bd a87d 84bd f820 9bbc
000002c0: 2a27 52bd a389 bc3c 58be 83bd 13a1 ccbd
000002d0: fddc 03be 011b e03d af46 fdbd 3b26 1a3d
000002e0: be83 eebd c721 2abe 7d7d a7bb 59bc 15bb
000002f0: 5d8d e4bd 130f 1b3e d857 513d abbc 2fbe
00000300: 7f47 183d 7231 973d 5da6 7cbd 3b2f c1bc
00000310: 5e43 0d3e 8b68 babd df26 3a3c eeff e63c
00000320: 9eda 813d fa0a 0a3d e010 d6bc 848f 993d
00000330: a9f5 d1bd a871 adbd b7b3 97bc 21e4 93bc
00000340: ac85 0a3d 9303 9f3d 389e 403c 4df2 053d
00000350: 8a89 fdbb 51f5 0f3b dd3b 87bc a924 b53c
00000360: d27c 43bd 0fc7 05be 757d b9bd 7890 ffbd
00000370: 0001 8ebc 13a0 f9bd ffa2 05be 28ab 0cbe
00000380: 0102 03bd 53b0 d03c 2761 853d 5caf b7bd
00000390: 7c4e 7b3d 7c6f f53d bb6a b23d 333d 1b3e
000003a0: 21f1 fb3d 771b bbbd 023c ffbd 1e6c 623b
000003b0: b39f 92bd 6253 d3bd b0b5 bfbd 80ca 37bd
000003c0: cefb cebd afbc e63c 57b1 95bd 95e0 8a3d
000003d0: 908c c13c 7cff 013d a7ea 1ebd 1ed0 d13c
000003e0: b173 b3bd 090b 7cbc 7941 26be 876c f5bd
000003f0: 86e5 b43d 008e f53d a32f 34bd a587 903d
0.108353086 -0.010844544 0.007437471 0.029200869 -0.080505565 -0.18002385 0.048293576 -0.009173556
-0.00032437543 0.029196043 0.10862562 -0.08589121 -0.027733447 0.01700907 -0.015071269 -0.026903206
0.07722589 -0.0474892 -0.112594746 -0.005698106 -0.0012263949 -0.005594664 -0.067360274 -0.077162035
-0.058495596 -0.14896248 -0.18098617 0.20620814 -0.015757201 0.017900532 0.03234579 -0.020977095
-0.01959948 0.006843194 -0.030082528 -0.07195892 -0.0012709545 0.07948079 -0.10716606 -0.068455845
-0.093087055 -0.06462551 -0.068659335 -0.09424116 -0.019302705 -0.027832637 -0.058587406 -0.037678793
-0.010272186 -0.0026184767 -0.026464278 -0.07600824 -0.011984974 -0.09891964 -0.1536192 0.020277381
0.06928155 -0.0029728482 -0.008902142 -0.12438146 -0.024332576 0.07055713 -0.054245252 0.10219366
0.04282619 0.013042141 0.14177616 0.086521156 -0.062067326 0.0815523 -0.03392295 -0.17637806
0.07857861 0.10424187 -0.09238384 0.054708 -0.02316874 -0.07825095 -0.061895583 0.065395616
-0.18861008 0.13621165 0.027459355 -0.1253859 0.009036459 -0.05112565 -0.042855144 0.06365595
-0.045229245 -0.12025026 -0.0033802919 -0.053733658 0.092237994 0.0016335961 -0.07307533 -0.070427485
-0.0037340757 -0.012779905 0.050556555 0.012007145 -0.047768608 -0.10146111 0.11030879 0.01319351
-0.017973522 0.15067543 -0.14057986 0.04864887 -0.032110408 -0.018387003 0.009349859 -0.116498694
0.015958726 -0.1674661 -0.09002572 -0.1744521 -0.13045108 0.06188647 0.10629302 -0.020174118
0.03303908 -0.16861387 -0.07036301 -0.006482513 -0.11824502 -0.14278722 0.002727618 -0.05082903
0.005051012 -0.056865294 -0.028083561 0.033971168 -0.011945401 0.064680524 -0.045919508 -0.024827177
0.036651373 -0.066106446 0.039201286 0.04165359 -0.058048714 0.065939024 -0.06413854 -0.12087648
0.015633173 -0.047702074 -0.028542187 -0.066798426 0.022027431 -0.007909245 -0.010988742 -0.029836712
-0.099917695 -0.037838437 -0.08267702 -0.0594595 0.12809987 -0.010557931 -0.031973373 -0.085491456
0.03338582 -0.077573426 -0.02629129 -0.1453458 -0.053649247 -0.16437368 -0.058722846 -0.011683957
-0.06898591 -0.11959846 -0.024217952 -0.05428204 -0.03781094 -0.09755128 -0.064692795 -0.01893662
-0.05130688 0.023014849 -0.064327896 -0.0999166 -0.12877269 0.109426506 -0.123669975 0.037634116
-0.116462216 -0.16614448 -0.005111395 -0.002284786 -0.111597754 0.15142469 0.051109165 -0.17161815
0.03717756 0.07382478 -0.061682094 -0.023582092 0.1379523 -0.09101971 0.011361807 0.028198209
0.06340526 0.033701874 -0.026131094 0.074980766 -0.10251934 -0.08468944 -0.018518312 -0.018053116
0.033818886 0.077643536 0.011756472 0.03270178 -0.007737343 0.0021966288 -0.016508037 0.022112207
-0.04772646 -0.13064216 -0.09057132 -0.12478727 -0.017334461 -0.12188735 -0.1305046 -0.13737166
-0.031984333 0.025474703 0.06512671 -0.08968994 0.061354145 0.119841546 0.087117635 0.15160064
0.12301851 -0.09136098 -0.124626175 0.0034549306 -0.071593665 -0.103186384 -0.09360826 -0.044870853
-0.10106622 0.028166143 -0.073092155 0.06781117 0.023626596 0.03173779 -0.038798 0.025611933
-0.08762301 -0.01538349 -0.16235913 -0.119835906 0.088328406 0.11989975 -0.043990742 0.07057122

bias f4 [32]
00000000: e546 a5bd b994 05bd 450e cfbd bf48 e3bc
00000010: def0 a6bd ae6f 66bd 02d9 b4bd 8bd7 b7bc
00000020: af34 8dbd 12dc cfbc fa13 14bd 3d33 873c
00000030: 2d98 b1bd 730f 6fbd e028 2dbd 3a76 8ebd
00000040: 3ce1 14bd 0312 0abd 19d7 aebd b723 7abd
00000050: 2ebd bdbd 304c aabd fdfe 10bd 4ee8 80bc
00000060: 536e 81bd 775f 45bd 9a9f 53bd 8a6a 51bd
00000070: acb6 bcbd 64e2 3abb 5cd2 39bd 0113 bfbd
-0.08070163 -0.032612536 -0.101101436 -0.027744649 -0.081514105 -0.05625885 -0.088304535 -0.022441646
-0.06894814 -0.025373492 -0.036151864 0.016503925 -0.08671603 -0.058364343 -0.04227531 -0.06956144
-0.036347613 -0.033708584 -0.0853712 -0.061069217 -0.09264599 -0.08315313 -0.035399426 -0.015735772
-0.06319871 -0.048186745 -0.05166588 -0.051126994 -0.092145294 -0.0028516287 -0.04536663 -0.093297966

weight f4 [4, 32, 3, 3]
00000000: aa3d bebd 5bec e5bd 0797 873c 9ea4 a0bd
00000010: 45f9 123d 9535 d73c 80e3 7f3b 42c8 d8bd
00000020: 785b 383d f66e 963c e11a 81bd 40ba 373c
00000030: 3a20 8c3d d55a 8fbd bc35 c23d 004f 953b
00000040: b0c4 213e 61b1 dcbc ce70 3ebb ac65 823d
00000050: 5ad5 063e dfaf 683d 2813 7d3d cb94 0c3e
00000060: b3aa 953c a2a1 0fbd c6be ab3d ea4a 833d
00000070: 6dc9 b0bc 1627 853d c65e ce3c f9cb e7bb
00000080: a77f 65bb 647b 523d 42e3 c33d 493b 41bd
00000090: a06e 3ebb b5c9 c5bd 6f70 80bd 8f61 8cbd
000000a0: b6b2 ecbc 5ff2 8b3c 35ee 8ebd 70db 59bd
000000b0: 1e68 8dbd 410b 73bd 95e8 c1bc ad34 c5bc
000000c0: 3af0 dd3d f458 1cbd 9871 35bd 60ad 40bd
000000d0: aeb3 42bd 4bcb f63c 182c e43d cbf0 ae3d
000000e0: 4dfd 843d a127 ad3d e59f b83d f509 20bd
000000f0: 261c 4b3d f1e9 ed3c 9d4d 343d e6ac 303d
00000100: 762d ad3d 6924 723c 4f0c 89bd 5329 dd3d
00000110: ea8f f93d aa10 8a3d eb1c 0fbc 5db0 01bd
00000120: 0aed 803d 6665 b1bd 75a7 c0bd a088 76bd
00000130: d03d 28bc ed93 0bbd 0d32 9c3c 8ac1 afbd
00000140: 6c79 45bd ef23 a43d bf8e 683c ca22 b53d
00000150: 3007 b73b b012 263d 8f0a a93c f49a b53b
00000160: 4fcd c3bd 270d d83c 58cc 703d 11f5 d6bd
00000170: d255 cd3c 6c83 e33d 4a7f 5c3d 3eb6 b43c
00000180: 8453 0a3e f8c5 5d3e d657 833d fd8c 803c
00000190: eedc 0f3e e767 d9bc 0da7 7f3d 7ac8 d03d
000001a0: 1908 6abc 0405 d53c 556c 0e3e 452b b83d
000001b0: bc8d aa3d 357c 193d 3ebd d43c 90a2 35bd
000001c0: 4a5d dfbc caa8 b83c f965 27bd 2878 0ebd
000001d0: 65e2 fe3d baf8 653d 4951 73bd 1c35 983c
000001e0: 470a d6bd 058a 833d eebc adbd a1da 3dbd
000001f0: 37ea 14bd 50aa 9abd 3172 673d 12ee 543d
00000200: ca32 0c3e a797 60bc 89b0 23bd 89f0 ad3c
00000210: 275f 853d 0de8 943d 6250 573c 2f92 833d
00000220: 7a36 cdbc e49a c9bc aeef c53d cf01 493d
00000230: 068b 003e f6bf 4a3d 1dcf da3d 9127 493d
00000240: 29fb 063e 292c 9e3d 4a32 a53d 0ab6 093e
00000250: 6b35 bb3d 88e9 373d db72 f93c 1707 c23c
00000260: 8e0e b7bc 7a72 c1bd d54f acbd 23b9 8e3b
00000270: 0cd2 10bd 7853 14bc 5d69 59bd e879 a5bd
00000280: db0c e7bd a44f 543c a4c1 003e 240d 0a3c
00000290: 9af0 9138 387b 193e 0b04 943d ed58 a33c
000002a0: b05a 423d c704 043e 789e c83c d3dd 2e3b
000002b0: 0aaa 06bd e74e 1ebe 92ef 093d 647b 1ebe
000002c0: 2c88 f8bd 0bd1 e13a ef2e 14be 4950 f43c
000002d0: 55f8 72bd c7d4 a5bd f6cf f9bd 33d9 ea3d
000002e0: 30b2 9d3d deb0 a3bc 8596 d53d 322e a03d
000002f0: 7fc9 8fbd fc55 18bd 5ef2 92bc 0050 f1bc
00000300: 00f6 cbbd 6bcb 9abd 6768 d3bd 5814 18be
00000310: fbac db3c 15e7 83bd b9df a73d 47cd 37bc
00000320: fdc1 8f3d 75b2 0b3e f5f3 643c ba4d b03d
00000330: 6e1c 8e3d b81d 7c3d 4bb5 9a3c b7f0 c3bd
00000340: 4417 4c3d 01fd 10bc 7e75 483c bb6a 87bd
00000350: 1db6 acbd 9596 7ebd 682b 79bd 35f8 ffbd
00000360: 6aaf 79bd 75ba a6bc 4013 63bd fc86 22bd
00000370: c709 10bd 00a0 07bc 048a 97bd d53a b5bc
00000380: f0bf 163d 7e5a 9a3b 6b8b ca3c 93f0 223c
00000390: d8f4 a13c b4ba 943d 3756 c93d 29af a33d
000003a0: 8337 303e 7948 9c3d 4189 19be bc28 90bd
000003b0: 4043 01bc 594d cc3b 93be 3a3d 6677 96bd
000003c0: bcea debd cb39 9d3b 49ef b83c 7532 e8bc
000003d0: 8659 96bd 615d 083d 182f 953c 0f6d 5c3d
000003e0: 6229 573e f7fc 873b 415b eb3c cfb9 ae3d
000003f0: b4a3 fb3c ad83 a6bd 7acc 513b f110 8b3d
-0.09289105 -0.11226722 0.016551508 -0.07843898 0.035882253 0.026270667 0.0039045513 -0.10585071
0.045009106 0.018363457 -0.06303955 0.011213839 0.06842084 -0.06999747 0.09482905 0.0045565367
0.15797687 -0.02694005 -0.0029058936 0.063670486 0.13167325 0.05680835 0.061785847 0.13728635
0.018269872 -0.035066254 0.083859965 0.06410773 -0.021580422 0.06501596 0.025191676 -0.007073876
-0.0035018714 0.051387206 0.0956483 -0.04717568 -0.0029057637 -0.09657613 -0.06271445 -0.06854545
-0.02889381 0.017083345 -0.06979028 -0.053187788 -0.069046244 -0.059336904 -0.023670474 -0.02407297
0.10836835 -0.03817077 -0.044297785 -0.047040343 -0.047534637 0.030126235 0.11141223 0.08542021
0.06493626 0.08454824 0.090148725 -0.039071996 0.04958739 0.029042216 0.04401933 0.04313364
0.084559366 0.014779189 -0.06691801 0.107988976 0.121856526 0.0674146 -0.008734922 -0.031662334
0.062952116 -0.08661918 -0.0940694 -0.06018889 -0.0102686435 -0.03407662 0.019066835 -0.085818365
-0.0482115 0.08014666 0.01419419 0.08844526 0.0055855736 0.040545166 0.020634918 0.0055421535
-0.09560644 0.026373459 0.058788627 -0.104959615 0.025065336 0.11109051 0.05383233 0.022059556
0.13508421 0.2165755 0.06413238 0.015692228 0.14049122 -0.026538802 0.06241517 0.10194488
-0.014284157 0.026003368 0.13908513 0.08992628 0.08327815 0.03747197 0.025969144 -0.044344485
-0.027266163 0.022541422 -0.040868733 -0.03478256 0.12445525 0.056145407 -0.05940369 0.018580012
-0.10451179 0.064228095 -0.08483301 -0.04635108 -0.036356177 -0.07552016 0.056505386 0.051984854
0.1369125 -0.013708032 -0.03996328 0.02123286 0.065122895 0.07270823 0.013141723 0.06424367
-0.02505039 -0.02460999 0.09664856 0.04907399 0.12553033 0.049499474 0.10684035 0.04911
0.13181747 0.07723267 0.080662325 0.13448349 0.09141048 0.044900447 0.030450275 0.023685021
-0.022345807 -0.09445663 -0.08413664 0.004355566 -0.035356566 -0.009053104 -0.053078998 -0.080798924
-0.11281749 0.012958441 0.12573868 0.0084259845 6.958954e-05 0.1498841 0.07227334 0.019939864
0.047449768 0.12892447 0.024489626 0.002668251 -0.032877006 -0.15459786 0.033675738 -0.15476757
-0.12135348 0.0017228437 -0.14471029 0.02982344 -0.05931886 -0.08097225 -0.121978685 0.11467209
0.07700002 -0.019981798 0.104291 0.07821311 -0.07020854 -0.037191376 -0.017937835 -0.029457092
-0.0995903 -0.0755833 -0.103226475 -0.1485151 0.026815882 -0.0644056 0.081969686 -0.0112183755
0.07019422 0.13642295 0.0139741795 0.08608575 0.06939016 0.06155178 0.018885275 -0.09567397
0.049826875 -0.008849383 0.012235044 -0.06612154 -0.08433173 -0.062155325 -0.06083241 -0.124985136
-0.060958304 -0.020352582 -0.05543828 -0.039679512 -0.035165574 -0.008277893 -0.07399371 -0.02212278
0.03680414 0.0047104945 0.024724683 0.009945053 0.01977007 0.07262173 0.09830897 0.079923935
0.17208676 0.076310106 -0.14993764 -0.070390195 -0.007889569 0.0062348065 0.045591902 -0.07346992
-0.10884616 0.004798149 0.022575038 -0.028344372 -0.07341294 0.033292178 0.018210933 0.053814944
0.2101188 0.004150029 0.028730037 0.08531534 0.030717708 -0.08130584 0.0032012747 0.06790341

bias f4 [4]
00000000: c387 b0bb 800e 0e3d 8149 063d 1606 ccbc
-0.005387278 0.034681797 0.032784943 -0.024905246
