super_resolution/checkpoint_scale2/model_epoch_10.pth (torch_old, 247001 bytes, 8 tensors)

weight f4 [64, 1, 5, 5]
0.21498781 -0.098855965 -0.1605658 -0.15135154 0.21208912 -0.04400808 -0.25269613 -0.218798
0.021997515 -0.1871744 -0.43843994 -0.20829771 -0.3021097 -0.17213453 -0.03315972 -0.25320473
-0.14226529 -0.06522692 -0.27098545 0.117196344 0.03316175 0.024423959 -0.14265451 0.024579376
0.09267334 -0.14889035 -0.10533561 -0.27632433 0.06603157 -0.15975714 -0.291655 -0.09342362
-0.20743087 0.053501554 -0.031608336 -0.121442504 -0.06568238 -0.23816854 -0.15837125 0.08570266
0.13638777 -0.25671893 0.02064604 0.26992714 -0.18409802 -0.108700514 -0.11637163 -0.15812679
-0.023654586 -0.059713718 -0.32831272 0.092594974 -0.03165168 0.10282992 0.15045093 -0.25487626
-0.016870873 -0.06984504 0.07355689 -0.4424554 0.044521306 0.03529058 0.060647365 -0.06988565
-0.018692097 -0.18534116 -0.21463801 -0.15615976 -0.086405165 -0.20224048 -0.13794541 0.0062362235
-0.16432095 0.16255102 -0.110861905 -0.21073903 -0.18648706 0.07424163 -0.085181594 -0.23806643
0.046402756 0.07911063 -0.28261688 -0.30216205 -0.39207944 0.07987172 -0.059666175 -0.2079234
0.0041877134 -0.35655263 -0.13475151 0.23339407 0.068376176 -0.09623188 -0.13237356 -0.11453568
-0.28864104 -0.09883382 -0.006269152 -0.16819525 -0.17749783 0.2347237 0.20867792 -0.15229979
0.107236676 0.044324037 -0.31011298 0.0033393463 0.0479672 -0.0066544 -0.39503083 0.018643199
0.06604758 -0.14455327 -0.18871476 -0.015199171 -0.043864667 -0.2898476 0.25173855 0.084879145
-0.26158258 -0.052151687 -0.09472998 -0.32842526 -0.21219084 -0.08311871 -0.11048893 0.0010596194
-0.021895897 -0.064160354 0.07900986 0.25572196 0.15417595 0.10969432 -0.1197116 -0.0667504
-0.4123417 0.044163488 0.35845172 -0.29424733 -0.0043320497 -0.12578614 -0.60179466 -0.13565162
-0.025305895 -0.11031478 -0.029451398 -0.23492496 0.1792738 0.22748433 0.013063259 -0.07242692
0.21878769 -0.23631857 -0.25730938 -0.10444977 0.20550463 0.18498759 0.056206852 0.09127586
0.14199512 0.10275201 -0.42215756 -0.40009537 0.25594312 0.104621105 -0.07240677 -0.20772304
-0.32402036 -0.02060093 -0.23272331 0.2468829 -0.27119014 0.0069074617 -0.05994921 -0.117357254
-0.010310147 0.111992076 -0.14305118 -0.2897223 0.025715798 -0.14688376 0.48665652 0.097784795
0.28113636 0.053783305 0.1767502 0.0044645807 0.02932015 -0.06975497 -0.12971099 -0.011410683
-0.2614887 -0.25595802 -0.15249024 0.31809306 -0.38350952 0.1521991 -0.2421526 -0.17402
0.21943635 0.19033793 0.13024287 -0.25103107 -0.003496862 -0.042628802 0.3147902 -0.33268645
0.17193286 -0.03116469 -0.34664035 0.361516 -0.12740259 -0.23190184 -0.25819463 -0.026260229
-0.007296766 0.14434668 -0.2013374 0.15968817 0.52611166 0.0030446625 -0.07292467 0.23964855
0.18601689 0.230195 -0.29645598 0.15141355 -0.16757257 0.15759377 0.20768714 0.1775466
-0.17942137 -0.006816306 -0.18785928 0.09923775 0.09895573 0.21194279 -0.28219205 -0.08942047
-0.028450172 -0.094064206 -0.02321723 0.13858181 -0.1433203 -0.04177179 -0.23671478 0.18396299
-0.21109727 -0.05206653 -0.17035101 -0.12793201 -0.19753969 -0.5557437 0.094750896 -0.043295443
00000000: c425 5c3e ff74 cabd 5c6b 24be e6fb 1abe
00000010: e42d 593e d141 34bd 6361 81be 950c 60be
00000020: 2234 b43c a5aa 3fbe 337b e0be ff4b 55be
00000030: 1fae 9abe 0944 30be 7dd2 07bd 0da4 81be
00000040: fead 11be b195 85bd 9bbe 8abe a304 f03d
00000050: 9dd4 073d c114 c83c 0614 12be b05a c93c
00000060: 85cb bd3d b676 18be 32ba d7bd 627a 8dbe
00000070: 8f3b 873d 6097 23be ce53 95be e254 bfbd
00000080: c268 54be 7224 5b3d be77 01bd d9b6 f8bd
00000090: 7c84 86bd 74e2 73be 132c 22be e084 af3d
000000a0: 3ca9 0b3e aa70 83be e221 a93c e433 8a3e
000000b0: 3184 3cbe 609e debd 4054 eebd fdeb 21be
000000c0: 43c7 c1bc 5f96 74bd 9b18 a8be 6fa2 bd3d
000000d0: 31a5 01bd 7e98 d23d cf0f 1a3e 247f 82be
000000e0: c934 8abc eb0a 8fbd ffa4 963d 8489 e2be
000000f0: f95b 363d db8c 103d 5f69 783d 3520 8fbd
00000100: 2b20 99bc 13ca 3dbe 11ca 5bbe 58e8 1fbe
00000110: 31f5 b0bd 2118 4fbe 9041 0dbe 3c59 cc3b
00000120: c043 28be c673 263e 910b e3bd f9cb 57be
00000130: 77f6 3ebe ff0b 983d b073 aebd b0c7 73be
00000140: d110 3e3d c104 a23d 29b3 90be fcb4 9abe
00000150: a3be c8be c993 a33d 8564 74bd dfe9 54be
00000160: 1639 893b 118e b6be 4dfc 09be dbfe 6e3e
00000170: cf08 8c3d 3815 c5bd ef8c 07be af91 eabd
00000180: c2c8 93be 6369 cabd 756d cdbb 603b 2cbe
00000190: fec1 35be 695b 703e aaaf 553e 7af4 1bbe
000001a0: e79e db3d 1f8d 353d 21c7 9ebe efd8 5a3b
000001b0: 4179 443d 270d dabb 7b41 cabe 9fb9 983c
000001c0: f443 873d c605 14be 713e 41be f205 79bc
000001d0: 70ab 33bd e866 94be e0e3 803e 1ed5 ad3d
000001e0: 27ee 85be 029d 55bd cb01 c2bd 5b27 a8be
000001f0: 8e48 59be 243a aabd 0548 e2bd ede2 8a3a
00000200: 065f b3bc 8166 83bd eccf a13d fded 823e
00000210: 4de0 1d3e 6aa7 e03d 5b2b f5bd 6fb4 88bd
00000220: 741e d3be c6e4 343d fc86 b73e 96a7 96be
00000230: def3 8dbb 15ce 00be 370f 1abf 42e8 0abe
00000240: 4f4e cfbc b7ec e1bd 0f44 f1bc 2b90 70be
00000250: 8d93 373e a7f1 683e 4807 563c 9154 94bd
00000260: e109 603e 7ffd 71be 0ebe 83be c3e9 d5bd
00000270: ce6f 523e 636d 3d3e 2839 663d d7ee ba3d
00000280: 2b67 113e a56f d23d 0925 d8be 4dd9 ccbe
00000290: fa0a 833e 9743 d63d 004a 94bd 59b5 54be
000002a0: ffe5 a5be 48c3 a8bc 054f 6ebe dfce 7c3e
000002b0: 6fd9 8abe fd57 e23b 4e8d 75bd 0059 f0bd
000002c0: e4eb 28bc 1a5c e53d 027c 12be 7b56 94be
000002d0: f0a9 d23c b268 16be 0b2b f93e 6543 c83d
000002e0: 1bf1 8f3e e24b 5c3d 01fe 343e 9e4b 923b
000002f0: d030 f03c b2db 8ebd f5d2 04be e0f3 3abc
00000300: d9e1 85be ee0c 83be 6726 1cbe 18dd a23e
00000310: 5c5b c4be 15da 1b3e daf6 77be 4d32 32be
00000320: ecb3 603e f2e7 423e 635e 053e 2587 80be
00000330: 9c2b 65bb 8a9b 2ebd 2e2c a13e e155 aabe
00000340: 2b0f 303e 184d ffbc d87a b1be a018 b93e
00000350: d375 02be ad77 6dbe 1632 84be b11f d7bc
00000360: b619 efbb 9ecf 133e 642b 4ebe 4c85 233e
00000370: 41af 063f f688 473b 8859 95bd 6e66 753e
00000380: 367b 3e3e 3db8 6b3e 14c9 97be 270c 1b3e
00000390: 2598 2bbe 4360 213e f0ab 543e c7ce 353e
000003a0: 3cba 37be 525b dfbb 2f5e 40be 293d cb3d
000003b0: 4da9 ca3d 8807 593e 7a7b 90be 1422 b7bd
000003c0: 5610 e9bc bca4 c0bd 0f32 bebc 64e8 0d3e
000003d0: 8fc2 12be e518 2bbd 5c65 72be cb60 3c3e
000003e0: e229 58be b743 55bd 7f70 2ebe 9c00 03be
000003f0: d847 4abe 3845 0ebf c20c c23d 9056 31bd

bias f4 [64]
0.015597547 0.022332022 -0.22875471 -0.08880123 -0.09773231 0.060619984 0.093048245 -0.018736549
-0.16670056 -0.2245215 0.13911994 0.11821734 0.08326642 -0.1325231 -0.15451051 0.044359565
-0.051094454 -0.009913433 -0.2305171 0.12051529 0.037577245 0.15240045 0.061847825 0.037275326
-0.04351877 -0.21430226 -0.18585436 -0.07023826 0.07141951 -0.045620218 0.052331634 -0.035173144
-0.10266035 -0.031747166 -0.049154 -0.14703268 0.0039394787 0.07880331 0.09312063 -0.07431733
-0.21409905 0.106935136 -0.06518199 -0.050180417 -0.0073901573 -0.07119533 -0.027502302 0.07456101
0.03948983 -0.23795804 -0.15415956 -0.07968327 -0.012029475 0.032882873 -0.127281 -0.21432641
0.12184331 -0.19323686 -0.22117363 0.10905758 0.15216614 0.021629043 -0.18678126 -0.16805644
00000000: db8c 7f3c a5f1 b63c ad3e 6abe 6bdd b5bd
00000010: e127 c8bd a94c 783d 1490 be3d 647d 99bc
00000020: 8db3 2abe f7e8 65be 7575 0e3e ef1b f23d
00000030: 9687 aa3d 23b4 07be 0138 1ebe 60b2 353d
00000040: 6b48 51bd f46b 22bc ad0c 6cbe b8d0 f63d
00000050: 99ea 193d dd0e 1c3e 2554 7d3d 03ae 183d
00000060: bd40 32bd 0d72 5bbe 9b50 3ebe 14d9 8fbd
00000070: 6444 923d 44dc 3abd b259 563d b711 10bd
00000080: 973f d2bd 5109 02bd b455 49bd bc8f 16be
00000090: be16 813b a163 a13d 07b6 be3d af33 98bd
000000a0: c83c 5bbe cf00 db3d 237e 85bd fb89 4dbd
000000b0: 2229 f2bb dbce 91bd 824c e1bc 71b3 983d
000000c0: 17c0 213d 46ab 73be 01dc 1dbe fb30 a3bd
000000d0: 4617 45bc 31b0 063d f355 02be 6278 5bbe
000000e0: fc88 f93d e2df 45be 577b 62be 9559 df3d
000000f0: 71d1 1b3e 642f b13c 9643 3fbe fd16 2cbe

weight f4 [64, 64, 3, 3]
-0.0038050995 -0.035558317 -0.10322503 0.008317465 -0.06662057 0.014991165 -0.0037197806 -0.026517408
-0.07708325 -0.09120713 0.01163232 -0.1422262 0.008121536 -0.10123374 -0.09719798 -0.084653266
-0.04926481 -0.11662441 -0.12122735 -0.11611826 -0.088213004 -0.12947747 -0.12966935 -0.062917255
-0.048799135 -0.10930258 -0.13213357 -0.017644878 -0.036952272 -0.12229498 0.10686207 0.112194896
-0.007851774 -0.054333262 -0.061194524 -0.009478534 -0.14693509 0.019990856 -0.10662631 -0.042289842
0.07506219 -0.057063382 0.05768212 0.07663214 -0.011358272 -0.12547807 -0.095733315 -0.07998676
0.012971826 -0.1066333 -0.015316133 -0.14122988 -0.079594254 -0.026951479 -0.07089134 -0.126601
-0.05322503 -0.079853006 0.018548157 -0.1180113 0.050904956 0.0010530717 -0.071879424 -0.07102063
-0.07773989 0.032046445 0.01013752 -0.011417063 -0.09097185 -0.10985821 -0.07507402 -0.031640407
-0.16984805 -0.052162103 -0.0152523285 -0.03343388 -0.083891496 -0.04901849 -0.021242153 -0.14211226
0.019184055 -0.079491556 0.023934528 -0.0355757 0.03678535 -0.12537523 -0.11254573 -0.07894271
-0.108822495 -0.046396904 -0.06478216 -0.048173945 -0.095165975 -0.10763945 -0.06625435 0.0012740938
-0.17873599 -0.048698086 -0.06638942 0.03158989 -0.019165885 0.08818959 0.080447406 -0.010869593
-0.068598844 -0.029746758 -0.070636086 0.07028876 0.007075678 0.0110233035 -0.006726508 -0.033003822
-0.051616386 -0.015315137 0.0820489 0.040266868 -0.059336882 -0.10019057 -0.110016026 0.081532314
-0.08688984 -0.020316014 -0.14037552 -0.21294206 -0.110597506 -0.14218186 -0.011721409 0.03826353
-0.0561247 -0.17914455 0.025529692 -0.060882203 -0.08985065 0.009476911 -0.08839129 -0.07054586
-0.024292368 0.0010411139 -0.07652235 -0.04763265 0.036242366 -0.060786463 -0.008068136 -0.009220793
-0.07140058 -0.19933757 -0.010111652 -0.03489748 -0.13596871 -0.11730769 -0.118053265 -0.043101065
-0.08950088 -0.031101 -0.009699927 -0.09804361 -0.16015267 -0.06817428 -0.011281385 -0.14662588
-0.048601463 -0.14562874 0.03463876 -0.15973286 -0.06368128 -0.02616174 -0.10597594 -0.09411666
-0.06370393 0.008433649 -0.055994958 -0.11064057 -0.0891415 -0.047827724 -0.007175895 -0.041386742
-0.05384227 -0.099496424 -0.028103633 0.016638797 -0.018813225 -0.0069160843 0.016401384 -0.0688453
-0.032958858 -0.03030433 -0.08865846 -0.029265441 -0.010400684 -0.0013876169 0.034277074 -0.08550003
0.014398803 -0.061460473 0.054121505 -0.1249406 -0.110583596 -0.037870932 -0.06534209 -0.05056266
-0.07894246 -0.058720373 -0.013605872 -0.09877962 -0.09863642 0.037932567 0.02645114 -0.08249315
-0.026965963 -0.07454455 -0.086386465 -0.093024015 -0.09266666 -0.09487399 -0.059151977 0.0067353975
-0.10871918 -0.08728854 -0.15129921 -0.03443207 0.018918702 -0.13958533 -0.09064914 -0.08502453
-0.024838751 -0.08257646 0.03839334 -0.050667442 -0.051094256 -0.041926548 -0.121829085 -0.054281767
-0.04771611 -0.07906017 0.0968772 -0.035985973 0.00957725 0.011761799 0.0032707439 -0.11797441
0.047244597 -0.043567788 0.0738805 0.0057902006 0.04043797 -0.069754794 -0.0986304 -0.110499345
0.036659166 0.027493494 -0.00038424454 -0.09842636 -0.1106899 -0.1418516 -0.14593352 -0.045005206
00000000: fa5e 79bb 99a5 11bd a567 d3bd fa45 083c
00000010: 5e70 88bd 819d 753c 90c7 73bb 093b d9bc
00000020: d3dd 9dbd ceca babd 7c95 3e3c bfa3 11be
00000030: 3110 053c a353 cfbd bc0f c7bd b15e adbd
00000040: e6c9 49bd c7d8 eebd 0b46 f8bd 69cf edbd
00000050: 05a9 b4bd be95 04be 0bc8 04be c3da 80bd
00000060: 9ae1 47bd 08da dfbd 064e 07be fe8b 90bc
00000070: 445b 17bd ca75 fabd 80da da3d 70c6 e53d
00000080: baa4 00bc 8e8c 5ebd 1ca7 7abd da4b 1bbc
00000090: 2776 16be ddc3 a33c e55e dabd 1d38 2dbd
000000a0: 35ba 993d 4bbb 69bd 1644 6c3d 50f1 9c3d
000000b0: 0c18 3abc 537d 00be d40f c4bd 19d0 a3bd
000000c0: c887 543c 8f62 dabd 85f0 7abc 919e 10be
000000d0: 5002 a3bd 59c9 dcbc 7b2f 91bd b1a3 01be
000000e0: 7d02 5abd f989 a3bd 4ef2 973c e9af f1bd
000000f0: b781 503d 3907 8a3a 8535 93bd 4473 91bd
00000100: 1736 9fbd 2243 033d d717 263c a20e 3bbc
00000110: 734f babd 57fd e0bd 68c0 99bd 5f99 01bd
00000120: a6ec 2dbe eea7 55bd e7e4 79bc f7f1 08bd
00000130: 4ecf abbd 9dc7 48bd 0604 aebc e085 11be
00000140: e127 9d3c 78cc a2bd 5812 c43c d3b7 11bd
00000150: 3cac 163d 5d62 00be 607e e6bd b7ac a1bd
00000160: 54de debd ae0a 3ebd 82ac 84bd 0b52 45bd
00000170: 61e6 c2bd 1272 dcbd 5cb0 87bd 7eff a63a
00000180: 9106 37be a577 47bd 2df7 87bd 6764 013d
00000190: c601 9dbc be9c b43d 9cc1 a43d 6116 32bc
000001a0: 8d7d 8cbd 79af f3bc a7a9 90bd 8ef3 8f3d
000001b0: 17db e73b 169b 343c 0a6a dcbb 042f 07bd
000001c0: b46b 53bd 57ec 7abc 4109 a83d dfee 243d
000001d0: 3b0b 73bd b730 cdbd 1550 e1bd 6afa a63d
000001e0: 4df3 b1bd c56d a6bc 9abe 0fbe 7c0d 5abe
000001f0: f280 e2bd 1f98 11be 270b 40bc 38ba 1c3d
00000200: 03e3 65bd ab71 37be a523 d13c 9e5f 79bd
00000210: 9e03 b8bd 0c45 1b3c 7e06 b5bd 597a 90bd
00000220: ca00 c7bc fc75 883a c0b7 9cbd 741a 43bd
00000230: e072 143d 3afb 78bd 3730 04bc cf12 17bc
00000240: 783a 92bd 261f 4cbe 58ab 25bc a9f0 0ebd
00000250: 623b 0bbe 043f f0bd e9c5 f1bd be8a 30bd
00000260: 3d4c b7bd 86c7 febc 71ec 1ebc 17cb c8bd
00000270: 10ff 23be f59e 8bbd 8fd5 38bc 1825 16be
00000280: 5412 47bd b31f 15be 5fe1 0d3d 0391 23be
00000290: 556b 82bd 2551 d6bc ea09 d9bd 3cc0 c0bd
000002a0: 3577 82bd 4a2d 0a3c f85a 65bd 8697 e2bd
000002b0: d28f b6bd 01e7 43bd c523 ebbb 2585 29bd
000002c0: b689 5cbd c8c4 cbbd 9739 e6bc 164e 883c
000002d0: 311e 9abc 52a0 e2bb 325c 863c c4fe 8cbd
000002e0: deff 06bd c940 f8bc 9192 b5bd 14be efbc
000002f0: a167 2abc b2e0 b5ba 1e66 0c3d a41a afbd
00000300: f5e8 6b3c fabd 7bbd 83ae 5d3d dbe0 ffbd
00000310: a779 e2bd 8d1e 1bbd 13d2 85bd cb1a 4fbd
00000320: 96ac a1bd c684 70bd 2aeb 5ebc f84c cabd
00000330: e401 cabd 2e5f 1b3d 10b0 d83c 2bf2 a8bd
00000340: b9e7 dcbc d0aa 98bd 63eb b0bd 6083 bebd
00000350: 05c8 bdbd 4b4d c2bd 5849 72bd 9cb4 dc3b
00000360: 29a8 debd 56c4 b2bd 2eee 1abe a408 0dbd
00000370: 65fb 9a3c 75ef 0ebe 42a6 b9bd 5721 aebd
00000380: a37a cbbc d91d a9bd 5642 1d3d aa88 4fbd
00000390: 3648 51bd 2cbb 2bbd 8781 f9bd 8f56 5ebd
000003a0: f871 43bd 4cea a1bd 8e67 c63d 0766 13bd
000003b0: e6e9 1c3c 90b4 403c fa59 563b 919c f1bd
000003c0: 8d83 413d 2374 32bd a94e 973d b9bb bd3b
000003d0: 49a2 253d 9adb 8ebd bcfe c9bd 7b4d e2bd
000003e0: ec27 163d 093a e13c 6e74 c9b9 c293 c9bd
000003f0: 63b1 e2bd 8c41 11be 996f 15be 6157 38bd

bias f4 [64]
-0.031398274 -0.04171539 -0.03945095 -0.045649953 -0.049440898 -0.029849688 -0.07592696 -0.08899171
-0.034250755 -0.08887822 -0.06622646 -0.019218596 0.02067786 -0.07234688 -0.045027744 -0.056679834
-0.06793151 0.0011158466 0.039094124 -0.03942713 -0.06174277 -0.09662649 -0.07379436 -0.03251012
-0.07322774 -0.03317557 -0.07562207 -0.048634738 -0.04678813 -0.03111684 -0.07391891 -0.07479003
-0.04525063 -0.0100868 -0.014323172 -0.094409674 -0.052731257 -0.029092217 -0.09334018 0.03230335
-0.030371439 -0.088984825 -0.023029733 -0.03860934 -0.07521265 -0.07303695 -0.069363356 -0.031669308
-0.06426187 -0.067806795 -0.059901107 -0.030644694 -0.052067753 -0.008452851 -0.080313995 -0.028395463
-0.083308816 -0.018678913 -0.021327658 -0.04722552 -0.029307961 -0.00989961 -0.058887415 -0.07363646
00000000: 7a9b 00bd c2dd 2abd 5297 21bd 72fb 3abd
00000010: 8a82 4abd 5587 f4bc 987f 9bbd 4941 b6bd
00000020: 854a 0cbd c905 b6bd bda1 87bd 5170 9dbc
00000030: 9e64 a93c 9a2a 94bd 036f 38bd 1d29 68bd
00000040: ad1f 8bbd 9941 923a 2921 203d 587e 21bd
00000050: fde5 7cbd 1ce4 c5bd 7f21 97bd 5529 05bd
00000060: 6df8 95bd 1be3 07bd bedf 9abd 3835 47bd
00000070: e9a4 3fbd bee8 febc cc62 97bd 842b 99bd
00000080: b958 39bd 1b43 25bc bdab 6abc dc59 c1bd
00000090: bbfc 57bd cd52 eebc 2329 bfbd 8450 043d
000000a0: 86cd f8bc ad3d b6bd daa8 bcbc d424 1ebd
000000b0: 1709 9abd 6594 95bd 600e 8ebd adb7 01bd
000000c0: ba9b 83bd 4ade 8abd dd5a 75bd 950a fbbc
000000d0: ff44 55bd d47d 0abc aa7b a4bd 9a9d e8bc
000000e0: d09d aabd 8504 99bc 57b7 aebc 8c6f 41bd
000000f0: 4017 f0bc f931 22bc ee33 71bd b6ce 96bd

weight f4 [32, 64, 3, 3]
0.10835547 -0.01083935 0.007437688 0.029218597 -0.08048927 -0.18000555 0.04829551 -0.009166976
-0.0003082619 0.029191373 0.10860071 -0.085880235 -0.027738607 0.016984168 -0.0150616905 -0.026905492
0.07720097 -0.04748332 -0.11256742 -0.0056704213 -0.0011985681 -0.0055673565 -0.06733259 -0.07713419
-0.058468357 -0.14893486 -0.18095835 0.20618317 -0.015733 0.017924832 0.032320816 -0.020952992
-0.019575248 0.006818213 -0.030058837 -0.07193501 -0.001243159 0.0795085 -0.10713822 -0.06842807
-0.09305937 -0.06459769 -0.06863156 -0.094213516 -0.019274885 -0.02780543 -0.05856026 -0.037650976
-0.010245029 -0.002591386 -0.026436476 -0.0759811 -0.011957928 -0.098891854 -0.15361437 0.02028162
0.0692866 -0.0029648046 -0.0088979285 -0.1243703 -0.024332576 0.07055713 -0.054230627 0.10216871
0.042801265 0.013065361 0.14175119 0.086496234 -0.062045038 0.08152735 -0.033947878 -0.17635715
0.07855388 0.104217485 -0.09235835 0.054683257 -0.023193145 -0.0782248 -0.0619203 0.06537123
-0.18858239 0.13618667 0.027473776 -0.12536329 0.0090115005 -0.05110643 -0.04283265 0.06363101
-0.04521107 -0.1202277 -0.0033802919 -0.053733658 0.092237994 0.0016335961 -0.07307533 -0.070427485
-0.0037340757 -0.012779905 0.050556555 0.01198229 -0.04774511 -0.10143839 0.11028395 0.013217111
-0.01795044 0.15065055 -0.14055716 0.048671085 -0.032082696 -0.018359447 0.009377707 -0.11647097
0.015986264 -0.16743822 -0.089998014 -0.17442459 -0.1304232 0.06186198 0.106316514 -0.02015026
0.03301451 -0.16859217 -0.07033961 -0.0065070866 -0.11822549 -0.14276436 0.0027497013 -0.05080905
0.0050510163 -0.056847714 -0.02806782 0.033971336 -0.011955121 0.06468038 -0.045918092 -0.024807975
0.036675595 -0.06608365 0.039188668 0.041677732 -0.05802591 0.065922126 -0.06411445 -0.12085459
0.015660964 -0.047674276 -0.028514393 -0.06677065 0.022055222 -0.007881451 -0.010960951 -0.029808927
-0.09988992 -0.03781067 -0.082649246 -0.059431694 0.12812763 -0.010530151 -0.031945568 -0.08546368
0.033413593 -0.07754565 -0.026300702 -0.14532481 -0.053634517 -0.16434592 -0.058694888 -0.011656119
-0.06895874 -0.11956989 -0.024189858 -0.054254334 -0.03778324 -0.09752348 -0.0646651 -0.018908931
-0.05127905 0.023042537 -0.06430022 -0.099888794 -0.12874532 0.10945357 -0.123642154 0.03766145
-0.11643522 -0.16611665 -0.005084087 -0.0022578367 -0.11156995 0.15139978 0.05108429 -0.17159782
0.03715269 0.07379989 -0.06166022 -0.023606973 0.1379274 -0.091000915 0.011389597 0.02822601
0.063433036 0.03372966 -0.026103292 0.07500854 -0.102491565 -0.08466166 -0.018490512 -0.01805201
0.033818886 0.077643536 0.011756588 0.03270178 -0.007737343 0.0021967497 -0.016508037 0.022112207
-0.047730137 -0.130641 -0.09056784 -0.12476959 -0.017313758 -0.121866465 -0.13050857 -0.13735193
-0.031965133 0.025449721 0.065101735 -0.08966966 0.061329167 0.11981657 0.08713473 0.15157567
0.12299354 -0.091342844 -0.124604076 0.0034791464 -0.07157167 -0.10316494 -0.09358435 -0.044847764
-0.10105844 0.028189523 -0.073069446 0.06783716 0.023652952 0.031763405 -0.038771156 0.025640685
-0.08759623 -0.015359731 -0.16233051 -0.119810246 0.088303484 0.11987492 -0.043979526 0.0705463
00000000: 79e9 dd3d 8797 31bc d9b7 f33b d75b ef3c
00000010: 8fd7 a4bd 6053 38be 83d1 453d 1631 16bc
00000020: 369e a1b9 bf22 ef3c 0d6a de3d fae1 afbd
00000030: 133c e3bc 6222 8b3c 4fc5 76bc e868 dcbc
00000040: 8b1b 9e3d df7d 42bd bf89 e6bd f1ce b9bb
00000050: 4619 9dba 5f6e b6bb abe5 89bd 88f8 9dbd
00000060: 847c 6fbd 6182 18be 254d 39be ae21 533e
00000070: 7ee2 80bc 19d7 923c d562 043d 9ca5 abbc
00000080: 455c a0bc 516b df3b f33d f6bc aa52 93bd
00000090: 7ef1 a2ba 5ad5 a23d 486b dbbd 0424 8cbd
000000a0: e995 bebd cb4b 84bd b48e 8cbd 04f3 c0bd
000000b0: 5de6 9dbc 37c8 e3bc e2dc 6fbd e937 1abd
000000c0: c4da 27bc 3ed4 29bb 4f91 d8bc fb9b 9bbd
000000d0: 2feb 43bc d087 cabd 164d 1dbe a425 a63c
000000e0: 22e6 8d3d 2b4d 42bb 9ec8 11bc dbb5 febd
000000f0: 1c55 c7bc 4280 903d ef20 5ebd d43d d13d
00000100: 6150 2f3d 1910 563c 3927 113e f024 b13d
00000110: f022 7ebd d0f7 a63d ee0c 0bbd f896 34be
00000120: dbe0 a03d fa6f d53d 6026 bdbd 8dfb 5f3d
00000130: 8dff bdbc 5334 a0bd 24a0 7dbd 5ae1 853d
00000140: be1b 41be 8574 0b3e af10 e13c 3c5f 00be
00000150: f9a4 133c fa54 51bd 4a71 2fbd fa50 823d
00000160: 3e2f 39bd f139 f6bd e387 5dbb d317 5cbd
00000170: 46e7 bc3d 641e d63a 85a8 95bd 493c 90bd
00000180: 65b7 74bb cf62 51bc 6414 4f3d 5e51 443c
00000190: 6090 43bd eebe cfbd 8ddc e13d 958c 583c
000001a0: cd0c 93bc 2344 1a3e 37ee 0fbe 555b 473d
000001b0: 2569 03bd 8d66 96bc f4a4 193c 5588 eebd
000001c0: a0f5 823c ed74 2bbe e150 b8bd 5c9c 32be
000001d0: a98d 05be fd62 7d3d 79bc d93d 2812 a5bc
000001e0: 393a 073d 6da3 2cbe 370e 90bd 6639 d5bb
000001f0: 3520 f2bd d230 12be 5534 343b 271d 50bd
00000200: ff82 a53b 26d9 68bd 7cee e5bc 8725 0b3d
00000210: 69df 43bc 2677 843d 9c14 3cbd 183a cbbc
00000220: 2639 163d dd56 87bd 4c84 203d 45b6 2a3d
00000230: 94ac 6dbd 2e02 873d 704e 83bd 9c82 f7bd
00000240: 6c4b 803c 1a46 43bd 0497 e9bc 0dbf 88bd
00000250: 27ad b43c 3421 01bc 9095 33bc da31 f4bc
00000260: 1693 ccbd 5cdf 1abd 0244 a9bd a66e 73bd
00000270: e433 033e a886 2cbc 5bd9 02bd 9507 afbd
00000280: b1dc 083d 41d0 9ebd 9274 d7bc 07d0 14be
00000290: deaf 5bbd 4c4a 28be 0d6a 70bd 4ef9 3ebc
000002a0: 3d3a 8dbd 0fe1 f4bd cf29 c6bc cb39 5ebd
000002b0: 99c2 1abd 64ba c7bd 236f 84bd e7e6 9abc
000002c0: fb09 52bd b4c3 bc3c d5af 83bd 7f92 ccbd
000002d0: d0d5 03be 3129 e03d 1938 fdbd e542 1a3d
000002e0: 9775 eebd 7c1a 2abe 6a98 a6bb 37f8 13bb
000002f0: c97e e4bd 8b08 1b3e c33d 513d 57b7 2fbe
00000300: 6b2d 183d 6624 973d 6d8f 7cbd 6963 c1bc
00000310: d73c 0d3e b05e babd 6f9b 3a3c 3c3a e73c
00000320: 2ee9 813d 1d28 0a3d 92d6 d5bc 149e 993d
00000330: 19e7 d1bd 1863 adbd 6a79 97bc cfe1 93bc
00000340: ac85 0a3d 9303 9f3d b49e 403c 4df2 053d
00000350: 8a89 fdbb 58f7 0f3b dd3b 87bc a924 b53c
00000360: ad80 43bd c1c6 05be a27b b9bd 3387 ffbd
00000370: 95d5 8dbc 2095 f9bd 0aa4 05be fca5 0cbe
00000380: dfed 02bd ef7b d03c 0f54 853d baa4 b7bd
00000390: 4b34 7b3d 6462 f53d b173 b23d a736 1b3e
000003a0: 09e4 fb3d f511 bbbd 6c30 ffbd 6402 643b
000003b0: 2b94 92bd 2448 d3bd 27a9 bfbd 4ab2 37bd
000003c0: baf7 cebd b7ed e63c 6fa5 95bd 35ee 8a3d
000003d0: d6c3 c13c 581a 023d 81ce 1ebd 6a0c d23c
000003e0: a765 b3bd 62a7 7bbc f839 26be 135f f5bd
000003f0: 75d8 b43d fb80 f53d e023 34bd 947a 903d

bias f4 [32]
-0.08067456 -0.03258758 -0.1010764 -0.027719617 -0.081486784 -0.056248248 -0.0882795 -0.022416549
-0.068920605 -0.025348479 -0.036126826 0.01548102 -0.08669101 -0.058336552 -0.042250272 -0.0695364
-0.036322575 -0.033680778 -0.08534617 -0.06104131 -0.09259589 -0.08312535 -0.035374388 -0.015706405
-0.06317038 -0.048161693 -0.051634476 -0.051101957 -0.092121184 -0.0055518625 -0.045237422 -0.093242556
00000000: b438 a5bd 8e7a 05bd 2501 cfbd 4014 e3bc
00000010: 8be2 a6bd 9064 66bd e2cb b4bd e9a2 b7bc
00000020: 3f26 8dbd 9da7 cfbc b9f9 13bd 1ba4 7d3c
00000030: 0e8b b1bd 4ff2 6ebd 9f0e 2dbd 1a69 8ebd
00000040: fbc6 14bd dbf4 09bd f9c9 aebd 7406 7abd
00000050: eaa2 bdbd a03d aabd bce4 10bd b8aa 80bc
00000060: 795f 81bd 3245 45bd ac7e 53bd 4950 51bd
00000070: 08aa bcbd 66ec b5bb e04a 39bd f4f5 bebd

weight f4 [4, 32, 3, 3]
-0.092863284 -0.11223982 0.016579116 -0.07841136 0.035909634 0.02629826 0.0039322153 -0.10582324
0.04503673 0.018339876 -0.06306309 0.011190685 0.06839733 -0.070020765 0.094805986 0.004536169
0.15795773 -0.026955592 -0.0029309222 0.06364545 0.13164823 0.05678332 0.061760828 0.13726133
0.01824484 -0.035091277 0.08383494 0.0640827 -0.021605454 0.06499092 0.025166644 -0.0070989113
-0.003526907 0.051362168 0.09562327 -0.047200717 -0.0028781125 -0.09654851 -0.06268682 -0.06851781
-0.028866215 0.017110953 -0.06976263 -0.053160176 -0.06901862 -0.05930579 -0.023640614 -0.024042934
0.10839814 -0.038142383 -0.044269037 -0.047011014 -0.047506113 0.030155063 0.11138719 0.08539518
0.064911224 0.08452321 0.09012369 -0.039097033 0.049562354 0.029017184 0.043994293 0.04310897
0.084534556 0.014754189 -0.066942826 0.10796404 0.1218315 0.06738957 -0.008759928 -0.03168734
0.06297769 -0.086593606 -0.09404376 -0.06016334 -0.010243091 -0.034051035 0.01909237 -0.08579283
-0.048185937 0.080122046 0.014169384 0.08842045 0.0055609355 0.040520333 0.020610081 0.0055174786
-0.09563128 0.026348613 0.058763597 -0.10498465 0.025040304 0.11106548 0.053807307 0.022034524
0.1350592 0.21655048 0.06410735 0.015572744 0.13878632 -0.028744629 0.06055104 0.09900641
-0.017126726 0.033647798 0.14711621 0.09729429 0.083253205 0.037446998 0.02594418 -0.044369455
-0.02729114 0.022516452 -0.040893704 -0.03480753 0.12443028 0.056173213 -0.059375905 0.018607797
-0.104484014 0.06425587 -0.084805235 -0.046323273 -0.03632838 -0.07549238 0.056480348 0.051959816
0.13688748 -0.013733071 -0.039988317 0.021207828 0.06509786 0.07268319 0.013116684 0.06421863
-0.025075423 -0.024635023 0.096623525 0.049048953 0.12550531 0.049474437 0.106815316 0.04908496
0.13179246 0.07720763 0.08063729 0.13445847 0.09138545 0.04487541 0.030425243 0.02365999
-0.02237084 -0.094429135 -0.084109135 0.004383122 -0.035329107 -0.009025638 -0.05305146 -0.080771156
-0.11278972 0.012986197 0.12571366 0.00840095 4.4555294e-05 0.14985909 0.0722483 0.019914832
0.04742473 0.12889946 0.024464594 0.0026960545 -0.0328492 -0.15457007 0.033703543 -0.15473978
-0.1213257 0.0017506449 -0.1446825 0.029851234 -0.05928723 -0.08094936 -0.1219416 0.11461165
0.07693609 -0.020051068 0.10429204 0.078196816 -0.070161566 -0.037163574 -0.017910039 -0.02942929
-0.099562526 -0.075555526 -0.1031987 -0.14848731 0.026843678 -0.06437782 0.08194465 -0.011243413
0.07016919 0.13639793 0.013949142 0.08606072 0.06936513 0.06152674 0.018860243 -0.09564812
0.04985273 -0.00882352 0.012260877 -0.066095695 -0.08430588 -0.06212948 -0.060806546 -0.12495926
-0.060930554 -0.02032484 -0.05541053 -0.03965177 -0.03513785 -0.008250159 -0.07396594 -0.022095026
0.03683189 0.004685459 0.02469965 0.009920014 0.019745039 0.0725967 0.09828394 0.0798989
0.17206174 0.07628507 -0.1499107 -0.070363246 -0.007862614 0.0062617077 0.045618806 -0.07344303
-0.10881924 0.0048250635 0.02260194 -0.028369404 -0.073437974 0.03326714 0.0181859 0.053789906
0.21009378 0.0041249935 0.028705005 0.085290305 0.030709391 -0.08131312 0.003194762 0.06789626
00000000: 1b2f bebd fedd e5bd edd0 873c 2396 a0bd
00000010: fb15 133d 736f d73c d0d9 803b dbb9 d8bd
00000020: 6f78 383d 823d 963c 3927 81bd 2359 373c
00000030: e613 8c3d 0c67 8fbd a429 c23d 25a4 943b
00000040: acbf 213e f9d1 dcbc b714 40bb 8c58 823d
00000050: cbce 063e a095 683d ecf8 7c3d 3c8e 0c3e
00000060: 3476 953c dfbb 0fbd a7b1 ab3d ca3d 833d
00000070: ecfd b0bc f619 853d 472a ce3c fc9d e8bb
00000080: ae23 67bb 2361 523d 22d6 c33d 8a55 41bd
00000090: b79e 3cbb 3abb c5bd f361 80bd 1153 8cbd
000000a0: d778 ecbc 452c 8c3c b6df 8ebd 7cbe 59bd
000000b0: a259 8dbd a1ea 72bd f6a9 c1bc b0f5 c4bc
000000c0: d8ff dd3d 303b 1cbd 7353 35bd 9f8e 40bd
000000d0: c595 42bd c007 f73c f81e e43d abe3 ae3d
000000e0: 2df0 843d 811a ad3d c592 b83d 3624 20bd
000000f0: e501 4b3d 72b5 ed3c 5c33 343d 0893 303d
00000100: 7420 ad3d 8ebb 713c 5219 89bd 401c dd3d
00000110: cb82 f93d 8b03 8a3d cd85 0fbc 96ca 01bd
00000120: 72fa 803d fd57 b1bd 049a c0bd d66d 76bd
00000130: a3d2 27bc 1979 0bbd 9a67 9c3c 27b4 afbd
00000140: 9e5e 45bd 0717 a43d b426 683c c815 b53d
00000150: 8238 b63b a6f8 253d 79d6 a83c f7cb b43b
00000160: 55da c3bd 0cd9 d73c 19b2 703d 3102 d7bd
00000170: 5321 cd3c 4c76 e33d 0d65 5c3d bf81 b43c
00000180: f54c 0a3e 69bf 5d3e b74a 833d d324 7f3c
00000190: 001e 0e3e db79 ebbc 5e04 783d dfc3 ca3d
000001a0: 594d 8cbc 46d2 093d a2a5 163e 3b42 c73d
000001b0: a880 aa3d 0662 193d e488 d43c bfbc 35bd
000001c0: ab91 dfbc 6c74 b83c 2880 27bd 5792 0ebd
000001d0: 4dd5 fe3d e215 663d 2634 73bd 616f 983c
000001e0: b7fb d5bd 9598 833d 5eae adbd 79bd 3dbd
000001f0: 11cd 14bd c09b 9abd f057 673d d1d3 543d
00000200: 3b2c 0c3e ad00 61bc caca 23bd 0abc ad3c
00000210: 0752 853d edda 943d 5ce7 563c 0f85 833d
00000220: f96a cdbc 63cf c9bc 8ee2 c53d 8ee7 483d
00000230: 7784 003e b5a5 4a3d fdc1 da3d 500d 493d
00000240: 9af4 063e 091f 9e3d 2a25 a53d 7baf 093e
00000250: 4b28 bb3d 47cf 373d 5c3e f93c 98d2 c13c
00000260: 0d43 b7bc 1064 c1bd 6941 acbd 4ba0 8f3b
00000270: 41b5 10bd 45e0 13bc 7d4c 59bd 596b a5bd
00000280: 4cfe e6bd 0fc4 543c 15bb 003e 23a4 093c
00000290: e2e0 3a38 a974 193e ebf6 933d 6e24 a33c
000002a0: 6f40 423d 38fe 033e f969 c83c 4ab0 303b
000002b0: e28c 06bd 9e47 1ebe ba0c 0a3d 1b74 1ebe
000002c0: 9c79 f8bd e575 e53a a627 14be 938a f43c
000002d0: 2bd7 72bd c7c8 a5bd 85bc f9bd 83b9 ea3d
000002e0: ab90 9d3d 2342 a4bc 1197 d53d a725 a03d
000002f0: deb0 8fbd d538 18bd 13b8 92bc b215 f1bc
00000300: 70e7 cbbd dbbc 9abd d759 d3bd 0f0d 18be
00000310: 46e7 db3c 85d8 83bd 99d2 a73d 4b36 38bc
00000320: ddb4 8f3d e6ab 0b3e f18a 643c 9a40 b03d
00000330: 4e0f 8e3d 7703 7c3d cc80 9a3c 29e3 c3bd
00000340: 6032 4c3d 8690 10bc d8e1 483c 2e5d 87bd
00000350: 90a8 acbd 7b7b 7ebd 4910 79bd a4ea ffbd
00000360: 5192 79bd 4780 a6bc 27f6 62bd e569 22bd
00000370: b5ec 0fbd ad2b 07bc 747b 97bd a100 b5bc
00000380: 09dd 163d 7b88 993b ec56 ca3c 8e87 223c
00000390: 59c0 a13c 94ad 943d 1749 c93d 09a2 a33d
000003a0: f430 303e 593b 9c3d 3182 19be 9b1a 90bd
000003b0: 31d2 00bc 032f cd3b c9da 3a3d 4d69 96bd
000003c0: 9fdc debd 911b 9e3b b427 b93c f466 e8bc
000003d0: a666 96bd 2043 083d 99fa 943c ce52 5c3d
000003e0: d322 573e f42a 873b c226 eb3c afac ae3d
000003f0: 4392 fb3c 7e87 a6bd 365f 513b 320d 8b3d

bias f4 [4]
-0.008110805 0.0393168 0.03616251 -0.03068668
00000000: 2fe3 04bc a70a 213d 241f 143d a262 fbbc
