super_resolution/checkpoint_scale2/model_epoch_3.pth (torch_old, 247001 bytes, 8 tensors)

weight f4 [64, 1, 5, 5]
0.2195329 -0.09434704 -0.15611959 -0.14694795 0.21650556 -0.039442934 -0.24812736 -0.21429628
0.026428796 -0.18275045 -0.4338714 -0.20370562 -0.29759797 -0.16770042 -0.028694993 -0.24868402
-0.13772604 -0.060762595 -0.26657233 0.121701024 0.037646238 0.02891106 -0.13822143 0.029030092
0.09721033 -0.14464231 -0.101165965 -0.27231342 0.06998292 -0.15585837 -0.2873645 -0.0892093
-0.20338541 0.05748056 -0.027672317 -0.11715556 -0.061458193 -0.23409505 -0.1543558 0.08968636
0.14065333 -0.2525156 0.024720283 0.27395627 -0.18010314 -0.10443186 -0.112162456 -0.15403974
-0.019608898 -0.05569716 -0.32340416 0.09745985 -0.026822515 0.107656196 0.15531516 -0.24996755
-0.0120032905 -0.06500908 0.07839764 -0.4375725 0.049430173 0.040171314 0.06550486 -0.06502483
-0.013797245 -0.18044433 -0.20973387 -0.15126596 -0.081515364 -0.19733371 -0.13304844 0.011140884
-0.15942459 0.16744049 -0.105955765 -0.2063269 -0.18208064 0.07863507 -0.08029256 -0.233402
0.050812926 0.08351131 -0.2782074 -0.29728034 -0.38739726 0.084333 -0.055227175 -0.20347527
0.009088947 -0.35176608 -0.13027552 0.23783632 0.07281358 -0.09133408 -0.12754959 -0.10996632
-0.28409326 -0.094302714 -0.0013797893 -0.16350183 -0.1739349 0.23827451 0.21222022 -0.1487583
0.11077859 0.047882363 -0.30657056 0.0068739187 0.05150336 -0.0031172985 -0.3914775 0.02217831
0.06957737 -0.1410216 -0.18518251 -0.011660596 -0.040344886 -0.2863294 0.25525767 0.08839997
-0.25796765 -0.04857766 -0.0911549 -0.32484978 -0.20861705 -0.07939781 -0.10676003 0.004807111
-0.018134676 -0.060395077 0.08272176 0.25943565 0.15791245 0.11345622 -0.11594741 -0.06305663
-0.4086549 0.047867857 0.36219653 -0.29048645 -0.0006160538 -0.12207682 -0.5980762 -0.13188641
-0.021500032 -0.10659031 -0.025729645 -0.23119049 0.1830614 0.23132311 0.016861511 -0.068744615
0.22234727 -0.23253953 -0.25347605 -0.100717045 0.20908946 0.18842725 0.059900444 0.09508781
0.14565831 0.10621491 -0.41887137 -0.3965156 0.25971806 0.10846926 -0.0687472 -0.20423484
-0.32023418 -0.016619174 -0.22885896 0.25061193 -0.2676106 0.010777129 -0.05591603 -0.11405154
-0.007010244 0.11527472 -0.13955301 -0.28623787 0.029011248 -0.14361012 0.4899211 0.101296686
0.2846545 0.05702978 0.17993933 0.0076159574 0.032758817 -0.06627445 -0.1261493 -0.007906297
-0.2580069 -0.2521865 -0.1486795 0.32169583 -0.37995324 0.15573345 -0.23834784 -0.17018686
0.22169806 0.19057043 0.12952939 -0.2503122 -0.0014714099 -0.042140372 0.31296748 -0.3346181
0.17266893 -0.028336676 -0.34603068 0.36021194 -0.12820125 -0.22935805 -0.25325432 -0.02399808
-0.0063788258 0.14594091 -0.19638683 0.16684788 0.5305742 0.0068438435 -0.06831853 0.24715558
0.19517922 0.23377532 -0.29291382 0.15491444 -0.16382016 0.16135345 0.21126042 0.18108065
-0.1759385 -0.00307671 -0.18410945 0.10278878 0.1024705 0.21541435 -0.27845803 -0.08567488
-0.02489945 -0.09053918 -0.01971769 0.14234115 -0.13955402 -0.038208 -0.233167 0.18749599
-0.20731229 -0.048280403 -0.16905376 -0.1266824 -0.19641355 -0.5547645 0.09465672 -0.041795965
00000000: 3ccd 603e 0539 c1bd d0dd 1fbe 8679 16be
00000010: a2b3 5d3e ea8e 21bd 1915 7ebe 7c70 5bbe
00000020: 3481 d83c ef22 3bbe 6424 debe 3598 50be
00000030: c35e 98be a9b9 2bbe c311 ebbc 06a7 7ebe
00000040: 0e08 0dbe 33e2 78bd 2b7c 88be 633e f93d
00000050: f132 1a3d e3d6 ec3c eb89 0dbe 84d0 ed3c
00000060: 3616 c73d 1d1d 14be 1a30 cfbd aa6c 8bbe
00000070: 3553 8f3d 5699 1fbe 7121 93be 5eb3 b6bd
00000080: 4444 50be bc70 6b3d 0eb1 e2bc 41ef efbd
00000090: 96bb 7bbd 9db6 6fbe 720f 1ebe 7bad b73d
000000a0: 6d07 103e ba49 81be 3182 ca3c ff43 8c3e
000000b0: f56c 38be 5fe0 d5bd 6eb5 e5bd 98bc 1dbe
000000c0: d7a2 a0bc b522 64bd 3b95 a5be 0899 c73d
000000d0: e4ba dbbc da7a dc3d f00a 1f3e 7ef7 7fbe
000000e0: 73a9 44bc 7b23 85bd f18e a03d 8109 e0be
000000f0: 4b77 4a3d ad8a 243d 6927 863d bd2b 85bd
00000100: d70d 62bc 66c6 38be 7ac4 56be 77e5 1abe
00000110: 87f1 a6bd d911 4abe da3d 08be 4188 363c
00000120: 3340 23be 8575 2b3e 56ff d8bd 5c47 53be
00000130: 5973 3abe 6c0b a13d 6d70 a4bd ef00 6fbe
00000140: 3721 503d fa07 ab3d 3371 8ebe 2135 98be
00000150: ef58 c6be c8b6 ac3d e435 62bd d25b 50be
00000160: cfe9 143c af1a b4be f266 05be 5d8b 733e
00000170: 491f 953d 5d0d bbbd 5c9c 02be 0636 e1bd
00000180: ac74 91be c821 c1bd 0cda b4ba 066d 27be
00000190: fe1b 32be 3cfe 733e 4250 593e 1954 18be
000001a0: e3df e23d 4c20 443d d1f6 9cbe 9c3e e13b
000001b0: 30f5 523d 974b 4cbb bd6f c8be 4aaf b53c
000001c0: 957e 8e3d f767 10be 7ca0 3dbe 160c 3fbc
000001d0: ae40 25bd c499 92be 22b1 823e 0b0b b53d
000001e0: 5614 84be 5ef9 46bd 6caf babd b652 a6be
000001f0: b59f 55be 529b a2bd 01a5 dabd f884 9d3b
00000200: 2c8f 94bc d460 77bd 076a a93d c0d4 843e
00000210: cdb3 213e bc5b e83d d675 edbd d623 81bd
00000220: 373b d1be 1611 443d d371 b93e a4ba 94be
00000230: ac7e 21ba 6903 fabd 861b 19bf 3b0d 07be
00000240: d620 b0bc 054c dabd fac6 d2bc 33bd 6cbe
00000250: 7374 3b3e f7df 6c3e 2721 8a3c fac9 8cbd
00000260: 01af 633e d81e 6ebe 9dc7 81be bd44 cebd
00000270: 8c1b 563e 13f3 403e 2b5a 753d 66bd c23d
00000280: 7427 153e 3487 d93d 4f76 d6be 1804 cbbe
00000290: c4f9 843e 2225 de3d 55cb 8cbd f022 51be
000002a0: bcf5 a3be ef24 88bc 015a 6abe 3550 803e
000002b0: 4204 89be 8e92 303c 3508 65bd db93 e9bd
000002c0: 30b6 e5bb 2715 ec3d fce6 0ebe c58d 92be
000002d0: ffa8 ed3c 880e 13be f0d6 fa3e a374 cf3d
000002e0: 3cbe 913e 0f98 693d 0442 383e 488f f93b
000002f0: 1c2e 063d e6ba 87bd 482d 01be 6a89 01bc
00000300: 7b19 84be 971e 81be 703f 18be 51b5 a43e
00000310: 3b89 c2be 9778 1f3e 7511 74be 7745 2ebe
00000320: d104 633e e524 433e 5aa3 043e ec28 80be
00000330: 53dc c0ba 629b 2cbd 463d a03e 1053 abbe
00000340: 20d0 303e 5122 e8bc ef2a b1be b36d b83e
00000350: 3047 03be d6dc 6abe 8daa 81be 9f97 c4bc
00000360: 7805 d1bb 8971 153e a119 49be 2cda 2a3e
00000370: b6d3 073f 5242 e03b 96ea 8bbd 5a16 7d3e
00000380: 10dd 473e cc62 6f3e cdf8 95be e4a1 1e3e
00000390: 79c0 27be d739 253e a754 583e 356d 393e
000003a0: 3929 34be a1a2 49bb 3087 3cbe ed82 d23d
000003b0: 0edc d13d 9495 5c3e 0d92 8ebe 5076 afbd
000003c0: eef9 cbbc 9b6c b9bd fe86 a1bc e1c1 113e
000003d0: 40e7 0ebe fe7f 1cbd 54c3 6ebe f3fe 3f3e
000003e0: ac49 54be acc1 45bd 6e1c 2dbe 08b9 01be
000003f0: a220 49be 0c05 0ebf 62db c13d 3f32 2bbd

bias f4 [64]
0.020259907 0.026640005 -0.22388473 -0.0843084 -0.09417687 0.0648804 0.0998075 -0.015240881
-0.16723235 -0.2209607 0.13662311 0.018905824 0.07634585 -0.12920064 -0.15107088 0.04988411
-0.04721197 -0.006349844 -0.22683631 0.124583505 0.04591385 0.15701705 0.07133155 0.042350437
-0.039799947 -0.21065184 -0.18281195 -0.06597147 0.07554166 -0.042949393 0.05649504 -0.033585582
-0.09776081 -0.028287213 -0.04632854 -0.14335562 -0.0523803 0.086366914 0.09788191 -0.070568554
-0.21039073 0.10786021 -0.11823856 -0.03891645 -0.003357201 -0.06722033 -0.024778953 0.08466292
0.044360366 -0.23435321 -0.15053625 -0.07473357 -0.005060242 0.03719132 -0.12291119 -0.21041863
0.122406885 -0.18963476 -0.21709733 0.1174293 0.1466093 0.025632357 -0.18287632 -0.16449851
00000000: 1bf8 a53c 243c da3c 0a42 65be e2a9 acbd
00000010: cedf c0bd 04e0 843d e067 cc3d e3b4 79bc
00000020: f53e 2bbe 8643 62be eee6 0b3e 63e0 9a3c
00000030: 375b 9c3d 2c4d 04be 53b2 1abe 4853 4c3d
00000040: 5761 41bd 5a12 d0bb c747 68be a325 ff3d
00000050: 2910 3c3d 14c9 203e 4716 923d a777 2d3d
00000060: 4505 23bd 1eb5 57be 0e33 3bbe 0d1c 87bd
00000070: 96b5 9a3d b4eb 2fbd 5867 673d 0991 09bd
00000080: d236 c8bd 96ba e7bc ffc2 3dbd d1cb 12be
00000090: ba8c 56bd 23e1 b03d 5076 c83d 3f86 90bd
000000a0: ab70 57be d0e5 dc3d 0f27 f2bd db66 1fbd
000000b0: 7d04 5cbb d0aa 89bd 3bfd cabc c163 ad3d
000000c0: 37b3 353d 4afa 6fbe 2d26 1abe ea0d 99bd
000000d0: 63d0 a5bb ed55 183d ddb8 fbbd fb77 57be
000000e0: 76b0 fa3d 9d2f 42be c34e 5ebe c67e f03d
000000f0: c020 163e f3fa d13c ee43 3bbe 4c72 28be

weight f4 [64, 64, 3, 3]
-0.0006760935 -0.03235187 -0.10005024 0.011489634 -0.06340271 0.01819906 -0.0005475004 -0.023293922
-0.07386505 -0.08801366 0.014854427 -0.13899541 0.011278259 -0.098024726 -0.09397731 -0.081523106
-0.04607199 -0.11341251 -0.118476026 -0.11320388 -0.085100636 -0.12622225 -0.12641333 -0.05965799
-0.046542153 -0.10665425 -0.12903589 -0.015275992 -0.03502896 -0.12009014 0.10907649 0.11291776
-0.0074078217 -0.052327704 -0.060799934 -0.009441064 -0.14371505 0.023211993 -0.103404544 -0.03947189
0.07796095 -0.054192558 0.05912383 0.079037346 -0.008774301 -0.1222263 -0.09247648 -0.07672736
0.01624694 -0.10335731 -0.012039699 -0.13800098 -0.07634728 -0.023695387 -0.06762266 -0.12333384
-0.04995937 -0.076577716 0.021823015 -0.11473734 0.054155935 0.004298261 -0.06865309 -0.06774658
-0.07446618 0.035320092 0.013416146 -0.008138534 -0.0876934 -0.10662204 -0.07184159 -0.028416075
-0.16673447 -0.049293287 -0.01317514 -0.03030398 -0.08117694 -0.04629388 -0.018061627 -0.13914861
0.022113586 -0.07621483 0.027211044 -0.032299034 0.04006069 -0.12210049 -0.10927084 -0.075706504
-0.10562787 -0.04322279 -0.06167525 -0.045027897 -0.09203735 -0.10448453 -0.06306889 0.0044548265
-0.17565922 -0.045551736 -0.06325029 0.031992096 -0.019134022 0.08825576 0.0809599 -0.010822774
-0.068598844 -0.029135859 -0.07040743 0.07031236 0.007075678 0.0110233035 -0.006726508 -0.031572435
-0.050462928 -0.014395809 0.082063556 0.040407825 -0.05923312 -0.09694887 -0.10677206 0.084782824
-0.08429883 -0.017465513 -0.13728726 -0.21032251 -0.107818685 -0.13918859 -0.008472014 0.041513972
-0.052875668 -0.1761092 0.028645212 -0.057788264 -0.08677854 0.012632476 -0.08524383 -0.06789888
-0.021514196 0.0038102902 -0.07359073 -0.04464402 0.03924284 -0.05811191 -0.005268891 -0.0063481345
-0.06815192 -0.19611293 -0.006893932 -0.031625897 -0.13269943 -0.11403912 -0.114816844 -0.039900843
-0.08637797 -0.027830932 -0.0064294813 -0.09477283 -0.15688731 -0.064908355 -0.008014959 -0.14350863
-0.045448814 -0.14248796 0.037900858 -0.15647013 -0.060418293 -0.023144294 -0.10295676 -0.09110348
-0.06107549 0.011144965 -0.053314023 -0.10736559 -0.08586612 -0.044552077 -0.0039034563 -0.038113333
-0.050568245 -0.09624014 -0.024842693 0.01990324 -0.015922878 -0.0039327093 0.019376092 -0.06578775
-0.029842995 -0.02719977 -0.085713916 -0.026208157 -0.0073380037 0.001873945 0.037540797 -0.08223522
0.017659865 -0.058195837 0.057387266 -0.12172307 -0.10734156 -0.034624044 -0.062346026 -0.047468845
-0.07591537 -0.055584412 -0.010430687 -0.09562053 -0.09553737 0.041083615 0.029579755 -0.079216585
-0.023688959 -0.07126748 -0.083109826 -0.08974676 -0.089389205 -0.09162393 -0.055894893 0.009997102
-0.105448164 -0.08401563 -0.1480258 -0.031190628 0.022172965 -0.13632835 -0.087504305 -0.08180423
-0.021599393 -0.07965974 0.041345455 -0.04768813 -0.04783483 -0.03866678 -0.11856873 -0.052974936
-0.04577257 -0.07688862 0.0968772 -0.035985973 0.00957725 0.011761799 0.0032707439 -0.11797441
0.047244597 -0.043567788 0.0738805 0.009061835 0.043711245 -0.066481285 -0.09535592 -0.107223704
0.03993478 0.030704288 0.0028641976 -0.09518028 -0.10763107 -0.13875291 -0.14284922 -0.041833818
00000000: de3b 31ba 6583 04bd 24e7 ccbd 053f 3c3c
00000010: 48d9 81bd 3216 953c 2186 0fba e5d2 bebc
00000020: 8f46 97bd 8140 b4bd fc5f 733c d054 0ebe
00000030: 72c8 383c 30c1 c8bd 2d77 c0bd 96f5 a6bd
00000040: fcb5 3cbd d144 e8bd 8fa3 f2bd 70d7 e7bd
00000050: 3e49 aebd 6840 01be 7f72 01be f05b 74bd
00000060: fca2 3ebd 8b6d dabd fc21 04be 2848 7abc
00000070: 877a 0fbd d2f1 f5bd 7f63 df3d 6d41 e73d
00000080: 50bd f2bb 9355 56bd 5a09 79bd b1ae 1abc
00000090: 0a2a 13be 1427 be3c c3c5 d3bd 47ad 21bd
000000a0: fea9 9f3d 04f9 5dbd d42b 723d 55de a13d
000000b0: 16c2 0fbc c851 fabd 4f64 bdbd 3c23 9dbd
000000c0: 4d18 853c ffac d3bd 2842 45bc 2150 0dbe
000000d0: f65b 9cbd d41c c2bc c07d 8abd 7496 fcbd
000000e0: 32a2 4cbd c7d4 9cbd 2ec6 b23c 69fb eabd
000000f0: 9dd2 5d3d 6dd8 8c3b fe99 8cbd b8be 8abd
00000100: b981 98bd cdab 103d 65cf 5b3c 7c57 05bc
00000110: 9998 b3bd a85c dabd af21 93bd d4c8 e8bc
00000120: 71bc 2abe c2e7 49bd 8bdc 57bc 0d40 f8bc
00000130: 1840 a6bd a79e 3dbd faf5 93bc f97c 0ebe
00000140: 8d27 b53c 8516 9cbd b2e9 de3c fe4b 04bd
00000150: ae16 243d d20f fabd 64c9 dfbd 030c 9bbd
00000160: 6d53 d8bd 610a 31bd 309f 7cbd 2c6f 38bd
00000170: 147e bcbd fcfb d5bd 432a 81bd cbf9 913b
00000180: 03e0 33be 7594 3abd 5e89 81bd 250a 033d
00000190: f4be 9cbc 70bf b43d 4ece a53d 0152 31bc
000001a0: 8d7d 8cbd 53ae eebc c531 90bd edff 8f3d
000001b0: 17db e73b 169b 343c 0a6a dcbb 1952 01bd
000001c0: 37b2 4ebd 66dc 6bbc f010 a83d ad82 253d
000001d0: 6e9e 72bd 218d c6bd 4fab dabd 9ea2 ad3d
000001e0: dda4 acbd d613 8fbc 0895 0cbe c95e 57be
000001f0: 0bd0 dcbd 7487 0ebe 34ce 0abc 8e0a 2a3d
00000200: 2894 58bd f855 34be 5da9 ea3c 63b3 6cbd
00000210: f2b8 b1bd 72f8 4e3c 5194 aebd 910e 8bbd
00000220: 8a3e b0bc 10b6 793b bdb6 96bd a6dc 36bd
00000230: 1abd 203d c106 6ebd a9a6 acbb 0304 d0bb
00000240: 3c93 8bbd d4d1 48be 7ee6 e1bb 288a 01bd
00000250: 5ce2 07be 588d e9bd 1825 ebbd 116f 23bd
00000260: efe6 b0bd b2fd e3bc 66ae d2bb 4218 c2bd
00000270: 11a7 20be acee 84bd 2d51 03bc edf3 12be
00000280: 8928 3abd 5de8 11be ee3d 1b3d b539 20be
00000290: 2c79 77bd 1a99 bdbc feda d2bd 7694 babd
000002a0: 4b2a 7abd 5f99 363c ce5f 5abd 7ee2 dbbd
000002b0: 94da afbd 3d7c 36bd 21d1 7fbb ba1c 1cbd
000002c0: a620 4fbd 8d19 c5bd e782 cbbc 1f0c a33c
000002d0: b270 82bc f5dd 80bb 9cba 9e3c babb 86bd
000002e0: 4c79 f4bc 0dd2 debc c78a afbd 7db2 d6bc
000002f0: a373 f0bb 299f f53a 61c4 193d f06a a8bd
00000300: 6cab 903c c25e 6ebd e90e 6b3d f249 f9bd
00000310: e4d5 dbbd f1d1 0dbd 8c5e 7fbd b16e 42bd
00000320: 8479 9bbd 7bac 63bd 79e5 2abc b2d4 c3bd
00000330: 19a9 c3bd 4b47 283d 3e51 f23c 4e3c a2bd
00000340: 590f c2bc aff4 91bd 7c35 aabd 26cd b7bd
00000350: b011 b7bd 54a5 bbbd 0bf2 64bd e3ca 233c
00000360: 35f5 d7bd 6310 acbd 1394 17be 7d83 ffbc
00000370: 14a4 b53c a999 0bbe 7535 b3bd fa88 a7bd
00000380: 36f1 b0bc a524 a3bd da59 293d a154 43bd
00000390: 74ee 43bd 0f61 1ebd 2ad4 f2bd 3ffc 58bd
000003a0: 057c 3bbd c877 9dbd 8e67 c63d 0766 13bd
000003b0: e6e9 1c3c 90b4 403c fa59 563b 919c f1bd
000003c0: 8d83 413d 2374 32bd a94e 973d 1778 143c
000003d0: 900a 333d 5727 88bd f749 c3bd 1a98 dbbd
000003e0: a792 233d 8f87 fb3c 43b5 3b3b e1ed c2bd
000003f0: ae6d dcbd 3e15 0ebe 1147 12be f059 2bbd

bias f4 [64]
-0.02811589 -0.03842756 -0.03575163 -0.042364746 -0.045957346 -0.026460156 -0.07265538 -0.085706934
-0.030946981 -0.08559346 -0.063051805 -0.015933823 0.018968554 -0.06839308 -0.040452756 -0.05278341
-0.06428364 0.0044252207 0.03557993 -0.035952672 -0.05843742 -0.09334168 -0.07014734 -0.028588763
-0.069943346 -0.029890789 -0.07520833 -0.044789582 -0.043503515 -0.027827092 -0.07033802 -0.07130136
-0.041602734 -0.006647176 -0.01174673 -0.091124915 -0.049446493 -0.025744801 -0.09005773 0.028359395
-0.026704786 -0.08570003 -0.019383369 -0.035571508 -0.07132676 -0.06974877 -0.065717936 -0.028384848
-0.056543056 -0.06433052 -0.055771522 -0.027304376 -0.04865478 -0.006310689 -0.07702715 -0.025027972
-0.067883804 -0.0153937945 -0.018045165 -0.04394074 -0.022340542 -0.006272988 -0.055241384 -0.07038894
00000000: 4c53 e6bc 3866 1dbd 4d70 12bd a886 2dbd
00000010: c53d 3cbd f8c2 d8bc 58cc 94bd 1e87 afbd
00000020: 8684 fdbc a04b afbd 4e21 81bd a687 82bc
00000030: f163 9b3c ac11 8cbd cab1 25bd 6b33 58bd
00000040: 24a7 83bd 7101 913b 43bc 113d 1c43 13bd
00000050: 135c 6fbd ec29 bfbd 69a9 8fbd fb32 eabc
00000060: 753e 8fbd 87dd f4bc d306 9abd 4875 37bd
00000070: be30 32bd a4f5 e3bc 610d 90bd 7306 92bd
00000080: a167 2abd 8ed0 d9bb 5b75 40bc b39f babd
00000090: 6888 4abd c3e6 d2bc 3070 b8bd f651 e83c
000000a0: ffc3 dabc 7f83 afbd dfc9 9ebc 6eb3 11bd
000000b0: c413 92bd 71d8 8ebd 2097 86bd 5787 e8bc
000000c0: b199 67bd b8bf 83bd ae70 64bd 6dad dfbc
000000d0: 3c4a 47bd e5c9 cebb 69c0 9dbd 7607 cdbc
000000e0: aa06 8bbd 4136 7cbc 74d3 93bc 35fb 33bd
000000f0: 8303 b7bc a38d cdbb ca44 62bd 1428 90bd

weight f4 [32, 64, 3, 3]
0.10867399 -0.010145373 0.007466747 0.031560514 -0.07833483 -0.17758624 0.048554722 -0.008288771
0.001823176 0.02856662 0.105333015 -0.08442143 -0.028428264 0.013716342 -0.013786864 -0.027212141
0.073933095 -0.046699144 -0.10898076 -0.0020381096 0.0024524052 -0.0019844817 -0.06370095 -0.07348116
-0.05489387 -0.1453076 -0.17730673 0.20290549 -0.012554747 0.021114925 0.029043637 -0.017787866
-0.016393352 0.0035404314 -0.02694674 -0.068792515 0.0024037322 0.08314422 -0.103485025 -0.0647829
-0.08942732 -0.060945217 -0.06498727 -0.09058657 -0.015624217 -0.024236418 -0.05499804 -0.03400231
-0.0066819675 0.0009630461 -0.022788456 -0.072422124 -0.008409327 -0.095243655 -0.1529705 0.020848496
0.06996337 -0.001892906 -0.008334389 -0.122885294 -0.024332576 0.07055713 -0.052293576 0.0988934
0.039530884 0.016117092 0.13847587 0.08322572 -0.05911343 0.07825215 -0.03721825 -0.17360519
0.075307496 0.10101845 -0.089009844 0.051436726 -0.0263958 -0.07478727 -0.06516432 0.062172595
-0.18494059 0.13291165 0.029384544 -0.12238616 0.0057366737 -0.048571423 -0.03987465 0.0603563
-0.042811602 -0.11726269 -0.0033802919 -0.053733658 0.092237994 0.0016335961 -0.07307533 -0.070427485
-0.0037340757 -0.012779905 0.050556555 0.008720677 -0.044657815 -0.09845134 0.10702265 0.016317962
-0.014916512 0.147388 -0.13756771 0.051592775 -0.028445728 -0.014744186 0.013031231 -0.1128336
0.01959924 -0.16378272 -0.08636263 -0.1708185 -0.1267684 0.058647666 0.109401084 -0.01701653
0.029789811 -0.16573691 -0.06726531 -0.0097325295 -0.1156524 -0.13976195 0.0056564566 -0.04817149
0.0050516617 -0.054529365 -0.025982007 0.033993986 -0.013248341 0.06466102 -0.045728687 -0.022267066
0.039856378 -0.06308294 0.037520863 0.04484767 -0.055028684 0.06368973 -0.060951877 -0.11796996
0.019307518 -0.044027742 -0.024867747 -0.06312406 0.02570178 -0.004234808 -0.007314723 -0.026162727
-0.0962436 -0.034167413 -0.079004444 -0.05578426 0.13177106 -0.0068853744 -0.028298177 -0.081820056
0.037058476 -0.07389836 -0.027549414 -0.14255425 -0.051675282 -0.1607021 -0.05502637 -0.008003501
-0.06539256 -0.11581941 -0.02050225 -0.050619163 -0.034149837 -0.0938731 -0.06103027 -0.015276018
-0.04762778 0.026675414 -0.060670014 -0.0962379 -0.12515464 0.11300413 -0.11998989 0.04124813
-0.11289229 -0.16246559 -0.001501117 0.0012780264 -0.10791897 0.14813492 0.047819033 -0.16891868
0.033888012 0.070535265 -0.058782876 -0.026872141 0.13466296 -0.08851773 0.015035705 0.031873707
0.06708048 0.037375595 -0.022455717 0.078655906 -0.09884548 -0.08101417 -0.014843307 -0.017903997
0.033818886 0.077643536 0.011772164 0.03270178 -0.007737343 0.002213071 -0.016508037 0.022112207
-0.048221998 -0.13048416 -0.090102136 -0.12243676 -0.014586336 -0.11911595 -0.13104169 -0.13475028
-0.029431513 0.022171767 0.0618252 -0.086998165 0.058051232 0.11653996 0.089392275 0.14829773
0.119716875 -0.08894892 -0.121679984 0.006666034 -0.06866302 -0.10032777 -0.09043634 -0.04180576
-0.10002306 0.03126876 -0.070073515 0.0712529 0.027119204 0.035130326 -0.035246637 0.029416671
-0.084081076 -0.012231724 -0.15856493 -0.11643781 0.085032 0.11661515 -0.042488415 0.06727513
00000000: 7890 de3d c738 26bc 9dab f43b 9945 013d
00000010: 036e a0bd 2bd9 35be 51e1 463d a0cd 07bc
00000020: a3f7 ee3a 8b04 ea3c d6b8 d73d 25e5 acbd
00000030: 64e2 e8bc 82ba 603c 4ce2 61bc ffeb debc
00000040: 3c6a 973d 9a47 3fbd 4e31 dfbd ce91 05bb
00000050: 88b8 203b 140e 02bb a575 82bd 4a7d 96bd
00000060: 65d8 60bd 84cb 14be e58f 35be 75c6 4f3e
00000070: 6db2 4dbc 35f9 ac3c ecec ed3c dcb7 91bc
00000080: 5a4b 86bc 9506 683b 69bf dcbc 17e3 8cbd
00000090: ef87 1d3b 8447 aa3d f5ef d3bd e6ac 84bd
000000a0: ac25 b7bd b1a1 79bd 0c18 85bd 7485 b9bd
000000b0: b7fc 7fbc 748b c6bc a045 61bd 0246 0bbd
000000c0: 68f4 dabb ee74 7c3a dbae babc 0d52 94bd
000000d0: 46c7 09bc 1b0f c3bd 4ca4 1cbe 77ca aa3c
000000e0: f548 8f3d 631b f8ba f68c 08bc 49ab fbbd
000000f0: 1c55 c7bc 4280 903d ca31 56bd 9f88 ca3d
00000100: 23eb 213d fe07 843c 9ecc 0d3e 3f72 aa3d
00000110: ed20 72bd aa42 a03d 2a72 18bd 8fc5 31be
00000120: d13a 9a3d c3e2 ce3d cb4a b6bd 51af 523d
00000130: 013c d8bc 112a 99bd df74 85bd b1a8 7e3d
00000140: 1161 3dbe fe19 083e dbb7 f03c 98a5 fabd
00000150: b5fa bb3b d4f2 46bd 9a53 23bd 2b38 773d
00000160: 385b 2fbd 6c27 f0bd e387 5dbb d317 5cbd
00000170: 46e7 bc3d 641e d63a 85a8 95bd 493c 90bd
00000180: 65b7 74bb cf62 51bc 6414 4f3d 2ce1 0e3c
00000190: 1deb 36bd dba0 c9bd b12e db3d 3fad 853c
000001a0: 6364 74bc e1ec 163e 8dde 0cbe f252 533d
000001b0: 0407 e9bc 9991 71bc f280 553c 4d15 e7bd
000001c0: 968e a03c a8b6 27be e4de b0bd 0beb 2ebe
000001d0: 93cf 01be 8938 703d ad0d e03d 4066 8bbc
000001e0: c309 f43c f0b6 29be 65c2 89bd 3075 1fbc
000001f0: 2adb ecbd c21d 0fbe cc59 b93b 784f 45bd
00000200: 6988 a53b 2f5a 5fbd 38d8 d4bc 473d 0b3d
00000210: 920f 59bc ff6c 843d 014e 3bbd 6c69 b6bc
00000220: 7140 233d a131 81bd 7aaf 193d 31b2 373d
00000230: c265 61bd c36f 823d ada8 79bd 3c9a f1bd
00000240: cd2a 9e3c 6f56 34bd 72b7 cbbc 3047 81bd
00000250: 8a8c d23c 25c4 8abb 58b0 efbb 3753 d6bc
00000260: 5d1b c5bd 21f3 0bbd 15cd a1bd 097e 64bd
00000270: feee 063e b59e e1bb 94d1 e7bc 4691 a7bd
00000280: a1ca 173d 0658 97bd 4faf e1bc bef9 11be
00000290: 76a9 53bd 178f 24be 5563 61bd 1e21 03bc
000002a0: 89ec 85bd ba32 edbd 56f4 a7bc 0a56 4fbd
000002b0: b3e0 0bbd 8a40 c0bd e0fa 79bd 4348 7abc
000002c0: 5915 43bd 6686 da3c 1f81 78bd 6018 c5bd
000002d0: 8a28 00be b66e e73d 42bd f5bd cdf3 283d
000002e0: 1334 e7bd 615d 26be 21c1 c4ba 7383 a73a
000002f0: 9f04 ddbd aeb0 173e e4dd 433d 05f9 2cbe
00000300: 28ce 0a3d cb74 903d 50c6 70bd f722 dcbc
00000310: 16e5 093e c948 b5bd 5158 763c 018e 023d
00000320: 7e61 893d 2717 193d 0df5 b7bc 5916 a13d
00000330: 806f cabd c2ea a5bd 5831 73bc 67ab 92bc
00000340: ac85 0a3d 9303 9f3d 09e0 403c 4df2 053d
00000350: 8a89 fdbb 2c09 113b dd3b 87bc a924 b53c
00000360: 6e84 45bd a49d 05be 7887 b8bd 20c0 fabd
00000370: 87fb 6ebc 10f3 f3bd cb2f 06be fafb 09be
00000380: 5b1a f1bc 91a1 b53c 6c3c 7d3d 182c b2bd
00000390: 21c7 6d3d 81ac ee3d 4c13 b73d 5cdb 173e
000003a0: 1f2e f53d da2a b6bd 5b33 f9bd bf6e da3b
000003b0: 339f 8cbd a578 cdbd b036 b9bd 843c 2bbd
000003c0: e4d8 ccbd ac13 003d b482 8fbd 0aed 913d
000003d0: 1829 de3c d1e4 0f3d c75e 10bd 3bfb f03c
000003e0: b332 acbd 9267 48bc d85e 22be f276 eebd
000003f0: 4225 ae3d ecd3 ee3d 5508 2ebd 8bc7 893d

bias f4 [32]
-0.077123575 -0.029312572 -0.097791694 -0.024434822 -0.078113966 -0.05261657 -0.08499471 -0.019123524
-0.065563545 -0.022067105 -0.032842305 0.009733974 -0.083408676 -0.05470377 -0.0389655 -0.06625161
-0.033037797 -0.030033711 -0.082061864 -0.057397224 -0.086024225 -0.07948081 -0.032089636 -0.012353523
-0.059525874 -0.044875283 -0.048811715 -0.047817193 -0.08895477 -0.020388735 -0.043603674 -0.085973956
00000000: f7f2 9dbd eb20 f0bc 0347 c8bd 892b c8bc
00000010: 37fa 9fbd 7984 57bd b511 aebd f0a8 9cbc
00000020: 2e46 86bd 13c6 b4bc a785 06bd 3f7b 1f3c
00000030: 2bd2 aabd 0f11 60bd 4a9a 1fbd edae 87bd
00000040: a452 07bd 4209 f6bc 0d10 a8bd 5a19 6bbd
00000050: 782d b0bd d6c6 a2bd 6c70 03bd 6e66 4abc
00000060: 67d1 73bd 25cf 37bd cbee 47bd f6db 43bd
00000070: eb2d b6bd 4706 a7bc c499 32bd 1d13 b0bd

weight f4 [4, 32, 3, 3]
-0.08922168 -0.10864451 0.020201826 -0.074790284 0.039501674 0.029918741 0.007561712 -0.1022187
0.048661746 0.015241897 -0.066154405 0.008147576 0.06530711 -0.07308204 0.091774255 0.0018524866
0.15543374 -0.029012432 -0.0062148687 0.0603616 0.12836505 0.053499393 0.058477037 0.13397823
0.014960927 -0.038375095 0.08055179 0.06079796 -0.024890201 0.061706185 0.021881897 -0.010383654
-0.006811651 0.048077438 0.09233853 -0.050485447 0.0007511816 -0.09292194 -0.059060536 -0.06488879
-0.025239773 0.020737112 -0.06613266 -0.049533036 -0.065391906 -0.055659473 -0.019994225 -0.020395909
0.11204383 -0.03449694 -0.04062331 -0.04336449 -0.043859806 0.033801522 0.10810248 0.08211045
0.06162649 0.08123848 0.08683896 -0.042381763 0.046277627 0.025732445 0.040709563 0.039873865
0.081277035 0.0114740385 -0.07020103 0.104690045 0.118550956 0.06410894 -0.012040688 -0.03496771
0.06633372 -0.08323543 -0.09068086 -0.056809396 -0.0068877693 -0.030691473 0.022444759 -0.082439706
-0.044829514 0.07689254 0.010914202 0.085163794 0.0023271586 0.03726182 0.017350884 0.0022789473
-0.098893225 0.023088107 0.055479683 -0.108268596 0.021756355 0.10778164 0.050523456 0.018750647
0.13177568 0.21326698 0.060823772 -0.0006676101 0.118381016 -0.047592543 0.045411766 0.08059892
-0.033468805 0.034471743 0.1468698 0.09877181 0.07997823 0.034171235 0.022668827 -0.04764621
-0.030568175 0.019240024 -0.04416991 -0.038083974 0.12115433 0.059820585 -0.05573013 0.022253571
-0.100836605 0.067901686 -0.08115948 -0.042675916 -0.032682575 -0.071846634 0.05319558 0.04867505
0.13360268 -0.017017854 -0.043273084 0.017923035 0.06181308 0.0693984 0.009831903 0.0609339
-0.02836017 -0.02791977 0.09333879 0.045764223 0.12222055 0.046189703 0.10353058 0.04580023
0.12850766 0.07392284 0.077352494 0.13117367 0.08810065 0.04159063 0.027140448 0.020375194
-0.025655633 -0.09082363 -0.08050192 0.007998562 -0.03172697 -0.0054221214 -0.049439028 -0.07712931
-0.10914866 0.016627783 0.12242895 0.0051163137 -0.0032400244 0.14657442 0.06896364 0.016630236
0.04414007 0.1256148 0.021179954 0.0063439733 -0.029201848 -0.15092276 0.03735131 -0.1510926
-0.1176785 0.0053983983 -0.1410353 0.03349843 -0.055134542 -0.077943504 -0.11707231 0.10667962
0.06854521 -0.029144626 0.104430065 0.07604238 -0.063992314 -0.033516794 -0.014263175 -0.025781615
-0.09591581 -0.07190877 -0.09955108 -0.14484045 0.030490626 -0.060730033 0.07865992 -0.014528151
0.06688446 0.13311316 0.010664404 0.08277599 0.066080414 0.058242016 0.015575511 -0.09225447
0.053245757 -0.005430195 0.015655097 -0.06270194 -0.08091167 -0.05873654 -0.05741348 -0.121565506
-0.05728911 -0.016685208 -0.05177089 -0.03601023 -0.031498015 -0.0046102903 -0.07032187 -0.018452235
0.040474813 0.0014006825 0.021414869 0.006635241 0.016460247 0.069311924 0.09499923 0.07661413
0.168777 0.073000476 -0.14637369 -0.06682721 -0.004326095 0.009798845 0.049154855 -0.06990673
-0.10528109 0.008362412 0.02613946 -0.031654183 -0.07672275 0.02998238 0.014901125 0.050505143
0.206809 0.0008402256 0.02542023 0.082005545 0.029601675 -0.08228446 0.002325621 0.066942394
00000000: dbb9 b6bd 0381 debd 4d7e a53c a62b 99bd
00000010: 82cc 213d 2618 f53c 3dc8 f73b 0a58 d1bd
00000020: 8a51 473d 26b9 793c f67b 87bd 697d 053c
00000030: bcbf 853d 09ac 95bd 24f4 bb3d 23cf f23a
00000040: 062a 1f3e 7bab edbc 19a6 cbbb ba3d 773d
00000050: 2172 033e 2e22 5b3d 9e85 6f3d 9731 093e
00000060: ad1e 753c 342f 1dbd 56f8 a43d 4807 793d
00000070: 89e6 cbbc a0bf 7c3d aa41 b33c 3420 2abc
00000080: 4534 dfbb d9ec 443d fc1b bd3d d4c9 4ebd
00000090: f2ea 443a dc4d bebd 76e9 71bd 6ae4 84bd
000000a0: a4c3 cebc e0e0 a93c 8f70 87bd 27e3 4abd
000000b0: 31ec 85bd 30fb 63bd eeca a3bc 5215 a7bc
000000c0: 3c77 e53d aa4c 0dbd a164 26bd f79e 31bd
000000d0: 57a6 33bd 7773 0a3d d564 dd3d 8629 a83d
000000e0: 0f6c 7c3d 5c60 a63d a0d8 b13d 8098 2dbd
000000f0: 9c8d 3d3d d9cc d23c 12bf 263d c752 233d
00000100: 9374 a63d 9bfd 3b3c 8fc5 8fbd bc67 d63d
00000110: d8ca f23d 8c4b 833d 4e46 45bc 4d3a 0fbd
00000120: f9d9 873d 5677 aabd e3b6 b9bd f8b0 68bd
00000130: ccb2 e1bb af6c fbbc 12de b73c 26d6 a8bd
00000140: 279f 37bd d679 9d3d 7bd1 323c 5b6a ae3d
00000150: 3e83 183b da9f 183d 7123 8e3c 645a 153b
00000160: 8888 cabd 4523 bd3c aa3e 633d edbb ddbd
00000170: 623a b23c 9fbc dc3d aff1 4e3d f59a 993c
00000180: 34f0 063e a962 5a3e 5922 793d 8e02 2fba
00000190: bf71 f23d 66f0 42bd b001 3a3d 0c11 a53d
000001a0: 9616 09bd 3e32 0d3d 0965 163e e048 ca3d
000001b0: a0cb a33d 23f7 0b3d fab3 b93c ac28 43bd
000001c0: 1c6a fabc 419d 9d3c 82eb 34bd f1fd 1bbd
000001d0: c31f f83d 6e06 753d 4745 64bd 1f4d b63c
000001e0: 6c83 cebd 0a10 8b3d f136 a6bd f1cc 2ebd
000001f0: 2ade 05bd 5424 93bd 9ce3 593d 7d5f 473d
00000200: 24cf 083e 0769 8bbc 1e3f 31bd 54d3 923c
00000210: b62f 7d3d c020 8e3d fd15 213c d395 793d
00000220: 9653 e8bc 00b8 e4bc 6828 bf3d 4473 3b3d
00000230: c54e fa3d 6a31 3d3d d707 d43d 0699 3b3d
00000240: 8397 033e dc64 973d fc6a 9e3d 6452 063e
00000250: 1d6e b43d f05a 2a3d a555 de3c e1e9 a63c
00000260: c32b d2bc bd01 babd 31de a4bd 670c 033c
00000270: 24f4 01bd 0dac b1bb 9480 4abd f9f5 9dbd
00000280: 5589 dfbd fd36 883c 08bc fa3d c0a6 a73b
00000290: 9756 54bb 9b17 163e cf3c 8d3d 223c 883c
000002a0: 38cc 343d 2ba1 003e 9581 ad3c 1be1 cf3b
000002b0: b738 efbc 7f8b 1abe b0fd 183d 05b8 1abe
000002c0: 6d01 f1bd 0ce5 b03b 8f6b 10be a635 093d
000002d0: c2d4 61bd d8a0 9fbd 9bc3 efbd d87a da3d
000002e0: 6e61 8c3d b6c0 eebc 6edf d53d 1bbc 9b3d
000002f0: 670e 83bd e848 09bd 18b0 69bc f733 d3bc
00000300: 826f c4bd e844 93bd 70e1 cbbd 0e51 14be
00000310: 7ac7 f93c 0ec0 78bd 7418 a13d 7b07 6ebc
00000320: b8fa 883d d14e 083e c1b9 2e3c 7586 a93d
00000330: 2b55 873d 2e8f 6e3d 6e30 7f3c e9ef bcbd
00000340: 3918 5a3d c7ef b1bb 1e3f 803c e069 80bd
00000350: 05b5 a5bd ba95 70bd 662a 6bbd 56f7 f8bd
00000360: fca7 6abd 6baf 88bc b60d 54bd 777f 13bd
00000370: 1004 01bd eb11 97bb ea04 90bd 2429 97bc
00000380: ebc8 253d 1b97 b73a 3c6e af3c 706c d93b
00000390: a4d7 863c 69f3 8d3d f58e c23d dee7 9c3d
000003a0: e1d3 2c3e 4681 953d fce2 15be b4dc 88bd
000003b0: eac1 8dbb 568b 203c 9a56 493d 422b 8fbd
000003c0: 9d9d d7bd 8002 093c 6c22 d63c d1a7 01bd
000003d0: d120 9dbd 9c9d f53c d923 743c 7bde 4e3d
000003e0: bdc5 533e 9642 5c3a 163e d03c 86f2 a73d
000003f0: 367f f23c c184 a8bd 7269 183b 1819 893d

bias f4 [4]
-0.023937454 0.04540933 0.040599667 -0.04476203
00000000: 7b18 c4bc 22ff 393d d64b 263d 6458 37bd
