super_resolution/checkpoint_scale2/model_epoch_18.pth (torch_old, 247001 bytes, 8 tensors)

weight f4 [64, 1, 5, 5]
00000000: 2d1b 5c3e e689 cabd d875 24be 7506 1bbe
00000010: 1d21 593e c86c 34bd c666 81be 3817 60be
00000020: e2df b33c 30b7 3fbe a880 e0be fa56 55be
00000030: 83b3 9abe ba4e 30be fc06 08bd 7ca9 81be
00000040: c4b8 11be ecaa 85bd 23c4 8abe e9e8 ef3d
00000050: 9ba5 073d 56be c73c d01e 12be 2ffc c83c
00000060: d5ae bd3d 5880 18be 1fcd d7bd ec7e 8dbe
00000070: a029 873d 3aa0 23be b458 95be 2d68 bfbd
00000080: 0572 54be 97ff 5a3d 749c 01bd 8eca f8bd
00000090: e797 86bd cdeb 73be 8835 22be 1172 af3d
000000a0: 739f 0b3e 7b75 83be 10d7 a83c 212f 8a3e
000000b0: 798d 3cbe f5b1 debd 8c67 eebd 5bf5 21be
000000c0: 3412 c2bc 62bb 74bd 2f1e a8be 5f8c bd3d
000000d0: 04d1 01bd 9482 d23d c704 1a3e b884 82be
000000e0: 258d 8abc df20 8fbd 078f 963d 0d8f e2be
000000f0: 6d2f 363d 8c60 103d 463d 783d 4236 8fbd
00000100: 0979 99bc 2cd5 3dbe 2bd5 5bbe 70f3 1fbe
00000110: 610b b1bd 3e23 4fbe a94c 0dbe 1bf5 ca3b
00000120: d94e 28be b168 263e d321 e3bd fad5 57be
00000130: 7700 3fbe 11f8 973d df89 aebd 43d2 73be
00000140: c7e8 3d3d caf0 a13d 28b8 90be 85ba 9abe
00000150: f5c3 c8be 8c7f a33d ce8c 74bd f4f3 54be
00000160: 37d5 873b 7e93 b6be 7606 0abe cbf4 6e3e
00000170: adf4 8b3d 722b c5bd dc97 07be 6aa6 eabd
00000180: edcd 93be f67d cabd 77d0 cebb 0446 2cbe
00000190: 12ca 35be 5a53 703e 06a8 553e fefb 1bbe
000001a0: f98f db3d d36c 353d 23cb 9ebe 5ef9 583b
000001b0: 025b 443d 7aff dabb 8045 cabe 387a 983c
000001c0: b934 873d 6e0d 14be 2646 41be 6886 79bc
000001d0: 7ecb 33bd b16a 94be 35e0 803e fcc5 ad3d
000001e0: 3ef2 85be 98bd 55bd 1612 c2bd 6d2b a8be
000001f0: ae50 59be ef54 aabd 5c65 e2bd b572 823a
00000200: 40e6 b3bc 3486 83bd 63b5 a13d fde6 823e
00000210: 87cf 1d3e 0384 e03d 5a4b f5bd afcd 88bd
00000220: ae24 d3be 90ab 343d e37e b73e 59af 96be
00000230: 3466 8fbb 37d9 00be 1812 1abf 8af5 0abe
00000240: bfc1 cfbc 2c04 e2bd ec9e f1bc d19b 70be
00000250: 8486 373e dbe2 683e 6fde 543c d95e 94bd
00000260: d40b 603e 2502 72be 58bf 83be 7608 d6bd
00000270: d86e 523e c26f 3d3e 3c2e 663d 29f7 ba3d
00000280: ea5b 113e c772 d23d d724 d8be e9db ccbe
00000290: f90d 833e 522c d63d c149 94bd 4dba 54be
000002a0: d1eb a5be 1ec8 a8bc 6958 6ebe 88d0 7c3e
000002b0: 0ddb 8abe 1a07 e13b e992 75bd 8fde f0bd
000002c0: 4ba4 2dbc aebd e43d 39cb 12be 8a77 94be
000002d0: 851c d03c abc3 16be 94f8 f83e 9b6b c73d
000002e0: 29c2 8f3e 872a 5b3d 47b7 343e abb7 893b
000002f0: 7197 ed3c 4078 8fbd 4603 05be af82 3dbc
00000300: 59f3 85be 6224 83be c055 1cbe 19c6 a23e
00000310: 356f c4be 0db9 1b3e 1c20 78be 785b 32be
00000320: 6cca 5e3e cd8f 423e cb73 063e b13d 7fbe
00000330: 2c66 9aba 71e1 30bd 6cf2 a13e 5959 a9be
00000340: 49db 313e 692d ecbc 6cd0 b1be 457e b93e
00000350: fcb0 01be 31e4 6cbe fe5b 83be 733d dabc
00000360: 8502 d8bb 787f 143e 35b2 4dbe 6ed8 243e
00000370: 579d 063f 13ca 843b 6b99 93bd a9ef 753e
00000380: 155d 3f3e 2eb5 6b3e e3c9 97be dd0c 1b3e
00000390: faa1 2bbe 6056 213e daa8 543e 37cd 353e
000003a0: c3b8 37be 889a e0bb f267 40be 7139 cb3d
000003b0: 59a7 ca3d 8009 593e 9080 90be 9335 b7bd
000003c0: bd12 e9bc 2aa5 c0bd 8a25 bebc 67de 0d3e
000003d0: fecb 12be 7f1b 2bbd 4266 72be e260 3c3e
000003e0: e133 58be f768 55bd 882e 30be 44d0 04be
000003f0: ac15 4cbe 20a2 0ebf 8dd6 c13d f047 37bd
0.21494742 -0.09889583 -0.16060579 -0.15139182 0.21204038 -0.044049054 -0.25273722 -0.21883857
0.021957342 -0.18722224 -0.43848157 -0.2083396 -0.30215082 -0.17217532 -0.033209786 -0.2532462
-0.14230639 -0.065267414 -0.27102765 0.11714346 0.033116918 0.024382751 -0.14269567 0.024534313
0.09261862 -0.1489271 -0.105371706 -0.27635896 0.06599736 -0.1597909 -0.29169238 -0.09346042
-0.2074662 0.053466406 -0.031643346 -0.12148009 -0.06571942 -0.2382042 -0.15840733 0.08566678
0.13635044 -0.25675568 0.020610362 0.26989082 -0.18413343 -0.10873786 -0.11640844 -0.15816252
-0.02369032 -0.059749015 -0.32835528 0.09255289 -0.031693473 0.10278812 0.15040885 -0.2549188
-0.016913006 -0.069886915 0.07351499 -0.44249764 0.044478822 0.035248324 0.06060531 -0.06992771
-0.018734472 -0.1853835 -0.21468036 -0.15620208 -0.086447485 -0.20228288 -0.13798775 0.0061937696
-0.16436328 0.16250874 -0.11090436 -0.2107772 -0.18652521 0.07420362 -0.085223906 -0.23810677
0.046364572 0.07907255 -0.282655 -0.30220428 -0.39212003 0.07983312 -0.059704594 -0.20796186
0.0041452902 -0.35659403 -0.13479027 0.23335569 0.068337776 -0.09627427 -0.13241524 -0.11457522
-0.28868046 -0.098873064 -0.006311472 -0.16823584 -0.17752865 0.23469296 0.20864877 -0.15232846
0.1072082 0.044293236 -0.31014356 0.0033107619 0.047938354 -0.006683287 -0.3950615 0.018612966
0.06601853 -0.14458248 -0.18874416 -0.015229799 -0.043895237 -0.2898765 0.25171056 0.08485028
-0.2616138 -0.052182764 -0.09476106 -0.3284563 -0.21222183 -0.08316981 -0.11054489 0.0009952398
-0.021960378 -0.064220816 0.07895925 0.25566855 0.15411197 0.10962679 -0.11977263 -0.06679856
-0.41238922 0.044108927 0.35838994 -0.29430655 -0.0043761972 -0.12582861 -0.6018386 -0.13570228
-0.02536094 -0.11035952 -0.029494725 -0.23496939 0.17922407 0.22742788 0.012992485 -0.07244653
0.21879512 -0.2363363 -0.2573192 -0.104508325 0.20550096 0.18499663 0.056196436 0.09129173
0.14195219 0.10275798 -0.42215607 -0.40011528 0.25596598 0.10457672 -0.0724063 -0.20774193
-0.32406476 -0.020603236 -0.23275913 0.24688923 -0.27120247 0.0068673017 -0.059954558 -0.117612
-0.0105982525 0.11168991 -0.14335336 -0.2899745 0.025404224 -0.14723079 0.4862715 0.09737321
0.2807782 0.053507354 0.1764804 0.004202803 0.029002877 -0.07005358 -0.1298953 -0.011566802
-0.26162222 -0.25613695 -0.15267086 0.31791762 -0.38366094 0.1520731 -0.24230999 -0.17417705
0.21756905 0.19000168 0.13130109 -0.24925877 -0.0011779717 -0.043183748 0.31630266 -0.3307598
0.17368807 -0.028830247 -0.34729326 0.36229149 -0.1266517 -0.23133923 -0.25656122 -0.02664063
-0.006592097 0.1450175 -0.20087512 0.16098186 0.5258383 0.0040524094 -0.072069965 0.24017204
0.18687852 0.23018333 -0.29646215 0.15141626 -0.16761008 0.15755606 0.20767537 0.17754065
-0.17941575 -0.006854359 -0.18789652 0.099230655 0.098952 0.2119503 -0.28223085 -0.08945765
-0.028451318 -0.094065025 -0.02321126 0.13854371 -0.1433563 -0.04177427 -0.23671821 0.18396333
-0.2111354 -0.052102055 -0.1720525 -0.12970072 -0.19930142 -0.55716133 0.094647504 -0.04474634

bias f4 [64]
00000000: 5fb9 7e3c b69d b63c b849 6abe cef1 b5bd
00000010: 8c37 c8bd e4af 773d efce bd3d 75a7 9cbc
00000020: 318d 29be 7fe9 65be 942c 0b3e c685 e93d
00000030: 8221 dc3d f59c 07be 4140 1ebe 2c1f 353d
00000040: 5490 51bd c0f1 22bc d31a 6cbe 473a f53d
00000050: a09c 193d 1dfa 1b3e c86d 7c3d 710a 173d
00000060: a75a 32bd 547a 5bbe 8257 3ebe d454 90bd
00000070: 2f45 913d 7ef4 3abd 6971 573d 879f 09bd
00000080: 55c8 d2bd 5d0e 02bd 2958 47bd 70dd 16be
00000090: 48cc 6cbc f59d a03d 6f3d be3d eb1a 98bd
000000a0: d145 5bbe cf0e d23d 2986 04bd 3b4e 50bd
000000b0: 295c f3bb 5e28 92bd 5d19 fbbc 3c23 983d
000000c0: 32a9 213d 74b3 73be e4e5 1dbe 6f47 a3bd
000000d0: 7bca 4abc c096 063d eb81 02be 4281 5bbe
000000e0: a015 f53d 3ce0 45be c986 62be a27a dd3d
000000f0: beb8 283e 481d b03c 6c4c 3fbe 6424 2cbe
0.015547126 0.022292 -0.22879684 -0.08884011 -0.0977622 0.060470477 0.09267985 -0.019122818
-0.16557766 -0.22452353 0.13591224 0.114024684 0.107485786 -0.13243468 -0.15454198 0.04421918
-0.051163033 -0.009945333 -0.23057108 0.11974006 0.037502885 0.1523213 0.061628133 0.036875192
-0.043543484 -0.21433383 -0.18588069 -0.0704743 0.07093274 -0.045643322 0.05259839 -0.033599403
-0.102921166 -0.03175198 -0.04866806 -0.14732909 -0.014453001 0.07842628 0.09289061 -0.07427009
-0.21413352 0.10256731 -0.032354508 -0.050855856 -0.007426758 -0.07136606 -0.030651743 0.074285954
0.039467998 -0.23798925 -0.15419728 -0.07972609 -0.012377377 0.03285861 -0.12744872 -0.21436027
0.11967015 -0.1932382 -0.22121729 0.10814406 0.16476724 0.021498337 -0.18681496 -0.16810757

weight f4 [64, 64, 3, 3]
00000000: d524 7bbb afc2 11bd 0976 d3bd e9d2 073c
00000010: f97e 88bd 1d29 753c dd93 75bb 8775 d9bc
00000020: 6eec 9dbd 4ad9 babd 8e20 3e3c 10ab 11be
00000030: b39d 043c 3262 cfbd 5c1e c7bd e06c adbd
00000040: dce6 49bd 59e7 eebd 7a52 f8bd 9adc edbd
00000050: 1db7 b4bd 1d9d 04be 6ccf 04be 89e9 80bd
00000060: ecf5 47bd 01e6 dfbd 0c55 07be b3b6 90bc
00000070: 8a6c 17bd b57f fabd 8ad0 da3d 38c3 e53d
00000080: 84b4 00bc 959e 5ebd 9faa 7abd 2c4d 1bbc
00000090: 767d 16be 6f89 a33c 876d dabd 9a51 2dbd
000000a0: 18ad 993d 45d5 69bd 2d37 6c3d 74e6 9c3d
000000b0: 6175 3abc b184 00be 981e c4bd e0de a3bd
000000c0: e310 543c 6d71 dabd 7567 7bbc e2a5 10be
000000d0: 0a11 a3bd 7104 ddbc 4f3e 91bd 1aab 01be
000000e0: 2020 5abd d398 a3bd d7b6 973c c1be f1bd
000000f0: 3564 503d f858 863a 2b44 93bd 1c82 91bd
00000100: ef44 9fbd 6d25 033d d2a0 253c a685 3bbc
00000110: 565e babd 070c e1bd 12cf 99bd a2b6 01bd
00000120: b8f3 2dbe e4c1 55bd a22f 7abc 550e 09bd
00000130: 90db abbd 3ce0 48bd b23d aebc 968c 11be
00000140: d6f2 9c3c 56db a2bd dbd6 c33c 8fd5 11bd
00000150: 828e 163d ca69 00be 398d e6bd 67bb a1bd
00000160: d0ec debd 7827 3ebd 93ba 84bd 916e 45bd
00000170: 90f4 c2bd 6180 dcbd d0be 87bd 6964 a33a
00000180: 8b0d 37be 2c94 47bd 6805 88bd d360 013d
00000190: 5402 9dbc 779c b43d 55bf a43d 0618 32bc
000001a0: 8d7d 8cbd 58ba f3bc a7aa 90bd 76f3 8f3d
000001b0: 17db e73b 169b 343c 0a6a dcbb d43b 07bd
000001c0: ff75 53bd 230d 7bbc 3409 a83d 9fed 243d
000001d0: 230c 73bd 6d3f cdbd cf5e e1bd aeeb a63d
000001e0: 02ff b1bd 58a1 a6bc 9ac5 0fbe 6913 5abe
000001f0: 838d e2bd e49e 11be 1881 40bc b89c 1c3d
00000200: 8000 66bd 8e78 37be 28eb d03c aa7b 79bd
00000210: 8a11 b8bd 9ad2 1a3c c614 b5bd 5186 90bd
00000220: 0633 c7bc d054 853a 07c5 9cbd 8435 43bd
00000230: b157 143d 6513 79bd 7b95 04bc c97a 17bc
00000240: 3349 92bd 7526 4cbe 1920 26bc 5c0e 0fbd
00000250: cc42 0bbe d84d f0bd 99d4 f1bd c6a7 30bd
00000260: 6a5a b7bd e202 ffbc 2a63 1fbc ecd9 c8bd
00000270: 7906 24be c8ad 8bbd 224c 39bc 2d2c 16be
00000280: ec2e 47bd d526 15be c3c3 0d3d 6a98 23be
00000290: 207a 82bd d187 d6bc 9617 d9bd decd c0bd
000002a0: 1483 82bd 47cb 093c 3573 65bd 5fa6 e2bd
000002b0: ac9e b6bd bd04 44bd 5d11 ecbb daa2 29bd
000002c0: 6ba7 5cbd 8cd3 cbbd c774 e6bc d512 883c
000002d0: 8252 9abc 7378 e3bb 5026 863c 9d0c 8dbd
000002e0: 1c1c 07bd 1279 f8bc e69f b5bd 79f5 efbc
000002f0: a2d6 2abc cf93 b9ba 7e48 0c3d 7429 afbd
00000300: 9772 6b3c 9adb 7bbd e090 5d3d 76ef ffbd
00000310: 5d88 e2bd 063c 1bbd a0df 85bd d736 4fbd
00000320: 4cba a1bd 33a1 70bd 595e 5fbc 4b5b cabd
00000330: f10f cabd 9a42 1b3d 5577 d83c 0901 a9bd
00000340: 3823 ddbc aeb9 98bd 41fa b0bd 3e92 bebd
00000350: e3d6 bdbd 075c c2bd ec66 72bd d0c7 db3b
00000360: feb6 debd 2dd3 b2bd 9bf5 1abe 0f26 0dbd
00000370: 55c0 9a3c d8f6 0ebe 83b4 b9bd f62f aebd
00000380: 6cb5 cbbc 0f2b a9bd 9827 1d3d a2a3 4fbd
00000390: ce65 51bd c4d8 2bbd 4f90 f9bd 3e62 5ebd
000003a0: 6f83 43bd 12f4 a1bd 8e67 c63d 0766 13bd
000003b0: e6e9 1c3c 90b4 403c fa59 563b 919c f1bd
000003c0: 8d83 413d 2374 32bd a94e 973d 31ce bc3b
000003d0: 9484 253d 71ea 8ebd 940d cabd 565c e2bd
000003e0: 300a 163d c7ff e03c 5431 d8b9 7ca2 c9bd
000003f0: 3dbf e2bd 9248 11be 9776 15be 2474 38bd
-0.0038321514 -0.035586055 -0.10325248 0.008290031 -0.06664843 0.014963415 -0.0037472167 -0.0265453
-0.07711111 -0.09123476 0.011604441 -0.14225411 0.008094239 -0.10126151 -0.097225875 -0.08468032
-0.04929243 -0.1166522 -0.12125106 -0.11614342 -0.088239886 -0.12950559 -0.1296975 -0.06294543
-0.048818514 -0.10932542 -0.13216037 -0.017665243 -0.036968745 -0.122313894 0.10684307 0.11218876
-0.007855538 -0.054350454 -0.061197873 -0.009478848 -0.14696297 0.019962994 -0.10665422 -0.04231415
0.07503718 -0.057088155 0.057669807 0.07661143 -0.011380524 -0.12550618 -0.09576148 -0.080014944
0.012943479 -0.106661655 -0.01534449 -0.1412578 -0.07962234 -0.026979657 -0.070919625 -0.12662926
-0.053253293 -0.07988133 0.018519802 -0.118039615 0.050876815 0.0010249903 -0.071907364 -0.071048945
-0.0777682 0.032018114 0.010109143 -0.0114454385 -0.091000244 -0.10988622 -0.07510199 -0.031668313
-0.16987503 -0.05218686 -0.015270146 -0.033460934 -0.083914876 -0.04904197 -0.021269653 -0.14213786
0.019158762 -0.07951991 0.023906162 -0.035604056 0.036757 -0.12540355 -0.11257405 -0.07897072
-0.10885012 -0.04642436 -0.06480899 -0.048201147 -0.09519303 -0.10766674 -0.066281915 0.0012465838
-0.1787626 -0.048725292 -0.06641656 0.03158648 -0.01916615 0.08818906 0.08044306 -0.010869985
-0.068598844 -0.029751942 -0.07063799 0.07028858 0.007075678 0.0110233035 -0.006726508 -0.03301604
-0.0516262 -0.015322956 0.0820488 0.040265676 -0.059337746 -0.10021863 -0.110044114 0.08150421
-0.08691217 -0.020340607 -0.14040223 -0.21296467 -0.110621475 -0.14220768 -0.011749528 0.038235396
-0.05615282 -0.17917082 0.025502756 -0.06090895 -0.0898772 0.009449625 -0.08841853 -0.07056869
-0.024316322 0.0010172371 -0.076547675 -0.04765846 0.03621644 -0.06080951 -0.00809228 -0.009245583
-0.07142868 -0.19936545 -0.010139489 -0.034925804 -0.135997 -0.117335975 -0.11808128 -0.04312875
-0.08952792 -0.031129304 -0.009728232 -0.0980719 -0.16018094 -0.068202555 -0.011309655 -0.14665289
-0.048628733 -0.14565594 0.03461052 -0.1597611 -0.0637095 -0.02618781 -0.10600202 -0.09414266
-0.063726574 0.0084102815 -0.056018073 -0.11066889 -0.08916983 -0.04785608 -0.0072042183 -0.041415073
-0.0538706 -0.09952459 -0.028131856 0.016610542 -0.01883817 -0.006941849 0.01637569 -0.068871714
-0.03298579 -0.030331168 -0.08868389 -0.029291855 -0.010427149 -0.001415843 0.03424882 -0.085528284
0.014370582 -0.061488725 0.05409324 -0.124968454 -0.110611655 -0.03789904 -0.06536794 -0.05058941
-0.078968614 -0.05874748 -0.013633334 -0.09880694 -0.09866322 0.037905313 0.02642409 -0.082521506
-0.026994333 -0.074572906 -0.08641482 -0.09305237 -0.09269502 -0.09490209 -0.059180185 0.006707169
-0.10874747 -0.08731685 -0.15132754 -0.034460124 0.01889054 -0.13961351 -0.09067633 -0.085052416
-0.024866782 -0.08260166 0.038367838 -0.05069316 -0.05112248 -0.04195477 -0.12185728 -0.05429291
-0.047732767 -0.07907881 0.0968772 -0.035985973 0.00957725 0.011761799 0.0032707439 -0.11797441
0.047244597 -0.043567788 0.0738805 0.0057618846 0.04040964 -0.0697831 -0.09865871 -0.11052768
0.03663081 0.027465714 -0.00041235483 -0.098454446 -0.11071632 -0.1418784 -0.1459602 -0.045032635

bias f4 [64]
00000000: 42b9 00bd 98fb 2abd e3b8 21bd 4319 3bbd
00000010: 29a2 4abd dac4 f4bc 6e8e 9bbd 2f50 b6bd
00000020: 8068 0cbd af14 b6bd 1ab0 87bd f3ab 9dbc
00000030: 25e1 9e3c d938 99bd 8a98 38bd 7c4c 68bd
00000040: 3730 8bbd 6cdb 06ba 7843 253d e19d 21bd
00000050: 0104 7dbd 02f3 c5bd 0832 97bd 585b 05bd
00000060: 5307 96bd ea00 08bd 4471 5fbd 1e58 47bd
00000070: b8c2 3fbd 95e0 03bd 0f73 97bd 5b3b 99bd
00000080: d579 39bd fcbf 25bc de0a 6bbc c268 c1bd
00000090: 8a1a 58bd 3586 eebc 0838 bfbd 7412 063d
000000a0: 1510 f9bc 934c b6bd 0ceb bcbc 6540 1ebd
000000b0: bc1a 9abd 50a3 95bd e91e 8ebd 7bd5 01bd
000000c0: 71be 83bd 15ee 8abd 5a80 75bd 3747 fbbc
000000d0: f963 55bd dacb 0abc a28a a4bd b8da e8bc
000000e0: 4ab6 85bd 2740 99bc f1f2 aebc 5b8d 41bd
000000f0: 2217 f7bc a1b5 22bc 0655 71bd 71dd 96bd
-0.031426676 -0.041743845 -0.039482962 -0.04567839 -0.049471054 -0.029879022 -0.07595526 -0.089020126
-0.034279346 -0.08890664 -0.066253856 -0.01924703 0.019394467 -0.07481546 -0.045067348 -0.056713566
-0.067963056 -0.0005144391 0.040347546 -0.039457206 -0.061771397 -0.09665491 -0.073825896 -0.032557815
-0.07325616 -0.033203997 -0.054551378 -0.04866802 -0.046816558 -0.0321966 -0.073949926 -0.07482024
-0.045282204 -0.010116573 -0.014345853 -0.09443809 -0.052759685 -0.02911673 -0.09336859 0.032732442
-0.030403176 -0.08901324 -0.023061298 -0.03863563 -0.075246304 -0.0730654 -0.069394894 -0.03169773
-0.06432808 -0.06783692 -0.05993686 -0.030673606 -0.052097294 -0.008471454 -0.080342546 -0.028424606
-0.065289095 -0.018707348 -0.021356078 -0.047253948 -0.030162398 -0.009930999 -0.058918975 -0.07366455

weight f4 [32, 64, 3, 3]
00000000: 10e8 dd3d 3fb0 31bc cab5 f33b a231 ef3c
00000010: 43e1 a4bd d258 38be 37cf 453d 6550 16bc
00000020: 2635 abb9 d82d ef3c e078 de3d 84e8 afbd
00000030: cf2f e3bc b35d 8b3c e4f2 76bc 7763 dcbc
00000040: 5f2a 9e3d dd84 42bd 059a e6bd add6 babb
00000050: aa3d a1ba 8372 b7bb 26f6 89bd 1a09 9ebd
00000060: f49c 6fbd 988a 18be 6c55 39be 1b29 533e
00000070: 211c 81bc 389d 923c 9280 043d 01df abbc
00000080: fa95 a0bc 4e59 e03b 6076 f6bc e960 93bd
00000090: b314 a7ba dcc4 a23d da7b dbbd 8d34 8cbd
000000a0: 64a6 bebd 5a5c 84bd 3d9f 8cbd 7903 c1bd
000000b0: a128 9ebc 0409 e4bc 36fd 6fbd 0859 1abd
000000c0: 225c 28bc 6bd8 2bbb 87d3 d8bc 26ac 9bbd
000000d0: 026c 44bc 5a98 cabd 844e 1dbe 901b a63c
000000e0: 23e3 8d3d 49e6 42bb aadc 11bc 7fbc febd
000000f0: 1c55 c7bc 4280 903d 5832 5ebd ae4c d13d
00000100: 106e 2f3d 81a1 553c a62e 113e c533 b13d
00000110: 7a3d 7ebd a906 a73d 3fef 0abd 339d 34be
00000120: 95ef a03d 807e d53d 8d35 bdbd 0719 603d
00000130: 6ec5 bdbc e443 a0bd b182 7dbd e0ef 853d
00000140: fa23 41be f27b 0b3e 5dee e03c f565 00be
00000150: da1b 143c dc6b 51bd 168c 2fbd d25f 823d
00000160: e144 39bd 5d47 f6bd e387 5dbb d317 5cbd
00000170: 46e7 bc3d 641e d63a 85a8 95bd 493c 90bd
00000180: 65b7 74bb cf62 51bc 6414 4f3d c3c7 443c
00000190: 5bac 43bd 73cc cfbd 56eb e13d 2f1c 583c
000001a0: c643 93bc 8a4b 1a3e f9f4 0fbe e040 473d
000001b0: 248a 03bd 2fa8 96bc 4f20 193c d598 eebd
000001c0: 09b4 823c 387d 2bbe 5f61 b8bd 8ba4 32be
000001d0: f495 05be 2780 7d3d 7eae d93d fb4a a5bc
000001e0: 7c57 073d e4a9 2cbe 251c 90bd 4f4f d4bb
000001f0: d52b f2bd a037 12be a98f 323b f034 50bd
00000200: f682 a53b 11ee 68bd f313 e6bc 5825 0b3d
00000210: 27b1 43bc 3977 843d 4916 3cbd ca67 cbbc
00000220: 4c1c 163d 6d64 87bd 4f93 203d 8699 2a3d
00000230: b9c7 6dbd 3a0c 873d c85c 83bd a58f f7bd
00000240: 3a09 803c 3467 43bd 38d9 e9bc 96cf 88bd
00000250: f56a b43c 98a5 01bc f019 34bc 0974 f4bc
00000260: 9fa3 ccbd 6e00 1bbd 8b54 a9bd c28f 73bd
00000270: a12b 033e f90a 2dbc 77fa 02bd 1e18 afbd
00000280: 9ebb 083d cae0 9ebd 2d5e d7bc 48d6 14be
00000290: 67c1 5bbd 8f52 28be 578b 70bd e67d 3fbc
000002a0: 6e4a 8dbd 11f2 f4bd b76c c6bc c85a 5ebd
000002b0: 95e3 1abd f0ca c7bd 9f7f 84bd dd28 9bbc
000002c0: 1e2b 52bd be81 bc3c 4fc0 83bd 0ca3 ccbd
000002d0: f4dd 03be 1019 e03d a848 fdbd 5422 1a3d
000002e0: ac85 eebd c322 2abe 909c a7bb aef9 15bb
000002f0: 568f e4bd f40f 1b3e 645b 513d 62bd 2fbe
00000300: 0b4b 183d 3633 973d 77a9 7cbd 2728 c1bc
00000310: 3f44 0d3e df69 babd 0f17 3a3c 04f8 e63c
00000320: a5d8 813d 0607 0a3d ca18 d6bc 8b8d 993d
00000330: a2f7 d1bd a173 adbd a1bb 97bc 70e4 93bc
00000340: ac85 0a3d 9303 9f3d 2b9e 403c 4df2 053d
00000350: 8a89 fdbb 0cf5 0f3b dd3b 87bc a924 b53c
00000360: 4c7c 43bd 17c7 05be b37d b9bd b991 ffbd
00000370: df06 8ebc 8ea1 f9bd dda2 05be ddab 0cbe
00000380: bc04 03bd 71b7 d03c ed62 853d ccb0 b7bd
00000390: 0952 7b3d 4271 f53d 8569 b23d 143e 1b3e
000003a0: e7f2 fb3d c11c bbbd 943d ffbd 1235 623b
000003b0: 43a1 92bd e654 d3bd 64b7 bfbd c5cd 37bd
000003c0: 5bfc cebd 0db6 e63c f1b2 95bd bcde 8a3d
000003d0: 1085 c13c d9fb 013d 78ee 1ebd efc7 d13c
000003e0: 9a75 b3bd 8818 7cbc 7d42 26be 5b6e f5bd
000003f0: 4be7 b43d c38f f53d 3a31 34bd 6989 903d
0.10835278 -0.010845243 0.0074374424 0.029198471 -0.08050778 -0.18002632 0.04829332 -0.009174441
-0.0003265526 0.029196665 0.10862899 -0.08589271 -0.027732758 0.017012453 -0.015072558 -0.026902897
0.077229254 -0.04748999 -0.11259846 -0.005701861 -0.0012301703 -0.0055983677 -0.06736402 -0.0771658
-0.05849929 -0.1489662 -0.18098992 0.20621149 -0.015760483 0.017897233 0.032349177 -0.02098036
-0.019602764 0.0068465834 -0.030085742 -0.071962185 -0.0012747258 0.07947704 -0.10716982 -0.06845961
-0.0930908 -0.06462927 -0.0686631 -0.094244905 -0.019306483 -0.02783633 -0.05859109 -0.037682563
-0.010275872 -0.0026221524 -0.026468052 -0.07601194 -0.011988642 -0.0989234 -0.15361983 0.020276815
0.069280885 -0.0029739311 -0.008902708 -0.124382965 -0.024332576 0.07055713 -0.05424723 0.102197036
0.042829573 0.013038994 0.14177951 0.086524524 -0.062070347 0.08155567 -0.03391957 -0.17638092
0.07858197 0.104245186 -0.092387296 0.054711368 -0.02316543 -0.07825449 -0.061892215 0.06539893
-0.1886138 0.136215 0.02745741 -0.12538894 0.009039843 -0.051128253 -0.042858206 0.063659325
-0.045231704 -0.1202533 -0.0033802919 -0.053733658 0.092237994 0.0016335961 -0.07307533 -0.070427485
-0.0037340757 -0.012779905 0.050556555 0.0120105175 -0.047771793 -0.101464175 0.11031215 0.013190313
-0.017976653 0.15067878 -0.14058293 0.048645854 -0.032114163 -0.018390743 0.009346082 -0.11650244
0.015954988 -0.16746986 -0.09002947 -0.1744558 -0.13045484 0.061889794 0.10628985 -0.020177355
0.033042416 -0.16861683 -0.07036618 -0.006479181 -0.118247665 -0.14279032 0.0027246273 -0.050831735
0.005051012 -0.056867663 -0.028085684 0.03397116 -0.011944092 0.064680524 -0.04591969 -0.024829764
0.03664808 -0.066109516 0.039202984 0.041650318 -0.0580518 0.06594129 -0.06414181 -0.12087945
0.0156294 -0.047705844 -0.02854596 -0.06680219 0.022023657 -0.007913016 -0.010992512 -0.029840486
-0.09992146 -0.037842207 -0.082680784 -0.05946327 0.12809612 -0.010561698 -0.031977143 -0.08549522
0.03338205 -0.07757719 -0.026290024 -0.14534867 -0.05365124 -0.16437744 -0.058726635 -0.011687731
-0.06898962 -0.11960233 -0.024221761 -0.054285794 -0.037814695 -0.09755504 -0.06469654 -0.018940384
-0.05131065 0.023011085 -0.06433164 -0.09992036 -0.12877637 0.1094228 -0.12367374 0.037630394
-0.1164659 -0.16614823 -0.0051150993 -0.0022884416 -0.11160152 0.15142804 0.051112548 -0.17162088
0.03718094 0.073828146 -0.06168505 -0.023578716 0.13795565 -0.091022246 0.011358037 0.028194435
0.0634015 0.033698104 -0.026134867 0.074977 -0.1025231 -0.0846932 -0.018522086 -0.018053263
0.033818886 0.077643536 0.01175646 0.03270178 -0.007737343 0.0021966128 -0.016508037 0.022112207
-0.04772596 -0.13064228 -0.09057178 -0.12478966 -0.01733726 -0.12189017 -0.13050409 -0.13737436
-0.031986937 0.025478097 0.06513009 -0.08969268 0.06135753 0.11984493 0.087115325 0.151604
0.12302189 -0.09136344 -0.12462917 0.0034516496 -0.071596645 -0.103189275 -0.09361151 -0.04487397
-0.10106727 0.02816298 -0.07309521 0.067807645 0.02362302 0.03173432 -0.03880164 0.025608031
-0.08762665 -0.015386708 -0.16236301 -0.11983939 0.08833178 0.11990311 -0.04399226 0.07057459

bias f4 [32]
00000000: d648 a5bd 4698 05bd 0b10 cfbd e24f e3bc
00000010: d0f2 a6bd 407c 66bd c8da b4bd b2de b7bc
00000020: b336 8dbd 32e3 cfbc 8817 14bd 4d74 983c
00000030: f399 b1bd 8513 6fbd 6e2c 2dbd 0078 8ebd
00000040: cae4 14bd f715 0abd dfd8 aebd e727 7abd
00000050: bec0 bdbd 294e aabd 8b02 11bd f8f7 80bc
00000060: 5970 81bd 0763 45bd 78a5 53bd 186e 51bd
00000070: 63b8 bcbd 710c e73a 39de 34bd f116 bfbd
-0.08070533 -0.032615922 -0.10110482 -0.027748052 -0.081517816 -0.056270838 -0.08830792 -0.022445057
-0.06895199 -0.02537689 -0.036155254 0.018610144 -0.086719416 -0.058368225 -0.0422787 -0.06956482
-0.036351003 -0.033712354 -0.08537459 -0.06107321 -0.09265278 -0.08315689 -0.035402816 -0.01574324
-0.06320257 -0.048190143 -0.051671475 -0.051130384 -0.092148565 0.0017627609 -0.04415724 -0.093305476

weight f4 [4, 32, 3, 3]
00000000: a23f bebd 4dee e5bd 298f 873c 94a6 a0bd
00000010: 5ef5 123d b82d d73c 89a4 7f3b 35ca d8bd
00000020: 8b57 383d a975 963c 3519 81bd 6cc7 373c
00000030: e621 8c3d 2c59 8fbd 5f37 c23d 2266 953b
00000040: 5ec5 213e fbac dcbc d937 3ebb 7267 823d
00000050: 3cd6 063e 6cb3 683d b516 7d3d ad95 0c3e
00000060: d5b1 953c 159e 0fbd 8cc0 ab3d b04c 833d
00000070: 4ac2 b0bc dc28 853d e965 ce3c 7daf e7bb
00000080: ad46 65bb f27e 523d 08e5 c33d bb37 41bd
00000090: 91ad 3ebb abcb c5bd 6672 80bd 8663 8cbd
000000a0: 93ba ecbc 81ea 8b3c 2cf0 8ebd 5ddf 59bd
000000b0: 156a 8dbd 0e76 73bd f645 c2bc f998 c5bc
000000c0: c9bd dd3d b282 1cbd 21a2 35bd afff 40bd
000000d0: 79de 42bd 5f76 f63c de2d e43d 91f2 ae3d
000000e0: 13ff 843d 6729 ad3d aba1 b83d 6706 20bd
000000f0: b41f 4b3d 14f1 ed3c 2b51 343d 68b0 303d
00000100: 392f ad3d a332 723c 8c0a 89bd 182b dd3d
00000110: b091 f93d 7012 8a3d b10e 0fbc d0ac 01bd
00000120: 37eb 803d 3967 b1bd 49a9 c0bd 408c 76bd
00000130: 594c 28bc 8f97 0bbd c82a 9c3c 5bc3 afbd
00000140: 0c7d 45bd b125 a43d da9c 683c 8c24 b53d
00000150: 3723 b73b 3c16 263d 9f11 a93c 07b7 b53b
00000160: 8ccb c3bd 3914 d83c e5cf 703d 4bf3 d6bd
00000170: f45c cd3c 3285 e33d d782 5c3d 60bd b43c
00000180: 6654 0a3e dac6 5d3e 9c59 833d 054d 753c
00000190: c85d 0f3e 464d ebbc 0484 873d 9e76 d83d
000001a0: 596f 57bc a3e7 883c abb7 023e 1e59 a03d
000001b0: 818f aa3d c27f 193d 5bc4 d43c 039f 35bd
000001c0: 2c56 dfbc e8af b83c 6c62 27bd 9b74 0ebd
000001d0: 2be4 fe3d c6f4 653d 3d55 73bd 322d 983c
000001e0: 400c d6bd 0c88 833d e7be adbd 95de 3dbd
000001f0: 2bee 14bd 49ac 9abd bf75 673d a0f1 543d
00000200: ad33 0c3e 6789 60bc fbac 23bd acf7 ad3c
00000210: ed60 853d d3e9 943d a25e 573c f593 833d
00000220: 572f cdbc c193 c9bc 74f1 c53d 5d05 493d
00000230: e98b 003e 84c3 4a3d e3d0 da3d 1f2b 493d
00000240: 0cfc 063e ef2d 9e3d 1034 a53d edb6 093e
00000250: 3137 bb3d 16ed 373d fe79 f93c 3a0e c23c
00000260: 6b07 b7bc 6d74 c1bd c951 acbd c699 8e3b
00000270: f7d5 10bd 1963 14bc 496d 59bd e07b a5bd
00000280: d30e e7bd db3f 543c 87c2 003e 641b 0a3c
00000290: 1210 9938 1b7c 193e d105 943d 1060 a33c
000002a0: 3e5e 423d aa05 043e 9ba5 c83c 8a9e 2e3b
000002b0: fead 06bd e34f 1ebe 9eeb 093d 607c 1ebe
000002c0: 258a f8bd 8752 e13a eb2f 14be 6048 f43c
000002d0: d7fc 72bd 64d6 a5bd 98d2 f9bd 82dd ea3d
000002e0: bcb6 9d3d 299d a3bc 7496 d53d 5b2f a03d
000002f0: d6cc 8fbd f059 18bd 48fa 92bc ea57 f1bc
00000300: f9f7 cbbd 64cd 9abd 606a d3bd 5415 18be
00000310: 11a5 db3c 0ee9 83bd 7fe1 a73d 07bf 37bc
00000320: c3c3 8f3d 58b3 0b3e 3502 653c 804f b03d
00000330: 341e 8e3d 4621 7c3d 6ebc 9a3c 8ef2 c3bd
00000340: 9413 4c3d b90b 11bc ee66 483c 906c 87bd
00000350: f2b7 acbd 459a 7ebd 192f 79bd 0efa ffbd
00000360: 5db3 79bd 5cc2 a6bc 3217 63bd ed8a 22bd
00000370: b80d 10bd c7af 07bc fd8b 97bd bc42 b5bc
00000380: fdbb 163d fa76 9a3b 8e92 ca3c d3fe 223c
00000390: fbfb a13c 7abc 943d fd57 c93d efb0 a33d
000003a0: 6638 303e 3f4a 9c3d 378a 19be aa2a 90bd
000003b0: 9b52 01bc be2e cc3b bfba 3a3d 5179 96bd
000003c0: a8ec debd 241b 9d3b 9fe7 b83c 522b e8bc
000003d0: c057 96bd ef60 083d 3b36 953c 9d70 5c3d
000003e0: 452a 573e 7319 883b 6462 eb3c 95bb ae3d
000003f0: 0fa6 fb3c 2783 a6bd 2edb 513b 7411 8b3d
-0.09289481 -0.11227093 0.016547756 -0.07844272 0.03587853 0.026266918 0.0039007983 -0.10585443
0.045005362 0.018366652 -0.06303636 0.0112169795 0.06842403 -0.0699943 0.094832174 0.0045592943
0.15797946 -0.026937952 -0.0029024987 0.06367387 0.13167661 0.056811735 0.061789233 0.13728972
0.018273273 -0.03506287 0.08386335 0.06411111 -0.02157702 0.06501934 0.025195079 -0.0070704804
-0.0034984753 0.051390596 0.095651686 -0.04717229 -0.0029095153 -0.09657987 -0.0627182 -0.0685492
-0.02889756 0.017079594 -0.06979403 -0.05319153 -0.06904999 -0.059438758 -0.023715 -0.024120795
0.10827214 -0.03821058 -0.04434407 -0.04711884 -0.047575448 0.03008574 0.11141561 0.085423596
0.06493964 0.084551625 0.09015211 -0.039068606 0.04959078 0.02904562 0.04402272 0.043136984
0.08456273 0.014782581 -0.06691465 0.10799235 0.12185991 0.06741798 -0.00873153 -0.031658947
0.06294864 -0.08662266 -0.094072886 -0.060192347 -0.010272109 -0.034080084 0.019063368 -0.08582183
-0.048214957 0.080150016 0.014197553 0.088448614 0.0055889147 0.040548548 0.020638285 0.0055455
-0.09560308 0.02637683 0.058792014 -0.10495623 0.025068738 0.11109389 0.053835716 0.022062957
0.13508758 0.21657887 0.06413576 0.014971976 0.14000618 -0.02872337 0.06616977 0.105694994
-0.013149106 0.016712015 0.12765376 0.07829498 0.083281524 0.037475355 0.025972536 -0.0443411
-0.02726277 0.022544816 -0.040865347 -0.034779172 0.12445863 0.056141637 -0.05940746 0.018576238
-0.10451555 0.06422433 -0.08483677 -0.04635485 -0.036359947 -0.07552392 0.056508776 0.051988244
0.13691588 -0.013704634 -0.03995989 0.021236263 0.06512628 0.07271161 0.013145121 0.06424705
-0.025046987 -0.024606587 0.09665194 0.04907738 0.12553371 0.049502864 0.10684373 0.04911339
0.13182086 0.07723605 0.08066571 0.13448687 0.09141386 0.044903837 0.030453678 0.023688424
-0.022342404 -0.094460346 -0.08414037 0.0043518273 -0.035360303 -0.00905683 -0.053082738 -0.08080268
-0.11282124 0.012954677 0.12574206 0.008429382 7.298602e-05 0.14988749 0.07227672 0.019943267
0.047453158 0.12892786 0.02449303 0.002664479 -0.032880776 -0.15460162 0.033671968 -0.15477133
-0.12135724 0.0017190733 -0.14471404 0.029819667 -0.059323158 -0.080975324 -0.12198371 0.114680305
0.077008694 -0.0199724 0.10429087 0.07821532 -0.07021491 -0.037195146 -0.017941609 -0.029460866
-0.099594064 -0.075587064 -0.10323024 -0.14851886 0.026812108 -0.06440936 0.08197307 -0.011214978
0.070197605 0.13642633 0.013977577 0.086089134 0.069393545 0.06155517 0.018888678 -0.09567748
0.04982336 -0.008852893 0.012231572 -0.066125035 -0.08433522 -0.06215884 -0.06083593 -0.12498866
-0.06096207 -0.02035635 -0.055442043 -0.03968327 -0.035169333 -0.008281655 -0.073997475 -0.022126548
0.036800373 0.00471389 0.024728086 0.00994845 0.019773474 0.072625116 0.098312356 0.07992732
0.17209014 0.07631349 -0.14994131 -0.070393875 -0.00789323 0.006231158 0.04558825 -0.07347358
-0.10884982 0.004794495 0.022571383 -0.02834097 -0.07340956 0.033295568 0.018214336 0.053818334
0.21012218 0.0041534244 0.02873344 0.08531872 0.030718831 -0.08130484 0.003202151 0.06790438

bias f4 [4]
00000000: 7704 7ebb 00ac e53c 632b e93c 7b1f 79bc
-0.0038759985 0.028036118 0.028463071 -0.015205259
