super_resolution/checkpoint_scale2/model_epoch_29.pth (torch_old, 247001 bytes, 8 tensors)

weight f4 [64, 1, 5, 5]
00000000: 2f16 5c3e 7e8c cabd 5e76 24be 0807 1bbe
00000010: 4e1e 593e 3577 34bd 1d67 81be b917 60be
00000020: dcdb b33c d6b9 3fbe 2981 e0be b257 55be
00000030: d5b3 9abe 5a4f 30be 7810 08bd d9a9 81be
00000040: 55b9 11be eaab 85bd 78c4 8abe 1ae6 ef3d
00000050: d49c 073d 2cb8 c73c 8b1f 12be c9f7 c83c
00000060: 6bac bd3d 5e80 18be 2acd d7bd ec7e 8dbe
00000070: 9429 873d 3ea0 23be b758 95be 5c68 bfbd
00000080: 1272 54be bcfe 5a3d 9d9d 01bd 7ecb f8bd
00000090: cb98 86bd 2fec 73be 1436 22be eb70 af3d
000000a0: 059f 0b3e 9e75 83be 99d4 a83c ce2e 8a3e
000000b0: e08d 3cbe d5b2 debd 5368 eebd b3f5 21be
000000c0: 4315 c2bc d0bc 74bd 2f1e a8be 4e8c bd3d
000000d0: 2ad1 01bd 8382 d23d c004 1a3e b884 82be
000000e0: 738d 8abc f020 8fbd f68e 963d 0d8f e2be
000000f0: 472f 363d 6660 103d 203d 783d 5336 8fbd
00000100: 5779 99bc 33d5 3dbe 32d5 5bbe 77f3 1fbe
00000110: 720b b1bd 4523 4fbe b04c 0dbe daf3 ca3b
00000120: e04e 28be aa68 263e e421 e3bd 00d6 57be
00000130: 7d00 3fbe 02f8 973d f089 aebd 4ad2 73be
00000140: a5e8 3d3d bbf0 a13d 28b8 90be 85ba 9abe
00000150: f5c3 c8be 7d7f a33d f08c 74bd faf3 54be
00000160: f7d3 873b 7e93 b6be 7c06 0abe c5f4 6e3e
00000170: 9ef4 8b3d 832b c5bd e397 07be 79a6 eabd
00000180: edcd 93be 057e cabd b7d1 cebb 0b46 2cbe
00000190: 16ca 35be 2453 703e 2da8 553e c6fb 1bbe
000001a0: 9590 db3d b86c 353d 23cb 9ebe 190d 593b
000001b0: 0e5c 443d 0ff7 dabb 8045 cabe cb79 983c
000001c0: 0f35 873d 480d 14be 0346 41be d986 79bc
000001d0: b2cb 33bd 916a 94be 71e0 803e 96c6 ad3d
000001e0: 3ef2 85be dbbd 55bd 2812 c2bd 6d2b a8be
000001f0: b450 59be 3e5c aabd 3972 e2bd 48bd 7b3a
00000200: 8032 b4bc 9099 83bd 4fab a13d cde3 823e
00000210: 8cc6 1d3e 736e e03d d75f f5bd 0fd5 88bd
00000220: 5726 d3be f497 343d 387a b73e afb4 96be
00000230: ab48 90bb 2ddf 00be a713 1abf df00 0bbe
00000240: 5b3d d0bc 1914 e2bd bdd2 f1bc a0a2 70be
00000250: 727a 373e 8dd0 683e 65c7 533c 8382 94bd
00000260: 4205 603e 8709 72be 58c3 83be 183c d6bd
00000270: aa5e 523e c56a 3d3e fe1f 663d dfed ba3d
00000280: b33f 113e 9058 d23d 0b24 d8be d0da ccbe
00000290: 680d 833e 86cb d53d b884 94bd b3c6 54be
000002a0: 93f2 a5be cd66 a9bc 6582 6ebe 45b6 7c3e
000002b0: 4fdf 8abe 1c8b df3b 86e2 75bd 69a3 f0bd
000002c0: 9b13 2cbc cefa e43d 23e3 12be f57f 94be
000002d0: 8cea d03c 76b0 16be d903 f93e 012a c73d
000002e0: 4fb7 8f3e c4b4 5b3d 92dc 343e e239 903b
000002f0: b30b ed3c 6996 8fbd e8df 04be b2f4 3abc
00000300: ded8 85be de2a 83be d762 1cbe ccd6 a23e
00000310: 4a5c c4be 1ce9 1b3e 932a 78be 6a66 32be
00000320: 41aa 5d3e 88bd 413e d6f8 063e 01f3 7dbe
00000330: 5ad9 c838 1a2d 34bd e8c8 a23e 7e32 a8be
00000340: 4fd4 333e 1a62 debc 09c4 b2be c5ec b93e
00000350: f3cb ffbd 1c12 6cbe 62bd 82be e3f6 e1bc
00000360: 0087 d3bb f0a3 153e 6841 4dbe e9bf 253e
00000370: b829 063f 1fb0 783b a114 92bd 0b6d 763e
00000380: 7109 3f3e 73ea 6b3e 03ae 97be 2b48 1b3e
00000390: 2ba4 2bbe 2654 213e 62dd 543e 4604 363e
000003a0: 9e7c 37be f5de e0bb ed69 40be 38a3 cb3d
000003b0: de14 cb3d 7145 593e cc81 90be a039 b7bd
000003c0: f06f e7bc 753b c0bd 2564 bcbc 02dc 0d3e
000003d0: 8dcd 12be 8955 2abd d034 72be 4194 3c3e
000003e0: 7f36 58be 276f 55bd 8f3c 2fbe a21b 04be
000003f0: 887b 4bbe 4273 0ebf be2d c53d 7a9f 31bd
0.21492837 -0.09890078 -0.16060778 -0.15139401 0.21202967 -0.044058997 -0.25273982 -0.2188405
0.021955423 -0.18723235 -0.4384854 -0.20834234 -0.30215326 -0.1721777 -0.03321883 -0.25324896
-0.14230855 -0.06526931 -0.2710302 0.1171381 0.033108547 0.024379812 -0.14269845 0.024532216
0.09261402 -0.14892718 -0.10537179 -0.27635896 0.06599727 -0.15979096 -0.29169247 -0.09346077
-0.2074664 0.05346559 -0.031644452 -0.12148188 -0.06572112 -0.23820566 -0.15840942 0.08566459
0.1363488 -0.25675672 0.020609187 0.26988834 -0.18413496 -0.10873953 -0.11640992 -0.15816383
-0.023691779 -0.059750378 -0.32835528 0.092552766 -0.031693615 0.102787994 0.15040874 -0.2549188
-0.016913151 -0.06988704 0.073514864 -0.44249764 0.04447868 0.035248183 0.06060517 -0.069927834
-0.018734617 -0.1853836 -0.21468046 -0.15620218 -0.08644761 -0.20228298 -0.13798785 0.00619362
-0.16436338 0.16250864 -0.110904485 -0.21077728 -0.1865253 0.074203506 -0.08522403 -0.23810688
0.046364445 0.07907244 -0.282655 -0.30220428 -0.39212003 0.07983301 -0.05970472 -0.20796195
0.004145141 -0.35659403 -0.13479036 0.2333556 0.068337664 -0.0962744 -0.13241534 -0.114575334
-0.28868046 -0.098873176 -0.006311621 -0.16823594 -0.17752871 0.23469216 0.20864935 -0.15232763
0.10720936 0.044293135 -0.31014356 0.003311938 0.047939353 -0.0066822837 -0.3950615 0.018612763
0.06601917 -0.14458191 -0.18874364 -0.015229904 -0.04389543 -0.28987554 0.25171235 0.08485143
-0.2616138 -0.052183013 -0.09476119 -0.3284563 -0.21222192 -0.08318375 -0.110569425 0.0009603095
-0.021996737 -0.06425774 0.07894003 0.25564423 0.15407771 0.109585665 -0.119811706 -0.06681263
-0.41240188 0.044090226 0.35835433 -0.29434726 -0.004403194 -0.12585135 -0.6018624 -0.13574551
-0.025419882 -0.110389896 -0.029519433 -0.23499537 0.17917803 0.22735806 0.012925957 -0.07251456
0.21877006 -0.23636447 -0.25734973 -0.10460681 0.20543924 0.1849776 0.056182854 0.091274016
0.14184456 0.10270798 -0.42215 -0.4001069 0.25596166 0.1043921 -0.072518766 -0.20778923
-0.32411632 -0.020678902 -0.23291929 0.24678905 -0.27123496 0.006822003 -0.060030483 -0.11749918
-0.010502721 0.1118065 -0.14344458 -0.29003873 0.025502466 -0.14715752 0.48635748 0.097248085
0.2806954 0.05363919 0.17662266 0.0044014314 0.028936243 -0.0701111 -0.12976038 -0.011410879
-0.2614202 -0.25618643 -0.1527208 0.31804502 -0.3835166 0.15225643 -0.24234991 -0.1742188
0.21646978 0.18919957 0.13180861 -0.2479973 9.577228e-05 -0.043988325 0.31793904 -0.32851022
0.17561458 -0.027146388 -0.34915188 0.36313453 -0.12490072 -0.23053783 -0.25535113 -0.027583545
-0.0064553022 0.14613318 -0.20044482 0.16186489 0.5240741 0.0037946773 -0.07132841 0.24065034
0.18655945 0.23038654 -0.29624948 0.15164249 -0.16761844 0.15754756 0.20787576 0.17775068
-0.17918631 -0.006862516 -0.18790407 0.09943241 0.099160895 0.21217896 -0.28224027 -0.08946538
-0.028251618 -0.093863405 -0.022996971 0.13853458 -0.14336224 -0.04158548 -0.23652959 0.1841593
-0.21114539 -0.052107956 -0.17112945 -0.12901166 -0.19871342 -0.5564462 0.09627865 -0.04336498

bias f4 [64]
00000000: ec8a 7e3c 5b86 b63c bf49 6abe ddf1 b5bd
00000010: 8237 c8bd b2fa 763d a3d6 bc3d 4e59 9cbc
00000020: 6882 27be 37b9 65be bb19 0f3e c1e1 d83d
00000030: d5c1 e43d 721b 07be cc40 1ebe f14a 343d
00000040: be63 52bd 93f4 22bc e824 6cbe 57d6 f43d
00000050: f39d 193d bc03 1c3e 3162 7b3d 5012 163d
00000060: e343 32bd 587a 5bbe 8457 3ebe a8b5 90bd
00000070: 3e6e 903d 91f4 3abd 6c12 573d 679c 03bd
00000080: dd63 d2bd d105 00bd ae3f 44bd 9b1d 17be
00000090: 8448 16bd 1cb9 9f3d 91e0 bd3d 1fd0 97bd
000000a0: 5943 5bbe b47b d13d 5210 52bb 8ba7 54bd
000000b0: 9159 f3bb 998e 92bd e5e2 1cbd 9102 973d
000000c0: 984e 213d 78b3 73be d9dd 1dbe 8047 a3bd
000000d0: d261 56bc 808e 063d b9a5 02be 4781 5bbe
000000e0: 9e3d f63d 5ad3 45be 0f89 62be 5da3 db3d
000000f0: 14a8 3b3e 75fb af3c 714c 3fbe f62c 2cbe
0.015536051 0.022280863 -0.22879694 -0.088840224 -0.09776212 0.060297675 0.09220626 -0.019085553
-0.1635834 -0.22433935 0.13974659 0.10589934 0.11169783 -0.13194063 -0.15454406 0.044016782
-0.051364653 -0.009946006 -0.23060954 0.119549446 0.037504148 0.152358 0.06137294 0.036638558
-0.043521773 -0.21433389 -0.18588072 -0.07065898 0.07052277 -0.045643393 0.052507803 -0.03213158
-0.10272954 -0.031255547 -0.047912292 -0.14757387 -0.03669025 0.07798979 0.09271348 -0.07412743
-0.2141241 0.102286726 -0.0032053185 -0.051917594 -0.0074264486 -0.071561046 -0.03830232 0.073735364
0.039381593 -0.2379893 -0.1541666 -0.07972622 -0.013084846 0.032850742 -0.1275853 -0.21436034
0.12023471 -0.19318905 -0.22122596 0.107245184 0.18325835 0.021482209 -0.18681504 -0.16814026

weight f4 [64, 64, 3, 3]
00000000: 7326 7bbb c7c2 11bd 1376 d3bd 83d2 073c
00000010: 037f 88bd b728 753c 8095 75bb b975 d9bc
00000020: 78ec 9dbd 54d9 babd 2820 3e3c 13ab 11be
00000030: 4f9d 043c 3c62 cfbd 661e c7bd ea6c adbd
00000040: f4e6 49bd 63e7 eebd 8252 f8bd a3dc edbd
00000050: 26b7 b4bd 209d 04be 6fcf 04be 93e9 80bd
00000060: fbf5 47bd 09e6 dfbd 0f55 07be d7b6 90bc
00000070: 966c 17bd bb7f fabd 84d0 da3d 38c3 e53d
00000080: 8eb4 00bc a29e 5ebd 9faa 7abd 2c4d 1bbc
00000090: 797d 16be 3d89 a33c 916d dabd ad51 2dbd
000000a0: 0fad 993d 59d5 69bd 2537 6c3d 6de6 9c3d
000000b0: b175 3abc b484 00be a21e c4bd eade a3bd
000000c0: 7810 543c 7771 dabd e067 7bbc e5a5 10be
000000d0: 1411 a3bd a404 ddbc 593e 91bd 1dab 01be
000000e0: 3820 5abd dd98 a3bd a3b6 973c cbbe f1bd
000000f0: 1d64 503d 9f55 863a 3544 93bd 2682 91bd
00000100: f944 9fbd 5525 033d 67a0 253c 1186 3bbc
00000110: 605e babd 110c e1bd 1ccf 99bd bab6 01bd
00000120: bbf3 2dbe f8c1 55bd e32f 7abc 6c0e 09bd
00000130: 98db abbd 4fe0 48bd e43d aebc 988c 11be
00000140: a9f2 9c3c 60db a2bd a7d6 c33c a7d5 11bd
00000150: 6a8e 163d cd69 00be 438d e6bd 71bb a1bd
00000160: daec debd 9027 3ebd 9cba 84bd a86e 45bd
00000170: 9af4 c2bd 6b80 dcbd dabe 87bd 1e61 a33a
00000180: 8e0d 37be 4394 47bd 7205 88bd d360 013d
00000190: 5402 9dbc 779c b43d 55bf a43d 0618 32bc
000001a0: 8d7d 8cbd 5fba f3bc a7aa 90bd 76f3 8f3d
000001b0: 17db e73b 169b 343c 0a6a dcbb dc3b 07bd
000001c0: 0576 53bd 3e0d 7bbc 3409 a83d 9fed 243d
000001d0: 230c 73bd 773f cdbd d95e e1bd a4eb a63d
000001e0: 0aff b1bd 83a1 a6bc 9dc5 0fbe 6a13 5abe
000001f0: 8b8d e2bd e69e 11be 8181 40bc a09c 1c3d
00000200: 9800 66bd 9078 37be f8ea d03c bf7b 79bd
00000210: 9311 b8bd 36d2 1a3c d014 b5bd 5986 90bd
00000220: 3033 c7bc f851 853a 10c5 9cbd 9935 43bd
00000230: 9c57 143d 7813 79bd d495 04bc 247b 17bc
00000240: 3d49 92bd 7826 4cbe 7f20 26bc 740e 0fbd
00000250: cf42 0bbe e24d f0bd a3d4 f1bd dea7 30bd
00000260: 745a b7bd 1503 ffbc 9463 1fbc f6d9 c8bd
00000270: 7c06 24be d2ad 8bbd 8b4c 39bc 302c 16be
00000280: 032f 47bd d826 15be abc3 0d3d 6d98 23be
00000290: 2a7a 82bd 0088 d6bc 9f17 d9bd e7cd c0bd
000002a0: 1c83 82bd f1ca 093c 4873 65bd 69a6 e2bd
000002b0: b69e b6bd d504 44bd 3212 ecbb f2a2 29bd
000002c0: 83a7 5cbd 96d3 cbbd fa74 e6bc a212 883c
000002d0: af52 9abc 3379 e3bb 2126 863c a60c 8dbd
000002e0: 321c 07bd 4179 f8bc ef9f b5bd a8f5 efbc
000002f0: 05d7 2abc 2d97 b9ba 6648 0c3d 7e29 afbd
00000300: 2e72 6b3c b2db 7bbd c890 5d3d 80ef ffbd
00000310: 6788 e2bd 1e3c 1bbd a9df 85bd ec36 4fbd
00000320: 55ba a1bd 4aa1 70bd bf5e 5fbc 555b cabd
00000330: fa0f cabd 8342 1b3d 2577 d83c 1301 a9bd
00000340: 6c23 ddbc b8b9 98bd 4bfa b0bd 4892 bebd
00000350: edd6 bdbd 115c c2bd 0467 72bd fcc6 db3b
00000360: 08b7 debd 37d3 b2bd 9ef5 1abe 2726 0dbd
00000370: 22c0 9a3c dbf6 0ebe 8db4 b9bd 0030 aebd
00000380: 9fb5 cbbc 182b a9bd 8327 1d3d b7a3 4fbd
00000390: e665 51bd dcd8 2bbd 5990 f9bd 4562 5ebd
000003a0: 7b83 43bd 18f4 a1bd 8e67 c63d 0766 13bd
000003b0: e6e9 1c3c 90b4 403c fa59 563b 919c f1bd
000003c0: 8d83 413d 2374 32bd a94e 973d 5ccd bc3b
000003d0: 7c84 253d 7bea 8ebd 9e0d cabd 605c e2bd
000003e0: 180a 163d 95ff e03c cf3e d8b9 86a2 c9bd
000003f0: 46bf e2bd 9548 11be 9a76 15be 3c74 38bd
-0.0038322478 -0.035586145 -0.10325255 0.008289936 -0.066648506 0.01496332 -0.0037473142 -0.026545392
-0.077111185 -0.09123483 0.011604346 -0.14225416 0.008094146 -0.101261586 -0.09722595 -0.08468039
-0.04929252 -0.11665227 -0.12125112 -0.11614349 -0.08823995 -0.12950563 -0.12969755 -0.06294551
-0.04881857 -0.109325476 -0.13216041 -0.01766531 -0.03696879 -0.12231394 0.106843024 0.11218876
-0.007855548 -0.054350503 -0.061197873 -0.009478848 -0.14696302 0.019962901 -0.106654294 -0.04231422
0.075037114 -0.05708823 0.057669777 0.07661138 -0.011380599 -0.12550622 -0.09576155 -0.08001502
0.01294338 -0.10666173 -0.01534459 -0.14125784 -0.07962242 -0.026979752 -0.0709197 -0.12662931
-0.053253382 -0.07988141 0.018519705 -0.11803969 0.050876725 0.0010248906 -0.07190744 -0.07104902
-0.07776827 0.032018024 0.010109044 -0.011445538 -0.09100032 -0.109886296 -0.07510206 -0.031668402
-0.16987507 -0.052186936 -0.015270206 -0.03346102 -0.083914936 -0.049042042 -0.021269746 -0.14213789
0.019158678 -0.07951999 0.023906065 -0.035604145 0.03675691 -0.1254036 -0.11257412 -0.0789708
-0.108850196 -0.04642445 -0.064809054 -0.048201233 -0.0951931 -0.10766681 -0.06628199 0.0012464856
-0.17876264 -0.048725378 -0.066416636 0.03158648 -0.01916615 0.08818906 0.08044306 -0.010869985
-0.068598844 -0.029751955 -0.07063799 0.07028858 0.007075678 0.0110233035 -0.006726508 -0.03301607
-0.051626224 -0.015322981 0.0820488 0.040265676 -0.059337746 -0.100218706 -0.11004419 0.08150414
-0.08691223 -0.020340687 -0.14040227 -0.21296468 -0.110621534 -0.14220771 -0.011749626 0.038235307
-0.05615291 -0.17917085 0.025502667 -0.06090903 -0.08987727 0.009449532 -0.0884186 -0.07056875
-0.0243164 0.0010171523 -0.07654774 -0.047658537 0.036216363 -0.060809582 -0.008092362 -0.009245668
-0.07142875 -0.1993655 -0.010139584 -0.034925893 -0.13599704 -0.11733605 -0.11808135 -0.04312884
-0.089527994 -0.0311294 -0.009728331 -0.09807198 -0.16018099 -0.06820263 -0.011309753 -0.14665294
-0.04862882 -0.14565599 0.03461043 -0.15976115 -0.06370957 -0.026187897 -0.106002085 -0.09414273
-0.063726634 0.008410201 -0.056018144 -0.110668965 -0.089169905 -0.04785617 -0.0072043175 -0.041415162
-0.05387069 -0.09952466 -0.02813195 0.016610447 -0.018838255 -0.0069419383 0.016375603 -0.06887178
-0.032985874 -0.030331256 -0.088683955 -0.029291943 -0.010427241 -0.0014159434 0.034248732 -0.08552836
0.014370484 -0.061488815 0.054093152 -0.12496853 -0.11061173 -0.03789913 -0.065368004 -0.050589487
-0.07896868 -0.058747567 -0.013633429 -0.098807015 -0.098663285 0.037905227 0.026424 -0.08252158
-0.02699443 -0.07457298 -0.086414896 -0.09305245 -0.092695095 -0.094902165 -0.059180275 0.0067070704
-0.10874754 -0.08731692 -0.15132758 -0.034460213 0.018890444 -0.13961355 -0.090676405 -0.08505249
-0.024866877 -0.082601726 0.03836776 -0.05069324 -0.05112257 -0.04195486 -0.12185735 -0.054292936
-0.04773281 -0.07907885 0.0968772 -0.035985973 0.00957725 0.011761799 0.0032707439 -0.11797441
0.047244597 -0.043567788 0.0738805 0.0057617854 0.04040955 -0.06978317 -0.098658785 -0.110527754
0.03663072 0.027465621 -0.00041245527 -0.09845452 -0.11071639 -0.14187844 -0.14596024 -0.045032725

bias f4 [64]
00000000: 5ab9 00bd b0fb 2abd feb8 21bd 5b19 3bbd
00000010: 43a2 4abd 0ec5 f4bc 788e 9bbd 3950 b6bd
00000020: 9868 0cbd b914 b6bd 24b0 87bd 27ac 9dbc
00000030: 3568 773c 8399 cdbd ac98 38bd 9a4c 68bd
00000040: 4230 8bbd ac45 e7ba 8357 183d fb9d 21bd
00000050: 1904 7dbd 0cf3 c5bd 1332 97bd 2363 05bd
00000060: 5d07 96bd 0201 08bd 2786 2cbd 3b58 47bd
00000070: d0c2 3fbd 6056 02bd 1a73 97bd 663b 99bd
00000080: f079 39bd 6ac0 25bc 850a 6bbc cc68 c1bd
00000090: a21a 58bd 4686 eebc 1238 bfbd 79c2 fc3c
000000a0: 4f10 f9bc 9d4c b6bd 46eb bcbc 7a40 1ebd
000000b0: c91a 9abd 5aa3 95bd f41e 8ebd 93d5 01bd
000000c0: 8cbe 83bd 20ee 8abd 7880 75bd 6b47 fbbc
000000d0: 1164 55bd 1fcc 0abc ac8a a4bd ecda e8bc
000000e0: b0a3 1cbd 5b40 99bc 25f3 aebc 738d 41bd
000000f0: 6a5b f4bc 18b6 22bc 2155 71bd 7bdd 96bd
-0.031426765 -0.041743934 -0.039483063 -0.045678478 -0.04947115 -0.02987912 -0.07595533 -0.0890202
-0.034279436 -0.08890671 -0.06625393 -0.019247128 0.0151005285 -0.10039046 -0.045067474 -0.056713678
-0.06796314 -0.0017644665 0.037192833 -0.039457303 -0.061771486 -0.09665498 -0.07382598 -0.032565247
-0.07325623 -0.033204086 -0.042120125 -0.048668128 -0.046816647 -0.031820655 -0.07395001 -0.074820325
-0.045282304 -0.010116676 -0.01434577 -0.094438165 -0.052759774 -0.029116761 -0.093368664 0.03085445
-0.030403284 -0.089013316 -0.023061406 -0.03863571 -0.0752464 -0.073065475 -0.069394976 -0.03169782
-0.06432828 -0.067837 -0.05993697 -0.030673703 -0.052097384 -0.008471518 -0.08034262 -0.028424703
-0.038242042 -0.018707445 -0.021356175 -0.047254037 -0.029828746 -0.00993111 -0.058919076 -0.07366463

weight f4 [32, 64, 3, 3]
00000000: 10e8 dd3d 52b0 31bc cab5 f33b 8031 ef3c
00000010: 49e1 a4bd d258 38be 37cf 453d 7d50 16bc
00000020: d23d abb9 df2d ef3c ea78 de3d 86e8 afbd
00000030: c72f e3bc e65d 8b3c 0af3 76bc 7763 dcbc
00000040: 692a 9e3d df84 42bd 109a e6bd 99d7 babb
00000050: 7241 a1ba 6e73 b7bb 31f6 89bd 2509 9ebd
00000060: 0f9d 6fbd 9c8a 18be 7055 39be 1e29 533e
00000070: 531c 81bc 069d 923c aa80 043d 32df abbc
00000080: 2c96 a0bc 235a e03b 9076 f6bc f360 93bd
00000090: 7a18 a7ba d1c4 a23d e57b dbbd 9834 8cbd
000000a0: 6fa6 bebd 655c 84bd 489f 8cbd 8403 c1bd
000000b0: db28 9ebc 3c09 e4bc 51fd 6fbd 2359 1abd
000000c0: 935c 28bc 40da 2bbb c1d3 d8bc 31ac 9bbd
000000d0: 736c 44bc 6598 cabd 844e 1dbe 8a1b a63c
000000e0: 23e3 8d3d d0e6 42bb b9dc 11bc 81bc febd
000000f0: 1c55 c7bc 4280 903d 6432 5ebd b84c d13d
00000100: 286e 2f3d 1ea1 553c a92e 113e cf33 b13d
00000110: 8f3d 7ebd b306 a73d 27ef 0abd 349d 34be
00000120: 9fef a03d 8a7e d53d 9735 bdbd 1f19 603d
00000130: 3cc5 bdbc ee43 a0bd 9982 7dbd eaef 853d
00000140: fe23 41be f57b 0b3e 42ee e03c f765 00be
00000150: 451c 143c ed6b 51bd 2b8c 2fbd dc5f 823d
00000160: f244 39bd 6647 f6bd e387 5dbb d317 5cbd
00000170: 46e7 bc3d 641e d63a 85a8 95bd 493c 90bd
00000180: 65b7 74bb cf62 51bc 6414 4f3d 2cc8 443c
00000190: 70ac 43bd 7ccc cfbd 60eb e13d cc1b 583c
000001a0: f543 93bc 8d4b 1a3e fbf4 0fbe cb40 473d
000001b0: 3f8a 03bd 68a8 96bc d71f 193c e098 eebd
000001c0: d0b3 823c 3c7d 2bbe 6a61 b8bd 8fa4 32be
000001d0: f895 05be 3f80 7d3d 75ae d93d 2b4b a5bc
000001e0: 9457 073d e6a9 2cbe 2e1c 90bd 7c4e d4bb
000001f0: dd2b f2bd a237 12be 2e8e 323b 0335 50bd
00000200: f682 a53b 21ee 68bd 1114 e6bc 5825 0b3d
00000210: 01b1 43bc 3977 843d 4916 3cbd f067 cbbc
00000220: 341c 163d 7664 87bd 5993 203d 6e99 2a3d
00000230: cec7 6dbd 400c 873d d25c 83bd ae8f f7bd
00000240: 0009 803c 4f67 43bd 72d9 e9bc a1cf 88bd
00000250: bb6a b43c 0fa6 01bc 671a 34bc 4374 f4bc
00000260: aaa3 ccbd 8900 1bbd 9654 a9bd dd8f 73bd
00000270: 9d2b 033e 700b 2dbc 92fa 02bd 2918 afbd
00000280: 83bb 083d d5e0 9ebd 1c5e d7bc 49d6 14be
00000290: 73c1 5bbd 9352 28be 728b 70bd 5e7e 3fbc
000002a0: 794a 8dbd 1df2 f4bd f16c c6bc e35a 5ebd
000002b0: b0e3 1abd fbca c7bd aa7f 84bd 1729 9bbc
000002c0: 392b 52bd 8481 bc3c 5ac0 83bd 17a3 ccbd
000002d0: f8dd 03be 0519 e03d b348 fdbd 3922 1a3d
000002e0: b785 eebd c722 2abe 7b9d a7bb 7ffb 15bb
000002f0: 618f e4bd f70f 1b3e 7c5b 513d 63bd 2fbe
00000300: 234b 183d 4033 973d 8ca9 7cbd f427 c1bc
00000310: 4244 0d3e e669 babd 9816 3a3c caf7 e63c
00000320: 9ad8 813d eb06 0a3d 0419 d6bc 808d 993d
00000330: adf7 d1bd ac73 adbd dbbb 97bc 70e4 93bc
00000340: ac85 0a3d 9303 9f3d 2b9e 403c 4df2 053d
00000350: 8a89 fdbb 0cf5 0f3b dd3b 87bc a924 b53c
00000360: 4c7c 43bd 17c7 05be b37d b9bd c091 ffbd
00000370: 0907 8ebc 96a1 f9bd dda2 05be deab 0cbe
00000380: cd04 03bd a5b7 d03c f762 853d d4b0 b7bd
00000390: 2152 7b3d 4c71 f53d 7f69 b23d 173e 1b3e
000003a0: f1f2 fb3d c81c bbbd 9d3d ffbd 7033 623b
000003b0: 4ca1 92bd ee54 d3bd 6eb7 bfbd dacd 37bd
000003c0: 5bfc cebd deb5 e63c fab2 95bd b2de 8a3d
000003d0: da84 c13c c1fb 013d 93ee 1ebd b5c7 d13c
000003e0: a575 b3bd eb18 7cbc 8242 26be 656e f5bd
000003f0: 55e7 b43d cd8f f53d 4331 34bd 7389 903d
0.10835278 -0.010845261 0.0074374424 0.029198408 -0.08050782 -0.18002632 0.04829332 -0.009174463
-0.0003266172 0.029196678 0.10862906 -0.08589272 -0.027732743 0.017012548 -0.015072593 -0.026902897
0.07722933 -0.047489997 -0.11259854 -0.005701971 -0.001230283 -0.005598477 -0.067364104 -0.07716588
-0.058499392 -0.14896625 -0.18098998 0.20621154 -0.015760576 0.01789714 0.032349266 -0.020980451
-0.019602858 0.0068466826 -0.030085832 -0.07196226 -0.0012748383 0.07947696 -0.107169904 -0.06845969
-0.093090884 -0.06462935 -0.06866318 -0.09424499 -0.01930659 -0.027836435 -0.05859119 -0.037682664
-0.010275978 -0.0026222616 -0.02646816 -0.07601202 -0.011988747 -0.09892348 -0.15361983 0.020276804
0.069280885 -0.0029739626 -0.008902722 -0.12438298 -0.024332576 0.07055713 -0.054247275 0.10219711
0.042829663 0.013038902 0.14177956 0.0865246 -0.062070426 0.08155575 -0.03391948 -0.17638093
0.07858204 0.10424526 -0.09238737 0.054711457 -0.023165338 -0.078254566 -0.061892126 0.065399006
-0.18861386 0.13621505 0.02745736 -0.12538897 0.009039943 -0.051128317 -0.042858284 0.0636594
-0.045231767 -0.12025337 -0.0033802919 -0.053733658 0.092237994 0.0016335961 -0.07307533 -0.070427485
-0.0037340757 -0.012779905 0.050556555 0.012010615 -0.04777187 -0.10146424 0.11031222 0.013190221
-0.01797674 0.15067883 -0.14058296 0.048645776 -0.032114264 -0.01839085 0.00934597 -0.11650252
0.015954882 -0.16746992 -0.09002955 -0.17445587 -0.1304549 0.061889883 0.10628978 -0.020177444
0.033042505 -0.16861686 -0.07036625 -0.0064790826 -0.118247725 -0.14279035 0.002724539 -0.050831806
0.005051012 -0.056867722 -0.02808574 0.03397116 -0.0119440565 0.064680524 -0.04591969 -0.024829835
0.03664799 -0.06610958 0.03920302 0.04165023 -0.058051877 0.065941334 -0.064141884 -0.120879516
0.015629292 -0.047705945 -0.028546069 -0.06680227 0.02202355 -0.007913127 -0.010992623 -0.029840594
-0.09992154 -0.037842307 -0.082680866 -0.05946337 0.12809606 -0.010561809 -0.031977244 -0.0854953
0.03338195 -0.07757727 -0.026289992 -0.14534868 -0.053651284 -0.1643775 -0.058726735 -0.011687843
-0.0689897 -0.11960242 -0.02422187 -0.054285895 -0.037814796 -0.09755512 -0.064696625 -0.018940492
-0.05131075 0.023010977 -0.064331725 -0.099920444 -0.12877643 0.10942272 -0.12367382 0.037630294
-0.11646598 -0.16614829 -0.0051152087 -0.00228855 -0.1116016 0.15142809 0.051112637 -0.17162089
0.03718103 0.07382822 -0.06168513 -0.023578621 0.1379557 -0.0910223 0.011357926 0.028194327
0.063401416 0.033698004 -0.026134975 0.07497692 -0.102523185 -0.08469328 -0.018522194 -0.018053263
0.033818886 0.077643536 0.01175646 0.03270178 -0.007737343 0.0021966128 -0.016508037 0.022112207
-0.04772596 -0.13064228 -0.09057178 -0.124789715 -0.017337339 -0.12189023 -0.13050409 -0.13737437
-0.031987 0.025478194 0.06513017 -0.08969274 0.06135762 0.119845 0.08711528 0.15160404
0.12302197 -0.09136349 -0.12462924 0.0034515522 -0.07159671 -0.103189334 -0.09361158 -0.04487405
-0.10106727 0.028162893 -0.07309528 0.06780757 0.023622919 0.03173423 -0.03880174 0.025607923
-0.08762673 -0.0153868 -0.16236308 -0.11983947 0.088331856 0.119903184 -0.043992292 0.07057466

bias f4 [32]
00000000: e148 a5bd 5e98 05bd 1510 cfbd 1650 e3bc
00000010: dbf2 a6bd fefa 66bd d2da b4bd e6de b7bc
00000020: bc36 8dbd 66e3 cfbc a017 14bd 1c50 8b3c
00000030: fd99 b1bd e314 6fbd 862c 2dbd 0a78 8ebd
00000040: e2e4 14bd 1216 0abd e9d8 aebd 0d28 7abd
00000050: d6c0 bdbd 4f4e aabd a302 11bd 49fd 80bc
00000060: 6470 81bd 1f63 45bd 5bc6 53bd 306e 51bd
00000070: 6db8 bcbd b0dd 823b f64c 37bd 0c17 bfbd
-0.08070541 -0.03261601 -0.10110489 -0.027748149 -0.0815179 -0.05639171 -0.08830799 -0.022445153
-0.068952054 -0.025376987 -0.036155343 0.017005973 -0.08671949 -0.05836953 -0.04227879 -0.069564894
-0.036351092 -0.033712454 -0.08537466 -0.06107335 -0.09265296 -0.083157174 -0.035402905 -0.015745776
-0.06320265 -0.048190232 -0.05170284 -0.051130474 -0.09214864 0.0039937124 -0.04475113 -0.09330568

weight f4 [4, 32, 3, 3]
00000000: ad3f bebd 58ee e5bd ef8e 873c 9fa6 a0bd
00000010: 43f5 123d 7e2d d73c aba2 7f3b 40ca d8bd
00000020: 7057 383d d875 963c 2c19 81bd cec7 373c
00000030: ef21 8c3d 2359 8fbd 6837 c23d ce66 953b
00000040: 5fc5 213e ddac dcbc 2936 3ebb 7c67 823d
00000050: 3fd6 063e 84b3 683d cd16 7d3d b095 0c3e
00000060: 09b2 953c fd9d 0fbd 96c0 ab3d ba4c 833d
00000070: 16c2 b0bc e628 853d 1d66 ce3c a8ae e7bb
00000080: fd44 65bb 0a7f 523d 12e5 c33d a337 41bd
00000090: 6eaf 3ebb b6cb c5bd 7172 80bd 9163 8cbd
000000a0: cdba ecbc 47ea 8b3c 37f0 8ebd 78df 59bd
000000b0: 206a 8dbd 6874 75bd 0dd7 c3bc ae30 c7bc
000000c0: 90b6 dc3d 1e4d 1dbd f66f 36bd 3491 42bd
000000d0: c0a7 43bd b82a f53c e82d e43d 9bf2 ae3d
000000e0: 1dff 843d 7129 ad3d b5a1 b83d 4f06 20bd
000000f0: cc1f 4b3d 48f1 ed3c 4351 343d 80b0 303d
00000100: 432f ad3d 0e33 723c 820a 89bd 222b dd3d
00000110: ba91 f93d 7a12 8a3d 460e 0fbc b8ac 01bd
00000120: 2deb 803d 4367 b1bd 53a9 c0bd 588c 76bd
00000130: c64c 28bc a797 0bbd 942a 9c3c 65c3 afbd
00000140: 247d 45bd bb25 a43d 439d 683c 9624 b53d
00000150: 0b24 b73b 5416 263d d211 a93c dbb7 b53b
00000160: 82cb c3bd 6c14 d83c fdcf 703d 41f3 d6bd
00000170: 285d cd3c 3c85 e33d ef82 5c3d 94bd b43c
00000180: 6954 0a3e ddc6 5d3e a659 833d b68a 583c
00000190: 8888 0c3e d999 e5bc 00aa 973d f6b5 eb3d
000001a0: 5e70 d3bb 0414 863b e549 d73d 7194 803d
000001b0: 8b8f aa3d da7f 193d 8fc4 d43c eb9e 35bd
000001c0: f855 dfbc 1cb0 b83c 5462 27bd 8374 0ebd
000001d0: 35e4 fe3d 9ef4 653d 5c55 73bd ed2c 983c
000001e0: 4d0c d6bd 0188 833d f3be adbd b4de 3dbd
000001f0: 4aee 14bd 54ac 9abd d775 673d b8f1 543d
00000200: b033 0c3e fc88 60bc e3ac 23bd e0f7 ad3c
00000210: f760 853d dde9 943d 0d5f 573c ff93 833d
00000220: 232f cdbc 8d93 c9bc 7ef1 c53d 7505 493d
00000230: ec8b 003e 9cc3 4a3d edd0 da3d 372b 493d
00000240: 0ffc 063e f92d 9e3d 1a34 a53d f0b6 093e
00000250: 3b37 bb3d 2eed 373d 327a f93c 6e0e c23c
00000260: 3707 b7bc 7874 c1bd d451 acbd db98 8e3b
00000270: 12d6 10bd 8e63 14bc 646d 59bd eb7b a5bd
00000280: de0e e7bd 643f 543c 8ac2 003e cf1b 0a3c
00000290: a546 9938 1e7c 193e db05 943d 4460 a33c
000002a0: 565e 423d ad05 043e cfa5 c83c a89c 2e3b
000002b0: 19ae 06bd e74f 1ebe 83eb 093d 647c 1ebe
000002c0: 308a f8bd c14e e13a ef2f 14be 2648 f43c
000002d0: f5fc 72bd 6dd6 a5bd a9d2 f9bd a0dd ea3d
000002e0: dab6 9d3d 949c a3bc 7496 d53d 612f a03d
000002f0: ebcc 8fbd 0b5a 18bd 82fa 92bc 2458 f1bc
00000300: 04f8 cbbd 6fcd 9abd 6b6a d3bd 5815 18be
00000310: d7a4 db3c 19e9 83bd 89e1 a73d 9cbe 37bc
00000320: cdc3 8f3d 5bb3 0b3e a002 653c 8a4f b03d
00000330: 3e1e 8e3d 5e21 7c3d a2bc 9a3c 98f2 c3bd
00000340: 7c13 4c3d 270c 11bc 8966 483c 9a6c 87bd
00000350: fcb7 acbd 5d9a 7ebd 312f 79bd 18fa ffbd
00000360: 78b3 79bd 96c2 a6bc 4d17 63bd 088b 22bd
00000370: d30d 10bd 3eb0 07bc 088c 97bd f642 b5bc
00000380: e2bb 163d cf77 9a3b c292 ca3c 3eff 223c
00000390: 2ffc a13c 84bc 943d 0758 c93d f9b0 a33d
000003a0: 6938 303e 494a 9c3d 308a 19be c12a 90bd
000003b0: f852 01bc 402f cc3b 32ba 3a3d 7f79 96bd
000003c0: a6ec debd 0016 9d3b f5e6 b83c 1e2b e8bc
000003d0: b657 96bd 0761 083d 6f36 953c b570 5c3d
000003e0: 482a 573e 481a 883b 9862 eb3c 9fbb ae3d
000003f0: 1ea6 fb3c 2783 a6bd 9bdb 513b 7411 8b3d
-0.09289489 -0.11227101 0.016547648 -0.078442805 0.03587843 0.02626681 0.003900687 -0.10585451
0.045005262 0.01836674 -0.06303629 0.011217071 0.0684241 -0.06999423 0.09483224 0.0045593744
0.15797947 -0.026937896 -0.0029023981 0.06367394 0.13167666 0.056811824 0.061789323 0.13728976
0.01827337 -0.03506278 0.08386342 0.06411119 -0.021576922 0.065019414 0.025195176 -0.007070381
-0.0034983747 0.051390685 0.09565176 -0.0471722 -0.0029096263 -0.096579954 -0.06271828 -0.06854928
-0.028897667 0.017079486 -0.06979411 -0.053191632 -0.06905007 -0.059925467 -0.023906255 -0.024315204
0.107770085 -0.038403623 -0.044540368 -0.047501758 -0.0477674 0.029927596 0.111415684 0.08542367
0.064939715 0.0845517 0.09015218 -0.039068516 0.04959087 0.029045716 0.04402281 0.043137074
0.0845628 0.01478268 -0.06691457 0.107992426 0.12185998 0.067418054 -0.00873143 -0.031658858
0.06294856 -0.08662274 -0.09407296 -0.060192436 -0.01027221 -0.034080174 0.019063272 -0.085821904
-0.048215047 0.08015009 0.01419765 0.08844869 0.0055890135 0.040548638 0.02063838 0.005545599
-0.095603004 0.026376925 0.058792103 -0.10495616 0.025068834 0.11109397 0.053835806 0.022063054
0.13508762 0.21657892 0.064135835 0.013216665 0.13723958 -0.028027462 0.07405472 0.11509316
-0.006452604 0.0040917415 0.10512141 0.06278313 0.0832816 0.037475444 0.025972633 -0.04434101
-0.027262673 0.022544913 -0.040865257 -0.034779083 0.12445871 0.05614149 -0.059407577 0.01857611
-0.10451565 0.06422425 -0.08483686 -0.046354964 -0.036360063 -0.075524 0.056508865 0.051988333
0.13691592 -0.013704535 -0.0399598 0.02123636 0.06512635 0.072711684 0.0131452205 0.064247124
-0.02504689 -0.02460649 0.096652016 0.04907747 0.12553376 0.049502954 0.10684381 0.04911348
0.1318209 0.07723612 0.08066578 0.13448691 0.09141394 0.044903927 0.030453775 0.023688521
-0.022342307 -0.09446043 -0.08414045 0.004351718 -0.035360403 -0.009056939 -0.05308284 -0.08080276
-0.112821326 0.012954567 0.12574211 0.008429482 7.308767e-05 0.14988753 0.07227679 0.019943364
0.047453247 0.1289279 0.024493126 0.0026643667 -0.032880876 -0.15460168 0.033671867 -0.15477139
-0.12135732 0.0017189608 -0.1447141 0.02981956 -0.05932327 -0.08097539 -0.12198383 0.11468053
0.07700892 -0.019972123 0.10429087 0.07821537 -0.07021507 -0.037195247 -0.017941717 -0.029460974
-0.099594146 -0.075587146 -0.10323032 -0.14851892 0.026812 -0.06440944 0.08197314 -0.011214878
0.07019768 0.13642637 0.013977677 0.08608921 0.06939362 0.06155526 0.018888775 -0.095677555
0.04982327 -0.008852995 0.012231478 -0.06612511 -0.0843353 -0.06215893 -0.06083602 -0.124988735
-0.06096217 -0.020356458 -0.055442143 -0.03968337 -0.035169434 -0.0082817655 -0.07399756 -0.022126656
0.036800273 0.0047139893 0.024728183 0.00994855 0.01977357 0.07262519 0.09831243 0.07992739
0.17209019 0.07631356 -0.1499412 -0.07039405 -0.007893316 0.0062312186 0.045587726 -0.07347392
-0.10884981 0.0047938824 0.022571066 -0.028340872 -0.07340948 0.033295657 0.018214433 0.053818423
0.21012223 0.0041535236 0.028733537 0.0853188 0.03071886 -0.08130484 0.0032021764 0.06790438

bias f4 [4]
00000000: 3780 acbb 0043 8f3c b670 b13c f0da 5cb7
-0.005264308 0.017488003 0.02166019 -1.3163997e-05
