super_resolution/checkpoint_scale4/model_epoch_9.pth (torch_old, 260873 bytes, 8 tensors)

weight f4 [64, 1, 5, 5]
000000 21 9e b2 bd 05 83 8b be c1 e5 a1 be 27 37 92 bc
       -0.08721567 -0.27248397 -0.316206 -0.017848564
000010 66 71 05 be c7 26 d8 ba e5 06 88 3e 71 b6 7b be
       -0.1303154 -0.0016491049 0.2656776 -0.24581315
000020 aa 4a 16 3e f6 28 50 be 2a 31 84 be d4 8a ef be
       0.1467692 -0.20328125 -0.2581876 -0.46785605
000030 aa c3 69 be a1 fb 6d bc f3 e3 fc be 9d e9 c2 bd
       -0.22828546 -0.014525325 -0.4939266 -0.095172144
000040 35 49 dd bd 31 d6 fd 3d 3f 76 fb 3d 77 0b 4c bd
       -0.10804979 0.123943694 0.12278413 -0.04981562
000050 67 0d 44 be fc 10 87 be b5 a1 77 be c2 8d 3c 3d
       -0.19145738 -0.26380146 -0.2418278 0.04603363
000060 a1 20 39 be aa 77 3f bd b0 e5 12 3e 69 72 45 be
       -0.18078853 -0.04674498 0.14345431 -0.19281925
000070 17 88 fb bd 30 0e 2c be b0 cd a8 bd 26 46 b7 3d
       -0.122818165 -0.16802287 -0.08242357 0.08948927
000080 c8 86 25 be 81 fa 6b be e4 30 27 be c9 24 32 be
       -0.16164696 -0.23044778 -0.16327244 -0.17396845
000090 10 e4 c1 3d df 54 70 be 79 81 05 be 0b e1 12 3d
       0.094673276 -0.23469876 -0.13037671 0.03585915
0000a0 7c 70 59 3d d5 0f d5 be e2 ff 28 be 13 c4 5d be
       0.05308579 -0.4161364 -0.16503862 -0.21656828
0000b0 54 5d 73 3e 74 02 c0 bc 4a 5c 62 3c a0 cb f1 bc
       0.2376607 -0.02343867 0.013815949 -0.029516041
0000c0 1c 27 9f bd 33 48 d8 be 2a 8d ef 3d 2a f0 a8 be
       -0.077711314 -0.42242584 0.11696847 -0.3299573
0000d0 50 a7 04 bc aa 0a 6e 3e 10 53 84 ba f1 81 39 be
       -0.008096531 0.23246256 -0.0010095555 -0.18115975
0000e0 d1 09 a1 bc e3 ee 8a bd 12 0a 0f 3d fa 55 97 be
       -0.019658001 -0.06783845 0.034921713 -0.29557782
0000f0 3b ae fd bd f7 29 8f be a9 a8 ce bc 8d e5 30 bd
       -0.123867474 -0.27961704 -0.025226908 -0.043187667
000100 99 d3 06 bc f9 57 a1 be 0c 18 0c bb 9e 8b 5b 3c
       -0.00822916 -0.3151243 -0.0021376638 0.013399987
000110 89 3d c7 bd 96 83 03 3c c4 e2 88 3b 08 f7 b6 bb
       -0.09728534 0.008026978 0.004177423 -0.0055836476
000120 12 c5 55 3c 00 75 fb bd 32 b1 29 3e b8 dd a5 be
       0.0130474735 -0.12278175 0.16571501 -0.3239572
000130 cc d3 ef 3d 9d 32 62 be 86 8d 80 be d7 fe 8a be
       0.11710319 -0.2208962 -0.25107974 -0.27147552
000140 04 63 ca 3b af 5a 7f be c4 8a 95 bd 69 1e b0 3d
       0.0061763544 -0.24936937 -0.07301858 0.0859955
000150 96 bd 4b be 8c c8 16 bd a8 be 67 bd 9c 72 49 3d
       -0.1989654 -0.03681235 -0.05657831 0.049181566
000160 bf bc 9c bc 36 d7 97 bd 0f d6 63 be e0 ff d2 3d
       -0.01913297 -0.07414095 -0.22249626 0.103027105
000170 80 a8 b3 3e 09 8b f1 3c bf 45 d2 bd b1 45 10 3d
       0.35089493 0.029485242 -0.10267209 0.035222713
000180 f9 ce f2 3d a4 10 ea 3c 63 9c 17 3d be b6 bf be
       0.11855883 0.028572388 0.037014376 -0.3744411
000190 e1 56 ac be e0 00 ff 3d 01 6c c3 bc d8 ce 65 be
       -0.33660033 0.12451339 -0.023855211 -0.22442186
0001a0 ac 30 8e bd ee ba 3f 3e a6 94 08 be 4e 08 14 be
       -0.06942877 0.18723652 -0.13337955 -0.14456293
0001b0 37 97 06 3e 5a 2d bc bb 38 a8 00 bd 76 53 c7 3d
       0.13143621 -0.005742711 -0.031410426 0.09732716
0001c0 32 50 97 3d 75 b4 bb 3d da fe 01 bd 3e 18 7c 3e
       0.07388343 0.09165279 -0.031737186 0.24618623
0001d0 26 9b 85 3d 40 f3 ef 3d 25 80 e2 3d 1b 5c 95 be
       0.06523733 0.11716318 0.11059598 -0.29171833
0001e0 e3 22 9f bb 3b 92 23 3e a3 80 82 3d dd 23 9a be
       -0.0048564537 0.15973751 0.06372192 -0.30105487
0001f0 c6 3f 0d be 1f ad 04 3c 44 36 ac bd 91 cb 5c be
       -0.13793859 0.008097916 -0.08408788 -0.2156203
000200 24 e0 a7 be 0f c6 c1 3e 8d 31 5c 3e 61 5c 1a 3e
       -0.32788193 0.3784642 0.21503277 0.15074302
000210 80 bb 2e be 86 9d 59 bc 6e 1c 2c 3b 5e 29 b7 3c
       -0.17063713 -0.013282185 0.0026262063 0.022358593
000220 61 99 b2 bd 63 26 2e be 22 ac 88 bd e2 b2 1e bc
       -0.08720661 -0.17006831 -0.06673457 -0.009686204
000230 df b9 37 be 97 df 40 3e 69 d9 81 3c 3c fb 67 be
       -0.17941998 0.18835293 0.01585074 -0.22654432
000240 f8 0e 8b be 9d c6 1f be fd 2e 3d 3c 01 84 20 be
       -0.27159858 -0.15603109 0.011546847 -0.15675355
000250 fa 8c e9 bd a0 b8 e2 bd f9 1c 7d be 7f d9 c4 be
       -0.11403842 -0.11070371 -0.24718083 -0.38447186
000260 77 ba 5a ba f9 f9 1a be 0d 33 6d be ea b9 43 3e
       -0.00083438255 -0.1513442 -0.23164006 0.1911389
000270 33 b1 41 be 1a fc 55 be 16 48 61 be 51 f9 1f 3d
       -0.18915252 -0.2089695 -0.22000155 0.039056126
000280 01 1e 78 be 55 9b b6 bd 3a 67 62 bd f9 6b ab bd
       -0.24230196 -0.08916346 -0.055274226 -0.083702035
000290 4e 18 89 be b8 79 a0 be bb c1 0e be 03 40 e2 bb
       -0.26776356 -0.31342864 -0.1394109 -0.0069046034
0002a0 21 ee 2e be f2 5f 01 be 7c 47 82 be 10 8c 1e 3e
       -0.17083026 -0.12634256 -0.25445163 0.15483117
0002b0 82 e9 68 be bc c6 5f be 85 fb 1d be e6 90 1b be
       -0.22745326 -0.21853155 -0.15427978 -0.15191993
0002c0 8a 57 f6 3d e8 c0 9a 3d 51 9d 64 be 15 d4 64 be
       0.120284155 0.07556325 -0.22325636 -0.22346528
0002d0 4b 21 ef bd 72 54 02 3e c0 66 35 3e 0d e4 a2 be
       -0.11676272 0.12727526 0.17714977 -0.31814614
0002e0 e5 6d cd be e1 27 4b bd 5c 8b 76 bd 13 6a 56 bd
       -0.40122905 -0.04959858 -0.060191497 -0.052347254
0002f0 53 92 73 be f0 37 4a be 84 07 47 be fc 9d e3 bc
       -0.23786287 -0.19747901 -0.1943646 -0.027785294
000300 7d d9 87 bd 24 03 90 be db a9 66 be e1 ab dc bc
       -0.066332795 -0.28127396 -0.22525732 -0.026937427
000310 97 cd f7 bc 99 46 8b 3b 14 0c 34 3e a7 32 15 3e
       -0.0302494 0.0042503593 0.17582732 0.14570104
000320 a4 53 30 3e 67 3a 69 3c 5c 00 3b bd 9e 31 e6 be
       0.17219406 0.014235116 -0.04565464 -0.4495973
000330 13 02 19 3c f2 dc f8 3d c1 f7 91 bd 57 10 1a 3d
       0.009338873 0.12151517 -0.071273334 0.03761324
000340 a0 5d fe 3d 63 30 06 be 43 bd a2 3e 03 14 22 be
       0.12420201 -0.13104396 0.3178502 -0.15827946
000350 66 99 42 be d0 4b eb bb 72 dd 36 3e cd 73 98 be
       -0.1900383 -0.0071806684 0.17857912 -0.2977585
000360 44 cb 05 3e cc 1a 96 3d 64 e3 34 bd 46 92 46 3c
       0.13065821 0.0732933 -0.04416217 0.012119835
000370 49 9b 04 be 5c 34 3a 3d ed eb 7d be c5 34 3e be
       -0.12949862 0.04546009 -0.2479703 -0.18574817
000380 92 9e 79 3c 5c fa 2b 3c 65 d1 b1 3d a0 10 18 bd
       0.01523556 0.010496702 0.08682517 -0.03712523
000390 6b 56 00 3e ed 33 c3 3d 7b e3 17 39 5b a1 33 3d
       0.12532966 0.095313884 0.00014485225 0.043855052
0003a0 60 c4 b1 3d 16 21 de bc c3 e8 ba bd ef 88 7b be
       0.08680034 -0.027115386 -0.09126427 -0.24563955
0003b0 2a ee 07 be 2a 26 86 3d 7a 38 30 be 2d 7e a8 be
       -0.13274446 0.06550248 -0.17209044 -0.32908764
0003c0 d4 9a 98 be fc 67 7f be e1 9d 95 be aa f2 1c be
       -0.29805624 -0.2494201 -0.29222015 -0.15326944
0003d0 1b a0 1d 3d 03 34 fc 3d 19 1f 41 bd 56 19 99 3e
       0.038482767 0.12314608 -0.047148798 0.29902142
0003e0 fc 22 a5 be cd dc 5e bd ec 76 3d be 7f 8c 3a 3e
       -0.32253253 -0.05440979 -0.18502396 0.18217658
0003f0 1a ac a2 bd 33 79 23 3e 5c 05 cc 3c 21 83 95 3e
       -0.07942982 0.15964203 0.0249049 0.29201606

bias f4 [64]
000000 7c f5 40 3d 3d 3f e2 3c 76 c7 5a be fb 56 64 bd
       0.047109112 0.027618045 -0.21365151 -0.055747014
000010 c1 88 f6 bd 70 fc 23 3d 30 21 7a 3d 8c c2 97 bc
       -0.120378025 0.040035665 0.061066806 -0.018525384
000020 3a e3 6b be a2 24 65 be c2 95 d6 3d f9 4b bc bd
       -0.23035899 -0.22377256 0.10477783 -0.09194178
000030 67 4b 81 bd 26 a8 0a be 2a 2c 43 be 40 ac 5d 3d
       -0.0631321 -0.13540706 -0.19059816 0.05411935
000040 0b 36 50 bd 23 71 37 bc d8 17 57 be 5a 92 c9 3d
       -0.05083279 -0.0111964075 -0.2100519 0.098423675
000050 df ed a8 3d c8 46 20 3e 27 c3 b5 3d 94 c4 25 3d
       0.08248495 0.15652001 0.08875113 0.040470675
000060 95 65 b4 bc e7 62 5b be 35 f0 42 be c1 a4 81 bd
       -0.022021094 -0.21424447 -0.19036944 -0.063302524
000070 73 e6 92 3d d1 f0 7a bd 06 c5 12 3d be e0 59 bd
       0.07172861 -0.061264817 0.035832427 -0.053192846
000080 a6 c1 a3 bd 57 98 e1 bc 47 5e 86 bd e6 92 26 be
       -0.0799592 -0.027538462 -0.06560951 -0.16266975
000090 34 13 ef bd 45 9e e6 3d e6 d1 94 3d ab 89 c3 bd
       -0.116735846 0.11260656 0.072665974 -0.095477425
0000a0 33 69 44 be 73 13 b0 3e 4d 09 ef bd 9e 5e 16 bd
       -0.19180755 0.3438984 -0.11671696 -0.036711328
0000b0 32 96 25 bb 5b 7b 47 bd 8d 83 d6 bd c2 65 dc 3d
       -0.0025266525 -0.048701625 -0.1047431 0.10761596
0000c0 89 57 8f 3d fd 37 74 be 85 62 3d be f0 f0 7b bd
       0.06999118 -0.23849483 -0.18494613 -0.061509073
0000d0 16 db 13 3d 06 95 14 3d 23 22 c7 bd cf a0 57 be
       0.03609761 0.036274932 -0.09723308 -0.21057437
0000e0 8d db 01 3e 00 1a 46 be 53 55 1b be 42 d1 1b 3e
       0.12681408 -0.19345856 -0.15169267 0.15216544
0000f0 5a ea f0 3c d8 8e 32 3d 3b 16 28 be 35 5f 2d be
       0.029408623 0.043593258 -0.1641473 -0.1693085

weight f4 [64, 64, 3, 3]
000000 f2 f1 4e bd 8a ee 34 bc db ce 17 be c9 24 5e 3c
       -0.050523706 -0.0110432 -0.14825003 0.013558575
000010 e3 55 92 bb a8 f3 56 3d dd c5 b8 3c b0 69 12 3d
       -0.004465805 0.052478462 0.022555286 0.035745323
000020 6d f3 b7 bd d4 84 ee bd 69 1e 13 be 16 0c 4c bc
       -0.08981977 -0.11646429 -0.1436707 -0.012454053
000030 18 25 c4 3c fb 92 8b bd f8 69 b2 3d a2 29 a2 bd
       0.023943469 -0.06815144 0.08711618 -0.07918097
000040 63 a1 b8 3c 41 8c 9c 3b 77 04 a9 bd 60 46 93 bd
       0.022537893 0.0047774618 -0.08252805 -0.07191157
000050 2f b7 a4 bd 2f b7 aa bd f8 13 65 bd 87 92 26 3c
       -0.08042752 -0.08335721 -0.055927247 0.010166771
000060 61 62 cd b5 cf dc 30 bd 2a 28 58 bc 46 40 63 bd
       -1.5302322e-06 -0.04317933 -0.01319317 -0.055481218
000070 b8 5d 00 bc ad 19 fa bd 3f 35 c8 bd c9 07 5a be
       -0.007834844 -0.122119285 -0.09775781 -0.21292032
000080 45 7a d7 bc 42 d4 3b bd 90 c5 83 bd 2c a3 de bc
       -0.02630342 -0.04585672 -0.064341664 -0.027177416
000090 6a 32 18 bd 73 29 8c bd da 85 dd bc 92 3b c9 bd
       -0.037157454 -0.06843843 -0.027041364 -0.09825815
0000a0 05 3b ca bd 50 11 79 3d 2d 15 1f bd a3 70 af bd
       -0.09874538 0.060807526 -0.038838554 -0.085664056
0000b0 58 81 56 bd 3a 6e 4c bd bb a4 be bd 2b e5 be 3b
       -0.052369446 -0.049909808 -0.093087636 0.005825659
0000c0 8c 25 c1 bd c0 8e 9b bd 11 c0 b5 bc 93 f4 22 be
       -0.094309896 -0.07595587 -0.022186311 -0.1591361
0000d0 b9 8b ea bd 55 ea 32 be 2e 59 90 bd 6f 71 ab bd
       -0.11452431 -0.17472203 -0.0704826 -0.08371245
0000e0 3a 66 f7 3a 9e a9 69 bd 0f dc 3d bc 68 ea 63 3d
       0.001887507 -0.057046525 -0.011588111 0.05564347
0000f0 ab ff 32 be e6 03 2f bd 07 8e 00 bc ed dd 8c bd
       -0.17480342 -0.042728327 -0.007846362 -0.068782665
000100 ff da af 3c 98 b4 a0 bd b4 3e 58 bc b5 84 17 3c
       0.02146673 -0.078469455 -0.013198543 0.009247948
000110 79 43 ef bd ed b0 87 bd 59 ac 52 bd cd b4 d3 bd
       -0.11682791 -0.06625543 -0.051433895 -0.103372194
000120 f6 88 e6 3c 9a ae 63 bd 5d 98 32 bd 73 93 71 3b
       0.02814148 -0.055586435 -0.043602336 0.0036861568
000130 66 98 b8 bd b1 27 51 bd f8 80 c6 bd 51 43 c8 bd
       -0.09013443 -0.051063243 -0.096925676 -0.097784646
000140 82 f4 26 be af 1d f1 bd 36 26 c1 bc 72 96 6a bd
       -0.1630421 -0.1177324 -0.02357779 -0.057272382
000150 78 d7 a6 3c 62 e5 f8 bc 53 20 20 bc c4 c9 9d bd
       0.020366415 -0.030382816 -0.009773332 -0.07704499
000160 ac c4 c4 bd bc 9f b9 bd e4 ab 33 bd d7 f1 d2 bd
       -0.09607825 -0.0906367 -0.0438651 -0.103000335
000170 e5 15 b6 bc 58 b6 ad bd c5 cf 0c 3d ce 8f 90 bd
       -0.022227237 -0.08482045 0.034377832 -0.070586786
000180 b3 ed cb bd cf 76 a3 bc 3a 40 3c bd 2a f2 aa 3c
       -0.09957447 -0.019954113 -0.04595969 0.020867426
000190 91 7d b2 3d 67 35 af 3d bd 86 b3 bd 27 db 44 bd
       0.08715356 0.085551076 -0.08765934 -0.048060562
0001a0 99 56 3a 3d f3 f9 8c 3d 56 91 e8 bd 3b 65 76 3d
       0.045492742 0.068836115 -0.11355846 0.060155135
0001b0 23 b8 26 be 0d e5 fd bd 05 ff 87 3d 9f 16 00 3c
       -0.1628118 -0.123972036 0.06640438 0.007817893
0001c0 82 3c c6 3b 98 61 a3 bd 88 47 c0 bc 9f 8a 21 be
       0.0060496936 -0.07977599 -0.023471609 -0.15775536
0001d0 c3 b7 bb bd de 91 82 bd 9c 60 38 bd 9b 82 16 be
       -0.09165909 -0.06375478 -0.04501401 -0.1469826
0001e0 74 4d f7 bd 56 df b4 bd c2 50 b4 bd ad ea 9a bc
       -0.1207532 -0.088316604 -0.08804466 -0.01891073
0001f0 91 84 d7 bd f3 fb 1a be cf 78 b5 bc 17 bf ed bc
       -0.10523332 -0.15135173 -0.022152333 -0.029021783
000200 21 37 cf 3c 42 10 ea bb af 29 78 bd d4 81 0f 3d
       0.025294842 -0.0071430514 -0.060586628 0.035035923
000210 ce 82 38 bd 95 c9 07 be 2f 3c f9 bb d1 f6 03 bc
       -0.04504662 -0.13260491 -0.0076060514 -0.008054451
000220 ae 7f 74 3d e0 1a 48 3b 57 c3 cc 3d 5c 65 f2 bd
       0.059692077 0.0030533597 0.099981956 -0.11835739
000230 62 af 4e bd 54 b7 7a bb 04 f6 a4 bd 66 7c f6 bd
       -0.050460227 -0.0038256245 -0.08054736 -0.12035446
000240 1e 21 93 bd 45 f2 5f 3c 69 50 80 bd b9 79 b1 3c
       -0.07184051 0.013668601 -0.06265337 0.021664487
000250 d2 31 39 bd d9 97 e3 3a e2 c5 da bd d0 6e 40 3d
       -0.045213528 0.001736398 -0.106822744 0.04698068
000260 cf d8 da bc 16 3f ff bd 9d 99 a4 bc 14 f7 47 be
       -0.02671471 -0.124632046 -0.02009278 -0.19527847
000270 07 d0 86 bd e0 c4 fd bc ef 16 02 3d ef 56 fd bc
       -0.06582647 -0.030977666 0.031760152 -0.030925242
000280 23 f4 ef 3b 0a 3a cd bd b2 16 b2 3c df e4 f8 3b
       0.0073228045 -0.10020836 0.021739338 0.007595643
000290 b2 1d 4d 3d eb c8 d3 bd 17 c8 e4 3d ac fc 9d 3c
       0.050077148 -0.103410564 0.111709766 0.019285522
0002a0 da e5 66 3d 96 b8 0e 3d f8 ca 92 3d 6f 5d b2 bc
       0.056371547 0.034844004 0.071676195 -0.021773068
0002b0 c7 14 77 3c 60 70 f5 bd 14 30 5d bd 88 fd 1d bd
       0.015080637 -0.119843245 -0.05400093 -0.038571864
0002c0 e4 89 0e bd 46 d2 53 bd 15 c8 87 3d 9a a0 b9 bd
       -0.03479947 -0.051714204 0.066299595 -0.090638354
0002d0 02 d3 91 3d 9c 32 4c bd af a7 ed bd db 9c 07 3c
       0.07120325 -0.049852952 -0.11604249 0.008277143
0002e0 d4 9c af bd 34 b8 f3 bd 9f cb d3 bc a5 c3 85 bd
       -0.085748345 -0.11900368 -0.02585393 -0.06531457
0002f0 26 ac 3e 3d a3 56 9a bd 3b 76 8b bd 71 c3 df bd
       0.046550892 -0.07536056 -0.0680966 -0.10925949
000300 40 19 df bc 1d 21 81 3d 5f 44 bf bd dc 91 c2 bd
       -0.02723372 0.06305144 -0.093392126 -0.09500477
000310 b7 53 2b be ab 2d cf bd 42 46 61 bd 44 9c bd 3c
       -0.16731153 -0.10116132 -0.054998644 0.023145802
000320 a6 12 b5 bd 0a 10 78 bd 10 39 9c bd 89 ed a1 bd
       -0.088414475 -0.06056217 -0.07628071 -0.07906634
000330 f3 11 9b 3a 23 8b 1a be 80 ea c8 3c 16 e0 0b 3d
       0.0011830911 -0.15092139 0.02452588 0.034149252
000340 e5 ff ad 3b f2 76 fb 3b 05 1d b0 bd 6f c9 82 bd
       0.005310046 0.0076740915 -0.08599285 -0.06386077
000350 53 e0 4b be a6 ef 38 bd 31 54 5e bd cd 3d c5 3d
       -0.19909792 -0.04515042 -0.05427951 0.09630928
000360 a8 d3 8b bb e4 78 00 be ed 63 49 bb 15 07 48 bc
       -0.0042671748 -0.12546116 -0.0030729726 -0.01220872
000370 7f 1e d9 3c 61 bb ce bc 56 17 69 bd 77 bf 10 bc
       0.0265038 -0.025235834 -0.05690702 -0.008834711
000380 91 46 9b bd c4 1a 8b bd 55 0c d8 3b ae cf a8 bd
       -0.07581819 -0.067922145 0.006593267 -0.08242737
000390 23 79 56 3d a1 78 a5 bd 90 e7 c6 bc 5a 2d 42 3c
       0.05236162 -0.08079649 -0.02428034 0.011851633
0003a0 53 60 dc bd a9 13 0c bb cf a3 a4 3c 2c 2f a7 bc
       -0.1076056 -0.0021374023 0.020097641 -0.020408235
0003b0 35 80 73 bd 70 80 95 bc 6d 07 0f be e5 b3 70 bd
       -0.05944844 -0.01824972 -0.13967676 -0.05876531
0003c0 78 0f 48 bd 05 81 65 bc 2d 6e 6d 3d c5 cf 65 bd
       -0.048842877 -0.014007811 0.0579664 -0.056106348
0003d0 89 ac f6 bd b1 2b 26 bd e8 72 cd bd 46 f0 da 3c
       -0.12044627 -0.04056901 -0.10031682 0.0267259
0003e0 43 af fd bc fe 9b 66 bd 31 1e e2 bd 11 44 81 3d
       -0.03096736 -0.05630111 -0.11040915 0.06311811
0003f0 e4 05 9a bd 24 5c bf bd c6 4c 8f bd 62 34 f2 bd
       -0.07520655 -0.09343746 -0.06997065 -0.118263975

bias f4 [64]
000000 6a e5 00 bd 60 b1 2a bd b5 4e 5d bd 6d 7b f4 bc
       -0.031468786 -0.041673064 -0.05403014 -0.02984401
000010 5c ce 53 bd 64 9e 85 bd 23 9d 7a bd 7b 24 96 bd
       -0.05171047 -0.06524351 -0.061185014 -0.07331177
000020 58 92 9c bc a4 34 74 bd 65 76 81 bd f6 21 a5 bb
       -0.01911275 -0.059620515 -0.0632141 -0.005039449
000030 9e 65 ca bd a9 d0 6a bd 80 34 d0 bc 0a f3 06 bd
       -0.09882663 -0.0573279 -0.025415659 -0.032946624
000040 50 0a 87 bd 48 51 8e bd 2b 04 cc bc dc b0 2b bd
       -0.06593764 -0.06949097 -0.024904331 -0.041916713
000050 70 ca 87 bd 20 95 a7 bd 57 cc b6 bd fd 01 28 bd
       -0.06630409 -0.0818274 -0.089256935 -0.04101752
000060 c1 e2 70 bd 8e a7 8d bc d6 64 a0 bd a2 fe 27 bd
       -0.05881 -0.01729181 -0.07831733 -0.04101432
000070 21 7c 65 bd 77 ec 56 3d 82 0a b7 bd b9 11 9d bd
       -0.05602658 0.052471604 -0.08937551 -0.07669396
000080 70 e6 42 bd e2 f7 2e bd df f5 f6 bc e9 5c c1 bd
       -0.047583044 -0.04271687 -0.030146537 -0.09441549
000090 67 cc 1b bd aa 16 ba bd 96 9a ca bd fa 02 c1 bd
       -0.03803673 -0.09086354 -0.09892766 -0.09424396
0000a0 6e b1 25 bc 5b 07 99 bd bc b5 19 bd 9c b9 42 bd
       -0.010113103 -0.07472106 -0.03752683 -0.047540292
0000b0 d5 bc ba bd 96 42 a0 bd a3 1e 8d bd 92 76 61 bd
       -0.09118048 -0.078252 -0.06890609 -0.055044718
0000c0 2b 58 88 bd 4f 25 90 bd a3 c3 40 bd 09 6a 0d bd
       -0.06657442 -0.07038366 -0.047061574 -0.03452495
0000d0 a8 e9 60 bd fb 42 6d bd 77 89 a4 bd e9 99 05 bd
       -0.054910332 -0.057925206 -0.08034032 -0.032617483
0000e0 87 11 6c bd 9f 0e 19 bd 63 10 81 3c 19 7e 1c 3d
       -0.057633903 -0.03736746 0.015754884 0.038206194
0000f0 3f 7a ae bd 03 8a 26 bc 85 39 6c bd 93 e6 a0 bd
       -0.0851941 -0.0101647405 -0.057672042 -0.078564785

weight f4 [32, 64, 3, 3]
000000 97 ba cf 3d a8 99 87 3d a5 30 e4 bc 06 d9 dd bc
       0.10143011 0.066211045 -0.027855227 -0.027081024
000010 5f 17 4e 3e 53 99 05 bd c2 e9 08 3e 9d ff 93 3d
       0.20126103 -0.032616924 0.13370422 0.07226489
000020 a4 c5 c8 3d 8b 77 97 3d 1d b7 41 3d 58 7f 04 3d
       0.09803322 0.07395848 0.04729377 0.032348007
000030 f2 fb 05 3d 1d 6d 23 3e c3 8b 3c 3d a1 7d 2b 3e
       0.032710977 0.15959592 0.046031725 0.16747142
000040 73 82 b0 3c 1f 3b a2 3d 54 9b 0e 3e fc 3d e8 3d
       0.021546578 0.07921433 0.1392644 0.113399476
000050 67 3f 02 3e 87 4c 44 3d 0e 79 56 3d 6b 37 b9 3d
       0.12719499 0.047924545 0.05236154 0.09043773
000060 a2 a0 b7 3d 0f 71 e9 3d 42 60 cd 3d 6f 7c a3 bd
       0.08966185 0.11398517 0.10028125 -0.07982718
000070 26 58 3c be 0b 1e 38 bd e0 38 ab bd ab d9 43 3d
       -0.18393001 -0.044950526 -0.083604574 0.047815006
000080 51 d0 19 3c b9 3f 22 bc b6 2a a2 bd 03 e8 80 3d
       0.009388045 -0.009902888 -0.07918303 0.06294253
000090 75 a5 2d 3d 1d b7 8a bd f2 8a 89 bd fc a1 0a 3c
       0.04239412 -0.06773207 -0.06715955 0.008461472
0000a0 dd d1 7f bd 11 b4 e5 bd 32 c4 e0 bc af 89 ed bc
       -0.062456 -0.112159856 -0.027437303 -0.028996317
0000b0 72 8d e4 3c 24 e5 87 3d 47 77 a8 3c 4f be da bc
       0.027899478 0.06635502 0.020564688 -0.026702074
0000c0 5d 69 f0 3d bf 11 a5 3b 56 6f ec 3d 85 8a 40 3e
       0.117388465 0.005037516 0.11544673 0.18802841
0000d0 8d 5b 67 3d 46 76 02 3c 6c 64 9e bd 46 c8 34 bd
       0.056483794 0.007962769 -0.07733998 -0.044136308
0000e0 21 10 95 bd c4 73 df bc 31 90 ef bd 1d ca 29 bc
       -0.07278467 -0.027276881 -0.11697424 -0.010363129
0000f0 d7 65 5d bc 9c c3 35 bd f6 2f ad bd 32 a3 8a 3c
       -0.01351305 -0.044376 -0.084564134 0.01692352
000100 dc e9 9c bd 4f 5f 97 3d ce 0a 94 bd ee e8 ff bb
       -0.07661793 0.073912255 -0.07228623 -0.00780975
000110 23 d2 94 bd e7 2a b8 bd 42 77 b8 bc 48 97 1a be
       -0.07266643 -0.08992558 -0.022517804 -0.15096772
000120 f3 ab b5 bc c6 03 47 bd 81 ba 64 bd 18 63 99 3b
       -0.022176718 -0.048587583 -0.055841926 0.0046810023
000130 83 a2 9e bc d8 91 88 3c ca 01 c3 bc da 75 32 3d
       -0.019364601 0.016671106 -0.023804564 0.043569423
000140 73 e8 bb bd b5 92 35 bd 52 d9 63 3c 81 23 b8 3d
       -0.091751955 -0.044329364 0.013906794 0.08991147
000150 dc 27 98 bd bb a6 a8 bd 2a ef 35 3c bc e4 07 bd
       -0.074294776 -0.08234926 0.011104384 -0.033177122
000160 94 8b 24 3c 6d f3 43 bd e7 f4 d6 bc ac d3 06 be
       0.010043044 -0.04783957 -0.026239825 -0.13166684
000170 d2 96 2d bd 6b 40 ef bc e7 79 d3 bd 4c b5 c6 3b
       -0.04238016 -0.029205522 -0.103259854 0.0060640927
000180 ee 5a 99 bd 07 d7 b8 bd e7 75 b8 bd ad 33 b5 bd
       -0.074880466 -0.09025388 -0.09006863 -0.08847747
000190 e4 e6 00 be 41 a3 1d 3a f9 71 3c bc e3 8f f6 bc
       -0.12588078 0.00060134014 -0.011501783 -0.030097907
0001a0 a3 35 4f bd b2 20 9e 3c bd eb 66 bc 13 d2 1e 3c
       -0.05058826 0.0193027 -0.01409429 0.00969364
0001b0 74 b8 98 3c ce 31 ac bd 71 5f c6 bd 30 0c c1 bd
       0.018642642 -0.08407937 -0.09686173 -0.09426153
0001c0 c2 e5 2d be 33 6b 88 bd 15 a4 eb bd e0 3d 9c bd
       -0.16982177 -0.06661072 -0.115059055 -0.07628989
0001d0 01 63 a3 bc f8 8f fe ba 4f 07 3d 3c 09 47 1e bd
       -0.01994467 -0.0019421568 0.011537387 -0.038641963
0001e0 a7 ec b2 bd 30 33 cf bd 67 6e 16 be d5 a7 c7 bc
       -0.08736544 -0.10117185 -0.14690553 -0.02437202
0001f0 20 d8 c8 bc 62 cd e6 bc 38 b6 c4 3d 08 5d 78 3d
       -0.024517119 -0.028174106 0.09605068 0.060635597
000200 cd f4 8d 3d f8 12 8c bb c4 6b f5 3d 51 e8 b5 bc
       0.06931458 -0.004274722 0.11983445 -0.022205504
000210 d1 d5 1a bd 42 ed b9 3d f6 7e e0 bc 45 ea 21 3b
       -0.037801567 0.090784565 -0.02740429 0.0024706286
000220 4d 3f ac 3c 27 ff 27 be ec d0 e3 bc 47 81 86 bd
       0.021026278 -0.16405927 -0.027809583 -0.065676264
000230 c0 46 d6 3c 43 0a a0 bc 6c 63 9c bd 0b 4b c4 bc
       0.026156783 -0.019536143 -0.07636151 -0.023961565
000240 90 8e ce bd ac 2d a6 3d b8 eb d0 bd 74 a9 4c bc
       -0.100857854 0.0811418 -0.1020121 -0.012491573
000250 da d7 64 3d 24 6e c4 bc 89 f0 7c bd 46 96 bc bd
       0.055869915 -0.0239783 -0.06175283 -0.0920835
000260 e2 2f 42 bd 75 9c 21 bc 32 a0 d3 bd 78 da 1d 3d
       -0.047408946 -0.009863962 -0.10333289 0.038538426
000270 12 ec 82 bd 3d bf 28 bd b2 29 9c bd 3f 22 fa bc
       -0.06392683 -0.041198004 -0.0762514 -0.030533908
000280 67 30 93 bc a2 21 cd bd 7f 3a 94 3c 0c 5b 1e bc
       -0.017967416 -0.100161806 0.0180943 -0.009665262
000290 c5 d1 c2 3d 83 c4 01 3e 6e 5b 36 3c fa 5e 0e 3d
       0.095126666 0.1267262 0.011130197 0.034758545
0002a0 6d 18 90 3d db d0 ef bb 67 97 ad 3d 4e 0f b1 3c
       0.07035909 -0.0073185987 0.08476143 0.021613743
0002b0 4c b5 3d bc a2 86 6d bd d7 c7 a3 bd 17 08 95 bd
       -0.011578869 -0.057989724 -0.07997101 -0.07276934
0002c0 a1 a3 a4 3b 62 76 27 be 16 14 a8 b9 02 4b a5 bc
       0.005024389 -0.16353753 -0.00032058422 -0.020177368
0002d0 e2 de 0e be ba 10 ee b9 25 8a 01 3d 05 8e d5 bd
       -0.1395221 -0.0004540736 0.031625886 -0.10427479
0002e0 3d 0a f0 bd 50 8e df 3d a0 a9 dd bc 26 df 78 bd
       -0.11720703 0.10915816 -0.027058423 -0.060759686
0002f0 28 1d 34 3d 9a fd b8 bd 12 15 1f 3d c9 24 e9 bd
       0.043973118 -0.09032746 0.038838454 -0.11383969
000300 b7 6c 3a bd fd 74 2f bd e3 d1 0e 3e fe 96 72 3d
       -0.045513835 -0.042836178 0.13947253 0.05922603
000310 6f 79 ca bd 80 7d d9 bd c7 84 0c 3e b9 c1 66 3d
       -0.09886443 -0.1061964 0.13722526 0.056337092
000320 69 54 12 3e d8 9f 29 bd 64 f2 1c bd e3 31 0c 3e
       0.14290012 -0.041412205 -0.0383171 0.13690905
000330 fe 47 8c 3d 1b f3 75 3d 7e bb a2 3b 6d 64 d0 3b
       0.06849669 0.060046297 0.0049661985 0.006359628
000340 bf 9c 8a bd 41 c9 1c bd 4c 83 91 bd 5e f0 63 bd
       -0.06768178 -0.03827787 -0.07105121 -0.055649154
000350 d3 64 c2 bc 68 45 96 bd 4e fb 39 bb 76 2c f5 bd
       -0.023729717 -0.07337457 -0.002837855 -0.11971371
000360 d0 5a 85 bc 37 7d 64 3b 13 92 a2 bd a5 cd 22 be
       -0.016278654 0.0034864673 -0.07938018 -0.1589876
000370 21 84 64 bb 92 b4 6d bc ad 41 d2 bd 9c 5a c5 bd
       -0.0034868794 -0.014508383 -0.10266433 -0.09636423
000380 e6 25 ae 3c 7b b3 e8 3c 34 51 36 3d a9 90 ba bd
       0.021258306 0.028405895 0.044511035 -0.09109623
000390 fe 46 09 be 00 e2 72 ba 6c 6e 1d bd 7e 03 b2 bb
       -0.13405988 -0.0009265244 -0.038435385 -0.005432545
0003a0 a4 47 02 be cb 2d 7a bd dd 16 f8 3d fa 7d 83 3d
       -0.12722641 -0.061078828 0.12113736 0.064205125
0003b0 53 53 a8 bc a5 25 74 bd 2f 6e 5a bb 40 0a 9f 3d
       -0.020547545 -0.059606213 -0.0033329835 0.07765627
0003c0 69 9f 87 bb 11 c5 9b 3d 8e 46 29 3d 32 94 d3 bd
       -0.004138876 0.07605947 0.04132705 -0.103310004
0003d0 b0 d0 91 bd 74 ea dc 3b 1e a9 c1 3b 35 74 00 bd
       -0.07119882 0.006741816 0.005910053 -0.031360824
0003e0 73 cf f9 bd b4 55 b3 bd 62 c4 b5 bc 2a ef f7 bd
       -0.12197771 -0.08756581 -0.02218837 -0.12106164
0003f0 49 52 3d bd 14 88 3a 3d 91 1d 48 3e 72 25 4a bc
       -0.04622105 0.04553993 0.19542529 -0.012338029

bias f4 [32]
000000 5f 44 aa bd d2 09 92 bc 67 c9 b0 bd f1 76 3c 3e
       -0.08313822 -0.017826948 -0.086321644 0.18404748
000010 1f bf ac bd 26 2b 68 bd e6 82 9a bd 3a cf 3f bd
       -0.08434891 -0.056681775 -0.07544498 -0.046828486
000020 0f 69 cb bd 2f 8e 20 3e 95 71 07 3e 5f c5 37 bd
       -0.09932148 0.15679239 0.13226922 -0.044865962
000030 50 e6 b1 bd bf e4 6c bd 82 05 18 bd e0 76 8e bd
       -0.08686507 -0.057835337 -0.037114628 -0.06956267
000040 92 08 c0 bc 9c 8f e0 bd 28 b6 8c bd 1f 84 af bd
       -0.023441587 -0.10964891 -0.06870681 -0.08570122
000050 2b 0b 75 bd ff 41 aa bd c2 31 b3 bd 40 00 07 3e
       -0.059825104 -0.08313369 -0.08749725 0.13183689
000060 4a 7b 9f bd 7d 3e 45 bd 99 ab a0 bd 80 52 10 bd
       -0.077871874 -0.048155297 -0.0784523 -0.035234928
000070 82 9c a1 bd 6d 53 4a bd c7 5b 3d bd dd 43 ef 3d
       -0.078911796 -0.049395967 -0.046230104 0.11682866

weight f4 [16, 32, 3, 3]
000000 dc 2b 4e 3d 91 45 66 bd c8 c8 ef bd ee c0 6a 3c
       0.050334796 -0.056218687 -0.11708218 0.014328225
000010 09 be a1 bd 8e fa 0b be 5b 39 43 be d4 f8 38 3d
       -0.078975745 -0.13669798 -0.19064848 0.045159176
000020 e6 1a 06 be 4f 06 7c 3d 8d 54 88 3d f4 ec 99 3d
       -0.13096198 0.061529454 0.06656752 0.07515898
000030 93 41 1c 3e 4f 32 96 3d 4b 9e 03 3d cb aa 1c bd
       0.1525939 0.07333814 0.03213338 -0.03824882
000040 ba 4f 6e 3d 08 21 99 3d a0 1d 99 bd 07 d6 af 3c
       0.058181502 0.07477003 -0.07476354 0.02146436
000050 d0 ce 83 3c 40 2b c8 bd ed bb 0b bd aa 7f 7f 3d
       0.016089827 -0.09773874 -0.034114767 0.06237761
000060 bb a4 8d bc c5 57 67 3d e8 c2 64 bd b2 a3 44 3e
       -0.017290464 0.056480188 -0.05584994 0.1920307
000070 d1 d6 5d 3e c0 2c 2a 3e 61 a1 f9 3d 66 2b a6 3e
       0.21663977 0.16618633 0.12188984 0.32454985
000080 07 f9 06 3e 5c 01 72 3e e9 41 58 3e 09 46 d5 3d
       0.13180934 0.23633331 0.21118893 0.10413749
000090 45 99 6f bd e3 89 db bb bc 28 1b be 6b 92 30 bc
       -0.05849578 -0.006699787 -0.15152258 -0.010777096
0000a0 ac cf 8a bc c3 e5 6d bd d9 c6 18 bd 48 b7 74 bd
       -0.016944729 -0.058080446 -0.03729901 -0.059745103
0000b0 a0 70 18 3d 1e 85 37 bd 6c cf fe bb 31 bc 21 bd
       0.037216783 -0.044804685 -0.0077761915 -0.039486114
0000c0 f3 f7 b7 bc fe d9 8b 3d ee 7a 57 bd 92 96 42 3d
       -0.022457099 0.06828688 -0.05260747 0.047506876
0000d0 64 89 4e 3d 68 e1 10 bd 8f 6f 28 bd fb c9 cf 3d
       0.050423995 -0.035371214 -0.041122016 0.101459466
0000e0 dd e0 2d bd a9 49 e5 bc 90 2c a8 bc fa 55 fe bc
       -0.042450774 -0.027989225 -0.020529062 -0.031046856
0000f0 3f f7 18 3d 4e f8 44 3d 24 fe 19 bd 8f 93 aa 3b
       0.037345167 0.048088364 -0.037595883 0.0052055786
000100 cc c1 2c 3c 66 f1 89 3c e9 7c f4 bd 05 ec a1 bd
       0.010544252 0.01683874 -0.11937887 -0.07906345
000110 ad a1 69 bd 5b 09 e4 bd 3e f0 c0 3c 94 25 08 bd
       -0.05703895 -0.11134597 0.023552056 -0.033238962
000120 be 38 b9 3c e3 90 fb 3c 19 f5 a9 bc ee 3c a6 3d
       0.022610065 0.030708736 -0.020746754 0.0811709
000130 a4 46 8f 3d 81 dd cb 3c 62 ff a4 3d b8 c8 12 be
       0.069958955 0.024885895 0.08056523 -0.1433438
000140 5b d5 73 bd 35 97 da 3d cd 2f a3 3d 67 d5 90 3d
       -0.059529644 0.10673372 0.07968102 0.07071953
000150 fa c9 8c 3c 65 ff 3a 3e 99 09 73 3e 11 0f eb 3d
       0.017186154 0.18261488 0.2373413 0.11477483
000160 8e 1b 9a bc 52 c1 33 3d b6 28 24 3e 41 e1 55 3e
       -0.018811967 0.043885536 0.16031155 0.20886709
000170 a0 44 e2 3d bc 03 2a 3e 15 a9 ca 3d c9 25 f1 3d
       0.110482454 0.16602987 0.09895531 0.11774785
000180 49 e7 19 3e 9b 4c 3d 3e d1 83 05 3e 9a cb de 3d
       0.15029635 0.18486254 0.13038565 0.10878678
000190 14 45 0f bd 9f 24 e3 3c 01 25 b5 3d 0e f7 44 bc
       -0.034977987 0.027727423 0.088449486 -0.012021793
0001a0 f9 e9 60 bd a3 d4 a0 3d 9f a9 a2 3d f6 77 9e 3c
       -0.054910634 0.07853057 0.07942509 0.019344311
0001b0 ab ac 55 3d 80 af c2 3d e4 f7 10 bd 61 06 ef 3d
       0.052166622 0.0950613 -0.035392657 0.116711386
0001c0 75 c4 23 39 94 a0 7b bd 0b cc 16 3d 9b 7a 0c 3e
       0.00015618077 -0.061432436 0.036815684 0.13718645
0001d0 ef 67 89 3d d8 09 89 bd 53 79 6a 3b ea 4d 55 3d
       0.06709277 -0.06691331 0.0035777881 0.052076258
0001e0 62 e0 97 bd 1f 63 2d be f6 b9 06 be 59 87 ba bd
       -0.074158445 -0.16932343 -0.13156876 -0.09107847
0001f0 27 f5 c1 bd c5 0c 3a 3c bb b3 8f 3b 87 4e 98 bd
       -0.09470587 0.011355584 0.004385439 -0.07436853
000200 40 6a 60 3b de d2 7e bd cc fa 0f bd d9 f8 fb 3c
       0.0034243017 -0.062212817 -0.035151288 0.030758308
000210 ed 5b 2c 3d 5b 81 32 bd f0 02 fd bd cc 79 05 3d
       0.042079855 -0.043580394 -0.12354076 0.032586858
000220 8d e7 fc 3d 89 e4 53 3d 88 42 0e 3d 7f 74 cd 3d
       0.12348852 0.05173162 0.034731418 0.100319855
000230 2d c3 d5 3d 46 ab 90 3d 88 ed cd 3d ba 2f 0c 3e
       0.104376175 0.07063918 0.10055071 0.13690081
000240 4b e4 8f 3c 5b a9 ba bc c7 c2 2a bd cc 40 ef bd
       0.017564913 -0.022785833 -0.04168966 -0.11682281
000250 33 1c 97 3d db 97 df bd 67 dd 84 bc 03 28 89 3d
       0.073784254 -0.10917636 -0.016218854 0.06697085
000260 e2 78 9d bd bc 24 d0 3c b6 7b db bc 50 d2 95 3b
       -0.07689072 0.025408141 -0.026792388 0.0045721903
000270 d8 3f c1 3d cb 55 3e 3d b8 9a 71 3d 99 75 64 3d
       0.09436005 0.046468537 0.058985442 0.055776212
000280 c5 26 11 3d d7 92 35 3d 7e ab 21 bc 42 0f 25 3d
       0.035437364 0.04432949 -0.009867547 0.040297754
000290 80 f8 ef bd b7 5f 68 bd 63 89 62 3b 88 33 22 bd
       -0.117173195 -0.056731906 0.0034566752 -0.039599925
0002a0 44 5b 2d 3d ac 81 1b bd fb 9f 31 3c b4 af 9d 3d
       0.042323366 -0.03796546 0.010841365 0.07699528
0002b0 0b 48 96 3d 5c 6a 8f 3b 37 c8 e4 3d 33 9e 84 3c
       0.0733796 0.0043766927 0.111710005 0.016188717
0002c0 10 6a 8f 3d 43 62 91 3d 9c e7 10 3d 4e 77 16 3d
       0.07002652 0.0709882 0.03537713 0.03673487
0002d0 4d db 1e be b8 a6 2f be c1 ed 0f be 46 ad a3 3e
       -0.15513344 -0.17153442 -0.1405554 0.31968135
0002e0 92 ca 64 3e 1a 2d 8c 3e 3f 0e b7 3d 60 66 4a 3d
       0.223429 0.2737816 0.08938264 0.04941404
0002f0 5d 0d 8b 3d 85 ec c6 bd 87 35 37 bd ba 6a 79 bd
       0.06789658 -0.09713081 -0.044728782 -0.060892798
000300 43 85 8d 3d 65 c9 36 bd 3b 3d d1 bd 7f 5e fe bd
       0.06910183 -0.04462566 -0.10216757 -0.124203674
000310 e5 81 ec bd c3 0b 7d bd 83 5d a3 3d 18 54 6d 3d
       -0.11548213 -0.061778795 0.0797682 0.057941526
000320 bc 79 99 bd 7d 12 9e bc 41 bd c8 bc 66 9e d7 3c
       -0.07493922 -0.019295925 -0.024504306 0.026320647
000330 f1 9d 82 3d 30 de d0 3c 70 15 c2 bd 15 c2 d6 3d
       0.06377781 0.025496572 -0.09476745 0.10486237
000340 51 22 e1 3d ea 65 2a 3e 75 2b 2c 3e 5b ea fb 3d
       0.109928735 0.1664044 0.16813453 0.12300559
000350 ea 78 40 3e de 5e 25 3e ef 4f 0c 3e cd 82 b9 3d
       0.18796125 0.1614947 0.13702367 0.090581514
000360 26 5d bb 3d d4 80 25 3d 02 b9 89 bc eb d9 54 3c
       0.09148626 0.040406063 -0.016811851 0.012991409
000370 d7 2b 12 bd 7e 26 1a 3e 61 bc cc bc c1 f2 66 3e
       -0.03568634 0.15053746 -0.02499217 0.22553541
000380 58 19 05 bd 78 04 3d 3c db af 33 3d 7c 78 b3 3d
       -0.032494873 0.01153671 0.04386888 0.08763215
000390 b8 0f 24 b8 09 07 9d 3d c0 2d 0a bd 33 b7 b0 3d
       -3.9115286e-05 0.076673575 -0.033735037 0.086286925
0003a0 68 d1 fe 3c df 14 54 3e b1 2a 23 3e d7 98 1e 3e
       0.031105712 0.20711087 0.15934254 0.15487991
0003b0 cb fa ea ba 54 2b 2e 3d 68 3b a8 3d 2d ce 02 bb
       -0.0017927525 0.04252179 0.08214456 -0.0019959316
0003c0 94 87 cc 3d da 92 7a 3d 55 a2 1b 3d 2a 2c d0 bc
       0.09986797 0.061175205 0.03799661 -0.025411684
0003d0 16 fe 83 3c d5 96 07 be a3 14 d3 bc fb f6 21 bd
       0.016112369 -0.13241132 -0.025766676 -0.03954218
0003e0 07 d3 47 be 59 b1 3e bd ef 14 ea bc 63 4d 37 be
       -0.19514094 -0.04655585 -0.028574435 -0.17900614
0003f0 f4 3b 3b be d9 79 3e bd 20 34 73 3c 8d 51 61 bd
       -0.18284589 -0.04650292 0.014843971 -0.055009414

bias f4 [16]
000000 16 4c bc ba d4 1f 19 3d eb 8d 17 3d 48 53 72 3d
       -0.0014365937 0.03738387 0.037000578 0.059161454
000010 d3 0a 88 3c 50 05 c1 bc e9 a6 1f bc a0 0e e7 3d
       0.016606724 -0.023562104 -0.009744384 0.11282086
000020 1e 8f 84 3d af 28 09 3d 54 6d 85 3d f4 08 24 bc
       0.0647261 0.033486065 0.06514993 -0.0100119
000030 df 0a 8b 3d d9 55 8d 3d e3 26 77 3d 1a 1b 3b 3d
       0.06789183 0.0690114 0.06033982 0.045680143
