super_resolution/checkpoint_scale4/model_epoch_36.pth (torch_old, 260873 bytes, 8 tensors)

weight f4 [64, 1, 5, 5]
0	0xbe222ca9	-0.15837349
1	0xbeb25abd	-0.34834853
2	0xbec124e1	-0.3772345
3	0xbe064744	-0.13113123
4	0xbda32672	-0.07966317
5	0xbd7eb17c	-0.06218098
6	0x3e4e3e29	0.201409
7	0xbe94b0b8	-0.29041076
8	0x3d64a371	0.055819932
9	0xbdf56600	-0.119823456
10	0xbea19d3b	-0.3156527
11	0xbf06e7b4	-0.526973
12	0xbe6de275	-0.23230918
13	0xbd8161c9	-0.06317479
14	0xbea679a1	-0.3251467
15	0xbe11d34c	-0.1424076
16	0xbe1d62cd	-0.15369721
17	0x3e1ac160	0.15112829
18	0x3dcb033c	0.09912726
19	0x3dc90d71	0.09817017
20	0xbe7cd5f8	-0.24690998
21	0xbea97f76	-0.33105057
22	0xbe8260bd	-0.2546443
23	0xbd0307b1	-0.031989757
24	0xbd7d694e	-0.061868005
25	0xbd3f76a8	-0.04674402
26	0x3e12e727	0.1434599
27	0xbe4571a3	-0.1928163
28	0xbdfb88c8	-0.12281948
29	0xbe2c0e6c	-0.16802377
30	0xbda8ce38	-0.08242458
31	0x3db74662	0.08948971
32	0xbe25873b	-0.16164868
33	0xbe6bfadd	-0.23044915
34	0xbe273168	-0.1632744
35	0xbe3225a2	-0.17397168
36	0x3dc1e1f2	0.09466924
37	0xbe705640	-0.23470402
38	0xbe0581dc	-0.13037819
39	0x3d12dd05	0.035855312
40	0x3d596e11	0.053083483
41	0xbed51039	-0.4161394
42	0xbe2900f5	-0.16504271
43	0xbe5dc460	-0.21656942
44	0x3e735c51	0.23765685
45	0xbcc007ab	-0.023441156
46	0x3c6251b9	0.0138134295
47	0xbcf1d4f1	-0.029520484
48	0xbd9f272d	-0.07771144
49	0xbed84834	-0.42242587
50	0x3def8d17	0.116968326
51	0xbea8f02b	-0.32995734
52	0xbc04a7fa	-0.008096689
53	0x3e6e0aa2	0.23246244
54	0xba84587e	-0.0010097174
55	0xbe3981f9	-0.18115987
56	0xbca10a27	-0.019658161
57	0xbd8aeef6	-0.067838594
58	0x3d0f09ea	0.034921564
59	0xbe9755fb	-0.29557785
60	0xbdfdae4e	-0.123867616
61	0xbe8f29f8	-0.27961707
62	0xbccea8fe	-0.025227066
63	0xbd30e5b5	-0.043187816
64	0xbc06d442	-0.008229317
65	0xbea157fa	-0.31512433
66	0xbb0c1ac6	-0.0021378263
67	0x3c5b8af4	0.013399828
68	0xbdc73d9c	-0.09728548
69	0x3c0382ed	0.008026821
70	0x3b88e167	0.0041772607
71	0xbbb6f863	-0.005583809
72	0x3c55c469	0.013047316
73	0xbdfb7513	-0.122781895
74	0x3e29b12a	0.16571489
75	0xbea5b9c9	-0.32368305
76	0x3df054a5	0.11734895
77	0xbe61eea2	-0.22063687
78	0xbe807d6f	-0.25095698
79	0xbe8afd55	-0.27146402
80	0x3bcdc20c	0.0062792357
81	0xbe7f566a	-0.24935308
82	0xbd958406	-0.07300572
83	0x3dafe11e	0.085878596
84	0xbe4bb9bb	-0.1989507
85	0xbd16d345	-0.036822576
86	0xbd67ca59	-0.05658946
87	0x3d49abd6	0.04923614
88	0xbc9e9b6d	-0.019361222
89	0xbd981aee	-0.074270114
90	0xbe63be5a	-0.22240582
91	0x3dd2fc72	0.10302056
92	0x3eb3a94c	0.350901
93	0x3cef53b5	0.02921472
94	0xbdd2b9b8	-0.10289329
95	0x3d10ac08	0.03532031
96	0x3df2bb40	0.11852121
97	0x3ce99ad4	0.02851621
98	0x3d168b73	0.036754083
99	0xbebfd6e2	-0.3746863
100	0xbeaabc0e	-0.333466
101	0x3e021ba6	0.1270586
102	0xbcb30c88	-0.021856561
103	0xbe642f70	-0.22283721
104	0xbd89117a	-0.066927865
105	0x3e433222	0.19062093
106	0xbe05c57f	-0.1306362
107	0xbe11b87e	-0.14230534
108	0x3e087288	0.1332494
109	0xbb433567	-0.002978647
110	0xbce38ec9	-0.027778046
111	0x3dce214a	0.10064943
112	0x3d9d7b2a	0.07689507
113	0x3dc07885	0.09397987
114	0xbceb946b	-0.028757295
115	0x3e7ffc6c	0.24998635
116	0x3d8d3b40	0.06896067
117	0x3df67f45	0.120359935
118	0x3de71a99	0.1128437
119	0xbe93e57b	-0.28886017
120	0xba95944b	-0.0011411993
121	0x3e279221	0.16364338
122	0x3d89deb2	0.06731929
123	0xbe98c6c1	-0.29839137
124	0xbe0a2603	-0.13491063
125	0x3c0e240d	0.008675587
126	0xbdab0096	-0.08349721
127	0xbe5c3a61	-0.21506645
128	0xbea794b4	-0.3273064
129	0x3ec20685	0.378956
130	0x3e5cd0cc	0.21564025
131	0x3e1ae8bf	0.15127848
132	0xbe2e4892	-0.17019871
133	0xbc5040a0	-0.01271072
134	0x3b54b8ca	0.0032458776
135	0x3cbd5b66	0.023114871
136	0xbdb16e39	-0.086636014
137	0xbe2db523	-0.1696363
138	0xbd876967	-0.06611901
139	0xbc11cf84	-0.008899573
140	0xbe37cba9	-0.17948784
141	0x3e40d95e	0.18832919
142	0x3c81658a	0.015795488
143	0xbe681fc6	-0.2266837
144	0xbe8b244e	-0.27176136
145	0xbe1fcd69	-0.15605702
146	0x3c3cf6d0	0.011533454
147	0xbe209519	-0.15681876
148	0xbde9d034	-0.11416665
149	0xbde2fc05	-0.11083225
150	0xbe7e4236	-0.24829945
151	0xbec55c2b	-0.3854688
152	0x3a917a9f	0.0011099166
153	0xbe18fe89	-0.14940847
154	0xbe6b1c9b	-0.22960131
155	0x3e428b49	0.18998446
156	0xbe42da3d	-0.19028564
157	0xbe539acb	-0.20664518
158	0xbe5ed603	-0.21761326
159	0x3d29b685	0.04143383
160	0xbe78e278	-0.24305141
161	0xbdb77b97	-0.0895912
162	0xbd538aa0	-0.051645875
163	0xbda36f4d	-0.07980213
164	0xbe874bb8	-0.26424956
165	0xbea0d2f2	-0.31410939
166	0xbe0f018d	-0.13965435
167	0xbb7b44c8	-0.0038340557
168	0xbe2b66f8	-0.16738498
169	0xbdfc46f3	-0.1231822
170	0xbe828bdd	-0.25497332
171	0x3e1ed98d	0.15512677
172	0xbe666e3c	-0.22502989
173	0xbe5cef92	-0.21575764
174	0xbe1b3bfd	-0.15159602
175	0xbe14dbd9	-0.1453699
176	0x3e0363ea	0.12831083
177	0x3dadf2c5	0.0849357
178	0xbe64696d	-0.22305842
179	0xbe64a46b	-0.22328345
180	0xbde2f045	-0.11080984
181	0x3e0a2aa3	0.13492827
182	0x3e3f020e	0.18653128
183	0xbea2d5f9	-0.31803873
184	0xbecd5b49	-0.40108708
185	0xbd373add	-0.04473387
186	0xbd5ffbe2	-0.054683574
187	0xbd3a49e4	-0.045480624
188	0xbe738080	-0.23779488
189	0xbe4a1895	-0.1973594
190	0xbe434fbc	-0.19073385
191	0xbcc55b5b	-0.024091413
192	0xbd7f0b85	-0.062266845
193	0xbe8ffdd6	-0.2812335
194	0xbe66917b	-0.22516434
195	0xbcc0661a	-0.023486186
196	0xbcd99422	-0.026559893
197	0x3bfcdff5	0.0077171274
198	0x3e340b0e	0.17582342
199	0x3e153dba	0.14574328
200	0x3e3061ea	0.17224851
201	0x3c69d0e1	0.014270992
202	0xbd3aea0b	-0.045633357
203	0xbee62fa3	-0.4495822
204	0x3c194261	0.009354205
205	0x3df8fb15	0.12157265
206	0xbd91e3e3	-0.07123544
207	0x3d1a2656	0.037634216
208	0x3dfe65a9	0.12421734
209	0xbe062cde	-0.13103053
210	0x3ea2c547	0.31791136
211	0xbe22096a	-0.15823904
212	0xbe42938c	-0.19001597
213	0xbbeac432	-0.0071645016
214	0x3e36e115	0.178593
215	0xbe98748d	-0.2977642
216	0x3e05cad2	0.13065651
217	0x3d9619a3	0.073291086
218	0xbd34e855	-0.04416688
219	0x3c467123	0.012111935
220	0xbe049b50	-0.12949872
221	0x3d3a343b	0.045459967
222	0xbe7debf5	-0.24797042
223	0xbe3e34cd	-0.1857483
224	0x3c799e22	0.015235456
225	0x3c2bf9b9	0.01049655
226	0x3db1d154	0.08682504
227	0xbd1810c6	-0.03712537
228	0x3e005664	0.12532955
229	0x3dc333dc	0.09531376
230	0x3917ba3b	0.00014469858
231	0x3d33a135	0.04385491
232	0x3db1c44f	0.08680021
233	0xbcde2166	-0.027115535
234	0xbdbae8d4	-0.0912644
235	0xbe7b88f6	-0.24563965
236	0xbe07ee31	-0.13274457
237	0x3d862619	0.06550235
238	0xbe303881	-0.17209055
239	0xbea87e2d	-0.32908764
240	0xbe989ad4	-0.29805624
241	0xbe7f6803	-0.24942021
242	0xbe959de1	-0.29222015
243	0xbe1cf2b1	-0.15326954
244	0x3d1d9ff5	0.038482625
245	0x3dfc33f2	0.12314595
246	0xbd411f3f	-0.04714894
247	0x3e991956	0.29902142
248	0xbea522fc	-0.32253253
249	0xbd5edcf3	-0.054409932
250	0xbe3a00c9	-0.18164362
251	0x3e437f87	0.19091617
252	0xbd8db814	-0.06919876
253	0x3e2f04d5	0.17091687
254	0x3d1f76d4	0.038931683
255	0x3e93670a	0.2878955

bias f4 [64]
0	0x3dc8f7de	0.09812902
1	0x3ce20e91	0.027594836
2	0xbe5ac77e	-0.21365163
3	0xbd642feb	-0.05570976
4	0xbdf31bbb	-0.118705235
5	0x3d257681	0.040396217
6	0x3d8725e6	0.065990254
7	0xbc5b2c81	-0.01337731
8	0xbe6bd7fd	-0.23031612
9	0xbe6524a9	-0.22377266
10	0x3dda65c6	0.10663943
11	0xbdbc4d6f	-0.09194457
12	0xbd7f2b61	-0.06229723
13	0xbe0a13dd	-0.1348414
14	0xbe432c33	-0.1905983
15	0x3d5eb5c7	0.054372575
16	0xbd503706	-0.050833724
17	0xbc3517c0	-0.011053026
18	0xbe5717df	-0.210052
19	0x3dfbea8f	0.12300598
20	0x3da7ed02	0.081995025
21	0x3e1d4122	0.15356877
22	0x3db3d2a1	0.08780409
23	0x3d3044af	0.04303425
24	0xbcb2f47f	-0.0218451
25	0xbe5b62ee	-0.21424457
26	0xbe42bb2a	-0.1901671
27	0xbd810e3a	-0.063015416
28	0x3d961666	0.07328491
29	0xbd808fd3	-0.06277432
30	0x3d186c83	0.03721286
31	0xbd5bf6e7	-0.05370226
32	0xbda3c1b7	-0.079959325
33	0xbcdfd526	-0.027323317
34	0xbd853418	-0.06504077
35	0xbe269335	-0.16267093
36	0xbdeeb7f5	-0.11656181
37	0x3de6da48	0.112721026
38	0x3d94304c	0.072357744
39	0xbdc37657	-0.09544056
40	0xbe44693a	-0.19180766
41	0x3ecc340b	0.39883456
42	0xbdef094d	-0.11671696
43	0xbd16997c	-0.036767468
44	0xba483371	-0.000763706
45	0xbd3fddf0	-0.046842515
46	0xbdd58218	-0.10425204
47	0x3dcb860d	0.099376775
48	0x3d8eba28	0.069691
49	0xbe743804	-0.23849493
50	0xbe3ee377	-0.18641458
51	0xbd4ba88f	-0.049721297
52	0x3d1cb5e7	0.038259413
53	0x3d1538b5	0.036431033
54	0xbdc7191b	-0.09721585
55	0xbe5490dd	-0.20758386
56	0x3e09de42	0.13463691
57	0xbe461a07	-0.19345866
58	0xbddd0f37	-0.107939176
59	0x3e1c2492	0.15248325
60	0x3cf016b8	0.029307708
61	0x3d386dd7	0.045026626
62	0xbe281643	-0.16414742
63	0xbe2d2568	-0.169088

weight f4 [64, 64, 3, 3]
0	0xbd4ef1f2	-0.050523706
1	0xbc34ee90	-0.011043206
2	0xbe17cedb	-0.14825003
3	0x3c5e24c9	0.013558575
4	0xbb9255f0	-0.004465811
5	0x3d56f3a8	0.052478462
6	0x3cb8c5d8	0.022555277
7	0x3d1269b0	0.035745323
8	0xbdb7f36d	-0.08981977
9	0xbdee84e1	-0.116464384
10	0xbe131e6f	-0.14367078
11	0xbc4c0ca6	-0.0124541875
12	0x3cc424d6	0.023943346
13	0xbd8b930a	-0.06815155
14	0x3db269e9	0.08711607
15	0xbda229b1	-0.07918108
16	0x3cb8a11d	0.022537762
17	0x3b9c8b20	0.004777327
18	0xbda90486	-0.08252816
19	0xbd93466f	-0.071911685
20	0xbda4b73e	-0.08042763
21	0xbdaab73e	-0.08335732
22	0xbd65141a	-0.055927373
23	0x3c2691f5	0.010166635
24	0xb5dfe489	-1.6681307e-06
25	0xbd30dcf1	-0.043179456
26	0xbc5828bc	-0.013193306
27	0xbd634068	-0.055481344
28	0xbc005e4a	-0.00783498
29	0xbdfa19bc	-0.1221194
30	0xbdc8354e	-0.09775792
31	0xbe5a07cf	-0.21292041
32	0xbcd77a8c	-0.026303552
33	0xbd3bd464	-0.04585685
34	0xbd83c59f	-0.064341776
35	0xbcdea373	-0.027177548
36	0xbd18328c	-0.03715758
37	0xbd8c2982	-0.068438545
38	0xbcdd8621	-0.027041497
39	0xbdc93ba1	-0.098258264
40	0xbdca3b14	-0.098745495
41	0x3d79112e	0.0608074
42	0xbd1f154f	-0.03883868
43	0xbdaf70b2	-0.08566417
44	0xbd56817a	-0.052369572
45	0xbd4c6e5c	-0.049909934
46	0xbdbea4ca	-0.09308775
47	0x3bbee408	0.0058255233
48	0xbdc1259b	-0.09431001
49	0xbd9b8ecf	-0.07595598
50	0xbcb5c058	-0.022186443
51	0xbe22f499	-0.15913619
52	0xbdea8bc8	-0.114524424
53	0xbe32ea5b	-0.17472212
54	0xbd905934	-0.07048264
55	0xbdab7179	-0.083712526
56	0x3af7625f	0.0018873921
57	0xbd69a9a9	-0.057046566
58	0xbc3ddc77	-0.011588207
59	0x3d63ea4d	0.05564337
60	0xbe32ffab	-0.17480342
61	0xbd2f03fe	-0.042728417
62	0xbc008e75	-0.007846464
63	0xbd8cddfc	-0.06878278
64	0x3cafdab8	0.021466598
65	0xbda0b4a7	-0.07846957
66	0xbc583f41	-0.013198675
67	0x3c178424	0.009247813
68	0xbdef4388	-0.116828024
69	0xbd87b0fc	-0.06625554
70	0xbd52ac7b	-0.05143402
71	0xbdd3b4dc	-0.103372306
72	0x3ce688af	0.028141348
73	0xbd63aebc	-0.05558656
74	0xbd32987f	-0.043602463
75	0x3b719127	0.00368602
76	0xbdb89875	-0.09013454
77	0xbd5127d3	-0.05106337
78	0xbdc68107	-0.09692579
79	0xbdc84360	-0.09778476
80	0xbe26f488	-0.16304219
81	0xbdf11dbe	-0.11773251
82	0xbcc1267d	-0.023577923
83	0xbd6a9694	-0.05727251
84	0x3ca6d731	0.020366283
85	0xbcf8e5a9	-0.030382948
86	0xbc2020e5	-0.009773468
87	0xbd9dc9d3	-0.077045105
88	0xbdc4c4bb	-0.09607836
89	0xbdb99fcb	-0.09063681
90	0xbd33ac06	-0.043865226
91	0xbdd2f1e6	-0.10300045
92	0xbcb6162b	-0.022227367
93	0xbdadb667	-0.08482056
94	0x3d0ccfa3	0.034377705
95	0xbd908fdd	-0.0705869
96	0xbdcbedc2	-0.09957458
97	0xbca37716	-0.019954246
98	0xbd3c405c	-0.045959815
99	0x3caaf22a	0.020867426
100	0x3db27d91	0.08715356
101	0x3daf3567	0.085551076
102	0xbdb386bd	-0.08765934
103	0xbd44db27	-0.048060562
104	0x3d3a5699	0.045492742
105	0x3d8cf9f3	0.068836115
106	0xbde89156	-0.11355846
107	0x3d76653b	0.060155135
108	0xbe26b829	-0.16281189
109	0xbdfde51c	-0.12397215
110	0x3d87fef6	0.06640427
111	0x3c00160d	0.007817757
112	0x3bc63b5f	0.006049558
113	0xbda361a7	-0.0797761
114	0xbcc047cf	-0.023471741
115	0xbe218aa5	-0.15775545
116	0xbdbbb7d2	-0.0916592
117	0xbd8291ed	-0.063754894
118	0xbd3860be	-0.045014136
119	0xbe1682a1	-0.14698268
120	0xbdf74d83	-0.12075331
121	0xbdb4df65	-0.088316716
122	0xbdb450d1	-0.08804477
123	0xbc9aeaf4	-0.018910863
124	0xbdd784a0	-0.10523343
125	0xbe1afbf9	-0.15135182
126	0xbcb578e8	-0.02215238
127	0xbcedbf17	-0.029021783
128	0x3ccf3722	0.025294844
129	0xbbea10e8	-0.0071431287
130	0xbd7829b7	-0.060586657
131	0x3d0f81d4	0.035035923
132	0xbd3882df	-0.045046683
133	0xbe07c995	-0.13260491
134	0xbbf93c39	-0.007606056
135	0xbc03f719	-0.008054518
136	0x3d747f8d	0.059691954
137	0x3b48189a	0.0030532242
138	0x3dccc353	0.09998193
139	0xbdf2656b	-0.1183575
140	0xbd4eaf84	-0.050460353
141	0xbb7ab845	-0.0038256806
142	0xbda4f613	-0.080547474
143	0xbdf67c75	-0.12035457
144	0xbd93212d	-0.07184062
145	0x3c5ff1b5	0.013668467
146	0xbd805078	-0.06265348
147	0x3cb17973	0.021664357
148	0xbd3931f4	-0.045213655
149	0x3ae39341	0.0017362611
150	0xbddac5f1	-0.106822856
151	0x3d406eae	0.046980552
152	0xbcdad915	-0.02671484
153	0xbdff3f25	-0.12463216
154	0xbca499e2	-0.020092908
155	0xbe47f71a	-0.19527856
156	0xbd86d010	-0.065826535
157	0xbcfdc50f	-0.030977754
158	0x3d0216d4	0.03176005
159	0xbcfd5704	-0.030925281
160	0x3beff36c	0.0073227193
161	0xbdcd3a14	-0.10020843
162	0x3cb216b2	0.021739338
163	0x3bf8e4e0	0.0075956434
164	0x3d4d1db2	0.050077148
165	0xbdd3c8eb	-0.103410564
166	0x3de4c817	0.111709766
167	0x3c9dfcac	0.019285522
168	0x3d66e5da	0.056371547
169	0x3d0eb896	0.034844004
170	0x3d92caf8	0.071676195
171	0xbcb25db2	-0.021773193
172	0x3c77143f	0.015080511
173	0xbdf5706f	-0.11984336
174	0xbd5d3036	-0.054001056
175	0xbd1dfda9	-0.038571987
176	0xbd0e8a05	-0.034799594
177	0xbd53d268	-0.05171433
178	0x3d87c806	0.06629948
179	0xbdb9a0a9	-0.090638466
180	0x3d91d2fb	0.071203195
181	0xbd4c32b1	-0.04985303
182	0xbdeda7ba	-0.11604257
183	0x3c079c90	0.0082770735
184	0xbdaf9cdd	-0.08574841
185	0xbdf3b83f	-0.119003765
186	0xbcd3cbc5	-0.025854
187	0xbd85c3ae	-0.065314636
188	0x3d3eac0b	0.04655079
189	0xbd9a56b2	-0.07536067
190	0xbd8b764a	-0.06809671
191	0xbddfc380	-0.109259605
192	0xbcdf1986	-0.02723385
193	0x3d81210e	0.06305133
194	0xbdbf446e	-0.09339224
195	0xbdc291eb	-0.09500488
196	0xbe2b53bd	-0.16731162
197	0xbdcf2dba	-0.101161435
198	0xbd614664	-0.05499877
199	0x3cbd9bfd	0.02314567
200	0xbdb512b5	-0.08841459
201	0xbd78102c	-0.060562298
202	0xbd9c391f	-0.076280825
203	0xbda1ed98	-0.079066455
204	0x3a9b0d5c	0.0011829543
205	0xbe1a8b29	-0.15092148
206	0x3cc8ea39	0.024525749
207	0x3d0be007	0.034149196
208	0x3badff11	0.0053099473
209	0x3bfb75ed	0.00767397
210	0xbdb01d0c	-0.0859929
211	0xbd82c97a	-0.06386085
212	0xbe4be058	-0.19909799
213	0xbd38efc1	-0.045150522
214	0xbd5e544f	-0.05427962
215	0x3dc53dc0	0.096309185
216	0xbb8bd4cb	-0.0042673103
217	0xbe0078ea	-0.12546125
218	0xbb496639	-0.0030731095
219	0xbc4807a7	-0.012208856
220	0x3cd91e38	0.026503667
221	0xbccebba8	-0.025235966
222	0xbd691778	-0.056907147
223	0xbc10c009	-0.008834847
224	0xbd9b46a0	-0.0758183
225	0xbd8b1ad3	-0.06792226
226	0x3bd80b41	0.0065931384
227	0xbda8cfbb	-0.082427464
228	0x3d567902	0.052361496
229	0xbda578b0	-0.0807966
230	0xbcc6e7d1	-0.02428046
231	0x3c422cce	0.011851503
232	0xbddc6060	-0.107605696
233	0xbb0c15b7	-0.0021375248
234	0x3ca4a388	0.020097509
235	0xbca72f73	-0.020408368
236	0xbd738057	-0.059448566
237	0xbc9580b7	-0.018249853
238	0xbe0f0773	-0.13967685
239	0xbd70b407	-0.058765437
240	0xbd480f9a	-0.048843004
241	0xbc658197	-0.014007947
242	0x3d6d6e0b	0.057966273
243	0xbd65cfe7	-0.056106474
244	0xbdf6ac98	-0.120446384
245	0xbd262bd3	-0.040569138
246	0xbdcd72f7	-0.100316934
247	0x3cdaefff	0.026725767
248	0xbcfdaf8a	-0.030967493
249	0xbd669c20	-0.056301236
250	0xbde21e40	-0.11040926
251	0x3d814402	0.063117996
252	0xbd9a05f3	-0.07520666
253	0xbdbf5c33	-0.093437575
254	0xbd8f4cd5	-0.069970764
255	0xbdf23471	-0.11826409

bias f4 [64]
0	0xbd00e58c	-0.031468913
1	0xbd2ab182	-0.04167319
2	0xbd5d4ed7	-0.054030266
3	0xbcf47bba	-0.029844154
4	0xbd53ce82	-0.051710613
5	0xbd859e79	-0.06524367
6	0xbd7a9d49	-0.061185155
7	0xbd96248c	-0.073311895
8	0xbc9c92a8	-0.0191129
9	0xbd7434b7	-0.059620585
10	0xbd817676	-0.06321423
11	0xbba5233e	-0.0050396016
12	0xbdca6655	-0.098827995
13	0xbd6ad0cf	-0.05732804
14	0xbcd034c7	-0.025415791
15	0xbd06f330	-0.032946765
16	0xbd870a61	-0.065937765
17	0xbd8e5159	-0.069491096
18	0xbccc0472	-0.024904463
19	0xbd2bb102	-0.041916855
20	0xbd87ca81	-0.066304214
21	0xbda79531	-0.08182753
22	0xbdb6cc66	-0.08925705
23	0xbd280222	-0.04101766
24	0xbd70e2e7	-0.05881014
25	0xbc8da7db	-0.017291954
26	0xbda064e9	-0.07831747
27	0xbd27fec8	-0.041014463
28	0xbd657c4a	-0.056026734
29	0x3d582e9d	0.05277883
30	0xbdb70a91	-0.08937562
31	0xbd9d11ca	-0.076694086
32	0xbd42e6db	-0.047583442
33	0xbd2ef80f	-0.042717036
34	0xbcf6f62e	-0.030146684
35	0xbdc15cf8	-0.094415605
36	0xbd1bcc8d	-0.03803687
37	0xbdba1887	-0.090867095
38	0xbdca9aa7	-0.09892779
39	0xbdc1030d	-0.0942441
40	0xbc25b210	-0.010113254
41	0xbd99076c	-0.07472119
42	0xbd19b5de	-0.037526958
43	0xbd42b9c2	-0.047540434
44	0xbdbabce4	-0.09118059
45	0xbda042a7	-0.07825213
46	0xbd8d1eb4	-0.06890622
47	0xbd6176c5	-0.055044908
48	0xbd88583a	-0.06657453
49	0xbd902560	-0.07038379
50	0xbd40c3c5	-0.0470617
51	0xbd0d6a2f	-0.034525093
52	0xbd60e9ce	-0.054910474
53	0xbd6d432f	-0.0579254
54	0xbda48986	-0.08034043
55	0xbd059a0f	-0.032617625
56	0xbd6c11ad	-0.057634044
57	0xbd190ece	-0.037367634
58	0x3d2b7cc8	0.041867048
59	0x3d9874e2	0.074441686
60	0xbdae7a4e	-0.085194215
61	0xbc268aa5	-0.010164891
62	0xbd6c39aa	-0.05767218
63	0xbda0e6a4	-0.07856491

weight f4 [32, 64, 3, 3]
0	0x3dcfbaa6	0.10143022
1	0x3d8799b7	0.06621116
2	0xbce4305e	-0.027855095
3	0xbcddd8bf	-0.027080892
4	0x3e4e1765	0.20126112
5	0xbd059931	-0.032616798
6	0x3e08e9c8	0.1337043
7	0x3d93ffac	0.072265
8	0x3dc8c5b3	0.09803333
9	0x3d97779a	0.07395859
10	0x3d41b73f	0.047293898
11	0x3d047f7a	0.032348134
12	0x3d05fc14	0.032711104
13	0x3e236d23	0.15959601
14	0x3d3c8be5	0.04603185
15	0x3e2b7da7	0.16747151
16	0x3cb082b9	0.021546708
17	0x3da23b2e	0.07921444
18	0x3e0e9b5a	0.1392645
19	0x3de83e0b	0.11339959
20	0x3e023f6d	0.12719508
21	0x3d444ca9	0.04792467
22	0x3d567930	0.052361667
23	0x3db9377a	0.090437844
24	0x3db7a0b1	0.08966196
25	0x3de9711e	0.113985285
26	0x3dcd6051	0.100281365
27	0xbda37c80	-0.07982731
28	0xbe3c582d	-0.18393011
29	0xbd381e31	-0.044950668
30	0xbdab38f1	-0.0836047
31	0x3d43d985	0.047814865
32	0x3c19cfaf	0.0093878945
33	0xbc22405b	-0.009903039
34	0xbda22ac7	-0.079183154
35	0x3d80e7f2	0.0629424
36	0x3d2da54f	0.04239398
37	0xbd8ab72e	-0.0677322
38	0xbd898b03	-0.067159675
39	0x3c0aa159	0.00846132
40	0xbd7fd203	-0.062456142
41	0xbde5b422	-0.11215998
42	0xbce0c481	-0.02743745
43	0xbced89fe	-0.028996464
44	0x3ce48d23	0.02789933
45	0x3d87e533	0.06635513
46	0x3ca8778c	0.020564817
47	0xbcdabe0b	-0.026701948
48	0x3df0696c	0.117388576
49	0x3ba512d5	0.0050376453
50	0x3dec6f64	0.115446836
51	0x3e408a8b	0.1880285
52	0x3d675bab	0.056483906
53	0x3c0276cc	0.007962894
54	0xbd9e647d	-0.0773401
55	0xbd34c86c	-0.04413645
56	0xbd951032	-0.0727848
57	0xbcdf7413	-0.027277028
58	0xbdef9042	-0.11697437
59	0xbc29cabf	-0.01036328
60	0xbc5d6679	-0.013513201
61	0xbd35c3c2	-0.044376142
62	0xbdad3007	-0.08456426
63	0x3c8aa2e3	0.016923374
64	0xbd9ce9ed	-0.07661805
65	0x3d975f3e	0.07391213
66	0xbd940adf	-0.07228636
67	0xbbffea31	-0.0078099
68	0xbd94d234	-0.072666556
69	0xbdb82af8	-0.08992571
70	0xbcb87791	-0.022517951
71	0xbe1a974f	-0.15096782
72	0xbcb5ac42	-0.022176865
73	0xbd4703ec	-0.048587725
74	0xbd64baa7	-0.055842068
75	0x3b9961d2	0.0046808505
76	0xbc9ea2d2	-0.019364748
77	0x3c889189	0.01667096
78	0xbcc30219	-0.023804711
79	0x3d3275b4	0.04356928
80	0xbdbbe884	-0.09175208
81	0xbd3592b5	-0.044329364
82	0x3c63d952	0.013906794
83	0x3db82381	0.08991147
84	0xbd9827dc	-0.074294776
85	0xbda8a6bb	-0.08234926
86	0x3c35ef17	0.011104367
87	0xbd07e4bc	-0.033177122
88	0x3c248b89	0.010043033
89	0xbd43f371	-0.047839586
90	0xbcd6f536	-0.026239973
91	0xbe06d3b3	-0.13166694
92	0xbd2d96f8	-0.042380303
93	0xbcef40ba	-0.029205669
94	0xbdd379f8	-0.10325998
95	0x3bc6b406	0.006063941
96	0xbd995aff	-0.07488059
97	0xbdb8d718	-0.09025401
98	0xbdb875f8	-0.09006876
99	0xbdb533be	-0.0884776
100	0xbe00e6eb	-0.12588088
101	0x3a1d98fd	0.0006011872
102	0xbc3c729c	-0.011501934
103	0xbcf69032	-0.030098055
104	0xbd4f35c9	-0.050588403
105	0x3c9e2063	0.019302553
106	0xbc66ec5f	-0.014094441
107	0x3c1ed170	0.0096934885
108	0x3c98b825	0.018642494
109	0xbdac31df	-0.0840795
110	0xbdc65f82	-0.096861854
111	0xbdc10c41	-0.09426165
112	0xbe2de5c9	-0.16982187
113	0xbd886b44	-0.06661084
114	0xbdeba426	-0.11505918
115	0xbd9c3df1	-0.07629002
116	0xbca36350	-0.019944817
117	0xbafe9518	-0.0019423096
118	0x3c3d06ad	0.011537236
119	0xbd1e472f	-0.038642105
120	0xbdb2ecb8	-0.08736557
121	0xbdcf3341	-0.10117198
122	0xbe166e6e	-0.14690563
123	0xbcc7a824	-0.024372168
124	0xbcc8d86f	-0.024517266
125	0xbce6cdb1	-0.028174253
126	0x3dc4b647	0.09605079
127	0x3d785d2a	0.060635723
128	0x3d8df4dc	0.06931469
129	0xbb8c11d5	-0.0042745867
130	0x3df56bd3	0.119834565
131	0xbcb5e80a	-0.022205371
132	0xbd1ad5af	-0.03780144
133	0x3db9ed51	0.09078468
134	0xbce07eaf	-0.027404157
135	0x3b21e7b6	0.002470476
136	0x3cac3efe	0.02102613
137	0xbe27ff2e	-0.16405937
138	0xbce3d13b	-0.02780973
139	0xbd868158	-0.06567639
140	0x3cd64671	0.026156636
141	0xbca00a92	-0.01953629
142	0xbd9c637d	-0.076361634
143	0xbcc44b5a	-0.023961712
144	0xbdce8ea1	-0.10085798
145	0x3da62d9b	0.08114167
146	0xbdd0ebc9	-0.102012224
147	0xbc4caa16	-0.0124917235
148	0x3d64d7b4	0.055869773
149	0xbcc46e73	-0.023978448
150	0xbd7cf0af	-0.06175297
151	0xbdbc9657	-0.092083625
152	0xbd423008	-0.047409087
153	0xbc219d17	-0.009864113
154	0xbdd3a043	-0.10333302
155	0x3d1dda52	0.038538285
156	0xbd82ec23	-0.06392696
157	0xbd28bf63	-0.041198146
158	0xbd9c29c3	-0.07625153
159	0xbcfa228e	-0.030534055
160	0xbc9330b6	-0.017967563
161	0xbdcd21b3	-0.10016193
162	0x3c943ac6	0.018094432
163	0xbc1e5a7a	-0.009665126
164	0x3dc2d1d4	0.09512678
165	0x3e01c489	0.12672628
166	0x3c365c00	0.011130333
167	0x3d0e5f1c	0.034758672
168	0x3d90187c	0.0703592
169	0xbbefcfb8	-0.007318463
170	0x3dad9776	0.084761545
171	0x3cb10eff	0.021613596
172	0xbc3db5ef	-0.011579021
173	0xbd6d86c8	-0.057989866
174	0xbda3c7e8	-0.079971135
175	0xbd950828	-0.07276946
176	0x3ba4a25b	0.005024237
177	0xbe277669	-0.16353764
178	0xb9a828a3	-0.00032073734
179	0xbca54b51	-0.020177515
180	0xbe0edee9	-0.13952221
181	0xb9ee2545	-0.00045422665
182	0x3d0189ff	0.031625744
183	0xbdd58e16	-0.10427491
184	0xbdf00a4e	-0.117207155
185	0x3ddf8e3f	0.10915803
186	0xbcdda9ef	-0.02705857
187	0xbd78df4c	-0.060759827
188	0x3d341d02	0.043972977
189	0xbdb8fdab	-0.09032758
190	0x3d1f14ec	0.038838312
191	0xbde924da	-0.11383982
192	0xbd3a6cdd	-0.045513976
193	0xbd2f7523	-0.04283632
194	0x3e0ed1dc	0.13947242
195	0x3d7296d8	0.059225887
196	0xbdca7980	-0.098864555
197	0xbdd97d91	-0.10619653
198	0x3e0c84c7	0.13722526
199	0x3d66c1c6	0.05633714
200	0x3e12546a	0.14290014
201	0xbd299fc7	-0.04141214
202	0xbd1cf253	-0.038317036
203	0x3e0c31e7	0.13690911
204	0x3d8c4800	0.068496704
205	0x3d75f32c	0.06004636
206	0x3ba2bc6a	0.0049663084
207	0x3bd06327	0.006359476
208	0xbd8a9cd0	-0.06768191
209	0xbd1cc967	-0.03827801
210	0xbd91835d	-0.07105134
211	0xbd63f084	-0.055649295
212	0xbcc26522	-0.023729865
213	0xbd964579	-0.073374696
214	0xbb39fdda	-0.0028380067
215	0xbdf52c87	-0.119713835
216	0xbc855b1f	-0.016278801
217	0x3b647aa9	0.003486315
218	0xbda29224	-0.0793803
219	0xbe22cdac	-0.1589877
220	0xbb6486af	-0.0034870317
221	0xbc6db534	-0.014508534
222	0xbdd241be	-0.102664456
223	0xbdc55aad	-0.09636436
224	0x3cae2597	0.021258159
225	0x3ce8b32c	0.028405748
226	0x3d36510e	0.044510894
227	0xbdba90ba	-0.09109636
228	0xbe094705	-0.13405998
229	0xba72ec41	-0.0009266772
230	0xbd1d6e92	-0.038435526
231	0xbbb204c4	-0.005432697
232	0xbe0247ab	-0.12722652
233	0xbd7a2df1	-0.06107897
234	0x3df816d0	0.12113726
235	0x3d837df3	0.06420507
236	0xbca8537d	-0.020547623
237	0xbd7425ba	-0.05960629
238	0xbb5a6eb6	-0.003333015
239	0x3d9f0a40	0.07765627
240	0xbb879e48	-0.0041387416
241	0x3d9bc520	0.07605958
242	0x3d2946b0	0.04132718
243	0xbdd39443	-0.10331013
244	0xbd91d0c1	-0.07119895
245	0x3bdce92e	0.0067416644
246	0x3bc1a7d8	0.005909901
247	0xbd00745b	-0.031360965
248	0xbdf9cf84	-0.121977836
249	0xbdb355c5	-0.087565936
250	0xbcb5c4b1	-0.022188516
251	0xbdf7ef3b	-0.121061765
252	0xbd3d5247	-0.046221044
253	0x3d3a8825	0.045539994
254	0x3e481d97	0.19542538
255	0xbc4a2572	-0.012338029

bias f4 [32]
0	0xbdaa447a	-0.08313842
1	0xbc9209f0	-0.017827004
2	0xbdb0c97f	-0.08632182
3	0x3e44527f	0.19172095
4	0xbdacbf37	-0.08434909
5	0xbd639add	-0.05556761
6	0x3d90748f	0.07053482
7	0xbd3fcfc4	-0.046829
8	0xbdcb6948	-0.0993219
9	0x3e207f0a	0.15673462
10	0x3e0f7467	0.14009248
11	0xbd37c58c	-0.04486613
12	0xbdb1e663	-0.08686521
13	0xbd6ce2a5	-0.057833333
14	0xbd1805ef	-0.037115034
15	0xbd787bf0	-0.06066507
16	0xbcc6362d	-0.024195755
17	0xbde09c76	-0.109673426
18	0xbd8cb638	-0.06870693
19	0xbdb78d06	-0.08962445
20	0x3e094adc	0.13407463
21	0xbdaa4212	-0.08313383
22	0xbdb334e9	-0.08750326
23	0x3e069652	0.1314328
24	0xbdcf4de1	-0.10122276
25	0xbd453e9f	-0.048155423
26	0xbda0aba8	-0.07845241
27	0xbd12a02f	-0.035797294
28	0xbda19c93	-0.07891192
29	0xbd4a53d9	-0.04939637
30	0xbd3d5be8	-0.046230227
31	0x3dff549c	0.1246731

weight f4 [16, 32, 3, 3]
0	0x3d4e2bb6	0.050334655
1	0xbd6645b7	-0.05621883
2	0xbdefc8d9	-0.117082305
3	0x3c6ac04c	0.014328074
4	0xbda1be1a	-0.07897587
5	0xbe0bfa95	-0.13669808
6	0xbe433962	-0.19064859
7	0x3d38f8ae	0.045159034
8	0xbe061aed	-0.13096209
9	0x3d7c0671	0.06152958
10	0x3d88549c	0.06656763
11	0x3d99ed03	0.075159095
12	0x3e1c4199	0.15259399
13	0x3d96325e	0.073338255
14	0x3d039e6d	0.03213351
15	0xbd1caaa9	-0.03824869
16	0x3d6e4fdc	0.05818163
17	0x3d992117	0.074770145
18	0xbd991db1	-0.07476366
19	0x3cafd5b8	0.021464214
20	0x3c83ce81	0.01608968
21	0xbdc82b51	-0.09773887
22	0xbd0bbc13	-0.03411491
23	0x3d7f7f84	0.062377468
24	0xbc8da50a	-0.01729061
25	0x3d67579f	0.056480046
26	0xbd64c30e	-0.05585008
27	0x3e3fb7a6	0.187224
28	0x3e822cb8	0.25424743
29	0x3db246aa	0.08704884
30	0x3dcf7f19	0.10131664
31	0x3ea72564	0.32645714
32	0x3d45a84e	0.04825621
33	0x3e44bb29	0.19212021
34	0x3e26b62c	0.1628043
35	0xbb10e4da	-0.0022109062
36	0xbd6f996b	-0.05849592
37	0xbbdb8b26	-0.0066999374
38	0xbe1b28c3	-0.15152268
39	0xbc30930d	-0.010777247
40	0xbc8acffb	-0.016944876
41	0xbd6de5e9	-0.058080588
42	0xbd18c6ff	-0.037299152
43	0xbd74b76e	-0.059745245
44	0x3d18707a	0.03721664
45	0xbd377eb3	-0.044798564
46	0xbbffa9ba	-0.0078022154
47	0xbd21b445	-0.03947856
48	0xbcb8031f	-0.022462426
49	0x3d8bc643	0.06824925
50	0xbd577953	-0.05260594
51	0x3d428bf8	0.047496766
52	0x3d4e58ab	0.05037753
53	0xbd10ec14	-0.03538139
54	0xbe57ea2f	-0.21085428
55	0x3e4b8ec3	0.19878678
56	0x3d5dd9f8	0.05416295
57	0xbc03761f	-0.008023768
58	0x3e23a830	0.15982127
59	0x3e2deca3	0.16984801
60	0xbc6427f5	-0.013925542
61	0xbdd97ffc	-0.10620114
62	0xbe093f8d	-0.13403149
63	0x3baa924f	0.0052054296
64	0x3c2cc12d	0.010544104
65	0x3c89f118	0.016838595
66	0xbdf47cfa	-0.119379
67	0xbda1ec16	-0.07906358
68	0xbd69a1d3	-0.057039093
69	0xbde4096c	-0.111346096
70	0x3cc0eff0	0.023551911
71	0xbd0825ba	-0.033239104
72	0x3cb93902	0.022610191
73	0x3cfb90af	0.030708639
74	0xbca9f557	-0.02074687
75	0x3da63d01	0.08117104
76	0x3d8f469a	0.06995888
77	0x3ccbdd47	0.024885787
78	0x3da4ff77	0.080565386
79	0xbe12c8ba	-0.14334384
80	0xbd73d576	-0.059529744
81	0x3deced0f	0.11568653
82	0x3dbb3338	0.091406286
83	0x3d876f63	0.06613042
84	0x3cee0eec	0.02905985
85	0x3e32e00a	0.17468277
86	0x3e55c01f	0.2087407
87	0x3def675f	0.11689638
88	0xbd03671f	-0.032080766
89	0x3bd7fe1a	0.0065915706
90	0x3dde8dba	0.10866876
91	0x3ea2251c	0.31668937
92	0x3e00ae21	0.12566425
93	0x3e63eb7f	0.22257803
94	0x3e2e5ac9	0.1702682
95	0x3d78c292	0.06073243
96	0x3e09124b	0.13385884
97	0x3dd362cf	0.103215806
98	0x3b2cdb92	0.0026375991
99	0x3ddecba9	0.10878689
100	0xbd0f44f2	-0.03497786
101	0x3ce324e6	0.027727555
102	0x3db52510	0.0884496
103	0xbc44f67c	-0.012021657
104	0xbd60e9d7	-0.054910507
105	0x3da0d4b2	0.078530684
106	0x3da2a9ae	0.0794252
107	0x3c9e783e	0.019344445
108	0x3d55accd	0.05216675
109	0x3dc2af8f	0.095061414
110	0xbd10f7c2	-0.03539253
111	0x3def0670	0.1167115
112	0x3923e97c	0.00015631871
113	0xbd7ba072	-0.06143231
114	0x3d16cc2d	0.03681581
115	0x3e0c7aa1	0.13718654
116	0x3d8967fe	0.06709288
117	0xbd8909e9	-0.06691343
118	0x3b6a7766	0.0035776733
119	0x3d554dc5	0.05207612
120	0xbd97e073	-0.07415857
121	0xbe2d6326	-0.16932353
122	0xbe06b9fd	-0.13156886
123	0xbdba876a	-0.091078594
124	0xbdc1f538	-0.094706
125	0x3c3a0c25	0.011355435
126	0x3b8fb27b	0.00438529
127	0xbd984e98	-0.074368656
128	0x3b6067ba	0.0034241513
129	0xbd7ed304	-0.06221296
130	0xbd0ffaf2	-0.03515143
131	0x3cfbf88b	0.030758163
132	0x3d2c5bc7	0.042079713
133	0xbd328181	-0.043580536
134	0xbdfd0301	-0.123540886
135	0x3cff1e0d	0.031142259
136	0x3e0423b8	0.1290425
137	0xbc943aac	-0.018094383
138	0x3d0a7700	0.033804893
139	0x3ddc00ad	0.107423164
140	0x3c93d9a9	0.018048124
141	0x3d90fa1c	0.070789546
142	0x3e1b9ccd	0.15196534
143	0x3e25ac1f	0.1617894
144	0x3c9055c6	0.017619025
145	0xbcba37c1	-0.022731664
146	0xbd2a6756	-0.041602455
147	0xbdef0dc8	-0.116725504
148	0x3d97501d	0.07388327
149	0xbddf5941	-0.10905696
150	0xbc845d73	-0.016157841
151	0x3d895a68	0.06706697
152	0xbd9d3a0e	-0.07677089
153	0x3cd02448	0.025407925
154	0xbcdb786d	-0.026790822
155	0x3b95da45	0.004573139
156	0x3dc14036	0.094360754
157	0x3d3e5570	0.0464682
158	0x3d719cba	0.058987357
159	0x3d64773b	0.05577777
160	0x3d1127ba	0.035438277
161	0x3d359505	0.04433157
162	0xbc21ac20	-0.009867698
163	0x3d250f1c	0.040297613
164	0xbdeff891	-0.11717332
165	0xbd685fdd	-0.056732047
166	0x3b6286d5	0.003456523
167	0xbd2233ae	-0.039600067
168	0x3d2d5b1e	0.042323224
169	0xbd1b81d2	-0.037965603
170	0x3c319f59	0.010841214
171	0xbdeb0668	-0.11475831
172	0xbd809bba	-0.062797025
173	0xbd87cdfd	-0.06631086
174	0x3def9494	0.11698261
175	0xbdba0da3	-0.09084632
176	0xbd0baf90	-0.034102976
177	0xbd6f6a1a	-0.058450796
178	0xbb0f5856	-0.002187272
179	0x3d472792	0.04862172
180	0xbd8ce762	-0.0688007
181	0x3e1d4d14	0.15361434
182	0x3b60d8c8	0.00343089
183	0x3ec37465	0.3817474
184	0x3f2fb771	0.68639284
185	0x3f2cfd27	0.6757378
186	0x3cbbe912	0.022938285
187	0xbccc40a6	-0.02493317
188	0x3c5c633b	0.013451393
189	0xbdc6ec96	-0.09713094
190	0xbd3735ad	-0.044728924
191	0xbd796ae0	-0.06089294
192	0x3d8d8532	0.069101706
193	0xbd36c98b	-0.0446258
194	0xbdd13d4c	-0.102167696
195	0xbdfe5e90	-0.1242038
196	0xbdec81f6	-0.115482256
197	0xbd7d0be9	-0.061778937
198	0x3da35c2e	0.07976566
199	0x3d6d517a	0.05793903
200	0xbd997c75	-0.074944414
201	0xbc9e155d	-0.019297296
202	0xbcc8bfc7	-0.024505509
203	0x3cd79a9b	0.026318839
204	0x3d829d37	0.063776426
205	0x3cd0db9e	0.025495347
206	0xbdc21671	-0.094769366
207	0x3e2596f4	0.16170865
208	0x3e13fe1c	0.14452404
209	0x3e31ede0	0.17375898
210	0x3e4aff93	0.19824056
211	0x3df83bd7	0.121207885
212	0x3e2c3f30	0.16820979
213	0x3e36270e	0.17788336
214	0x3de8e00c	0.113708586
215	0x3d440cd6	0.047863804
216	0x3e44fbd4	0.1923669
217	0xbe5e21e8	-0.21692622
218	0xba62b188	-0.000864767
219	0x3d18a327	0.03726497
220	0xbc98c4be	-0.018648501
221	0x3defd0cb	0.11709746
222	0x3c43a48e	0.011941088
223	0x3e4dd44e	0.20100519
224	0xbd37aeb7	-0.044844355
225	0x3c3d050a	0.011536846
226	0x3d33affd	0.043869007
227	0x3db3788b	0.08763226
228	0xb8237bf3	-3.8977665e-05
229	0x3d9d0718	0.07667369
230	0xbd0a2d9e	-0.03373491
231	0x3db0b742	0.08628704
232	0x3cfed1ae	0.031105842
233	0x3e5414e5	0.20711096
234	0x3e232ab7	0.15934263
235	0x3e1e98dd	0.15488
236	0xbaeaf630	-0.0017926153
237	0x3d2e2b76	0.042521916
238	0x3da83b77	0.08214467
239	0xbb02cbe1	-0.0019957947
240	0x3dcc87a3	0.09986808
241	0x3d7a92fc	0.06117533
242	0x3d1ba277	0.037996735
243	0xbcd02b33	-0.025411224
244	0x3c83fb08	0.016110912
245	0xbe07985b	-0.13241713
246	0xbcd30ef5	-0.025763968
247	0xbd21f470	-0.039539754
248	0xbe47d339	-0.19514169
249	0xbd3eadfe	-0.04655265
250	0xbcea0e3c	-0.02857124
251	0xbe374cff	-0.17900465
252	0xbe3b3bfb	-0.182846
253	0xbd3e79ff	-0.046503063
254	0x3c733380	0.0148438215
255	0xbd6151b3	-0.055009555

bias f4 [16]
0	0x3bdd5177	0.006754096
1	0x3d05f1dc	0.03270136
2	0x3d1401dd	0.03613459
3	0x3d5c28b5	0.05374976
4	0x3cba4036	0.022735696
5	0xbc0601c1	-0.008179129
6	0x3b497769	0.003074134
7	0x3da515ec	0.08060822
8	0x3d553b87	0.052058723
9	0x3d11d55a	0.03560386
10	0x3d573a10	0.052545607
11	0x3c06cded	0.0082278075
12	0x3d6596e5	0.056052107
13	0x3d6665eb	0.05624954
14	0x3d5e96b7	0.05434295
15	0x3d45137b	0.04811428
