super_resolution/checkpoint_scale4/model_epoch_3.pth (torch_old, 260873 bytes, 8 tensors)

weight f4 [64, 1, 5, 5]
0	0xbdb25ab4	-0.087087065
1	0xbe8b728d	-0.27235833
2	0xbea1d7cb	-0.3160995
3	0xbc951bd0	-0.018201739
4	0xbe050904	-0.1299172
5	0xbac29399	-0.0014845013
6	0x3e88194e	0.26581806
7	0xbe7b981f	-0.24569748
8	0x3e15f0eb	0.14642684
9	0xbe4fb133	-0.2028244
10	0xbe842550	-0.25809717
11	0xbeef83e1	-0.46780303
12	0xbe69cce5	-0.22832067
13	0xbc751c0d	-0.014960301
14	0xbefc9ba7	-0.49337503
15	0xbdc32d22	-0.09530093
16	0xbdde26ca	-0.10847242
17	0x3dfbfcae	0.12304054
18	0x3df85d0c	0.12127122
19	0xbd49eacb	-0.04929618
20	0xbe43ae36	-0.19109425
21	0xbe86e094	-0.26343215
22	0xbe772a2a	-0.24137178
23	0x3d3e69bc	0.046487555
24	0xbe38a09d	-0.18030019
25	0xbd3de22d	-0.046358276
26	0x3e134b64	0.14384228
27	0xbe450bec	-0.19242829
28	0xbdfac014	-0.12243667
29	0xbe2baa7b	-0.16764252
30	0xbda80268	-0.08203584
31	0x3db8121e	0.089878306
32	0xbe251fe3	-0.16125445
33	0xbe6b966e	-0.23006603
34	0xbe26cd0a	-0.16289154
35	0xbe31bf2f	-0.17358087
36	0x3dc2b047	0.095062785
37	0xbe6fedd7	-0.23430572
38	0xbe051d6d	-0.12999506
39	0x3d14708d	0.03624015
40	0x3d5b0532	0.05347175
41	0xbed4dcf4	-0.41574824
42	0xbe289965	-0.16464765
43	0xbe5d60aa	-0.21618906
44	0x3e73c0b4	0.23803979
45	0xbcbcd9ef	-0.023053138
46	0x3c68b432	0.014203118
47	0xbcee9b49	-0.02912678
48	0xbd9e608a	-0.07733257
49	0xbed816a5	-0.42204776
50	0x3df05dd8	0.11736649
51	0xbea8bc39	-0.32956102
52	0xbbfc6e21	-0.007703558
53	0x3e6e7154	0.23285419
54	0xba2207a8	-0.00061809504
55	0xbe39190a	-0.18075958
56	0xbc9dc89d	-0.019260699
57	0xbd8a206b	-0.067444645
58	0x3d10a59a	0.03531418
59	0xbe97228d	-0.29518548
60	0xbdfcdbe8	-0.12346631
61	0xbe8ef5dc	-0.2792195
62	0xbccb6e7f	-0.024832962
63	0xbd2f49e1	-0.042795066
64	0xbc006779	-0.00783717
65	0xbea12395	-0.3147246
66	0xbae44874	-0.0017416612
67	0x3c61fc2e	0.0137930345
68	0xbdc66fe7	-0.096893124
69	0x3c09edd7	0.008418522
70	0x3b95e7a4	0.004574733
71	0xbbaa089d	-0.005189015
72	0x3c5c32a3	0.013439807
73	0xbdfaa7a2	-0.12239005
74	0x3e2a17b3	0.16610603
75	0xbea5b706	-0.32366198
76	0x3df06cd0	0.11739504
77	0xbe61e833	-0.22061233
78	0xbe8062f4	-0.25075495
79	0xbe8acec0	-0.27110863
80	0x3bd4f022	0.0064983526
81	0xbe7f04eb	-0.2490422
82	0xbd94e36b	-0.07269939
83	0x3db0d56c	0.08634457
84	0xbe4b5de1	-0.1986003
85	0xbd1596a2	-0.036520608
86	0xbd6690e5	-0.056290526
87	0x3d4a7eff	0.04943752
88	0xbc9a508d	-0.018837238
89	0xbd972ee4	-0.073819906
90	0xbe639463	-0.22224574
91	0x3dd37db6	0.10326712
92	0x3eb3c59f	0.3511171
93	0x3cf4078f	0.02978876
94	0xbdd194cd	-0.102334596
95	0x3d113430	0.03545016
96	0x3df34656	0.1187865
97	0x3cebf5a6	0.028803658
98	0x3d18f61e	0.03734409
99	0xbebf8946	-0.3740942
100	0xbeac4dab	-0.33653006
101	0x3dff0c07	0.12453466
102	0xbcc2d1cc	-0.02378168
103	0xbe65d740	-0.22445393
104	0xbd8f38b5	-0.06993238
105	0x3e40030c	0.18751162
106	0xbe0866ed	-0.13320513
107	0xbe13d055	-0.14434941
108	0x3e06c14e	0.13159677
109	0xbbc4c028	-0.006004352
110	0xbcff30a7	-0.031151129
111	0x3dc772ec	0.097387165
112	0x3d97859a	0.07398529
113	0x3dbc109d	0.09182856
114	0xbd02bed4	-0.03192027
115	0x3e7c628d	0.24646969
116	0x3d85b1b6	0.06528036
117	0x3df023a1	0.11725546
118	0x3de3080e	0.11085521
119	0xbe956949	-0.2918189
120	0xbb8d16af	-0.0043056826
121	0x3e23d934	0.16000825
122	0x3d831b32	0.064016715
123	0xbe99ef20	-0.3006525
124	0xbe0d4801	-0.13796999
125	0x3c04d894	0.008108277
126	0xbdac10b4	-0.08401623
127	0xbe5ca24b	-0.21546285
128	0xbea7ca35	-0.3277146
129	0x3ec1d0c7	0.37854597
130	0x3e5c3752	0.21505478
131	0x3e1a75b2	0.1508396
132	0xbe2e8af7	-0.17045198
133	0xbc568a59	-0.013094508
134	0x3b34925d	0.002755306
135	0x3cb76fb6	0.022392135
136	0xbdb2635a	-0.08710356
137	0xbe2df6ed	-0.16988726
138	0xbd884dec	-0.066554874
139	0xbc1cc572	-0.009568559
140	0xbe37602c	-0.1790778
141	0x3e413870	0.18869185
142	0x3c84cc15	0.016210595
143	0xbe67979a	-0.22616425
144	0xbe8addcc	-0.27122343
145	0xbe1f6a76	-0.15567955
146	0x3c42db0c	0.011893045
147	0xbe202551	-0.15639235
148	0xbde8c6ac	-0.11366019
149	0xbde1f473	-0.11032953
150	0xbe7674e5	-0.24068029
151	0xbec1b58c	-0.37833822
152	0x3b85d41c	0.0040841233
153	0xbe16749a	-0.14692917
154	0xbe691bf7	-0.22764574
155	0x3e4a73a5	0.19770677
156	0xbe3b47d7	-0.18289123
157	0xbe5095d5	-0.20369656
158	0xbe5c66c9	-0.21523584
159	0x3d315c9b	0.043301206
160	0xbe71a2c9	-0.23597254
161	0xbdab3d73	-0.0836133
162	0xbd4ed820	-0.05049908
163	0xbda229e2	-0.07918145
164	0xbe86f6c7	-0.2636015
165	0xbe9dd265	-0.3082458
166	0xbe0a2554	-0.13490802
167	0xbb407e02	-0.0029371982
168	0xbe2aeb46	-0.16691312
169	0xbdfb3f76	-0.122679636
170	0xbe8004e4	-0.2500373
171	0x3e226cd8	0.15861833
172	0xbe654d79	-0.22392835
173	0xbe5c2cf3	-0.21501522
174	0xbe1abce7	-0.15111123
175	0xbe1b7c49	-0.1518413
176	0x3df649fc	0.1202583
177	0x3d9a8d2a	0.07546456
178	0xbe643c66	-0.22288665
179	0xbe647237	-0.22309195
180	0xbdeefdd2	-0.11669506
181	0x3e0249aa	0.12723413
182	0x3e354810	0.17703271
183	0xbea2b34d	-0.3177742
184	0xbecd3cb6	-0.4008538
185	0xbd4aa1e8	-0.049470812
186	0xbd765634	-0.060140803
187	0xbd567394	-0.052356318
188	0xbe7330b1	-0.23749043
189	0xbe49d5a5	-0.19710405
190	0xbe46c9e1	-0.19412948
191	0xbce234dc	-0.027613096
192	0xbd878cc7	-0.06618648
193	0xbe8fd1fd	-0.28089896
194	0xbe6646b1	-0.22487904
195	0xbcda979e	-0.026683625
196	0xbcf61e96	-0.030043881
197	0x3b91d078	0.0044499002
198	0x3e34715b	0.17621367
199	0x3e159a1d	0.14609571
200	0x3e30b3f2	0.17256144
201	0x3c6f4655	0.014604171
202	0xbd397c43	-0.04528452
203	0xbee6010b	-0.4492267
204	0x3c1f14f3	0.0097095845
205	0x3df99d73	0.12188234
206	0xbd913653	-0.0709044
207	0x3d1b94ba	0.037983634
208	0x3dff200d	0.12457285
209	0xbe05cf22	-0.13067296
210	0x3ea2ed58	0.31821704
211	0xbe21b361	-0.15791084
212	0xbe42385c	-0.18966812
213	0xbbdf26b9	-0.006810036
214	0x3e373e9b	0.17894976
215	0xbe984306	-0.29738635
216	0x3e062cda	0.13103047
217	0x3d96ddfa	0.073665574
218	0xbd335ce8	-0.043789774
219	0x3c4cac3c	0.012492236
220	0xbe0439b7	-0.12912641
221	0x3d3bbab9	0.04583237
222	0xbe7d8a53	-0.24759798
223	0xbe3dd32a	-0.18537584
224	0x3c7fb824	0.015607867
225	0x3c321067	0.010868168
226	0x3db29442	0.08719684
227	0xbd168ac2	-0.036753424
228	0x3e00b804	0.12570196
229	0x3dc3f729	0.095686264
230	0x3a076662	0.00051650975
231	0x3d35271b	0.044226747
232	0x3db2873b	0.087171994
233	0xbcdb147c	-0.026743166
234	0xbdba2586	-0.09089188
235	0xbe7b2768	-0.24526751
236	0xbe078cb1	-0.13237263
237	0x3d86e8e4	0.06587389
238	0xbe2fd6f0	-0.17171836
239	0xbea84d5d	-0.32871523
240	0xbe986a02	-0.29768378
241	0xbe7f0668	-0.24904788
242	0xbe956d22	-0.29184824
243	0xbe1c9107	-0.15289699
244	0x3d1f2682	0.038855083
245	0x3dfcf723	0.12351825
246	0xbd3f98cd	-0.04677658
247	0x3e994a17	0.2993934
248	0xbea4f227	-0.32215998
249	0xbd5d565e	-0.054037444
250	0xbe3f3ab8	-0.18674743
251	0x3e38f1fb	0.18061058
252	0xbda4b5e3	-0.08042505
253	0x3e232588	0.15932286
254	0x3ccdee01	0.025137903
255	0x3e954e1a	0.2916115

bias f4 [64]
0	0x3d429f5c	0.04751526
1	0x3ce571d0	0.028008372
2	0xbe5a6048	-0.21325791
3	0xbd634fdf	-0.055496093
4	0xbdf4d4fa	-0.119546846
5	0x3d23bfba	0.039977767
6	0x3d892544	0.06696561
7	0xbc96ad16	-0.01839308
8	0xbe6b8292	-0.22999027
9	0xbe64c327	-0.2234007
10	0x3dda59f0	0.106616855
11	0xbdae7ce0	-0.08519912
12	0xbd7f8b21	-0.062388543
13	0xbe0a4446	-0.13502607
14	0xbe42b429	-0.19014038
15	0x3d5f2c94	0.054485872
16	0xbd4eaedb	-0.050459724
17	0xbc317951	-0.010832147
18	0xbe56b826	-0.20968685
19	0x3dc302c0	0.09522009
20	0x3daa64c6	0.08320002
21	0x3e1eef8b	0.15521066
22	0x3db64d9c	0.089015216
23	0x3d26d545	0.040730733
24	0xbcb1aa7e	-0.021687742
25	0xbe5b01fc	-0.21387476
26	0xbe42998a	-0.19003883
27	0xbd80db83	-0.062918685
28	0x3d943e09	0.07238395
29	0xbd79634e	-0.06088572
30	0x3d0bcd45	0.034131307
31	0xbd59fd28	-0.053219944
32	0xbda2ffc3	-0.07958939
33	0xbcdee5ad	-0.027209127
34	0xbd85b814	-0.06529251
35	0xbe2389dd	-0.1597056
36	0xbdee6a12	-0.11641325
37	0x3de6b928	0.112657845
38	0x3d96809b	0.07348748
39	0xbdc2c6c0	-0.09510565
40	0xbe440858	-0.19143808
41	0x3e9b0cc3	0.30283174
42	0xbdef094d	-0.11671696
43	0xbd14dca7	-0.036343243
44	0xbae86bd7	-0.0017732334
45	0xbd46a83e	-0.048500292
46	0xbdd5e52e	-0.10444103
47	0x3de3c05a	0.111206725
48	0x3d8ff95e	0.07029985
49	0xbe73d6da	-0.23812428
50	0xbe3e57b2	-0.1858814
51	0xbd7bae09	-0.06144527
52	0x3d14caa1	0.036326054
53	0x3d17b3c2	0.037036665
54	0xbdc65ff2	-0.09686269
55	0xbe57448b	-0.21022241
56	0x3dfdeef0	0.12399089
57	0xbe45b8f6	-0.19308838
58	0xbe149f80	-0.1451397
59	0x3e1b0046	0.15136823
60	0x3cf36f53	0.02971617
61	0x3d326296	0.04355105
62	0xbe27b599	-0.16377868
63	0xbe2d0d8a	-0.16899696

weight f4 [64, 64, 3, 3]
0	0xbd4ee3ae	-0.0505101
1	0xbc349708	-0.011022337
2	0xbe17cbc5	-0.14823826
3	0x3c5e41f3	0.013565528
4	0xbb91b5b5	-0.00444671
5	0x3d57066a	0.05249635
6	0x3cb914f3	0.022592997
7	0x3d127b21	0.035761956
8	0xbdb7e70f	-0.08979618
9	0xbdede5de	-0.11616109
10	0xbe12c82a	-0.14334169
11	0xbc469d73	-0.0121225
12	0x3cc6b96b	0.024258336
13	0xbd8ae5fe	-0.06782149
14	0x3db317d4	0.08744779
15	0xbda18025	-0.0788577
16	0x3cbb55df	0.022868095
17	0x3ba76975	0.005109007
18	0xbda855ae	-0.08219467
19	0xbd929798	-0.071578205
20	0xbda40868	-0.08009416
21	0xbdaa0866	-0.08302383
22	0xbd63b666	-0.05559387
23	0x3c2c08ca	0.010500142
24	0x39adfd64	0.00033185922
25	0xbd2f7f3d	-0.042845953
26	0xbc52b1e7	-0.012859798
27	0xbd61e31c	-0.05514823
28	0xbbf5d067	-0.00750165
29	0xbdf96af9	-0.121786065
30	0xbdc7870b	-0.09742554
31	0xbe59b081	-0.21258737
32	0xbcd4bfa0	-0.02597028
33	0xbd3a77c0	-0.04552436
34	0xbd8316f3	-0.064008616
35	0xbcdbe88c	-0.026844285
36	0xbd16d4c4	-0.036824003
37	0xbd8b7aa0	-0.06810498
38	0xbcdaca88	-0.026707903
39	0xbdc88cbf	-0.0979247
40	0xbdc98c32	-0.09841193
41	0x3d7a6ef6	0.061140977
42	0xbd1db787	-0.038505103
43	0xbdaec1d0	-0.085330606
44	0xbd5523b2	-0.052035995
45	0xbd4b1096	-0.049576364
46	0xbdbdf5eb	-0.09275421
47	0x3bc9d24f	0.006159104
48	0xbdc076bc	-0.09397647
49	0xbd9adff0	-0.07562244
50	0xbcb304c5	-0.02185286
51	0xbe229d2b	-0.15880267
52	0xbde9dce9	-0.114190884
53	0xbe3292ed	-0.1743886
54	0xbd9002f3	-0.070318125
55	0xbdaaf006	-0.08346562
56	0x3b0e0fda	0.0021676929
57	0xbd691bba	-0.056911208
58	0xbc39da89	-0.011343607
59	0x3d6508b7	0.055916514
60	0xbe32da0a	-0.17465988
61	0xbd2e0555	-0.042485554
62	0xbbf896a0	-0.0075863153
63	0xbd8c320d	-0.06845484
64	0x3cb293e6	0.02179904
65	0xbda00605	-0.07813648
66	0xbc52e060	-0.012870878
67	0x3c1cf67f	0.009580254
68	0xbdee94e4	-0.116494924
69	0xbd870603	-0.065929435
70	0xbd515012	-0.05110175
71	0xbdd30638	-0.103039205
72	0x3ce94442	0.02847493
73	0xbd6250f4	-0.055252984
74	0xbd313ab7	-0.043268885
75	0x3b83b6e7	0.0040196064
76	0xbdb7e994	-0.08980098
77	0xbd4fca0b	-0.050729793
78	0xbdc5d226	-0.09659223
79	0xbdc7947f	-0.0974512
80	0xbe269d1a	-0.16270867
81	0xbdf06f22	-0.11739947
82	0xbcbe6bff	-0.023244856
83	0xbd693948	-0.056939393
84	0x3ca99205	0.02069951
85	0xbcf62ae2	-0.030049745
86	0xbc1aab39	-0.009440237
87	0xbd9d1b3b	-0.076712094
88	0xbdc41628	-0.095745385
89	0xbdb8f130	-0.09030378
90	0xbd3253f9	-0.043537114
91	0xbdd2446c	-0.10266957
92	0xbcb35dda	-0.021895338
93	0xbdad08f0	-0.0844897
94	0x3d0e2bbb	0.034709673
95	0xbd8fe1a2	-0.07025458
96	0xbdcb3ffb	-0.09924313
97	0xbca0be87	-0.0196221
98	0xbd3ae419	-0.045627687
99	0x3caaf22a	0.020867426
100	0x3db27d91	0.08715356
101	0x3daf3567	0.085551076
102	0xbdb386bd	-0.08765934
103	0xbd44db27	-0.048060562
104	0x3d3a5025	0.045486588
105	0x3d8cf9f3	0.068836115
106	0xbde89156	-0.11355846
107	0x3d7666b1	0.060156528
108	0xbe2660ba	-0.16247836
109	0xbdfd363a	-0.123638585
110	0x3d88add8	0.06673783
111	0x3c058d3d	0.00815135
112	0x3bd129b7	0.0063831466
113	0xbda2b2c5	-0.07944254
114	0xbcbd8c3a	-0.023138154
115	0xbe213336	-0.15742192
116	0xbdbb08f0	-0.09132564
117	0xbd81e374	-0.06342211
118	0xbd3703c8	-0.04468134
119	0xbe162b75	-0.14665015
120	0xbdf69eeb	-0.1204203
121	0xbdb430d8	-0.08798379
122	0xbdb3a26a	-0.087712124
123	0xbc983096	-0.018577855
124	0xbdd6d618	-0.10490054
125	0xbe1aa4d5	-0.15101941
126	0xbcb4648e	-0.022020604
127	0xbcedbdcc	-0.029021166
128	0x3ccf00fb	0.025269022
129	0xbbe3bb40	-0.006949812
130	0xbd77bb62	-0.060481437
131	0x3d0f8b3c	0.035044894
132	0xbd37bbc9	-0.04485682
133	0xbe07ab37	-0.13248907
134	0xbbf8ba84	-0.007590594
135	0xbc011bc6	-0.007880157
136	0x3d75d422	0.06001676
137	0x3b5db4e2	0.0033829738
138	0x3dcd0b93	0.10011973
139	0xbdf1bbaa	-0.11803372
140	0xbd4d55c8	-0.050130635
141	0xbb718646	-0.0036853715
142	0xbda44c41	-0.08022357
143	0xbdf5cfa6	-0.120024964
144	0xbd9273e8	-0.071510136
145	0x3c656143	0.01400024
146	0xbd7f443b	-0.06232093
147	0x3cb42df1	0.021994563
148	0xbd37d76d	-0.04488318
149	0x3b078e96	0.0020684353
150	0xbdda18bd	-0.1064925
151	0x3d41c8d9	0.047310684
152	0xbcd8212f	-0.02638301
153	0xbdfe95b6	-0.12430899
154	0xbca1f506	-0.019770157
155	0xbe47a279	-0.19495572
156	0xbd86560a	-0.065593794
157	0xbcfbe02c	-0.030746542
158	0x3d033ef2	0.03204245
159	0xbcfc5eb6	-0.03080688
160	0x3bf6dac4	0.007533403
161	0xbdccb928	-0.09996253
162	0x3cb216b2	0.021739338
163	0x3bf8b0c4	0.0075894315
164	0x3d4d1db2	0.050077148
165	0xbdd3c8f3	-0.103410624
166	0x3de4c817	0.111709766
167	0x3c9dfcac	0.019285522
168	0x3d66e4b1	0.05637044
169	0x3d0eb896	0.034844004
170	0x3d92caf8	0.071676195
171	0xbcafc0bf	-0.021454213
172	0x3c7c4909	0.015398272
173	0xbdf4c725	-0.11952046
174	0xbd5bd8bf	-0.053673502
175	0xbd1ca8a5	-0.03824677
176	0xbd0d34e1	-0.034474257
177	0xbd5278dc	-0.05138479
178	0x3d887325	0.06662587
179	0xbdb8f65b	-0.090313636
180	0x3d923354	0.07138696
181	0xbd4b3d16	-0.049618803
182	0xbded152a	-0.11576302
183	0x3c0a8b19	0.008456015
184	0xbdaf2270	-0.0855149
185	0xbdf32b11	-0.11873449
186	0xbcd238df	-0.025661884
187	0xbd854c21	-0.06508661
188	0x3d3fc37c	0.046817288
189	0xbd99a804	-0.075027496
190	0xbd8ac79e	-0.06776355
191	0xbddf14d4	-0.108926445
192	0xbcdc6113	-0.026901757
193	0x3d81cf06	0.06338315
194	0xbdbe96a8	-0.09306079
195	0xbdc1e3c1	-0.09467269
196	0xbe2afcc7	-0.1669799
197	0xbdce801d	-0.100830294
198	0xbd5fe9f2	-0.054666467
199	0x3cc0563e	0.023478623
200	0xbdb46405	-0.0880814
201	0xbd76b462	-0.06023062
202	0xbd9b8abc	-0.07594821
203	0xbda13eef	-0.07873332
204	0x3ac68c56	0.0015148025
205	0xbe1a33fb	-0.15058891
206	0x3ccba4be	0.024858829
207	0x3d0c9026	0.03431716
208	0x3bb60446	0.0055547087
209	0x3c02a616	0.007974168
210	0xbdafbb81	-0.085806854
211	0xbd823fcf	-0.06359827
212	0xbe4b92a9	-0.19880165
213	0xbd37caf6	-0.044871293
214	0xbd5d1eb3	-0.053984355
215	0x3dc5db89	0.09661014
216	0xbb80e693	-0.0039337366
217	0xbe00217c	-0.12512773
218	0xbb3389b8	-0.002739532
219	0xbc429085	-0.011875276
220	0x3cdbd9cb	0.02683725
221	0xbccc0016	-0.024902385
222	0xbd67b9b2	-0.056573577
223	0xbc0b48e7	-0.008501268
224	0xbd9a97c1	-0.07548476
225	0xbd8a70b2	-0.06759776
226	0x3be25662	0.0069072703
227	0xbda83083	-0.08212378
228	0x3d57cf11	0.05268771
229	0xbda4d1e6	-0.080478474
230	0xbcc45fec	-0.02397152
231	0x3c47794f	0.012174918
232	0xbddbbe53	-0.10729661
233	0xbaf0de50	-0.0018376801
234	0x3ca75ee5	0.020430991
235	0xbca4741f	-0.020074902
236	0xbd7222bb	-0.059115153
237	0xbc92c56f	-0.01791641
238	0xbe0eb00f	-0.13934349
239	0xbd6f5671	-0.058432046
240	0xbd46b1fb	-0.04850958
241	0xbc600afd	-0.013674495
242	0x3d6ecba8	0.05829969
243	0xbd647239	-0.055772994
244	0xbdf5fdc0	-0.120112896
245	0xbd24ce1a	-0.040235616
246	0xbdccc420	-0.099983454
247	0x3cddab7b	0.027059307
248	0xbcfaf40b	-0.030633947
249	0xbd653e75	-0.055967767
250	0xbde16f68	-0.11007577
251	0x3d81f2db	0.06345149
252	0xbd995711	-0.0748731
253	0xbdbead52	-0.09310402
254	0xbd8e9df4	-0.06963721
255	0xbdf1858f	-0.117930524

bias f4 [64]
0	0xbcff0f87	-0.031135334
1	0xbd2953e1	-0.04133976
2	0xbd5bef25	-0.053694863
3	0xbcf18774	-0.029483534
4	0xbd5249f3	-0.051340055
5	0xbd84b408	-0.06479651
6	0xbd791d1f	-0.060818788
7	0xbd956738	-0.07295078
8	0xbc999200	-0.018746376
9	0xbd736033	-0.059417915
10	0xbd80b4de	-0.06284498
11	0xbb98ebe5	-0.0046667927
12	0xbdc39a40	-0.09550905
13	0xbd694af4	-0.056956246
14	0xbccd7929	-0.025082188
15	0xbd056e92	-0.03257615
16	0xbd864cc4	-0.06557611
17	0xbd8d9375	-0.06912891
18	0xbcc947bf	-0.024570344
19	0xbd2a2c91	-0.041546408
20	0xbd870a64	-0.06593779
21	0xbda6d467	-0.08145981
22	0xbdb619a7	-0.088916115
23	0xbd2688a1	-0.040657643
24	0xbd6f5e87	-0.058439758
25	0xbc8ab472	-0.016931746
26	0xbd9f96d5	-0.07792441
27	0xbd2679ca	-0.04064349
28	0xbd63de22	-0.055631764
29	0x3c7f39db	0.015577759
30	0xbdb65bc2	-0.0890422
31	0xbd9c5127	-0.07632666
32	0xbd4152b2	-0.047198005
33	0xbd2d3072	-0.04228253
34	0xbcf3ef5b	-0.02977722
35	0xbdc0ae26	-0.09408216
36	0xbd1a49e4	-0.037668124
37	0xbda851e8	-0.082187474
38	0xbdc9d87a	-0.09855743
39	0xbdc02f9c	-0.09384081
40	0xbc1fa135	-0.009743025
41	0xbd98444e	-0.07434903
42	0xbd185848	-0.037193567
43	0xbd413562	-0.04717005
44	0xbdba0e0d	-0.09084711
45	0xbd9f817c	-0.07788369
46	0xbd8c5e6b	-0.06853946
47	0xbd5f75da	-0.05455575
48	0xbd87a921	-0.06624056
49	0xbd8f6330	-0.070013404
50	0xbd3f65fd	-0.046728123
51	0xbd0be9d2	-0.034158535
52	0xbd5f6908	-0.054543525
53	0xbd6b4f5a	-0.057448722
54	0xbda3daa4	-0.08000687
55	0xbd0415d9	-0.032247398
56	0xbd6a8564	-0.057256117
57	0xbd172e90	-0.03690964
58	0x3be72356	0.007053773
59	0x3c137d08	0.009001978
60	0xbdadc871	-0.08485497
61	0xbc207b61	-0.009795041
62	0xbd6ac0dc	-0.05731283
63	0xbda02641	-0.07819796

weight f4 [32, 64, 3, 3]
0	0x3dcf0bfa	0.10109706
1	0x3d86eb0e	0.06587802
2	0xbce6e994	-0.02818755
3	0xbce09323	-0.02741391
4	0x3e4dc021	0.20092823
5	0xbd06f591	-0.032949034
6	0x3e089284	0.13337141
7	0x3d935114	0.07193199
8	0x3dc81746	0.09770064
9	0x3d96ca44	0.07362798
10	0x3d405cb6	0.046963416
11	0x3d032630	0.03201884
12	0x3d04a008	0.03237918
13	0x3e23163f	0.15926455
14	0x3d3b3183	0.045701515
15	0x3e2b2696	0.16713938
16	0x3cadcb66	0.021215152
17	0x3da18e15	0.07888428
18	0x3e0e4431	0.138932
19	0x3de78f81	0.11306668
20	0x3e01e836	0.12686238
21	0x3d42f00b	0.047592204
22	0x3d551c31	0.05202884
23	0x3db88916	0.09010522
24	0x3db6f23b	0.089329205
25	0x3de8c293	0.11365237
26	0x3dccb1db	0.09994861
27	0xbda2ba9f	-0.079457514
28	0xbe3bf739	-0.18356027
29	0xbd369a38	-0.04458067
30	0xbdaa7711	-0.08323491
31	0x3d455d54	0.048184708
32	0x3c1fdf6b	0.009757857
33	0xbc1c3112	-0.009533184
34	0xbda168e5	-0.07881335
35	0x3d81a9e7	0.063312344
36	0x3d2f29d0	0.042764485
37	0xbd89f4ff	-0.067361824
38	0xbd88c8c9	-0.06678922
39	0x3c10b36c	0.00883184
40	0xbd7e4d91	-0.06208569
41	0xbde4f1e6	-0.11178951
42	0xbcddbb8d	-0.02706697
43	0xbcea8125	-0.028626034
44	0x3ce79621	0.02826983
45	0x3d8739fb	0.06602856
46	0x3ca5d05a	0.020240951
47	0xbcdd5fe2	-0.02702326
48	0x3defc0e1	0.117067106
49	0x3b9ab55c	0.0047213268
50	0x3debcc5b	0.11513587
51	0x3e403774	0.18771154
52	0x3d661516	0.056172453
53	0x3bfae486	0.0076566366
54	0xbd9da276	-0.076970026
55	0xbd334441	-0.043766264
56	0xbd944e20	-0.07241464
57	0xbcdc6bb2	-0.026906822
58	0xbdeece20	-0.11660409
59	0xbc23b9a2	-0.009992989
60	0xbc5755dd	-0.01314303
61	0xbd343f88	-0.0440059
62	0xbdac6df0	-0.084194064
63	0x3c8da9d9	0.017292904
64	0xbd9c283c	-0.076248616
65	0x3d9820fd	0.07428167
66	0xbd93493e	-0.07191704
67	0xbbf3d021	-0.0074405824
68	0xbd941088	-0.072297156
69	0xbdb7694c	-0.08955631
70	0xbcb570d8	-0.022148535
71	0xbe1a3679	-0.15059842
72	0xbcb2a3b2	-0.021806572
73	0xbd457fd2	-0.048217602
74	0xbd633687	-0.055471923
75	0x3ba582f4	0.005051011
76	0xbc9b9ad8	-0.018994734
77	0x3c8b9987	0.017040981
78	0xbcbff9a2	-0.023434464
79	0x3d33f9c7	0.043939378
80	0xbdbb267b	-0.09138199
81	0xbd3592b5	-0.044329364
82	0x3c640889	0.013918051
83	0x3db83057	0.08993595
84	0xbd9827dc	-0.074294776
85	0xbda898c5	-0.082322635
86	0x3c36ccc9	0.011157223
87	0xbd07e4bc	-0.033177122
88	0x3c251b53	0.010077315
89	0xbd43aed2	-0.047774144
90	0xbcd3ed12	-0.02586988
91	0xbe0672b6	-0.13129696
92	0xbd2c130e	-0.04201036
93	0xbcec38c3	-0.02883566
94	0xbdd2b808	-0.102890074
95	0x3bd2d30e	0.006433851
96	0xbd98990f	-0.074510686
97	0xbdb8152c	-0.08988413
98	0xbdb7b40d	-0.08969889
99	0xbdb47179	-0.08810706
100	0xbe0085cb	-0.12551038
101	0x3a7ebf5a	0.00097178447
102	0xbc3660b8	-0.011131458
103	0xbcf38755	-0.029727617
104	0xbd4db15b	-0.050217967
105	0x3ca12952	0.019673023
106	0xbc60da9b	-0.013723995
107	0x3c24e34d	0.010063958
108	0x3c9bbfd9	0.019012379
109	0xbdab6ff5	-0.083709635
110	0xbdc59d8d	-0.09649191
111	0xbdc04a59	-0.09389181
112	0xbe2d84d5	-0.16945203
113	0xbd87a94d	-0.066240884
114	0xbdeae23d	-0.11468933
115	0xbd9b7c07	-0.07592016
116	0xbca05b7c	-0.019574873
117	0xbace16c2	-0.0015723335
118	0x3c431694	0.0119072385
119	0xbd1cc313	-0.038271975
120	0xbdb22abb	-0.086995564
121	0xbdce713f	-0.10080194
122	0xbe160d68	-0.14653552
123	0xbcc49fec	-0.024002038
124	0xbcc5d02a	-0.024147112
125	0xbce3c540	-0.027804017
126	0x3dc40778	0.09571737
127	0x3d76ff82	0.060302265
128	0x3d8d4609	0.06898124
129	0xbb96ff16	-0.0046080453
130	0x3df4bcfd	0.11950109
131	0xbcb8a364	-0.022538848
132	0xbd1c3352	-0.03813488
133	0x3db93e7a	0.090451196
134	0xbce33a09	-0.027737634
135	0x3b3a3005	0.002840997
136	0x3caf47db	0.021396568
137	0xbe279e1b	-0.16368906
138	0xbce0c85e	-0.027439293
139	0xbd85bf33	-0.06530609
140	0x3cd94ef8	0.026526913
141	0xbc9d01b5	-0.019165853
142	0xbd9ba15a	-0.07599135
143	0xbcc142e1	-0.02359146
144	0xbdcdccbf	-0.10048818
145	0x3da6ef79	0.081511445
146	0xbdd029e3	-0.10164239
147	0xbc469b60	-0.012122005
148	0x3d665b45	0.056239385
149	0xbcc16705	-0.023608694
150	0xbd7b6cd7	-0.061383095
151	0xbdbbd47b	-0.09171387
152	0xbd40ac26	-0.047039174
153	0xbc1b8ced	-0.009494049
154	0xbdd2de47	-0.10296302
155	0x3d1f5e4c	0.038908288
156	0xbd822a27	-0.06355696
157	0xbd273b82	-0.040828235
158	0xbd9b67ce	-0.075881585
159	0xbcf71a3c	-0.030163877
160	0xbc90288f	-0.017597465
161	0xbdcc5fa9	-0.09979183
162	0x3c917fad	0.017761076
163	0xbc23d0d3	-0.009998518
164	0x3dc22305	0.09479336
165	0x3e016d25	0.12639292
166	0x3c30e57b	0.0107969
167	0x3d0d0175	0.034425218
168	0x3d8f69b2	0.07002582
169	0xbbfabcc7	-0.0076518985
170	0x3dace8a1	0.08442808
171	0x3cb4182f	0.021984188
172	0xbc37a3d7	-0.011208496
173	0xbd6c0238	-0.057619303
174	0xbda305a9	-0.07960064
175	0xbd9445f5	-0.07239906
176	0x3bb0c69a	0.005394769
177	0xbe27154a	-0.16316715
178	0x3850a22c	4.97421e-05
179	0xbca24245	-0.01980699
180	0xbe0e7de2	-0.13915208
181	0xb8b02f23	-8.401114e-05
182	0x3d030e23	0.031995904
183	0xbdd4cc07	-0.10390478
184	0xbdef4844	-0.116837054
185	0x3de05044	0.109528095
186	0xbcdaa172	-0.026688311
187	0xbd775b12	-0.060389586
188	0x3d35a13f	0.04434323
189	0xbdb83b88	-0.0899573
190	0x3d20992f	0.039208587
191	0xbde862c0	-0.1134696
192	0xbd38e8bf	-0.04514384
193	0xbd2df10f	-0.04246622
194	0x3e0f32dd	0.13984247
195	0x3d741b02	0.05959607
196	0xbdc9b771	-0.09849442
197	0xbdd8bb85	-0.105826415
198	0x3e0c5d60	0.13707495
199	0x3d6620fb	0.056183796
200	0x3e121e0a	0.14269271
201	0xbd2a6550	-0.041600525
202	0xbd1db948	-0.038506776
203	0x3e0beceb	0.13664596
204	0x3d8c0f23	0.068388246
205	0x3d752d36	0.05985757
206	0x3b99c26b	0.004692366
207	0x3bdc8418	0.006729614
208	0xbd89dad2	-0.0673119
209	0xbd1b4567	-0.037907984
210	0xbd90c16a	-0.07068141
211	0xbd626cb4	-0.05527945
212	0xbcbf5d6c	-0.023359977
213	0xbd95838a	-0.0730048
214	0xbb21c14d	-0.0024681867
215	0xbdf46aa5	-0.11934403
216	0xbc825246	-0.015908372
217	0x3b7cc09f	0.003856696
218	0xbda1cff9	-0.07900996
219	0xbe226c96	-0.15861735
220	0xbb4c4080	-0.0031166375
221	0xbc67a398	-0.014138125
222	0xbdd17f8e	-0.10229407
223	0xbdc4987f	-0.09599399
224	0x3cb12e76	0.0216286
225	0x3cebbab7	0.028775556
226	0x3d37d4d7	0.044880714
227	0xbdb9ced9	-0.09072656
228	0xbe08e61f	-0.13369034
229	0xba11fe80	-0.00055692345
230	0xbd1beae2	-0.0380658
231	0xbba5e5b3	-0.0050627827
232	0xbe01e6b4	-0.12685663
233	0xbd78aa12	-0.060709067
234	0x3df8ac27	0.121422105
235	0x3d83e06d	0.0643929
236	0xbca6a0ef	-0.020340411
237	0xbd733c5f	-0.059383746
238	0xbb554631	-0.0032543058
239	0x3d9f3a10	0.077747464
240	0xbb926c94	-0.00446851
241	0x3d9b17cb	0.075728975
242	0x3d27eebe	0.040999167
243	0xbdd2d214	-0.102939755
244	0xbd910ea7	-0.07082873
245	0x3be90bd7	0.007112007
246	0x3bcdca91	0.0062802513
247	0xbcfde071	-0.030990811
248	0xbdf90d67	-0.121607594
249	0xbdb29395	-0.08719555
250	0xbcb2bc0e	-0.021818187
251	0xbdf72d0c	-0.12069139
252	0xbd3d8935	-0.04627343
253	0x3d39cca5	0.04536118
254	0x3e47c7d5	0.19509824
255	0xbc4a2b39	-0.012339407

bias f4 [32]
0	0xbda92450	-0.08258879
1	0xbc90c4b1	-0.017671915
2	0xbdafcd64	-0.08584097
3	0x3e30c877	0.17263971
4	0xbdabb5a0	-0.083842516
5	0xbd6247e4	-0.05524434
6	0xbdbfe240	-0.09369326
7	0xbd3a8f8a	-0.045547046
8	0xbdc93682	-0.0982485
9	0x3e155464	0.14582974
10	0x3dfa7759	0.12229795
11	0xbd364110	-0.044495642
12	0xbdb1111b	-0.08645841
13	0xbd69b586	-0.05705788
14	0xbd13ed2d	-0.03611486
15	0xbd8dc80d	-0.06922922
16	0xbcb9232a	-0.022599775
17	0xbdaebac8	-0.085317194
18	0xbd8bf2d2	-0.06833424
19	0xbd9a1a9d	-0.07524607
20	0xbda22de2	-0.07918908
21	0xbda97613	-0.08274474
22	0xbd953aff	-0.07286643
23	0x3df6eebb	0.12057253
24	0xbd9ecc81	-0.0775385
25	0xbd43e0e2	-0.047821887
26	0xbd9ffcc6	-0.078118846
27	0xbd088053	-0.033325505
28	0xbda0d85b	-0.078537665
29	0xbd464a8f	-0.04841095
30	0xbd3c09b2	-0.045907684
31	0x3ddb5268	0.10709077

weight f4 [16, 32, 3, 3]
0	0x3d4faf57	0.050704326
1	0xbd64c233	-0.055849265
2	0xbdef071c	-0.11671278
3	0x3c70ce63	0.014697644
4	0xbda0fc69	-0.078606434
5	0xbe0b99bf	-0.13632868
6	0xbe42d879	-0.1902789
7	0x3d3a7c4f	0.045528706
8	0xbe05ba0a	-0.1305925
9	0x3d7aa719	0.061194513
10	0x3d87a4e8	0.0662325
11	0x3d993d49	0.07482392
12	0x3e1be97c	0.15225786
13	0x3d95823d	0.073002316
14	0x3d023e33	0.0317976
15	0xbd1e0b4e	-0.038585
16	0x3d6cef82	0.0578456
17	0x3d98710b	0.07443436
18	0xbd985cd0	-0.074395776
19	0x3cb2d952	0.021832142
20	0x3c86d21d	0.016457612
21	0xbdc76a63	-0.097370885
22	0xbd0a3a40	-0.033746958
23	0x3d8080ac	0.06274542
24	0xbc8aa109	-0.01692249
25	0x3d68d993	0.05684812
26	0xbd634122	-0.055482037
27	0x3e2cb2b8	0.16865051
28	0x3e3c18a4	0.18368775
29	0x3e2d559b	0.16927187
30	0x3dc13509	0.09433944
31	0x3e959f1f	0.29222962
32	0x3e0c5a34	0.13706285
33	0x3e71cd88	0.2361356
34	0x3e5f2492	0.21791294
35	0x3e1e6358	0.15467584
36	0xbd6e169f	-0.058127042
37	0xbbcf75b8	-0.006331172
38	0xbe1ac81c	-0.15115398
39	0xbc2a87ae	-0.010408325
40	0xbc87ca9c	-0.016576104
41	0xbd6c6343	-0.05771185
42	0xbd174403	-0.036930095
43	0xbd733497	-0.059376325
44	0x3d19f350	0.037585557
45	0xbd3622f9	-0.044466946
46	0xbbf3f36d	-0.00744479
47	0xbd2060c8	-0.039154798
48	0xbcb53391	-0.022119315
49	0x3d8c8609	0.06861503
50	0xbd562a74	-0.05228658
51	0x3d43fc27	0.047847893
52	0x3d4fe01a	0.05075083
53	0xbd0f966d	-0.035055567
54	0xbd0a75ad	-0.03380363
55	0x3d5c8923	0.05384172
56	0xbd6705e5	-0.056402106
57	0xbc95ab76	-0.018270236
58	0xbd534c9a	-0.051586725
59	0xbc01cd17	-0.007922432
60	0x3d1ef4ca	0.038807668
61	0x3c818699	0.015811251
62	0x3cb0003d	0.021484489
63	0x3bb6844a	0.0055699693
64	0x3c32b92e	0.010908408
65	0x3c8ced09	0.01720287
66	0xbdf3bde9	-0.11901457
67	0xbda12d26	-0.078699395
68	0xbd6823f9	-0.05667493
69	0xbde34a54	-0.11098161
70	0x3cc3ebea	0.023916204
71	0xbd06a7c8	-0.032874852
72	0x3cb6980a	0.022289295
73	0x3cfd9801	0.03095627
74	0xbca793c9	-0.020456212
75	0x3da563d1	0.08075679
76	0x3d8fc1fb	0.07019421
77	0x3cce3024	0.02516944
78	0x3da415a9	0.08011944
79	0xbe128dfb	-0.14311974
80	0xbd72b304	-0.059252754
81	0x3dcde52d	0.100534774
82	0x3d8ef4eb	0.06980308
83	0x3d9321df	0.07184195
84	0x3bf9a71b	0.0076187975
85	0x3e325919	0.174168
86	0x3e772acf	0.24137424
87	0x3df4ac41	0.11946917
88	0xbc4a3ff5	-0.01234435
89	0x3d842a5f	0.06453394
90	0x3e123109	0.14276518
91	0x3e22baf0	0.15891623
92	0x3dd25689	0.102704115
93	0x3df8c69b	0.12147256
94	0x3d3de3e8	0.046359926
95	0x3df9aac2	0.121907726
96	0x3e050d27	0.12993298
97	0x3e375486	0.17903337
98	0x3e3d4310	0.18482614
99	0x3dde1cbe	0.10845326
100	0xbd10a210	-0.035310805
101	0x3ce0686e	0.027393546
102	0x3db4767a	0.0881166
103	0xbc4a6cba	-0.012355024
104	0xbd62483c	-0.05524467
105	0x3da02649	0.07819802
106	0x3da1fb1a	0.07909222
107	0x3c9bbb24	0.019010134
108	0x3d544ecc	0.05183296
109	0x3dc20094	0.094727665
110	0xbd1255b6	-0.03572627
111	0x3dee57f9	0.11637873
112	0xb93a18c4	-0.00017747568
113	0xbd7cfe4c	-0.061765954
114	0x3d156f00	0.03648281
115	0x3e0c235d	0.13685365
116	0x3d88b916	0.06675927
117	0xbd8849cc	-0.06654701
118	0x3b813ecf	0.003944255
119	0x3d56ce03	0.05244256
120	0xbd972080	-0.07379246
121	0xbe2d0316	-0.16895708
122	0xbe0659eb	-0.13120238
123	0xbdb9c78d	-0.090712644
124	0xbdc1351f	-0.0943396
125	0x3c400e09	0.011722096
126	0x3b9bb24d	0.0047514797
127	0xbd978f1b	-0.07400342
128	0x3b7856d8	0.003789356
129	0xbd7d5361	-0.061847094
130	0xbd0e7c7f	-0.034786697
131	0x3cfef517	0.031122727
132	0x3d2ddb9a	0.042445756
133	0xbd3102cc	-0.043215558
134	0xbdfc43ea	-0.12317641
135	0x3d041cf5	0.032254178
136	0x3dfc3939	0.12315602
137	0x3d528865	0.051399607
138	0x3d0ce589	0.03439859
139	0x3dccc615	0.09998719
140	0x3dd514f7	0.10404389
141	0x3d8ffcbe	0.070306286
142	0x3dcd3f0f	0.10021793
143	0x3e0bd894	0.13656837
144	0x3c92da03	0.017926222
145	0xbcb7cf83	-0.022437816
146	0xbd297876	-0.041374646
147	0xbdee848e	-0.116463766
148	0x3d97d069	0.07412798
149	0xbddef31f	-0.108862154
150	0xbc81ec26	-0.015859675
151	0x3d89d95e	0.067309126
152	0xbd9cdc2f	-0.07659184
153	0x3cbf15a6	0.023325752
154	0xbcf9e535	-0.030504802
155	0x3aca0eac	0.001541575
156	0x3dbac734	0.09120026
157	0x3d35a209	0.044343982
158	0x3d606d6e	0.05479186
159	0x3d541245	0.051775236
160	0x3d033d11	0.03204066
161	0x3d2358cf	0.039879616
162	0xbc1b9b88	-0.009497531
163	0x3d269337	0.04066774
164	0xbdef3684	-0.1168032
165	0xbd66dbc0	-0.056361914
166	0x3b7ac7f4	0.0038266154
167	0xbd20af9d	-0.039229978
168	0x3d2edf6a	0.042693533
169	0xbd19fd98	-0.03759536
170	0x3c37b044	0.011211459
171	0x3da98355	0.08277003
172	0x3da7c1c4	0.08191255
173	0x3c448365	0.0119942175
174	0x3dd6c62f	0.10487019
175	0x3c85cb01	0.016332151
176	0x3d9341ab	0.071902595
177	0x3cb1b176	0.021691065
178	0x3ccf91ab	0.025338015
179	0x3cde7e09	0.027159708
180	0x3db07931	0.086168654
181	0x3da7b148	0.081881106
182	0x3e2263fc	0.15858454
183	0x3d9dd430	0.07706487
184	0xbc595eee	-0.013267262
185	0x3d54510b	0.0518351
186	0x3d64e647	0.055883672
187	0x3d0ec2cb	0.034853738
188	0x3dcb36ca	0.099225596
189	0xbdc62a6b	-0.09676059
190	0xbd35b152	-0.04435856
191	0xbd77e67c	-0.06052254
192	0x3d8e474c	0.069471925
193	0xbd354551	-0.04425556
194	0xbdd07b32	-0.10179748
195	0xbdfd9c6d	-0.123833515
196	0xbdebbfdc	-0.11511204
197	0xbd7b87a4	-0.061408654
198	0x3db02342	0.08600475
199	0x3d831f1e	0.064024195
200	0xbd7f5a83	-0.062342178
201	0xbc82bfc6	-0.015960585
202	0xbcb0b2f1	-0.0215697
203	0x3cfb8764	0.030704208
204	0x3d89a651	0.067211755
205	0x3ce94a5b	0.028477838
206	0xbdb86e4a	-0.09005411
207	0x3dc4dc77	0.09612363
208	0x3dbc4de4	0.09194544
209	0x3e26fbf3	0.16307048
210	0x3e219aea	0.15781751
211	0x3dd98349	0.10620744
212	0x3e3e4d22	0.18584111
213	0x3e2ccb63	0.16874461
214	0x3e0e84de	0.13917872
215	0x3dde6d5d	0.10860703
216	0x3dbaafaa	0.091155365
217	0x3d242594	0.0400749
218	0xbc8c6fa4	-0.017143078
219	0x3c4f65f6	0.012658587
220	0xbd1388dc	-0.03601919
221	0x3e19cf3d	0.15020461
222	0xbccf75c6	-0.025324713
223	0x3e669b95	0.22520287
224	0xbd06762f	-0.032827552
225	0x3c379058	0.011203848
226	0x3d3252d7	0.043536033
227	0x3db2ca0c	0.08729944
228	0xb9c2fd77	-0.0003719141
229	0x3d9c5898	0.076340854
230	0xbd0b8a63	-0.034067523
231	0x3db00915	0.08595482
232	0x3cfc19f6	0.030774098
233	0x3e53be74	0.20678121
234	0x3e22d353	0.15900926
235	0x3e1e4179	0.15454663
236	0xbb0b55bd	-0.002126082
237	0x3d2ccdd2	0.042188473
238	0x3da78ca1	0.0818112
239	0xbb18a6e8	-0.0023292843
240	0x3dcbd8ce	0.099534616
241	0x3d793551	0.060841862
242	0x3d1a44cc	0.037663266
243	0xbccd2980	-0.025044203
244	0x3c870dd5	0.016486088
245	0xbe0734c0	-0.13203716
246	0xbcd010e5	-0.025398681
247	0xbd207442	-0.039173372
248	0xbe477326	-0.1947752
249	0xbd3d351d	-0.04619323
250	0xbce72085	-0.028213749
251	0xbe36f0af	-0.17865251
252	0xbe3adbc7	-0.18247901
253	0xbd3cf90d	-0.04613595
254	0x3c793761	0.015210957
255	0xbd5fd103	-0.05464269

bias f4 [16]
0	0xbc295e6f	-0.010337456
1	0x3d07e39a	0.033176042
2	0x3cf5a1e1	0.029984416
3	0x3d6746f1	0.05646414
4	0x3c06d80a	0.008230219
5	0xbd03a5dd	-0.0321406
6	0xbc93666c	-0.017993174
7	0x3df95d7c	0.12176034
8	0x3d8a5946	0.06755309
9	0x3cca92e7	0.024728252
10	0x3d906432	0.07050361
11	0xbcbe26ba	-0.023211826
12	0x3d93b4aa	0.07212193
13	0x3d8ff201	0.070285805
14	0x3d7d678b	0.061866324
15	0x3d2e56b8	0.04256317
