super_resolution/checkpoint_scale4/model_epoch_0.pth (torch_old, 260873 bytes, 8 tensors)

weight f4 [64, 1, 5, 5]
-0.07260956 -0.25791448 -0.3013577 -0.0035257079 -0.11530446 0.013073307 0.28039938 -0.23080732
0.16124597 -0.18804742 -0.24348934 -0.4531587 -0.21330322 -3.3236807e-05 -0.4784492 -0.08074158
-0.09388023 0.13792136 0.1360935 -0.03443042 -0.17670356 -0.24897105 -0.22660133 0.061242707
-0.16568764 -0.031001914 0.15922849 -0.17695595 -0.10728472 -0.15253179 -0.06665832 0.10529551
-0.1457275 -0.21490549 -0.14776838 -0.15822092 0.11048574 -0.21877803 -0.114841096 0.05135659
0.06877714 -0.4003709 -0.14918995 -0.20110479 0.25309768 -0.007763285 0.029545812 -0.013725973
-0.06226198 -0.40700778 0.13320215 -0.31379485 0.00793097 0.24843495 0.014956301 -0.16483721
-0.003453704 -0.05177774 0.05092789 -0.27957955 -0.107506484 -0.2634046 -0.009159505 -0.027175436
0.007757948 -0.29882026 0.014013398 0.029430524 -0.08128895 0.023996301 0.020381745 0.010511563
0.029048843 -0.10680583 0.18166354 -0.30895185 0.13210149 -0.20590596 -0.23604378 -0.25638703
0.021198623 -0.23434627 -0.058003977 0.10104919 -0.18389164 -0.021829119 -0.041605383 0.06412236
-0.0041411985 -0.059125125 -0.20754875 0.11795966 0.36581072 0.044490807 -0.08763637 0.05015421
0.13348706 0.043504614 0.052050926 -0.35939303 -0.3201969 0.14085026 -0.0074960315 -0.20824699
-0.05371226 0.20391636 -0.11683335 -0.1280069 0.14787555 0.010276877 -0.014696342 0.113802925
0.09037029 0.108156815 -0.015591869 0.2629825 0.08174771 0.13368507 0.12721743 -0.2754668
0.012200503 0.17647272 0.08043528 -0.28432018 -0.12164467 0.023313362 -0.068776794 -0.2002094
-0.31246373 0.39375934 0.23028362 0.16610539 -0.15517478 0.0021857338 0.018008292 0.037632886
-0.07182715 -0.15460403 -0.05126791 0.005701261 -0.16385388 0.20395033 0.031482436 -0.21088351
-0.25595167 -0.14047696 0.027128208 -0.14114633 -0.098407164 -0.09508032 -0.19263986 -0.32634667
0.048521645 -0.106084794 -0.18959898 0.24661133 -0.12972943 -0.15639931 -0.17143618 0.08364775
-0.18651627 -0.033783067 -0.005984218 -0.03658966 -0.22326311 -0.26187843 -0.09153607 0.036395345
-0.12823875 -0.08568802 -0.20945111 0.19648486 -0.18797131 -0.17944367 -0.11792984 -0.13700925
0.1351255 0.09036462 -0.20814575 -0.20834179 -0.10187361 0.14208762 0.19191933 -0.30303282
-0.3861016 -0.0346593 -0.045303006 -0.037488434 -0.22274765 -0.18235211 -0.1793216 -0.012781796
-0.05133469 -0.26614916 -0.2101204 -0.011856378 -0.01519665 0.019310158 0.19099003 0.16089272
0.18736482 0.029412048 -0.030474443 -0.43441734 0.024516514 0.1366897 -0.05609213 0.05279833
0.13938667 -0.11586177 0.33302253 -0.14310119 -0.17485608 0.00800162 0.19375913 -0.28257942
0.14583917 0.08847545 -0.028978987 0.027301587 -0.11431648 0.060644217 -0.23278478 -0.17056185
0.030420411 0.025647001 0.10198428 -0.02196093 0.14051533 0.110502735 0.015303029 0.059014678
0.10195899 -0.011934058 -0.076074764 -0.23046732 -0.117580526 0.08065092 -0.1569158 -0.31390315
-0.28286886 -0.2342381 -0.2770562 -0.1380793 0.053668153 0.13832587 -0.03196761 0.31418794
-0.3073405 -0.039223474 -0.1712779 0.19618766 -0.06451219 0.17597154 0.04264167 0.3079463
00000000: 52b4 94bd 5e0d 84be 8e4b 9abe 900f 67bb
00000010: bf24 ecbd 6d31 563c 8290 8f3e c158 6cbe
00000020: aa1d 253e 818f 40be 4555 79be 6b04 e8be
00000030: 296c 5abe c067 0bb8 4bf7 f4be d75b a5bd
00000040: 4744 c0bd 423b 0d3e 185c 0b3e e906 0dbd
00000050: c7f1 34be 44f2 7ebe 2e0a 68be a2d9 7a3d
00000060: 05aa 29be baf7 fdbc cb0c 233e f133 35be
00000070: 17b8 dbbd 4b31 1cbe 2884 88bd 2ca5 d73d
00000080: 9739 15be 2f10 5cbe 9850 17be aa04 22be
00000090: 5946 e23d 5907 60be cf31 ebbd 4a5b 523d
000000a0: 07db 8c3d 6afd ccbe 40c5 18be 6aee 4dbe
000000b0: 0596 813e 2863 febb 0f0a f23c e7e2 60bc
000000c0: 6b06 7fbd 5363 d0be 2566 083e b8a9 a0be
000000d0: e6f0 013c bb65 7e3e 460b 753c 16cb 28be
000000e0: 8a57 62bb e514 54bd c399 503d 0d25 8fbe
000000f0: 5c2c dcbd f8dc 86be c011 16bc 059f debc
00000100: 6236 fe3b f8fe 98be 7498 653c 4818 f13c
00000110: d27a a6bd e493 c43c 9ef7 a63c b138 2c3c
00000120: d7f7 ed3c 04bd dabd 0206 3a3e f02e 9ebe
00000130: 9d45 073e 03d9 52be 76b5 71be 2945 83be
00000140: bca8 ad3c 78f8 6fbe 9495 6dbd e1f2 ce3d
00000150: 174e 3cbe fbd2 b2bc 686a 2abd 9552 833d
00000160: e4b2 87bb 302d 72bd a987 54be d694 f13d
00000170: 8b4b bb3e fe3b 363d b27a b3bd 806e 4d3d
00000180: d5b0 083e e531 323d 5a33 553d 5d02 b8be
00000190: d9f0 a3be 0d3b 103e 45a1 f5bb b33e 55be
000001a0: 6301 5cbd 73cf 503e 5346 efbd 3e14 03be
000001b0: b06c 173e 5960 283c edc8 70bc 8211 e93d
000001c0: 0f14 b93d 5281 dd3d 0a75 7fbc a4a5 863e
000001d0: 586b a73d bde4 083e 4945 023e fc09 8dbe
000001e0: 9ee4 473c 44b5 343e 41bb a43d 6a92 91be
000001f0: d720 f9bd aafb be3c d9da 8cbd b103 4dbe
00000200: 3ffb 9fbe d39a c93e 78cf 6b3e 8817 2a3e
00000210: 23e6 1ebe 873e 0f3b 2086 933c f124 1a3d
00000220: 1d1a 93bd 8550 1ebe 4dfe 51bd a5d1 ba3b
00000230: 50c9 27be 5bd8 503e baf3 003d d9f1 57be
00000240: 190c 83be 31d9 0fbe fa3b de3c aa88 10be
00000250: b289 c9bd 79b9 c2bd 6243 45be e916 a7be
00000260: a2be 463d fc42 d9bd 3c26 42be ae87 7c3e
00000270: cbd7 04be 2427 20be f78c 2fbe 834f ab3d
00000280: 1ffe 3ebe 1d60 0abd 4217 c4bb 0adf 15bd
00000290: 169f 64be ee14 86be 4377 bbbd 4913 153d
000002a0: 0551 03be 337d afbd 5a7a 56be 5433 493e
000002b0: 8d7b 40be 15c0 37be 3385 f1bd 274c 0cbe
000002c0: 575e 0a3e 1611 b93d 2924 55be 8d57 55be
000002d0: 1ca3 d0bd 6b7f 113e 8086 443e 1e27 9bbe
000002e0: 1caf c5be e9f6 0dbd a58f 39bd 798d 19bd
000002f0: f617 64be 83ba 3abe 15a0 37be bd6a 51bc
00000300: 5344 52bd b444 88be cd29 57be 4141 42bc
00000310: 5ffb 78bc 5630 9e3c e492 433e 10c1 243e
00000320: 90dc 3f3e 89f1 f03c 8aa5 f9bc f36b debe
00000330: dbd6 c83c 62f8 0b3e dcc0 65bd 1043 583d
00000340: 61bb 0e3e f048 edbd ee81 aa3e 1e89 12be
00000350: 790d 33be 3a19 033c cb68 463e 40ae 90be
00000360: dd56 153e 9e32 b53d 5765 edbc 94a7 df3c
00000370: c21e eabd 1266 783d 225f 6ebe c4a7 2ebe
00000380: 3a34 f93c a919 d23c 22dd d03d 69e7 b3bc
00000390: 40e3 0f3e 424f e23d 8eb9 7a3c 60b9 713d
000003a0: e0cf d03d 1187 43bc 16cd 9bbd a0ff 6bbe
000003b0: 0fce f0bd 4f2c a53d 89ae 20be eab7 a0be
000003c0: 30d4 90be 1ddc 6fbe 4fda 8dbe a964 0dbe
000003d0: 23d3 5b3d 4ca5 0d3e 78f0 02bd 3edd a03e
000003e0: bc5b 9dbe cba8 20bd 7963 2fbe 6be5 483e
000003f0: f81e 84bd e231 343e 08a9 2e3d 23ab 9d3e

bias f4 [64]
0.06347066 0.043091465 -0.19759884 -0.040776156 -0.10376559 0.05523672 0.11209611 -0.0035191614
-0.21518137 -0.2086072 0.12972145 0.01705899 -0.046828732 -0.12031865 -0.1719279 0.06916901
-0.035727214 0.0038651512 -0.1951619 0.111951135 0.09949525 0.1683195 0.10450317 0.055602845
-0.006954302 -0.19916548 -0.17541304 -0.048138324 0.08744161 -0.0459616 0.048594486 -0.038543895
-0.06487678 -0.012488945 -0.050797876 -0.105829954 -0.10188322 0.12675737 0.08863352 -0.08029996
-0.17673637 0.19486608 -0.11671696 -0.021639235 0.013406662 -0.034125954 -0.08973462 0.13333206
0.08515307 -0.22338 -0.16846122 -0.046243515 0.05131472 0.05161251 -0.08213018 -0.1954183
0.13710882 -0.17835903 -0.12493269 0.16578734 0.044412177 0.058455773 -0.1491157 -0.1543945
00000000: e8fc 813d ad80 303d 5a57 4abe e604 27bd
00000010: 0e83 d4bd e63f 623d a592 e53d bba1 66bb
00000020: 8158 5cbe 209d 55be b3d5 043e 4cbf 8b3c
00000030: 7ccf 3fbd a069 f6bd de0d 30be 7ba8 8d3d
00000040: b356 12bd 7a4e 7d3b 85d8 47be a346 e53d
00000050: 2ac4 cb3d f25b 2c3e c205 d63d cfbf 633d
00000060: eae0 e3bb 09f2 4bbe 7a9f 33be b12c 45bd
00000070: 9614 b33d 3b42 3cbd 030b 473d 34e0 1dbd
00000080: 1ede 84bd 6f9e 4cbc 6f11 50bd 60bd d8bd
00000090: 26a8 d0bd afcc 013e 7e85 b53d 4e74 a4bd
000000a0: 61fa 34be f98a 473e 4d09 efbd c444 b1bc
000000b0: 9ea7 5b3c a8c7 0bbd c9c6 b7bd 3388 083e
000000c0: bc64 ae3d babd 64be 1981 2cbe d769 3dbd
000000d0: 622f 523d a467 533d de33 a8bd bc1b 48be
000000e0: 4166 0c3e c0a3 36be b6dc ffbd 28c4 293e
000000f0: 8be9 353d 526f 6f3d c9b1 18be 9819 1ebe

weight f4 [64, 64, 3, 3]
-0.049958296 -0.010176682 -0.14775917 0.013847716 -0.0036727772 0.05322139 0.024120256 0.036436792
-0.0888401 -0.10407696 -0.13024634 0.0010698872 0.03679886 -0.054690983 0.10064254 -0.0659891
0.03600739 0.018301096 -0.06893124 -0.058315292 -0.06683169 -0.069759734 -0.042330164 0.02376343
0.013595933 -0.029582182 0.0004035388 -0.041899398 0.0057548373 -0.10852853 -0.08420457 -0.19933632
-0.012716254 -0.032299776 -0.050757997 -0.013590661 -0.023557188 -0.054838147 -0.013441072 -0.08465788
-0.0851451 0.0744078 -0.025238298 -0.07206378 -0.038769174 -0.036310177 -0.079488024 0.019425342
-0.08071031 -0.062356282 -0.008586648 -0.14553657 -0.10092479 -0.16112246 -0.06370868 -0.07359442
0.013349983 -0.051464558 -0.0015646343 0.06681851 -0.1688851 -0.032774962 0.0028046202 -0.0554085
0.035020933 -0.0648894 0.0001697432 0.022802072 -0.10324716 -0.052954126 -0.037886523 -0.08979168
0.041741364 -0.041986585 -0.030002506 0.01728603 -0.07653457 -0.03746341 -0.08332581 -0.08418479
-0.14944229 -0.10415365 -0.009998557 -0.043690655 0.03395174 -0.016798092 0.00381239 -0.063467346
-0.08250223 -0.07705818 -0.030484093 -0.08950669 -0.00868953 -0.07132826 0.04791332 -0.057036158
-0.08605942 -0.006411822 -0.03241785 0.020867426 0.08715356 0.085551076 -0.08765934 -0.048060562
0.045235973 0.068836115 -0.11355846 0.060213335 -0.1492118 -0.11037201 0.0800044 0.021417985
0.019649763 -0.06617595 -0.009871514 -0.14415534 -0.078059055 -0.0501859 -0.03144539 -0.13342173
-0.107175514 -0.07474221 -0.07448117 -0.0053338013 -0.0916604 -0.13779669 -0.016716603 -0.02899571
0.024222858 0.00080203626 -0.056239538 0.035408676 -0.037241247 -0.12782188 -0.006963929 -0.0008802006
0.072940975 0.016499761 0.105666414 -0.105149575 -0.03701469 0.0019586892 -0.06733513 -0.10691229
-0.05836269 0.027196031 -0.04909273 0.035129234 -0.031738143 0.015279765 -0.09334965 0.060442686
-0.01318525 -0.11144867 -0.0069261543 -0.1821082 -0.056281127 -0.021495465 0.04330742 -0.02603748
0.015973015 -0.09013119 0.021739338 0.007337484 0.050077148 -0.10341415 0.111709766 0.019285522
0.056325193 0.034844004 0.071676195 -0.008757495 0.028047252 -0.106671706 -0.040642325 -0.025306584
-0.021529276 -0.038276263 0.079611234 -0.07738857 0.07876091 -0.040248193 -0.104609564 0.015637837
-0.07617221 -0.10798533 -0.017957345 -0.05596086 0.057457525 -0.061776295 -0.054513328 -0.09567651
-0.013693364 0.07658182 -0.07987714 -0.0814586 -0.15378268 -0.08765698 -0.04145016 0.036720596
-0.07482915 -0.04703864 -0.06271848 -0.0654851 0.014713423 -0.13735834 0.038105812 0.041062772
0.015339723 0.019936293 -0.07834058 -0.05311255 -0.18698905 -0.033730082 -0.04221506 0.10860266
0.009332355 -0.111861594 0.010526546 0.0013908751 0.040103443 -0.011636229 -0.043307457 0.0047649033
-0.062218603 -0.054684322 0.019414267 -0.070024 0.06566726 -0.06781547 -0.011667117 0.025044635
-0.094986476 0.010110606 0.033693414 -0.006813368 -0.045854345 -0.004655485 -0.12608315 -0.045171916
-0.03524848 -0.00041341502 0.07156057 -0.042509608 -0.106848426 -0.026971135 -0.08672025 0.040323734
-0.017369343 -0.042704884 -0.096811414 0.076716214 -0.061606586 -0.07983754 -0.056370758 -0.10466403
00000000: 12a1 4cbd 19bc 26bc 2e4e 17be 88e1 623c
00000010: fab2 70bb acfe 593d d897 c53c bf3e 153d
00000020: ccf1 b5bd 4d26 d5bd 4c5f 05be 753b 8c3a
00000030: 67ba 163d a703 60bd ad1d ce3d 4b25 87bd
00000040: 7c7c 133d 2eec 953c d22b 8dbd 04dc 6ebd
00000050: 0edf 88bd 31de 8ebd 6562 2dbd 86ab c23c
00000060: 7ac1 5e3c 5556 f2bc 1092 d339 b49e 2bbd
00000070: 1393 bc3b 3544 debd 7273 acbd d21e 4cbe
00000080: d657 50bc c54c 04bd 9ee7 4fbd 5dab 5ebc
00000090: 01fb c0bc f79d 60bd f137 5cbc 1c61 adbd
000000a0: 8e60 aebd 1e63 983d 8cc0 cebc 2d96 93bd
000000b0: 6dcc 1ebd fbb9 14bd 9eca a2bd e521 9f3c
000000c0: 724b a5bd 4d69 7fbd 03af 0cbc 8a07 15be
000000d0: a8b1 cebd 49fd 24be b279 82bd acb8 96bd
000000e0: e3b9 5a3c 80cc 52bd 6a14 cdba 25d8 883d
000000f0: 37f0 2cbe 0a3f 06bd b8cd 373b 06f4 62bd
00000100: 1c72 0f3d bce4 84bd 18fd 3139 69cb ba3c
00000110: 3f73 d3bd 6de6 58bd e62e 1bbd b3e4 b7bd
00000120: fef8 2a3d 20fa 2bbd d1c7 f5bc 6f9b 8d3c
00000130: 28be 9cbd 3c73 19bd b9a6 aabd 1369 acbd
00000140: 6607 19be 824e d5bd fdd0 23bc f9f4 32bd
00000150: fb10 0b3d 279c 89bc 4ad9 793b 2bfb 81bd
00000160: eef6 a8bd aed0 9dbd c7b9 f9bc 494f b7bd
00000170: 885e 0ebc 8d14 92bd c240 443d bf9e 69bd
00000180: ec3f b0bd 431a d2bb 94c8 04bd 2af2 aa3c
00000190: 917d b23d 6735 af3d bd86 b3bd 27db 44bd
000001a0: 5b49 393d f3f9 8c3d 5691 e8bd 42a2 763d
000001b0: faca 18be b80a e2bd 59d9 a33d c574 af3c
000001c0: 8af8 a03c 4287 87bd 21bc 21bc 759d 13be
000001d0: 6ddd 9fbd bb8f 4dbd e2cc 00bd b59f 08be
000001e0: d67e dbbd 7212 99bd 9589 98bd 2bc7 aebb
000001f0: 73b8 bbbd 931a 0dbe 42f1 88bc 6988 edbc
00000200: 046f c63c be3f 523a 6e5b 66bd b008 113d
00000210: 478a 18bd bde3 02be ac31 e4bb 43bd 66ba
00000220: 1462 953d 822a 873c a267 d83d a958 d7bd
00000230: b79c 17bd 5a5d 003b 00e7 89bd d5f4 dabd
00000240: b70d 6fbd 36ca de3c 7515 49bd ace3 0f3d
00000250: dbff 01bd fb57 7a3c 1a2e bfbd c092 773d
00000260: f206 58bc 333f e4bd cbf4 e2bb 927a 3abe
00000270: 0a87 66bd 4217 b0bc 1f63 313d 8e4c d5bc
00000280: d7d9 823c b496 b8bd b216 b23c 476f f03b
00000290: b21d 4d3d ccca d3bd 17c8 e43d acfc 9d3c
000002a0: 3fb5 663d 96b8 0e3d f8ca 923d 997b 0fbc
000002b0: 5ac3 e53c b276 dabd 9178 26bd c14f cfbc
000002c0: 2a5e b0bc 92c7 1cbd 370b a33d e67d 9ebd
000002d0: 664d a13d 4adb 24bd 8a3d d6bd ec1a 803c
000002e0: 2d00 9cbd 6a27 ddbd 481b 93bc 3737 65bd
000002f0: 9558 6b3d 2409 7dbd 5e49 5fbd 0cf2 c3bd
00000300: 225a 60bc eed6 9c3d a096 a3bd c4d3 a6bd
00000310: 3579 1dbe 8185 b3bd a5c7 29bd 5668 163d
00000320: 0740 99bd 97ab 40bd 8c72 80bd 0d1d 86bd
00000330: 9210 713c aaa7 0cbe d714 1c3d 7031 283d
00000340: 7653 7b3c 7051 a33c 0771 a0bd 8c8c 59bd
00000350: 0f7a 3fbe 8e28 0abd b3e9 2cbd 126b de3d
00000360: bce6 183c b117 e5bd 8977 2c3c 064e b63a
00000370: 8243 243d e2a5 3ebc 2963 31bd e822 9c3b
00000380: efd8 7ebd abfc 5fbd ab0a 9f3c be68 8fbd
00000390: 8e7c 863d d6e2 8abd 6f27 3fbc 682a cd3c
000003a0: 4588 c2bd f5a6 253c 1b02 0a3d ac42 dfbb
000003b0: c4d1 3bbd 0a8d 98bb f11b 01be 3006 39bd
000003c0: b660 10bd a0bf d8b9 598e 923d 8e1e 2ebd
000003d0: 59d3 dabd 92f2 dcbc 639a b1bd 802a 253d
000003e0: 274a 8ebc 51eb 2ebd 1045 c6bd 641d 9d3d
000003f0: 3057 7cbd dd81 a3bd 06e5 66bd 185a d6bd

bias f4 [64]
-0.017868409 -0.02807833 -0.040355217 -0.01514198 -0.036603004 -0.04701196 -0.04624833 -0.058590207
-0.004134557 -0.051285125 -0.04815838 0.010159651 -0.040822726 -0.042169955 -0.011815192 -0.017837092
-0.0511928 -0.054724142 -0.011282856 -0.026813833 -0.051364742 -0.06683552 -0.07535157 -0.026339313
-0.043709986 -0.0026066815 -0.06229009 -0.025889715 -0.039923836 -0.012715398 -0.07578097 -0.06171313
-0.031936213 -0.025001274 -0.015084078 -0.080820076 -0.02300298 -0.014676061 -0.08382642 -0.07779488
0.004980461 -0.059546195 -0.023933463 -0.032440256 -0.07758418 -0.063230075 -0.053952385 -0.035101578
-0.052957047 -0.05528041 -0.033461392 -0.019580737 -0.039950244 -0.04089514 -0.066739835 -0.017523648
-0.042225577 -0.018694967 -0.0044535375 -0.033652816 -0.071362086 0.004913675 -0.043021344 -0.06360297
00000000: c560 92bc 8704 e6bc 834b 25bd 1116 78bc
00000010: 08ed 15bd 9d8f 40bd e46e 3dbd 49fc 6fbd
00000020: 2e7b 87bb 5a10 52bd b941 45bd aa74 263c
00000030: bb35 27bd 67ba 2cbd 8294 41bc 181f 92bc
00000040: 8baf 51bd 6c26 60bd badb 38bc afa8 dbbc
00000050: d663 52bd 10e1 88bd ed51 9abd 8bc5 d7bc
00000060: 3e09 33bd dcd4 2abb e523 7fbd ab16 d4bc
00000070: 2d87 23bd 3f54 50bc 0e33 9bbd e8c6 7cbd
00000080: 8ccf 02bd 79cf ccbc 3523 77bc ff84 a5bd
00000090: bf70 bcbc dd73 70bc 30ad abbd ec52 9fbd
000000a0: 2333 a33b b6e6 73bd 1c10 c4bc 13e0 04bd
000000b0: 74e4 9ebd c57e 81bd 2dfd 5cbd acc6 0fbd
000000c0: 7de9 58bd b66d 62bd d00e 09bd c867 a0bc
000000d0: dea2 23bd aa81 27bd e5ae 88bd c18d 8fbc
000000e0: baf4 2cbd 3026 99bc fbee 91bb 89d7 09bd
000000f0: 4926 92bd e502 a13b 2637 30bd 4642 82bd

weight f4 [32, 64, 3, 3]
0.08784689 0.052629016 -0.04140981 -0.040658303 0.18768403 -0.046163168 0.12012739 0.058686916
0.08446806 0.060476374 0.033817872 0.018919667 0.019177983 0.14607933 0.03256135 0.15392555
0.0080275135 0.0657504 0.12570757 0.09982628 0.113628075 0.034369607 0.038791675 0.07687548
0.07609465 0.10041182 0.08671442 -0.06475023 -0.16885036 -0.029865552 -0.06852796 0.062893584
0.024471052 0.0051756836 -0.064104654 0.07802548 0.057499684 -0.052629083 -0.05205395 0.023567107
-0.04735309 -0.09705405 -0.012333303 -0.013894426 0.04300451 0.053040233 0.0073608216 -0.03980238
0.104280844 -0.007858496 0.10276694 0.17510487 0.04378574 -0.0045228805 -0.06225125 -0.029043663
-0.05769181 -0.012183983 -0.101877384 0.004732959 0.0015784084 -0.029281642 -0.06946975 0.03198878
-0.061555326 0.0889789 -0.057227854 0.0072469027 -0.057604715 -0.0748638 -0.0074574826 -0.13590272
-0.0070800954 -0.033497304 -0.040750746 0.019771978 -0.004279672 0.03175636 -0.008709798 0.058658544
-0.07666266 -0.044329364 0.014374428 0.09092897 -0.074294776 -0.08124344 0.013295352 -0.033177122
0.011465406 -0.045128215 -0.011151513 -0.11658172 -0.02729711 -0.014120797 -0.088178255 0.021144802
-0.059798717 -0.07517303 -0.0749881 -0.07336876 -0.11077306 0.015710047 0.003601919 -0.014995708
-0.035485595 0.03440634 0.001008465 0.024797186 0.033722296 -0.06899908 -0.08177898 -0.079181924
-0.15474059 -0.051526964 -0.0999792 -0.061209537 -0.0048628566 0.013141207 0.026622074 -0.023551567
-0.072280414 -0.0860845 -0.13181315 -0.009282404 -0.009426352 -0.013079921 0.08245614 0.047039807
0.05571913 -0.017869575 0.10623842 -0.035800945 -0.051396854 0.07718839 -0.040999733 0.017576218
0.036128733 -0.14895885 -0.012707227 -0.05057771 0.041252665 -0.004433943 -0.06126384 -0.008866714
-0.085779764 0.09621747 -0.08693273 0.0025813985 0.07093897 -0.008903759 -0.046673127 -0.07700821
-0.03232723 0.0052230996 -0.0882482 0.053623587 -0.048842113 -0.026116414 -0.06116854 -0.015442125
-0.002878836 -0.08507202 0.004503876 -0.023257403 0.08153209 0.11313385 -0.0024634432 0.021162895
0.056766495 -0.020912407 0.071165696 0.03672232 0.0035269572 -0.042881925 -0.064864255 -0.057665188
0.020130405 -0.1484305 0.014783297 -0.005071431 -0.12442818 0.014639048 0.04671776 -0.08918288
-0.10211737 0.12424633 -0.01196335 -0.045664757 0.05906841 -0.07522971 0.053934377 -0.09874446
-0.030423164 -0.02774698 0.15456055 0.07431853 -0.083772466 -0.091106005 0.13102813 0.05001925
0.13438122 -0.04915611 -0.046116754 0.12613732 0.06401942 0.052285925 -0.0062404647 0.02144963
-0.052595984 -0.023192227 -0.055968966 -0.040570416 -0.008649969 -0.058293268 0.012239212 -0.10463566
-0.0011767676 0.018586334 -0.06427969 -0.14388551 0.011613574 0.00059271767 -0.0875609 -0.081262514
0.036360882 0.043482687 0.05958857 -0.07601892 -0.11898762 0.014147775 -0.023361638 0.009648316
-0.112143464 -0.045997504 0.13275076 0.071863465 -0.012099163 -0.050532434 -0.0001239604 0.0813755
-0.017586093 0.062578656 0.027952438 -0.088207774 -0.056103565 0.021840224 0.021008763 -0.016269485
-0.1068812 -0.07246262 -0.0070903907 -0.105958715 -0.04835677 0.0382498 0.18208429 -0.012394377
00000000: 12e9 b33d 8691 573d 559d 29bd 5289 26bd
00000010: 3e30 403e 9715 3dbd 5905 f63d b161 703d
00000020: 97fd ac3d 13b6 773d 9c84 0a3d 6bfd 9a3c
00000030: 251b 9d3c d295 153e 0d5f 053d a99e 1d3e
00000040: d585 033c 25a8 863d 7cb9 003e b871 cc3d
00000050: d6b5 e83d 25c7 0c3d 05e4 1e3d e470 9d3d
00000060: 83d7 9b3d b6a4 cd3d 5497 b13d c59b 84bd
00000070: 1ce7 2cbe 9aa8 f4bc 6358 8cbd 5ace 803d
00000080: 8477 c83c c898 a93b 4d49 83bd d3cb 9f3d
00000090: ca84 6b3d 9891 57bd 8636 55bd ce0f c13c
000000a0: 50f5 41bd 46c4 c6bd 9f11 4abc 72a5 63bc
000000b0: 7f25 303d b740 593d 0c33 f13b d207 23bd
000000c0: 3291 d53d ecc0 00bc 7977 d23d b14e 333e
000000d0: ad58 333d ac34 94bb 2bfb 7ebd faec edbc
000000e0: 3f4e 6cbd 549f 47bc 17a5 d0bd f016 9b3b
000000f0: 99e2 ce3a 0ee0 efbc 2846 8ebd ab06 033d
00000100: 7021 7cbd 923a b63d c167 6abd 6d77 ed3b
00000110: ecf2 6bbd 3152 99bd e65d f4bb 152a 0bbe
00000120: 2500 e8bb 7834 09bd 41ea 26bd d8f8 a13c
00000130: 7e3c 8cbb f512 023d 8ab3 0ebc f143 703d
00000140: 5001 9dbd b592 35bd b982 6b3c f838 ba3d
00000150: dc27 98bd f662 a6bd c0d4 593c bce4 07bd
00000160: 66d9 3b3c 5dd8 38bd d6b4 36bc 66c2 eebd
00000170: 309e dfbc ea5a 67bc cd96 b4bd dd37 ad3c
00000180: 80ef 74bd 51f4 99bd 5c93 99bd 5c42 96bd
00000190: fcdc e2bd 5bb2 803c 2c0e 6c3b 8fb0 75bc
000001a0: 5859 11bd aaed 0c3d 782e 843a 7823 cb3c
000001b0: 6420 0a3d 644f 8dbd bd7b a7bd 222a a2bd
000001c0: 5174 1ebe f00d 53bd e5c1 ccbd dab6 7abd
000001d0: 9958 9fbb 384e 573c 8916 da3c 37ef c0bc
000001e0: c107 94bd 124d b0bd 07fa 06be 3915 18bc
000001f0: fc70 1abc 2a4d 56bc c4de a83d d0ac 403d
00000200: be39 643d 3763 92bc 8793 d93d 03a4 12bd
00000210: 8285 52bd f214 9e3d 56ef 27bd 00fc 8f3c
00000220: b9fb 133d ab88 18be f931 50bc 932a 4fbd
00000230: 8ef8 283d 9c4a 91bb cbef 7abd b245 11bc
00000240: 4dad afbd aa0d c53d ca09 b2bd ae2c 293b
00000250: 7348 913d 12e1 11bc 522c 3fbd 7bb6 9dbd
00000260: 8f69 04bd 8926 ab3b 79bb b4bd 68a4 5b3d
00000270: ab0e 48bd 17f2 d5bc dd8b 7abd f700 7dbc
00000280: daaa 3cbb 3d3a aebd 4095 933b 4f86 bebc
00000290: 4cfa a63d b8b2 e73d b871 21bb cf5d ad3c
000002a0: fc83 683d 7f50 abbc 52bf 913d 256a 163d
000002b0: 8624 673b f5a4 2fbd 8dd7 84bd 5532 6cbd
000002c0: 85e8 a43c 2afe 17be a435 723c 3f2e a6bb
000002d0: 34d4 febd 9ed8 6f3c 1f5b 3f3d 84a5 b6bd
000002e0: e922 d1bd dc74 fe3d ed01 44bc f80a 3bbd
000002f0: b8f1 713d 0912 9abd 4bea 5c3d 893a cabd
00000300: 003a f9bc a24d e3bc 1f45 1e3e 5034 983d
00000310: e690 abbd c995 babd 3d2c 063e fce0 4c3d
00000320: 3b9b 093e eb57 49bd ece4 3cbd 242a 013e
00000330: 9d1c 833d c429 563d d07c ccbb 22b7 af3c
00000340: e36e 57bd a0fd bdbc b73f 65bd 2a2d 26bd
00000350: 99b8 0dbc ecc4 6ebd fa86 483c 394b d6bd
00000360: c53d 9aba 5e42 983c 12a5 83bd b956 13be
00000370: dc46 3e3c 9c60 1b3a 2153 b3bd f66c a6bd
00000380: 26ef 143d e71a 323d 2513 743d cfaf 9bbd
00000390: c8af f3bd 12cc 673c e860 bfbc f813 1e3c
000003a0: 79ab e5bd e167 3cbd d1ef 073e 272d 933d
000003b0: 913b 46bc 19fb 4ebd 5efb 01b9 33a8 a63d
000003c0: b610 90bc 3d29 803d 83fc e43c 47a6 b4bd
000003d0: dacc 65bd 45ea b23c 921a ac3c 9547 85bc
000003e0: 88e4 dabd 4867 94bd 8256 e8bb e200 d9bd
000003f0: c011 46bd d3ab 1c3d 4e74 3a3e c911 4bbc

bias f4 [32]
-0.06686728 -0.01150415 -0.07108987 0.07355558 -0.0692779 -0.04018226 -0.078906015 -0.0049765226
-0.08058912 0.04778284 0.04149655 -0.03122882 -0.07317069 -0.041625474 -0.01673108 -0.055962518
-0.0049266717 -0.035611574 -0.05419514 -0.06198074 -0.062440295 -0.067990005 -0.019040873 0.04371693
-0.06427485 -0.034556955 -0.06485183 -0.018315742 -0.06404312 -0.030671624 -0.03308043 0.026243977
00000000: b6f1 88bd e77b 3cbc 9197 91bd 4fa4 963d
00000010: 92e1 8dbd 2796 24bd 7a99 a1bd 1912 a3bb
00000020: e90b a5bd f0b7 433d 49f8 293d 95d3 ffbc
00000030: 84da 95bd 797f 2abd 9e0f 89bc f438 65bd
00000040: eb6f a1bb 71dd 11bd b9fb 5dbd 84df 7dbd
00000050: 65c1 7fbd 583e 8bbd 9bfb 9bbc 8610 333d
00000060: 88a2 83bd 988b 0dbd 09d1 84bd e50a 96bc
00000070: 0a29 83bd 0f43 fbbc 587f 07bd 9cfd d63c

weight f4 [16, 32, 3, 3]
0.065425575 -0.041129842 -0.10199459 0.029414177 -0.063890785 -0.12161299 -0.17555645 0.06025169
-0.11586905 0.047868434 0.052903168 0.06149324 0.13889031 0.059640557 0.01843831 -0.051959924
0.044482026 0.061077625 -0.059763152 0.03646535 0.031090094 -0.082735464 -0.019112282 0.07737911
-0.0022821953 0.07148695 -0.040844653 0.06123357 0.07220666 0.06379887 -0.018338412 0.17564677
0.02730098 0.13021606 0.10797049 0.051912393 -0.043454833 0.008335782 -0.13648745 0.0042652017
-0.0019089011 -0.043046135 -0.02225153 -0.044703312 0.052257676 -0.029857215 0.007163089 -0.02454502
-0.0075088446 0.08322202 -0.037680358 0.06246764 0.06536655 -0.020442616 -0.022903847 0.061986737
-0.057593025 -0.008276826 -0.044529192 -0.009122995 0.048780344 0.02292409 0.021298366 0.020096553
0.025431592 0.031729765 -0.104489364 -0.06417926 -0.042151574 -0.09645346 0.038438216 -0.01835105
0.009046424 0.041240945 -0.008421788 0.06716022 0.080759756 0.03744324 0.06641606 -0.13268858
-0.04702321 0.061520696 0.028703643 0.034363553 -0.03443889 0.13031846 0.20202646 0.08189099
-0.0522622 0.029428445 0.055359885 0.06636805 0.016912684 0.027856361 -0.051117003 0.033054646
0.043754376 0.089672275 0.104411416 0.095190786 -0.048573583 0.014130654 0.07485401 -0.025617935
-0.06850772 0.064935215 0.065829195 0.0057470347 0.038569458 0.08146406 -0.04898992 0.10311513
-0.013441431 -0.07502995 0.023218973 0.12358968 0.053495053 -0.05195882 0.018529113 0.067028314
-0.0592088 -0.15437561 -0.11662022 -0.076127395 -0.07975542 0.02630642 0.019431466 -0.05933146
0.018460851 -0.0471702 -0.020119693 0.04578963 0.057129804 -0.02854187 -0.10850572 0.019017566
0.10992632 0.038189255 0.021156538 0.0867508 0.09082145 0.057061724 0.08697799 0.12334127
0.032513145 -0.007860012 -0.02680195 -0.10188069 0.0887013 -0.09429489 -0.0012708115 0.08189081
-0.062015798 -0.017769605 -0.06634432 -0.030143432 0.044167478 0.0017972692 0.018035091 0.002399201
-0.012383437 0.0014579757 0.005224126 0.055388387 -0.102081746 -0.041641276 0.01854495 -0.024511319
0.057420753 -0.022870505 0.02593578 0.069526784 0.068667255 -0.0012515546 0.09162682 0.0030867183
0.05865692 0.00856643 0.012175193 0.013997927 0.07336419 0.0690399 0.14570622 0.063705094
-0.026659293 0.038426682 0.042297672 0.02118333 0.08550685 -0.08202931 -0.029628497 -0.045792054
0.0841983 -0.029530637 -0.08707227 -0.10910606 -0.10038569 -0.046682023 0.10241394 0.08006588
-0.025973205 -0.01236711 -0.019520646 0.03986669 0.071277395 0.030791743 -0.07929806 0.0105836075
0.0014388785 0.08060485 0.066355094 0.009612264 0.09858494 0.08596287 0.050362498 0.028922308
0.07798753 0.026897699 -0.030322682 -0.0005834239 -0.049262594 0.13695973 -0.038555514 0.21197061
-0.04606411 -0.0020397808 0.03029307 0.07406173 -0.013612946 0.06310278 -0.047296617 0.07273987
0.017579464 0.19366103 0.14574781 0.14128503 -0.015387803 0.028926417 0.06854875 -0.015591937
0.086272225 0.047578923 0.02440015 -0.010381603 0.031150017 -0.117369965 -0.01073018 -0.024503894
-0.18010439 -0.031515185 -0.013534681 -0.16397524 -0.167883 -0.031535864 0.029812025 -0.040052816
00000000: d8fd 853d c477 28bd 8ae2 d0bd 00f6 f03c
00000010: 2cd9 82bd 3b10 f9bd 12c5 33be 7aca 763d
00000020: c14c edbd b111 443d feb0 583d 56e0 7b3d
00000030: 4339 0e3e a849 743d f00b 973c eed3 54bd
00000040: c932 363d 882c 7a3d 35ca 74bd b15c 153d
00000050: a7b0 fe3c 3671 a9bd 5c91 9cbc f078 9e3d
00000060: e290 15bb c067 923d b94c 27bd 0dd0 7a3d
00000070: 16e1 933d fba8 823d 703a 96bc bfdc 333e
00000080: 4ea6 df3c 5c57 053e a21f dd3d 17a2 543d
00000090: b2fd 31bd ce92 083c 5ec3 0bbe 1bc3 8b3b
000000a0: 1834 faba 2551 30bd d748 b6bc d21a 37bd
000000b0: 250c 563d 1e97 f4bc 58b8 ea3b a312 c9bc
000000c0: c10c f6bb 4e70 aa3d b856 1abd 11de 7f3d
000000d0: e6de 853d 4677 a7bc d9a0 bbbc cee5 7d3d
000000e0: aae6 6bbd 869b 07bc 3e64 36bd 9d78 15bc
000000f0: e6cd 473d 4dcb bb3c e979 ae3c 87a1 a43c
00000100: ea55 d03c 12f7 013d 85fe d5bd 6a70 83bd
00000110: 21a7 2cbd 6489 c5bd 6471 1d3d f154 96bc
00000120: 7437 143c 44ec 283d 8afb 09bc 4c8b 893d
00000130: 5f65 a53d 155e 193d 2505 883d 84df 07be
00000140: 699b 40bd 20fd 7b3d e723 eb3c ccc0 0c3d
00000150: cb0f 0dbd 3472 053e 06e0 4e3e 77b6 a73d
00000160: e310 56bd ec13 f13c 0cc1 623d f9eb 873d
00000170: 788c 8a3c 0633 e43c 1060 51bd 4f64 073d
00000180: ca37 333d 19a6 b73d a7d5 d53d 63f3 c23d
00000190: 18f5 46bd 4284 673c 0f4d 993d b4dc d1bc
000001a0: c74d 8cbd c1fc 843d 75d1 863d 9f51 bc3b
000001b0: 02fb 1d3d a1d6 a63d a8a9 48bd 062e d33d
000001c0: 7339 5cbc 4da9 99bd b735 be3c 961c fd3d
000001d0: a11d 5b3d c6d2 54bd 5eca 973c 2446 893d
000001e0: ed84 72bd a414 1ebe 95d6 eebd aee8 9bbd
000001f0: cf56 a3bd 9080 d73c bd2e 9f3c 8c05 73bd
00000200: 363b 973c 8a35 41bd 0ed2 a4bc e88d 3b3d
00000210: f100 6a3d a4d0 e9bc 3f38 debd baca 9b3c
00000220: 0d21 e13d 566c 1c3d 7a50 ad3c 67aa b13d
00000230: 9900 ba3d 8eb9 693d 8421 b23d 599a fc3d
00000240: 812c 053d 48c7 00bc c38f dbbc d3a6 d0bd
00000250: 07a9 b53d ae1d c1bd 5c91 a6ba 5eb6 a73d
00000260: 4704 7ebd 9091 91bc 88df 87bd 5cef f6bc
00000270: f5e8 343d 5992 eb3a 54be 933c ea3b 1d3b
00000280: e6e3 4abc 8c19 bf3a 252f ab3b efde 623d
00000290: 3c10 d1bd 0b90 2abd 94eb 973c f6cb c8bc
000002a0: 0632 6b3d ed5a bbbc 4677 d43c 0f64 8e3d
000002b0: 6ba1 8c3d 340b a4ba d8a6 bb3d 8a4a 4a3b
000002c0: 3d42 703d 365a 0c3c 767a 473c 9057 653c
000002d0: f73f 963d cb64 8d3d 0334 153e d177 823d
000002e0: 9764 dabc 4c65 1d3d 5340 2d3d aa88 ad3c
000002f0: 371e af3d fcfe a7bd 76b7 f2bc 7390 3bbd
00000300: 2970 ac3d 3cea f1bc f252 b2bd ff72 dfbd
00000310: 0397 cdbd a635 3fbd 66be d13d 95f9 a33d
00000320: c2c5 d4bc 6b9f 4abc c3e9 9fbc 414b 233d
00000330: e2f9 913d f73e fc3c 0567 a2bd de66 2d3c
00000340: c098 bc3a 2814 a53d 2ee5 873d c27c 1d3c
00000350: e7e6 c93d 4d0d b03d e848 4e3d 7aee ec3c
00000360: edb7 9f3d 9058 dc3c 4667 f8bc eaf0 18ba
00000370: 93c7 49bd 2c3f 0c3e 63ec 1dbd d30e 593e
00000380: b8ad 3cbd d8ad 05bb 2c29 f83c adad 973d
00000390: d508 5fbc 083c 813d 19ba 41bd a4f8 943d
000003a0: cf02 903c 144f 463e ea3e 153e 06ad 103e
000003b0: 201d 7cbc 18f7 ec3c 4963 8c3d 5375 7fbc
000003c0: 7eaf b03d 1ee2 423d d3e2 c73c 9917 2abc
000003d0: 522e ff3c aa5f f0bd a3cd 2fbc 64bc c8bc
000003e0: 496d 38be 1116 01bd 91c0 5dbc 20e9 27be
000003f0: 85e9 2bbe c02b 01bd 5938 f43c 6c0e 24bd

bias f4 [16]
-0.04013351 -0.0011732387 -0.020398479 0.042987265 -0.040904783 -0.05890875 -0.042524837 0.06898904
0.043721043 -0.022039672 0.0027554692 -0.053595193 0.017357394 0.016684733 0.040724926 0.00074152765
00000000: 0963 24bd 5cc7 99ba b61a a7bc 6a13 303d
00000010: c68b 27bd 4d4a 71bd 862e 2ebd 204a 8d3d
00000020: d614 333d 8b8c b4bc 1a95 343b a286 5bbd
00000030: 1831 8e3c 6cae 883c 2ecf 263d 1463 423a
