super_resolution/checkpoint_scale4/model_epoch_17.pth (torch_old, 260873 bytes, 8 tensors)

weight f4 [64, 1, 5, 5]
000000 f0 0e b0 bd 93 df 8a be 91 d0 a0 be 3e 44 63 bc
       -0.08596599 -0.271237 -0.31409124 -0.013871251
000010 b9 6b 04 be 45 6e 10 ba 28 a3 88 3e 5d 8c 79 be
       -0.12931718 -0.00055095955 0.26686978 -0.2436995
000020 82 52 1a 3e 70 0b 4f be fe 75 83 be 5d bc ee be
       0.15070537 -0.20219207 -0.25675958 -0.46628085
000030 e7 b7 66 be 71 99 24 bc d1 62 fc be 83 77 be bd
       -0.2253109 -0.010046349 -0.4929414 -0.09300139
000040 3b 63 d6 bd 07 44 05 3e 34 94 06 3e fb c4 48 bd
       -0.104681455 0.13014232 0.13142473 -0.04901598
000050 d7 01 44 be 0b 0b 87 be f7 11 77 be 40 8f 3e 3d
       -0.19141327 -0.26375613 -0.24127947 0.046523333
000060 d1 5c 38 be ce 78 3f bd 62 e5 12 3e d8 72 45 be
       -0.18004157 -0.046746068 0.14345315 -0.1928209
000070 7f 88 fb bd 5c 0e 2c be 53 ce a8 bd 67 45 b7 3d
       -0.12281894 -0.16802353 -0.08242478 0.08948784
000080 51 87 25 be b9 fa 6b be 4c 31 27 be 52 25 32 be
       -0.161649 -0.23044862 -0.16327399 -0.17397049
000090 bb e2 c1 3d d1 55 70 be b7 81 05 be e0 dd 12 3d
       0.094670735 -0.23470236 -0.13037764 0.035856128
0000a0 7a 6e 59 3d 2f 10 d5 be d3 00 29 be 5b c4 5d be
       0.053083874 -0.4161391 -0.1650422 -0.21656935
0000b0 7c 5c 73 3e 36 06 c0 bc b0 53 62 3c 80 d2 f1 bc
       0.23765749 -0.023440462 0.013813898 -0.02951932
0000c0 2d 27 9f bd 34 48 d8 be 17 8d ef 3d 2b f0 a8 be
       -0.07771144 -0.42242587 0.116968326 -0.32995734
0000d0 fa a7 04 bc a2 0a 6e 3e 7e 58 84 ba f9 81 39 be
       -0.008096689 0.23246244 -0.0010097174 -0.18115987
0000e0 27 0a a1 bc f6 ee 8a bd ea 09 0f 3d fb 55 97 be
       -0.019658161 -0.067838594 0.034921564 -0.29557785
0000f0 4e ae fd bd f8 29 8f be fe a8 ce bc b5 e5 30 bd
       -0.123867616 -0.27961707 -0.025227066 -0.043187816
000100 42 d4 06 bc fa 57 a1 be c6 1a 0c bb f4 8a 5b 3c
       -0.008229317 -0.31512433 -0.0021378263 0.013399828
000110 9c 3d c7 bd ed 82 03 3c 67 e1 88 3b 63 f8 b6 bb
       -0.09728548 0.008026821 0.0041772607 -0.005583809
000120 69 c4 55 3c 13 75 fb bd 2a b1 29 3e d2 ce a5 be
       0.013047316 -0.122781895 0.16571489 -0.32384354
000130 e3 0a f0 3d a7 15 62 be 9e 83 80 be 55 fe 8a be
       0.117208265 -0.22078572 -0.25100416 -0.27147165
000140 28 11 cd 3b fb 4e 7f be 10 73 95 bd 74 31 b0 3d
       0.0062581487 -0.24932472 -0.07297337 0.086031824
000150 4d bc 4b be 56 8b 16 bd ea 8d 67 bd 56 cf 49 3d
       -0.1989605 -0.036753975 -0.056531824 0.049269997
000160 fb 63 9c bc 3e d7 97 bd d1 bb 63 be bf 24 d3 3d
       -0.019090643 -0.07414101 -0.22239615 0.10309743
000170 4a b4 b3 3e 2e a0 f1 3c e8 5a d2 bd b6 a4 10 3d
       0.35098487 0.029495325 -0.10271245 0.03531333
000180 b4 ea f2 3d 29 7b ea 3c fd 8e 17 3d 63 bc bf be
       0.11861172 0.02862318 0.0370016 -0.37448415
000190 f3 c6 ab be 15 6d 00 3e ea 62 be bc 2c 39 65 be
       -0.33550224 0.12541611 -0.023240525 -0.2238509
0001a0 4a d1 8b bd 1a d9 40 3e 9c a3 07 be c0 53 13 be
       -0.06827028 0.18832818 -0.13246006 -0.14387417
0001b0 5e 3d 07 3e 97 0c 96 bb a9 da f8 bc 10 5c c9 3d
       0.13207003 -0.0045791375 -0.030377703 0.09832013
0001c0 c9 de 98 3d 7c e4 bc 3d 24 8c fb bc 8e 3a 7d 3e
       0.07464368 0.092232674 -0.030706473 0.24729368
0001d0 0e f9 87 3d d5 b4 f1 3d 2b 8a e3 3d 3e e2 94 be
       0.066393 0.11802069 0.11110338 -0.2907886
0001e0 f1 60 81 bb be a7 24 3e b8 37 84 3d 2e e5 99 be
       -0.003948324 0.16079614 0.0645594 -0.30057663
0001f0 8d 5b 0c be bd 9c 08 3c f9 b8 ab bd 03 8f 5c be
       -0.13706799 0.008338151 -0.0838489 -0.2153893
000200 66 c0 a7 be 0c e5 c1 3e 1e 6a 5c 3e cd 90 1a 3e
       -0.32763976 0.3787006 0.21524855 0.150943
000210 36 8c 2e be 6e f3 55 bc 6e a1 3b 3b 27 26 b9 3c
       -0.17045674 -0.013058526 0.0028630155 0.0226012
000220 bc 31 b2 bd 9c fc 2d be 16 3a 88 bd cb 2e 1a bc
       -0.08700892 -0.16990894 -0.06651704 -0.00941057
000230 a2 c8 37 be 7d d8 40 3e 97 a1 81 3c 9d 05 68 be
       -0.17947629 0.18832584 0.015824122 -0.22658391
000240 41 15 8b be 6f cb 1f be a2 24 3d 3c 1e 88 20 be
       -0.27164653 -0.15604948 0.0115443785 -0.15676925
000250 69 9d e9 bd 7d c9 e2 bd d4 3a 7d be 42 e6 c4 be
       -0.11406977 -0.11073587 -0.24729472 -0.38456923
000260 63 50 e9 b9 20 98 1a be bd dc 6c be 1a a0 43 3e
       -0.00044501116 -0.15097094 -0.2313108 0.19104043
000270 e4 cf 41 be dc 85 55 be 5e d6 60 be 48 7e 21 3d
       -0.1892696 -0.20851845 -0.21956775 0.03942707
000280 c7 1f 78 be f5 a6 b6 bd 4e 00 60 bd 71 39 aa bd
       -0.24230872 -0.08918563 -0.05468779 -0.08311737
000290 4a d8 88 be ab 72 a0 be d9 b3 0e be 61 85 d1 bb
       -0.26727515 -0.31337485 -0.13935794 -0.006394074
0002a0 fd 63 2e be 18 ed 00 be 48 3e 82 be 57 ae 1e 3e
       -0.1703033 -0.12590444 -0.25438142 0.15496193
0002b0 49 7a 68 be c0 55 5f be 47 9b 1d be 08 d0 1a be
       -0.22702898 -0.21810055 -0.15391265 -0.1511842
0002c0 4a 4e f8 3d b7 ce 9c 3d d2 8f 64 be de c9 64 be
       0.121243075 0.07656615 -0.22320488 -0.22342631
0002d0 b0 99 ed bd b1 42 03 3e 7d 4f 36 3e 61 e0 a2 be
       -0.11601579 0.1281841 0.1780376 -0.31811813
0002e0 59 69 cd be d4 b0 48 bd 7a 2e 74 bd a2 8f 54 bd
       -0.40119436 -0.04899676 -0.059614636 -0.05189479
0002f0 b3 8d 73 be dc 2f 4a be 97 bf 46 be 63 05 e2 bc
       -0.23784523 -0.1974482 -0.19409023 -0.02759046
000300 4e e6 87 bd 31 01 90 be cb a1 66 be 63 c0 da bc
       -0.06635724 -0.2812591 -0.22522657 -0.026703065
000310 fd 90 f6 bc e6 41 89 3b 71 10 34 3e 5b 3c 15 3e
       -0.030098433 0.004188764 0.17584397 0.14573805
000320 7a 56 30 3e 6a 57 69 3c ef fb 3a bd 43 31 e6 be
       0.17220488 0.014242033 -0.04565042 -0.4495946
000330 b0 0d 19 3c e2 e2 f8 3d d1 f3 91 bd a7 14 1a 3d
       0.009341642 0.121526495 -0.071265824 0.03761735
000340 06 5f fe 3d be 2f 06 be d8 be a2 3e e0 11 22 be
       0.12420468 -0.1310415 0.31786227 -0.15827131
000350 49 98 42 be e6 33 eb bb 2b de 36 3e d6 73 98 be
       -0.19003405 -0.0071778176 0.17858188 -0.29775876
000360 38 cb 05 3e a0 1a 96 3d 1b e4 34 bd cf 8d 46 3c
       0.13065803 0.07329297 -0.04416285 0.012118771
000370 50 9b 04 be 3a 34 3a 3d f5 eb 7d be cd 34 3e be
       -0.12949872 0.045459963 -0.24797042 -0.1857483
000380 17 9e 79 3c b9 f9 2b 3c 54 d1 b1 3d c6 10 18 bd
       0.015235445 0.01049655 0.08682504 -0.03712537
000390 64 56 00 3e dc 33 c3 3d 3b ba 17 39 35 a1 33 3d
       0.12532955 0.09531376 0.00014469858 0.04385491
0003a0 4f c4 b1 3d 66 21 de bc d4 e8 ba bd f6 88 7b be
       0.08680021 -0.027115535 -0.0912644 -0.24563965
0003b0 31 ee 07 be 19 26 86 3d 81 38 30 be 2d 7e a8 be
       -0.13274457 0.06550235 -0.17209055 -0.32908764
0003c0 d4 9a 98 be 03 68 7f be e1 9d 95 be b1 f2 1c be
       -0.29805624 -0.24942021 -0.29222015 -0.15326954
0003d0 f5 9f 1d 3d f2 33 fc 3d 3f 1f 41 bd 56 19 99 3e
       0.038482625 0.12314595 -0.04714894 0.29902142
0003e0 fc 22 a5 be f3 dc 5e bd a9 c4 37 be a3 ba 40 3e
       -0.32253253 -0.054409932 -0.17946114 0.18821196
0003f0 71 cf 97 bd 26 fd 27 3e ea 6a e8 3c 40 63 96 3e
       -0.07412613 0.16405162 0.028371293 0.29372597

bias f4 [64]
000000 bd 1d 4c 3d ed 21 e2 3c 7e c7 5a be 15 fd 63 bd
       0.049833048 0.027604068 -0.21365163 -0.05566128
000010 ca 21 f6 bd 11 e8 24 3d 13 c8 7d 3d 11 5d 91 bc
       -0.120181635 0.04026038 0.061958384 -0.017744573
000020 05 e1 6b be a9 24 65 be b2 6b d3 3d 6f 4d bc bd
       -0.23035057 -0.22377266 0.103232756 -0.09194457
000030 ec e3 80 bd 42 93 0a be 33 2c 43 be 71 df 5e 3d
       -0.06293473 -0.13532737 -0.1905983 0.05441231
000040 5f 3a 50 bd 46 21 37 bc df 17 57 be 1d 33 d0 3d
       -0.050836917 -0.011177367 -0.210052 0.10165999
000050 f2 d2 a8 3d b6 dc 1e 3e 35 d3 b5 3d 78 8b 28 3d
       0.082433596 0.15513882 0.08878175 0.041148633
000060 f3 71 b2 bc ee 62 5b be ea dc 42 be 13 36 81 bd
       -0.02178285 -0.21424457 -0.19029585 -0.06309142
000070 64 53 93 3d 8a ac 7d bd 1d 44 15 3d 1f df 59 bd
       0.0719364 -0.061932124 0.03644191 -0.0531913
000080 b7 c1 a3 bd 66 71 e0 bc 9d 12 86 bd 35 93 26 be
       -0.079959325 -0.027397823 -0.06546519 -0.16267093
000090 6a 00 ef bd 39 cb e6 3d 36 9e 93 3d d4 85 c3 bd
       -0.11670001 0.112692304 0.07207911 -0.0954701
0000a0 3a 69 44 be 0d 42 ba 3e 4d 09 ef bd fe 83 16 bd
       -0.19180766 0.36378518 -0.11671696 -0.03674697
0000b0 52 fc d4 ba 3b f9 43 bd 6b 50 d6 bd 91 6b d8 3d
       -0.0016249514 -0.047845107 -0.10464557 0.10567392
0000c0 25 78 8f 3d 04 38 74 be bf b5 3d be 42 ff 73 bd
       0.070053376 -0.23849493 -0.18526362 -0.059569605
0000d0 7b 04 17 3d 39 ca 14 3d f5 21 c7 bd 94 2f 57 be
       0.036869507 0.036325667 -0.09723274 -0.21014243
0000e0 3d 7f 04 3e 07 1a 46 be 67 46 18 be 5e 2a 1c 3e
       0.12939163 -0.19345866 -0.14870606 0.15250537
0000f0 0b b3 f0 3c 5c 2e 34 3d 43 16 28 be 60 43 2d be
       0.02938225 0.043989524 -0.16414742 -0.16920233

weight f4 [64, 64, 3, 3]
000000 f2 f1 4e bd 90 ee 34 bc db ce 17 be c9 24 5e 3c
       -0.050523706 -0.011043206 -0.14825003 0.013558575
000010 f0 55 92 bb a8 f3 56 3d d8 c5 b8 3c b0 69 12 3d
       -0.004465811 0.052478462 0.022555277 0.035745323
000020 6d f3 b7 bd e1 84 ee bd 6f 1e 13 be a6 0c 4c bc
       -0.08981977 -0.116464384 -0.14367078 -0.0124541875
000030 d6 24 c4 3c 0a 93 8b bd e9 69 b2 3d b1 29 a2 bd
       0.023943346 -0.06815155 0.08711607 -0.07918108
000040 1d a1 b8 3c 20 8b 9c 3b 86 04 a9 bd 6f 46 93 bd
       0.022537762 0.004777327 -0.08252816 -0.071911685
000050 3e b7 a4 bd 3e b7 aa bd 1a 14 65 bd f5 91 26 3c
       -0.08042763 -0.08335732 -0.055927373 0.010166635
000060 6f e4 df b5 f1 dc 30 bd bc 28 58 bc 68 40 63 bd
       -1.6681278e-06 -0.043179456 -0.013193306 -0.055481344
000070 4a 5e 00 bc bc 19 fa bd 4e 35 c8 bd cf 07 5a be
       -0.00783498 -0.1221194 -0.09775792 -0.21292041
000080 8c 7a d7 bc 64 d4 3b bd 9f c5 83 bd 73 a3 de bc
       -0.026303552 -0.04585685 -0.064341776 -0.027177548
000090 8c 32 18 bd 82 29 8c bd 21 86 dd bc a1 3b c9 bd
       -0.03715758 -0.068438545 -0.027041497 -0.098258264
0000a0 14 3b ca bd 2e 11 79 3d 4f 15 1f bd b2 70 af bd
       -0.098745495 0.0608074 -0.03883868 -0.08566417
0000b0 7a 81 56 bd 5c 6e 4c bd ca a4 be bd 08 e4 be 3b
       -0.052369572 -0.049909934 -0.09308775 0.0058255233
0000c0 9b 25 c1 bd cf 8e 9b bd 58 c0 b5 bc 99 f4 22 be
       -0.09431001 -0.07595598 -0.022186443 -0.15913619
0000d0 c8 8b ea bd 5b ea 32 be 34 59 90 bd 79 71 ab bd
       -0.114524424 -0.17472212 -0.07048264 -0.083712526
0000e0 5f 62 f7 3a a9 a9 69 bd 77 dc 3d bc 4d ea 63 3d
       0.0018873921 -0.057046566 -0.011588207 0.05564337
0000f0 ab ff 32 be fe 03 2f bd 75 8e 00 bc fc dd 8c bd
       -0.17480342 -0.042728417 -0.007846464 -0.06878278
000100 b8 da af 3c a7 b4 a0 bd 41 3f 58 bc 24 84 17 3c
       0.021466598 -0.07846957 -0.013198675 0.009247813
000110 88 43 ef bd fc b0 87 bd 7b ac 52 bd dc b4 d3 bd
       -0.116828024 -0.06625554 -0.05143402 -0.103372306
000120 af 88 e6 3c bc ae 63 bd 7f 98 32 bd 27 91 71 3b
       0.028141348 -0.05558656 -0.043602463 0.00368602
000130 75 98 b8 bd d3 27 51 bd 07 81 c6 bd 60 43 c8 bd
       -0.09013454 -0.05106337 -0.09692579 -0.09778476
000140 88 f4 26 be be 1d f1 bd 7d 26 c1 bc 94 96 6a bd
       -0.16304219 -0.11773251 -0.023577923 -0.05727251
000150 31 d7 a6 3c a9 e5 f8 bc e5 20 20 bc d3 c9 9d bd
       0.020366283 -0.030382948 -0.009773468 -0.077045105
000160 bb c4 c4 bd cb 9f b9 bd 06 ac 33 bd e6 f1 d2 bd
       -0.09607836 -0.09063681 -0.043865226 -0.10300045
000170 2b 16 b6 bc 67 b6 ad bd a3 cf 0c 3d dd 8f 90 bd
       -0.022227367 -0.08482056 0.034377705 -0.0705869
000180 c2 ed cb bd 16 77 a3 bc 5c 40 3c bd 2a f2 aa 3c
       -0.09957458 -0.019954246 -0.045959815 0.020867426
000190 91 7d b2 3d 67 35 af 3d bd 86 b3 bd 27 db 44 bd
       0.08715356 0.085551076 -0.08765934 -0.048060562
0001a0 99 56 3a 3d f3 f9 8c 3d 56 91 e8 bd 3b 65 76 3d
       0.045492742 0.068836115 -0.11355846 0.060155135
0001b0 29 b8 26 be 1c e5 fd bd f6 fe 87 3d 0d 16 00 3c
       -0.16281189 -0.12397215 0.06640427 0.007817757
0001c0 5f 3b c6 3b a7 61 a3 bd cf 47 c0 bc a5 8a 21 be
       0.006049558 -0.0797761 -0.023471741 -0.15775545
0001d0 d2 b7 bb bd ed 91 82 bd be 60 38 bd a1 82 16 be
       -0.0916592 -0.063754894 -0.045014136 -0.14698268
0001e0 83 4d f7 bd 65 df b4 bd d1 50 b4 bd f4 ea 9a bc
       -0.12075331 -0.088316716 -0.08804477 -0.018910863
0001f0 a0 84 d7 bd f9 fb 1a be e8 78 b5 bc 17 bf ed bc
       -0.10523343 -0.15135182 -0.02215238 -0.029021783
000200 22 37 cf 3c e8 10 ea bb b7 29 78 bd d4 81 0f 3d
       0.025294844 -0.0071431287 -0.060586657 0.035035923
000210 df 82 38 bd 95 c9 07 be 39 3c f9 bb 19 f7 03 bc
       -0.045046683 -0.13260491 -0.007606056 -0.008054518
000220 8d 7f 74 3d 9a 18 48 3b 53 c3 cc 3d 6b 65 f2 bd
       0.059691954 0.0030532242 0.09998193 -0.1183575
000230 84 af 4e bd 45 b8 7a bb 13 f6 a4 bd 75 7c f6 bd
       -0.050460353 -0.0038256806 -0.080547474 -0.12035457
000240 2d 21 93 bd b5 f1 5f 3c 78 50 80 bd 73 79 b1 3c
       -0.07184062 0.013668467 -0.06265348 0.021664357
000250 f4 31 39 bd 41 93 e3 3a f1 c5 da bd ae 6e 40 3d
       -0.045213655 0.0017362611 -0.106822856 0.046980552
000260 15 d9 da bc 25 3f ff bd e2 99 a4 bc 1a f7 47 be
       -0.02671484 -0.12463216 -0.020092908 -0.19527856
000270 10 d0 86 bd 0f c5 fd bc d4 16 02 3d 04 57 fd bc
       -0.065826535 -0.030977754 0.03176005 -0.030925281
000280 6c f3 ef 3b 14 3a cd bd b2 16 b2 3c e0 e4 f8 3b
       0.0073227193 -0.10020843 0.021739338 0.0075956434
000290 b2 1d 4d 3d eb c8 d3 bd 17 c8 e4 3d ac fc 9d 3c
       0.050077148 -0.103410564 0.111709766 0.019285522
0002a0 da e5 66 3d 96 b8 0e 3d f8 ca 92 3d b2 5d b2 bc
       0.056371547 0.034844004 0.071676195 -0.021773193
0002b0 3f 14 77 3c 6f 70 f5 bd 36 30 5d bd a9 fd 1d bd
       0.015080511 -0.11984336 -0.054001056 -0.038571987
0002c0 05 8a 0e bd 68 d2 53 bd 06 c8 87 3d a9 a0 b9 bd
       -0.034799594 -0.05171433 0.06629948 -0.090638466
0002d0 fb d2 91 3d b1 32 4c bd ba a7 ed bd 90 9c 07 3c
       0.071203195 -0.04985303 -0.11604257 0.0082770735
0002e0 dd 9c af bd 3f b8 f3 bd c5 cb d3 bc ae c3 85 bd
       -0.08574841 -0.119003765 -0.025854 -0.065314636
0002f0 0b ac 3e 3d b2 56 9a bd 4a 76 8b bd 80 c3 df bd
       0.04655079 -0.07536067 -0.06809671 -0.109259605
000300 86 19 df bc 0e 21 81 3d 6e 44 bf bd eb 91 c2 bd
       -0.02723385 0.06305133 -0.09339224 -0.09500488
000310 bd 53 2b be ba 2d cf bd 64 46 61 bd fd 9b bd 3c
       -0.16731162 -0.101161435 -0.05499877 0.02314567
000320 b5 12 b5 bd 2c 10 78 bd 1f 39 9c bd 98 ed a1 bd
       -0.08841459 -0.060562298 -0.076280825 -0.079066455
000330 5c 0d 9b 3a 29 8b 1a be 39 ea c8 3c 07 e0 0b 3d
       0.0011829543 -0.15092148 0.024525749 0.034149196
000340 11 ff ad 3b ed 75 fb 3b 0c 1d b0 bd 7a c9 82 bd
       0.0053099473 0.00767397 -0.0859929 -0.06386085
000350 58 e0 4b be c1 ef 38 bd 4f 54 5e bd c0 3d c5 3d
       -0.19909799 -0.045150522 -0.05427962 0.096309185
000360 cb d4 8b bb ea 78 00 be 39 66 49 bb a7 07 48 bc
       -0.0042673103 -0.12546125 -0.0030731095 -0.012208856
000370 38 1e d9 3c a8 bb ce bc 78 17 69 bd 09 c0 10 bc
       0.026503667 -0.025235966 -0.056907147 -0.008834847
000380 a0 46 9b bd d3 1a 8b bd 41 0b d8 3b bb cf a8 bd
       -0.0758183 -0.06792226 0.0065931384 -0.082427464
000390 02 79 56 3d b0 78 a5 bd d1 e7 c6 bc ce 2c 42 3c
       0.052361496 -0.0807966 -0.02428046 0.011851503
0003a0 60 60 dc bd b7 15 0c bb 88 a3 a4 3c 73 2f a7 bc
       -0.107605696 -0.0021375248 0.020097509 -0.020408368
0003b0 57 80 73 bd b7 80 95 bc 73 07 0f be 07 b4 70 bd
       -0.059448566 -0.018249853 -0.13967685 -0.058765437
0003c0 9a 0f 48 bd 97 81 65 bc 0b 6e 6d 3d e7 cf 65 bd
       -0.048843004 -0.014007947 0.057966273 -0.056106474
0003d0 98 ac f6 bd d3 2b 26 bd f7 72 cd bd ff ef da 3c
       -0.120446384 -0.040569138 -0.100316934 0.026725767
0003e0 8a af fd bc 20 9c 66 bd 40 1e e2 bd 02 44 81 3d
       -0.030967493 -0.056301236 -0.11040926 0.063117996
0003f0 f3 05 9a bd 33 5c bf bd d5 4c 8f bd 71 34 f2 bd
       -0.07520666 -0.093437575 -0.069970764 -0.11826409

bias f4 [64]
000000 8c e5 00 bd 82 b1 2a bd d7 4e 5d bd ba 7b f4 bc
       -0.031468913 -0.04167319 -0.054030266 -0.029844154
000010 82 ce 53 bd 79 9e 85 bd 49 9d 7a bd 8c 24 96 bd
       -0.051710613 -0.06524367 -0.061185155 -0.073311895
000020 a8 92 9c bc b7 34 74 bd 76 76 81 bd 3e 23 a5 bb
       -0.0191129 -0.059620585 -0.06321423 -0.0050396016
000030 55 66 ca bd cf d0 6a bd c7 34 d0 bc 30 f3 06 bd
       -0.098827995 -0.05732804 -0.025415791 -0.032946765
000040 61 0a 87 bd 59 51 8e bd 72 04 cc bc 02 b1 2b bd
       -0.065937765 -0.069491096 -0.024904463 -0.041916855
000050 81 ca 87 bd 31 95 a7 bd 66 cc b6 bd 22 02 28 bd
       -0.066304214 -0.08182753 -0.08925705 -0.04101766
000060 e7 e2 70 bd db a7 8d bc e9 64 a0 bd c8 fe 27 bd
       -0.05881014 -0.017291954 -0.07831747 -0.041014463
000070 4a 7c 65 bd de 76 c2 3d 91 0a b7 bd ca 11 9d bd
       -0.056026734 0.09495328 -0.08937562 -0.076694086
000080 db e6 42 bd 0f f8 2e bd 2e f6 f6 bc f8 5c c1 bd
       -0.047583442 -0.042717036 -0.030146684 -0.094415605
000090 8d cc 1b bd 87 18 ba bd a7 9a ca bd 0d 03 c1 bd
       -0.03803687 -0.090867095 -0.09892779 -0.0942441
0000a0 10 b2 25 bc 6c 07 99 bd de b5 19 bd c2 b9 42 bd
       -0.010113254 -0.07472119 -0.037526958 -0.047540434
0000b0 e4 bc ba bd a7 42 a0 bd b4 1e 8d bd c5 76 61 bd
       -0.09118059 -0.07825213 -0.06890622 -0.055044908
0000c0 3a 58 88 bd 60 25 90 bd c5 c3 40 bd 2f 6a 0d bd
       -0.06657453 -0.07038379 -0.0470617 -0.034525093
0000d0 ce e9 60 bd 2f 43 6d bd 86 89 a4 bd 0f 9a 05 bd
       -0.054910474 -0.0579254 -0.08034043 -0.032617625
0000e0 ad 11 6c bd ce 0e 19 bd fe 49 d7 3c 5e 31 41 3d
       -0.057634044 -0.037367634 0.0262804 0.04716622
0000f0 4e 7a ae bd a5 8a 26 bc aa 39 6c bd a4 e6 a0 bd
       -0.085194215 -0.010164891 -0.05767218 -0.07856491

weight f4 [32, 64, 3, 3]
000000 a6 ba cf 3d b7 99 87 3d 5e 30 e4 bc bf d8 dd bc
       0.10143022 0.06621116 -0.027855095 -0.027080892
000010 65 17 4e 3e 31 99 05 bd c8 e9 08 3e ac ff 93 3d
       0.20126112 -0.032616798 0.1337043 0.072265
000020 b3 c5 c8 3d 9a 77 97 3d 3f b7 41 3d 7a 7f 04 3d
       0.09803333 0.07395859 0.047293898 0.032348134
000030 14 fc 05 3d 23 6d 23 3e e5 8b 3c 3d a7 7d 2b 3e
       0.032711104 0.15959601 0.04603185 0.16747151
000040 b9 82 b0 3c 2e 3b a2 3d 5a 9b 0e 3e 0b 3e e8 3d
       0.021546708 0.07921444 0.1392645 0.11339959
000050 6d 3f 02 3e a9 4c 44 3d 30 79 56 3d 7a 37 b9 3d
       0.12719508 0.04792467 0.052361667 0.090437844
000060 b1 a0 b7 3d 1e 71 e9 3d 51 60 cd 3d 80 7c a3 bd
       0.08966196 0.113985285 0.100281365 -0.07982731
000070 2d 58 3c be 31 1e 38 bd f1 38 ab bd 85 d9 43 3d
       -0.18393011 -0.044950668 -0.0836047 0.047814865
000080 af cf 19 3c 5b 40 22 bc c7 2a a2 bd f2 e7 80 3d
       0.0093878945 -0.009903039 -0.079183154 0.0629424
000090 4f a5 2d 3d 2e b7 8a bd 03 8b 89 bd 59 a1 0a 3c
       0.04239398 -0.0677322 -0.067159675 0.00846132
0000a0 03 d2 7f bd 22 b4 e5 bd 81 c4 e0 bc fe 89 ed bc
       -0.062456142 -0.11215998 -0.02743745 -0.028996464
0000b0 23 8d e4 3c 33 e5 87 3d 8c 77 a8 3c 0b be da bc
       0.02789933 0.06635513 0.020564817 -0.026701948
0000c0 6c 69 f0 3d d5 12 a5 3b 64 6f ec 3d 8b 8a 40 3e
       0.117388576 0.0050376453 0.115446836 0.1880285
0000d0 ab 5b 67 3d cc 76 02 3c 7d 64 9e bd 6c c8 34 bd
       0.056483906 0.007962894 -0.0773401 -0.04413645
0000e0 32 10 95 bd 13 74 df bc 42 90 ef bd bf ca 29 bc
       -0.0727848 -0.027277028 -0.11697437 -0.01036328
0000f0 79 66 5d bc c2 c3 35 bd 07 30 ad bd e3 a2 8a 3c
       -0.013513201 -0.044376142 -0.08456426 0.016923374
000100 ed e9 9c bd 3e 5f 97 3d df 0a 94 bd 31 ea ff bb
       -0.07661805 0.07391213 -0.07228636 -0.0078099
000110 34 d2 94 bd f8 2a b8 bd 91 77 b8 bc 4f 97 1a be
       -0.072666556 -0.08992571 -0.022517951 -0.15096782
000120 42 ac b5 bc ec 03 47 bd a7 ba 64 bd d2 61 99 3b
       -0.022176865 -0.048587725 -0.055842068 0.0046808505
000130 d2 a2 9e bc 89 91 88 3c 19 02 c3 bc b4 75 32 3d
       -0.019364748 0.01667096 -0.023804711 0.04356928
000140 84 e8 bb bd b5 92 35 bd 52 d9 63 3c 81 23 b8 3d
       -0.09175208 -0.044329364 0.013906794 0.08991147
000150 dc 27 98 bd bb a6 a8 bd 17 ef 35 3c bc e4 07 bd
       -0.074294776 -0.08234926 0.011104367 -0.033177122
000160 89 8b 24 3c 71 f3 43 bd 36 f5 d6 bc b3 d3 06 be
       0.010043033 -0.047839586 -0.026239973 -0.13166694
000170 f8 96 2d bd ba 40 ef bc f8 79 d3 bd 06 b4 c6 3b
       -0.042380303 -0.029205669 -0.10325998 0.006063941
000180 ff 5a 99 bd 18 d7 b8 bd f8 75 b8 bd be 33 b5 bd
       -0.07488059 -0.09025401 -0.09006876 -0.0884776
000190 eb e6 00 be fd 98 1d 3a 9c 72 3c bc 32 90 f6 bc
       -0.12588088 0.0006011872 -0.011501934 -0.030098055
0001a0 c9 35 4f bd 63 20 9e 3c 5f ec 66 bc 70 d1 1e 3c
       -0.050588403 0.019302553 -0.014094441 0.0096934885
0001b0 25 b8 98 3c df 31 ac bd 82 5f c6 bd 41 0c c1 bd
       0.018642494 -0.0840795 -0.096861854 -0.09426165
0001c0 c9 e5 2d be 44 6b 88 bd 26 a4 eb bd f1 3d 9c bd
       -0.16982187 -0.06661084 -0.11505918 -0.07629002
0001d0 50 63 a3 bc 18 95 fe ba ad 06 3d 3c 2f 47 1e bd
       -0.019944817 -0.0019423096 0.011537236 -0.038642105
0001e0 b8 ec b2 bd 41 33 cf bd 6e 6e 16 be 24 a8 c7 bc
       -0.08736557 -0.10117198 -0.14690563 -0.024372168
0001f0 6f d8 c8 bc b1 cd e6 bc 47 b6 c4 3d 2a 5d 78 3d
       -0.024517266 -0.028174253 0.09605079 0.060635723
000200 dc f4 8d 3d d5 11 8c bb d3 6b f5 3d 0a e8 b5 bc
       0.06931469 -0.0042745867 0.119834565 -0.022205371
000210 af d5 1a bd 51 ed b9 3d af 7e e0 bc b6 e7 21 3b
       -0.03780144 0.09078468 -0.027404157 0.002470476
000220 fe 3e ac 3c 2e ff 27 be 3b d1 e3 bc 58 81 86 bd
       0.02102613 -0.16405937 -0.02780973 -0.06567639
000230 71 46 d6 3c 92 0a a0 bc 7d 63 9c bd 5a 4b c4 bc
       0.026156636 -0.01953629 -0.076361634 -0.023961712
000240 a1 8e ce bd 9b 2d a6 3d c9 eb d0 bd 16 aa 4c bc
       -0.10085798 0.08114167 -0.102012224 -0.0124917235
000250 b4 d7 64 3d 73 6e c4 bc af f0 7c bd 57 96 bc bd
       0.055869773 -0.023978448 -0.06175297 -0.092083625
000260 08 30 42 bd 17 9d 21 bc 43 a0 d3 bd 52 da 1d 3d
       -0.047409087 -0.009864113 -0.10333302 0.038538285
000270 23 ec 82 bd 63 bf 28 bd c3 29 9c bd 8e 22 fa bc
       -0.06392696 -0.041198146 -0.07625153 -0.030534055
000280 b6 30 93 bc b3 21 cd bd c6 3a 94 3c 7a 5a 1e bc
       -0.017967563 -0.10016193 0.018094432 -0.009665126
000290 d4 d1 c2 3d 89 c4 01 3e 00 5c 36 3c 1c 5f 0e 3d
       0.09512678 0.12672628 0.011130333 0.034758672
0002a0 7c 18 90 3d b8 cf ef bb 76 97 ad 3d ff 0e b1 3c
       0.0703592 -0.007318463 0.084761545 0.021613596
0002b0 ef b5 3d bc c8 86 6d bd e8 c7 a3 bd 28 08 95 bd
       -0.011579021 -0.057989866 -0.079971135 -0.07276946
0002c0 5b a2 a4 3b 69 76 27 be a3 28 a8 b9 51 4b a5 bc
       0.005024237 -0.16353764 -0.00032073734 -0.020177515
0002d0 e9 de 0e be 45 25 ee b9 ff 89 01 3d 16 8e d5 bd
       -0.13952221 -0.00045422665 0.031625744 -0.10427491
0002e0 4e 0a f0 bd 3f 8e df 3d ef a9 dd bc 4c df 78 bd
       -0.117207155 0.10915803 -0.02705857 -0.060759827
0002f0 02 1d 34 3d ab fd b8 bd ec 14 1f 3d da 24 e9 bd
       0.043972977 -0.09032758 0.038838312 -0.11383982
000300 dd 6c 3a bd 23 75 2f bd dc d1 0e 3e d8 96 72 3d
       -0.045513976 -0.04283632 0.13947242 0.059225887
000310 80 79 ca bd 91 7d d9 bd c7 84 0c 3e c6 c1 66 3d
       -0.098864555 -0.10619653 0.13722526 0.05633714
000320 6a 54 12 3e c7 9f 29 bd 53 f2 1c bd e7 31 0c 3e
       0.14290014 -0.04141214 -0.038317036 0.13690911
000330 00 48 8c 3d 2c f3 75 3d 6a bc a2 3b 27 63 d0 3b
       0.068496704 0.06004636 0.0049663084 0.006359476
000340 d0 9c 8a bd 67 c9 1c bd 5d 83 91 bd 84 f0 63 bd
       -0.06768191 -0.03827801 -0.07105134 -0.055649295
000350 22 65 c2 bc 79 45 96 bd da fd 39 bb 87 2c f5 bd
       -0.023729865 -0.073374696 -0.0028380067 -0.119713835
000360 1f 5b 85 bc a9 7a 64 3b 24 92 a2 bd ac cd 22 be
       -0.016278801 0.003486315 -0.0793803 -0.1589877
000370 af 86 64 bb 34 b5 6d bc be 41 d2 bd ad 5a c5 bd
       -0.0034870317 -0.014508534 -0.102664456 -0.09636436
000380 97 25 ae 3c 2c b3 e8 3c 0e 51 36 3d ba 90 ba bd
       0.021258159 0.028405748 0.044510894 -0.09109636
000390 05 47 09 be 41 ec 72 ba 92 6e 1d bd c4 04 b2 bb
       -0.13405998 -0.0009266772 -0.038435526 -0.005432697
0003a0 ab 47 02 be f1 2d 7a bd d0 16 f8 3d f3 7d 83 3d
       -0.12722652 -0.06107897 0.12113726 0.06420507
0003b0 7d 53 a8 bc ba 25 74 bd b6 6e 5a bb 40 0a 9f 3d
       -0.020547623 -0.05960629 -0.003333015 0.07765627
0003c0 48 9e 87 bb 20 c5 9b 3d b0 46 29 3d 43 94 d3 bd
       -0.0041387416 0.07605958 0.04132718 -0.10331013
0003d0 c1 d0 91 bd 2e e9 dc 3b d8 a7 c1 3b 5b 74 00 bd
       -0.07119895 0.0067416644 0.005909901 -0.031360965
0003e0 84 cf f9 bd c5 55 b3 bd b1 c4 b5 bc 3b ef f7 bd
       -0.121977836 -0.087565936 -0.022188516 -0.121061765
0003f0 47 52 3d bd 25 88 3a 3d 97 1d 48 3e 72 25 4a bc
       -0.046221044 0.045539994 0.19542538 -0.012338029

bias f4 [32]
000000 7a 44 aa bd f0 09 92 bc 7f c9 b0 bd 40 b6 3e 3e
       -0.08313842 -0.017827004 -0.08632182 0.1862421
000010 37 bf ac bd 96 e7 66 bd 06 27 53 bc c4 cf 3f bd
       -0.08434909 -0.0563732 -0.012887722 -0.046829
000020 48 69 cb bd 45 59 20 3e d6 06 0a 3e 8c c5 37 bd
       -0.0993219 0.15659054 0.1347917 -0.04486613
000030 63 e6 b1 bd bf e4 6c bd ef 05 18 bd 38 04 8e bd
       -0.08686521 -0.057835337 -0.037115034 -0.069343984
000040 55 96 c2 bc 76 9c e0 bd 39 b6 8c bd 39 4d cc bd
       -0.023753325 -0.109673426 -0.06870694 -0.099756666
000050 37 8a 37 3c 12 42 aa bd e9 34 b3 bd de 89 06 3e
       0.011202387 -0.08313383 -0.08750326 0.1313853
000060 36 03 9a bd 9f 3e 45 bd a8 ab a0 bd 95 83 12 bd
       -0.07520144 -0.048155423 -0.07845241 -0.035770018
000070 93 9c a1 bd d9 53 4a bd e8 5b 3d bd 8d 9a f3 3d
       -0.07891192 -0.04939637 -0.046230227 0.118947126

weight f4 [16, 32, 3, 3]
000000 b6 2b 4e 3d b7 45 66 bd d9 c8 ef bd 4c c0 6a 3c
       0.050334655 -0.05621883 -0.117082305 0.014328074
000010 1a be a1 bd 95 fa 0b be 62 39 43 be ae f8 38 3d
       -0.07897587 -0.13669808 -0.19064859 0.045159034
000020 ed 1a 06 be 71 06 7c 3d 9c 54 88 3d 03 ed 99 3d
       -0.13096209 0.06152958 0.06656763 0.075159095
000030 99 41 1c 3e 5e 32 96 3d 6d 9e 03 3d a9 aa 1c bd
       0.15259399 0.073338255 0.03213351 -0.03824869
000040 dc 4f 6e 3d 17 21 99 3d b1 1d 99 bd b8 d5 af 3c
       0.05818163 0.074770145 -0.07476366 0.021464214
000050 81 ce 83 3c 51 2b c8 bd 13 bc 0b bd 84 7f 7f 3d
       0.01608968 -0.09773887 -0.03411491 0.062377468
000060 0a a5 8d bc 9f 57 67 3d 0e c3 64 bd 5c 98 4d 3e
       -0.01729061 0.056480046 -0.05585008 0.20077652
000070 9d b0 7b 3e 5d f9 1a 3e 1c e4 fe 3d e7 fa ac 3e
       0.24579091 0.15134187 0.12445852 0.33785173
000080 59 02 dd 3d cd 6a 55 3e a4 d9 33 3e 79 3a 12 3d
       0.107914634 0.20841523 0.17563492 0.035700295
000090 6b 99 6f bd 26 8b db bb c3 28 1b be 0d 93 30 bc
       -0.05849592 -0.0066999374 -0.15152268 -0.010777247
0000a0 fb cf 8a bc e9 e5 6d bd ff c6 18 bd 6e b7 74 bd
       -0.016944876 -0.058080588 -0.037299152 -0.059745245
0000b0 7a 70 18 3d d9 81 37 bd 40 db fe bb c6 b9 21 bd
       0.03721664 -0.044801567 -0.0077776015 -0.039483808
0000c0 00 f3 b7 bc f5 d8 8b 3d ef 77 57 bd e9 95 42 3d
       -0.022454739 0.06828491 -0.052604612 0.047506247
0000d0 c1 83 4e 3d 60 e2 10 bd b6 75 e8 bd 4b 8a 2c 3e
       0.05041862 -0.035372138 -0.113505766 0.1684963
0000e0 98 51 e8 3c 69 92 73 bd e1 5c 98 3d 70 2c 9f 3d
       0.02835922 -0.0594658 0.0743959 0.07772148
0000f0 cd ad 37 bc ee e5 bc 3c 7a d9 2c be 4f 92 aa 3b
       -0.011210871 0.023058858 -0.16879836 0.0052054296
000100 2d c1 2c 3c 18 f1 89 3c fa 7c f4 bd 16 ec a1 bd
       0.010544104 0.016838595 -0.119379 -0.07906358
000110 d3 a1 69 bd 6c 09 e4 bd f0 ef c0 3c ba 25 08 bd
       -0.057039093 -0.111346096 0.023551911 -0.033239104
000120 02 39 b9 3c af 90 fb 3c 57 f5 a9 bc 01 3d a6 3d
       0.022610191 0.030708639 -0.02074687 0.08117104
000130 9a 46 8f 3d 47 dd cb 3c 77 ff a4 3d ba c8 12 be
       0.06995888 0.024885787 0.080565386 -0.14334384
000140 76 d5 73 bd 63 e5 df 3d d3 d2 ad 3d f2 29 8b 3d
       -0.059529744 0.10932424 0.08487477 0.0679511
000150 cb 27 c8 3c 9f e2 3a 3e 48 0b 6a 3e c6 89 e0 3d
       0.024433037 0.18250512 0.22855866 0.10963778
000160 a9 29 04 bd 6c 37 ac 3c 68 e5 19 3e c9 b8 87 3e
       -0.032266293 0.021022521 0.15028918 0.26508167
000170 f7 9e 06 3e 81 be 47 3e 2e 83 12 3e cb 19 ce 3d
       0.13146578 0.19506265 0.14307854 0.10063513
000180 4c e6 15 3e 63 3a 19 3e 21 43 52 3d a9 cb de 3d
       0.14638633 0.14963679 0.05133355 0.10878689
000190 f2 44 0f bd e6 24 e3 3c 10 25 b5 3d 7c f6 44 bc
       -0.03497786 0.027727555 0.0884496 -0.012021657
0001a0 d7 e9 60 bd b2 d4 a0 3d ae a9 a2 3d 3e 78 9e 3c
       -0.054910507 0.078530684 0.0794252 0.019344445
0001b0 cd ac 55 3d 8f af c2 3d c2 f7 10 bd 70 06 ef 3d
       0.05216675 0.095061414 -0.03539253 0.1167115
0001c0 7c e9 23 39 72 a0 7b bd 2d cc 16 3d a1 7a 0c 3e
       0.00015631871 -0.06143231 0.03681581 0.13718654
0001d0 fe 67 89 3d e9 09 89 bd c3 76 6a 3b c4 4d 55 3d
       0.06709288 -0.06691343 0.0035776354 0.052076116
0001e0 73 e0 97 bd 26 63 2d be fd b9 06 be 6a 87 ba bd
       -0.07415857 -0.16932353 -0.13156886 -0.091078594
0001f0 38 f5 c1 bd 25 0c 3a 3c 7b b2 8f 3b 98 4e 98 bd
       -0.094706 0.011355435 0.00438529 -0.074368656
000200 ba 67 60 3b 04 d3 7e bd f2 fa 0f bd 8b f8 fb 3c
       0.0034241513 -0.06221296 -0.03515143 0.030758163
000210 c7 5b 2c 3d 81 81 32 bd 01 03 fd bd 7e 24 04 3d
       0.042079713 -0.043580536 -0.123540886 0.032261364
000220 33 ad fa 3d 50 31 4c 3d 14 fd 0d 3d e7 ad cf 3d
       0.122400664 0.049851716 0.034665182 0.10140591
000230 9f 24 d3 3d b3 54 90 3d 51 e4 ce 3d cd 1e 0d 3e
       0.10309719 0.07047405 0.10102142 0.13781281
000240 04 12 90 3c 31 7d ba bc e0 86 2a bd 2c 2c ef bd
       0.017586716 -0.022764774 -0.041632533 -0.11678347
000250 e1 32 97 3d 0a 77 df bd 33 9f 84 bc 0a 47 89 3d
       0.07382751 -0.10911377 -0.016189193 0.06703003
000260 6e 4c 9d bd 48 24 d0 3c 6d 78 db bc 45 da 95 3b
       -0.076805934 0.025407925 -0.026790822 0.004573139
000270 36 40 c1 3d 70 55 3e 3d ba 9c 71 3d 3b 77 64 3d
       0.094360754 0.0464682 0.058987357 0.05577777
000280 ba 27 11 3d 05 95 35 3d 20 ac 21 bc 1c 0f 25 3d
       0.035438277 0.04433157 -0.009867698 0.040297613
000290 91 f8 ef bd dd 5f 68 bd d6 86 62 3b ae 33 22 bd
       -0.11717332 -0.056732047 0.0034565232 -0.039600067
0002a0 1e 5b 2d 3d d2 81 1b bd 59 9f 31 3c dc 48 8a 3d
       0.042323224 -0.037965603 0.010841214 0.06752178
0002b0 6d d2 39 bd 31 d6 40 bd 92 11 1d 3e d3 c8 37 bd
       -0.045366693 -0.04707927 0.15338734 -0.044869255
0002c0 a9 7a 9d 3c 2e 70 87 3b 72 ec 95 bd cc 50 ac bd
       0.019223528 0.004133246 -0.07320489 -0.08413848
0002d0 65 8b 2f bd 7b 36 0b bd 00 84 94 bd e0 76 f8 3e
       -0.042857546 -0.033987503 -0.072517395 0.48528194
0002e0 66 28 ed 3e d6 22 0c 3f da f5 cc 3d f4 48 6a 3d
       0.46319884 0.54740655 0.1000783 0.05719848
0002f0 0b c8 94 3d 96 ec c6 bd ad 35 37 bd e0 6a 79 bd
       0.07264718 -0.09713094 -0.044728924 -0.06089294
000300 32 85 8d 3d 8b c9 36 bd 4c 3d d1 bd 90 5e fe bd
       0.069101706 -0.0446258 -0.102167696 -0.1242038
000310 f6 81 ec bd e9 0b 7d bd 2e 5c a3 3d 7a 51 6d 3d
       -0.115482256 -0.061778937 0.07976566 0.05793903
000320 75 7c 99 bd 5d 15 9e bc c7 bf c8 bc 9b 9a d7 3c
       -0.074944414 -0.019297296 -0.024505509 0.026318839
000330 37 9d 82 3d 9e db d0 3c 71 16 c2 bd 8b cf fb 3d
       0.063776426 0.025495347 -0.094769366 0.12295445
000340 37 56 fd 3d d0 38 2c 3e b4 8f 34 3e 95 e4 fb 3d
       0.1236996 0.16818547 0.17632943 0.12299458
000350 b3 29 39 3e 74 70 21 3e f9 92 f9 3d 12 f3 89 3d
       0.18082313 0.15765554 0.12186236 0.06735815
000360 aa 2d c3 3d b4 19 1b 3d 13 da 8d bc ee f0 64 3c
       0.09530194 0.03786631 -0.0173159 0.013973458
000370 e7 cf 11 bd 5b c1 19 3e 28 e2 cc bc b2 eb 66 3e
       -0.03559866 0.15015166 -0.025010183 0.22550848
000380 78 b2 04 bd 0a 05 3d 3c fd af 33 3d 8b 78 b3 3d
       -0.032396764 0.011536846 0.043869007 0.08763226
000390 f3 7b 23 b8 18 07 9d 3d 9e 2d 0a bd 42 b7 b0 3d
       -3.8977665e-05 0.07667369 -0.03373491 0.08628704
0003a0 ae d1 fe 3c e5 14 54 3e b7 2a 23 3e dd 98 1e 3e
       0.031105842 0.20711096 0.15934263 0.15488
0003b0 30 f6 ea ba 76 2b 2e 3d 77 3b a8 3d e1 cb 02 bb
       -0.0017926153 0.042521916 0.08214467 -0.0019957947
0003c0 a3 87 cc 3d fc 92 7a 3d 77 a2 1b 3d 50 2b d0 bc
       0.09986808 0.06117533 0.037996735 -0.025411278
0003d0 f4 fb 83 3c 5b 98 07 be c5 0f d3 bc 6c f4 21 bd
       0.016111352 -0.13241713 -0.025764355 -0.03953974
0003e0 39 d3 47 be b2 ae 3e bd e3 0d ea bc ff 4c 37 be
       -0.19514169 -0.04655332 -0.028571075 -0.17900465
0003f0 fb 3b 3b be ff 79 3e bd 80 33 73 3c b3 51 61 bd
       -0.182846 -0.046503063 0.0148438215 -0.055009555

bias f4 [16]
000000 fb 6a f6 3a 08 f0 12 3d ea 9b 1a 3d 10 1b 6b 3d
       0.0018800193 0.035873443 0.037746347 0.057398856
000010 88 13 a4 3c 65 c0 9b bc 1a c0 a3 bb 89 61 ca 3d
       0.020028844 -0.01901264 -0.0049972655 0.098818846
000020 89 57 71 3d b4 ca 17 3d 82 c9 75 3d 1e 3f 0f bb
       0.05892137 0.037058547 0.060006626 -0.002185769
000030 ad 67 87 3d 1b de 87 3d c0 16 71 3d a3 a7 3f 3d
       0.066115715 0.0663416 0.058859587 0.04679073
