super_resolution/checkpoint_scale4/model_epoch_24.pth (torch_old, 260873 bytes, 8 tensors)

weight f4 [64, 1, 5, 5]
-0.0863478 -0.27176222 -0.30852878 -0.006408428 -0.1236043 -0.0005555902 0.2670595 -0.23677146
0.15942611 -0.19367057 -0.25672996 -0.46580863 -0.2158811 0.0007155325 -0.48178703 -0.092089646
-0.10222844 0.14136843 0.14441723 -0.03904928 -0.19283727 -0.26418188 -0.23508063 0.051091492
-0.1702662 -0.046745654 0.14345515 -0.19281977 -0.1228188 -0.16802341 -0.08242505 0.08948805
-0.16164953 -0.23044845 -0.16327396 -0.17397189 0.094668895 -0.2347048 -0.13037747 0.035855684
0.053082153 -0.41614148 -0.16504551 -0.21656941 0.23765685 -0.023442488 0.013811578 -0.029523127
-0.07771144 -0.42242587 0.116968326 -0.32995734 -0.008096689 0.23246244 -0.0010097174 -0.18115987
-0.019658161 -0.067838594 0.034921564 -0.29557785 -0.123867616 -0.27961707 -0.025227066 -0.043187816
-0.008229317 -0.31512433 -0.0021378263 0.013399828 -0.09728548 0.008026821 0.0041772607 -0.005583809
0.013047316 -0.122781895 0.16571489 -0.32378754 0.11725691 -0.22073434 -0.25098345 -0.27146405
0.006253174 -0.24935366 -0.07300501 0.085961565 -0.19895437 -0.03676489 -0.056538176 0.049278636
-0.019162128 -0.07414909 -0.22238542 0.10309315 0.35098818 0.029422669 -0.10274643 0.035320904
0.118589185 0.02859792 0.036933266 -0.37452647 -0.33451015 0.12621416 -0.022657238 -0.22341424
-0.0675863 0.18936661 -0.13161081 -0.14321147 0.1325651 -0.0038314865 -0.029225318 0.09937315
0.07558004 0.09296688 -0.029805152 0.24851468 0.0675557 0.11899285 0.1118039 -0.289939
-0.0027999524 0.16197698 0.06561788 -0.29980004 -0.13619445 0.008465059 -0.08372477 -0.21525747
-0.32748932 0.3788652 0.21538946 0.1510633 -0.17035183 -0.012918196 0.0030542642 0.022794731
-0.08687035 -0.1698065 -0.06636922 -0.0091897 -0.17949018 0.18833046 0.015817909 -0.22661403
-0.2716707 -0.15606181 0.011541074 -0.1567865 -0.114101216 -0.110761456 -0.24750997 -0.38475809
0.00063058804 -0.14996967 -0.23042643 0.19077802 -0.1895432 -0.20728004 -0.21836698 0.0404596
-0.24227093 -0.08916198 -0.053046986 -0.081466034 -0.26592025 -0.31336278 -0.1392716 -0.0050084875
-0.16884153 -0.124663986 -0.25432348 0.15527232 -0.22589475 -0.21689369 -0.15283865 -0.14992043
0.12291363 0.07836157 -0.22314943 -0.22337653 -0.11486363 0.12975152 0.17980604 -0.31808615
-0.40114895 -0.048007775 -0.05843033 -0.050555803 -0.23782289 -0.19740719 -0.19348122 -0.026918298
-0.06568998 -0.28123844 -0.2251883 -0.02612135 -0.029445883 0.00475489 0.17588161 0.14580072
0.1722248 0.014255262 -0.0456434 -0.44958988 0.0093466025 0.12154694 -0.071252495 0.037624467
0.12420957 -0.131037 0.31788337 -0.1582578 -0.19002657 -0.007172537 0.17858648 -0.29775944
0.13065787 0.07329265 -0.044163704 0.012117236 -0.12949872 0.045459967 -0.24797042 -0.1857483
0.015235512 0.01049655 0.08682504 -0.03712537 0.12532955 0.09531376 0.00014469858 0.04385491
0.08680021 -0.027115535 -0.0912644 -0.24563965 -0.13274457 0.06550235 -0.17209055 -0.32908764
-0.29805624 -0.24942021 -0.29222015 -0.15326954 0.038482625 0.12314595 -0.04714894 0.29902142
-0.32253253 -0.054409932 -0.17721824 0.19172935 -0.070099145 0.16821976 0.033083547 0.29288864
00000000: 1ed7 b0bd 6b24 8bbe 7cf7 9dbe cafd d1bb
00000010: 4024 fdbd 07a5 11ba 06bc 883e 3874 72be
00000020: 9940 233e 9451 46be 1c72 83be 787e eebe
00000030: ef0f 5dbe 9392 3b3a caac f6be 7f99 bcbd
00000040: 255d d1bd e3c2 103e 1ce2 133e 23f2 1fbd
00000050: 2277 45be d942 87be fab8 70be 5045 513d
00000060: 435a 2ebe 5f78 3fbd e8e5 123e 8c72 45be
00000070: 6c88 fbbd 540e 2cbe 77ce a8bd 8345 b73d
00000080: 7487 25be aefa 6bbe 4a31 27be b025 32be
00000090: c4e1 c13d 7556 70be ac81 05be 69dd 123d
000000a0: ac6c 593d 7f10 d5be b101 29be 5fc4 5dbe
000000b0: 515c 733e 760a c0bc f549 623c 7cda f1bc
000000c0: 2d27 9fbd 3448 d8be 178d ef3d 2bf0 a8be
000000d0: faa7 04bc a20a 6e3e 7e58 84ba f981 39be
000000e0: 270a a1bc f6ee 8abd ea09 0f3d fb55 97be
000000f0: 4eae fdbd f829 8fbe fea8 cebc b5e5 30bd
00000100: 42d4 06bc fa57 a1be c61a 0cbb f48a 5b3c
00000110: 9c3d c7bd ed82 033c 67e1 883b 63f8 b6bb
00000120: 69c4 553c 1375 fbbd 2ab1 293e 7bc7 a5be
00000130: 6424 f03d 2f08 62be e780 80be 56fd 8abe
00000140: 6de7 cc3b 9156 7fbe a783 95bd 9e0c b03d
00000150: b2ba 4bbe c896 16bd 9394 67bd 65d8 493d
00000160: e5f9 9cbc 7adb 97bd 01b9 63be 8022 d33d
00000170: b9b4 b33e cf07 f13c b86c d2bd a7ac 103d
00000180: e3de f23d 2f46 ea3c 5647 173d efc1 bfbe
00000190: ea44 abbe 493e 013e ac9b b9bc b4c6 64be
000001a0: b06a 8abd 52e9 413e fcc4 06be 07a6 12be
000001b0: 25bf 073e ad19 7bbb ef69 efbc 2684 cb3d
000001c0: b5c9 9a3d 6b65 be3d ef29 f4bc a27a 7e3e
000001d0: a55a 8a3d 86b2 f33d 71f9 e43d e272 94be
000001e0: 687f 37bb 4bdd 253e ab62 863d 647f 99be
000001f0: 8f76 0bbe 08b1 0a3c e477 abbd 746c 5cbe
00000200: aeac a7be 9ffa c13e 0e8f 5c3e 56b0 1a3e
00000210: b670 2ebe d7a6 53bc 0d2a 483b 04bc ba3c
00000220: 15e9 b1bd c1e1 2dbe 96ec 87bd 6590 16bc
00000230: 46cc 37be b3d9 403e 8f94 813c 820d 68be
00000240: 6c18 8bbe abce 1fbe c616 3d3c a48c 20be
00000250: e6ad e9bd e7d6 e2bd 4173 7dbe 03ff c4be
00000260: 0c4e 253a a691 19be e8f4 6bbe 505b 433e
00000270: 9d17 42be 3841 54be 989b 5fbe f7b8 253d
00000280: df15 78be 8e9a b6bd cc47 59bd aad7 a6bd
00000290: b326 88be 1671 a0be 379d 0ebe 3d1e a4bb
000002a0: cbe4 2cbe d54f ffbd b036 82be b5ff 1e3e
000002b0: f450 67be 6119 5ebe bc81 1cbe be84 19be
000002c0: 24ba fb3d 087c a03d 4981 64be d1bc 64be
000002d0: 9f3d ebbd 95dd 043e 131f 383e 30dc a2be
000002e0: 6563 cdbe cda3 44bd a454 6fbd 9a13 4fbd
000002f0: d887 73be 1c25 4abe f11f 46be c383 dcbc
00000300: 7888 86bd 7cfe 8fbe c397 66be 71fc d5bc
00000310: 7e38 f1bc e9ce 9b3b 4f1a 343e c94c 153e
00000320: b35b 303e e78e 693c 93f4 3abd a530 e6be
00000330: 7e22 193c 9aed f83d d4ec 91bd 1d1c 1a3d
00000340: 9661 fe3d 902e 06be 9cc1 a23e 550e 22be
00000350: 5396 42be 9a07 ebbb 60df 363e ed73 98be
00000360: 2dcb 053e 751a 963d 00e5 34bd 5f87 463c
00000370: 509b 04be 3b34 3a3d f5eb 7dbe cd34 3ebe
00000380: 5e9e 793c b9f9 2b3c 54d1 b13d c610 18bd
00000390: 6456 003e dc33 c33d 3bba 1739 35a1 333d
000003a0: 4fc4 b13d 6621 debc d4e8 babd f688 7bbe
000003b0: 31ee 07be 1926 863d 8138 30be 2d7e a8be
000003c0: d49a 98be 0368 7fbe e19d 95be b1f2 1cbe
000003d0: f59f 1d3d f233 fc3d 3f1f 41bd 5619 993e
000003e0: fc22 a5be f3dc 5ebd b378 35be b354 443e
000003f0: 2490 8fbd cd41 2c3e 9d82 073d 80f5 953e

bias f4 [64]
0.06381233 0.027592681 -0.21365163 -0.055650584 -0.11963714 0.040319942 0.06434857 -0.01676757
-0.23033528 -0.22377266 0.10305219 -0.09194457 -0.062720194 -0.13517189 -0.1905983 0.05446869
-0.05083409 -0.011157255 -0.210052 0.107094266 0.082371265 0.15478998 0.088296965 0.04193224
-0.02181012 -0.21424457 -0.19024754 -0.06295209 0.072516695 -0.06232309 0.037561 -0.05341782
-0.079959325 -0.027317293 -0.06525633 -0.16267093 -0.11649809 0.11264477 0.07179337 -0.095455885
-0.19180766 0.3805419 -0.11671696 -0.03675489 -0.0013985268 -0.047017016 -0.10458372 0.10351493
0.06991001 -0.23849493 -0.18601888 -0.057423744 0.037523862 0.036399156 -0.09722819 -0.20875056
0.13149042 -0.19345866 -0.14016318 0.15258078 0.029359112 0.044355366 -0.16414742 -0.16915493
00000000: 0ab0 823d 0c0a e23c 7ec7 5abe def1 63bd
00000010: 5104 f5bd 8626 253d 2fc9 833d 255c 89bc
00000020: 03dd 6bbe a924 65be 070d d33d 6f4d bcbd
00000030: 7273 80bd 806a 0abe 332c 43be 901a 5f3d
00000040: 6837 50bd ebcc 36bc df17 57be 3d54 db3d
00000050: 44b2 a83d 4481 1e3e 0ad5 b43d 24c1 2b3d
00000060: 23ab b2bc ee62 5bbe 40d0 42be 06ed 80bd
00000070: a283 943d 7f46 7fbd 90d9 193d a5cc 5abd
00000080: b7c1 a3bd 84c8 dfbc 1ca5 85bd 3593 26be
00000090: 8d96 eebd 4db2 e63d 6708 933d 607e c3bd
000000a0: 3a69 44be 63d6 c23e 4d09 efbd 4c8c 16bd
000000b0: c64e b7ba ea94 40bd fd2f d6bd a3ff d33d
000000c0: fb2c 8f3d 0438 74be bc7b 3ebe 2935 6bbd
000000d0: 9fb2 193d 4817 153d 931f c7bd b5c2 55be
000000e0: 6da5 063e 071a 46be f086 0fbe 233e 1c3e
000000f0: 8582 f03c f9ad 353d 4316 28be f336 2dbe

weight f4 [64, 64, 3, 3]
-0.050523706 -0.011043206 -0.14825003 0.013558575 -0.004465811 0.052478462 0.022555277 0.035745323
-0.08981977 -0.116464384 -0.14367078 -0.0124541875 0.023943346 -0.06815155 0.08711607 -0.07918108
0.022537762 0.004777327 -0.08252816 -0.071911685 -0.08042763 -0.08335732 -0.055927373 0.010166635
-1.6681307e-06 -0.043179456 -0.013193306 -0.055481344 -0.00783498 -0.1221194 -0.09775792 -0.21292041
-0.026303552 -0.04585685 -0.064341776 -0.027177548 -0.03715758 -0.068438545 -0.027041497 -0.098258264
-0.098745495 0.0608074 -0.03883868 -0.08566417 -0.052369572 -0.049909934 -0.09308775 0.0058255233
-0.09431001 -0.07595598 -0.022186443 -0.15913619 -0.114524424 -0.17472212 -0.07048264 -0.083712526
0.0018873921 -0.057046566 -0.011588207 0.05564337 -0.17480342 -0.042728417 -0.007846464 -0.06878278
0.021466598 -0.07846957 -0.013198675 0.009247813 -0.116828024 -0.06625554 -0.05143402 -0.103372306
0.028141348 -0.05558656 -0.043602463 0.00368602 -0.09013454 -0.05106337 -0.09692579 -0.09778476
-0.16304219 -0.11773251 -0.023577923 -0.05727251 0.020366283 -0.030382948 -0.009773468 -0.077045105
-0.09607836 -0.09063681 -0.043865226 -0.10300045 -0.022227367 -0.08482056 0.034377705 -0.0705869
-0.09957458 -0.019954246 -0.045959815 0.020867426 0.08715356 0.085551076 -0.08765934 -0.048060562
0.045492742 0.068836115 -0.11355846 0.060155135 -0.16281189 -0.12397215 0.06640427 0.007817757
0.006049558 -0.0797761 -0.023471741 -0.15775545 -0.0916592 -0.063754894 -0.045014136 -0.14698268
-0.12075331 -0.088316716 -0.08804477 -0.018910863 -0.10523343 -0.15135182 -0.02215238 -0.029021783
0.025294844 -0.0071431287 -0.060586657 0.035035923 -0.045046683 -0.13260491 -0.007606056 -0.008054518
0.059691954 0.0030532242 0.09998193 -0.1183575 -0.050460353 -0.0038256806 -0.080547474 -0.12035457
-0.07184062 0.013668467 -0.06265348 0.021664357 -0.045213655 0.0017362611 -0.106822856 0.046980552
-0.02671484 -0.12463216 -0.020092908 -0.19527856 -0.065826535 -0.030977754 0.03176005 -0.030925281
0.0073227193 -0.10020843 0.021739338 0.0075956434 0.050077148 -0.103410564 0.111709766 0.019285522
0.056371547 0.034844004 0.071676195 -0.021773193 0.015080511 -0.11984336 -0.054001056 -0.038571987
-0.034799594 -0.05171433 0.06629948 -0.090638466 0.071203195 -0.04985303 -0.11604257 0.0082770735
-0.08574841 -0.119003765 -0.025854 -0.065314636 0.04655079 -0.07536067 -0.06809671 -0.109259605
-0.02723385 0.06305133 -0.09339224 -0.09500488 -0.16731162 -0.101161435 -0.05499877 0.02314567
-0.08841459 -0.060562298 -0.076280825 -0.079066455 0.0011829543 -0.15092148 0.024525749 0.034149196
0.0053099473 0.00767397 -0.0859929 -0.06386085 -0.19909799 -0.045150522 -0.05427962 0.096309185
-0.0042673103 -0.12546125 -0.0030731095 -0.012208856 0.026503667 -0.025235966 -0.056907147 -0.008834847
-0.0758183 -0.06792226 0.0065931384 -0.082427464 0.052361496 -0.0807966 -0.02428046 0.011851503
-0.107605696 -0.0021375248 0.020097509 -0.020408368 -0.059448566 -0.018249853 -0.13967685 -0.058765437
-0.048843004 -0.014007947 0.057966273 -0.056106474 -0.120446384 -0.040569138 -0.100316934 0.026725767
-0.030967493 -0.056301236 -0.11040926 0.063117996 -0.07520666 -0.093437575 -0.069970764 -0.11826409
00000000: f2f1 4ebd 90ee 34bc dbce 17be c924 5e3c
00000010: f055 92bb a8f3 563d d8c5 b83c b069 123d
00000020: 6df3 b7bd e184 eebd 6f1e 13be a60c 4cbc
00000030: d624 c43c 0a93 8bbd e969 b23d b129 a2bd
00000040: 1da1 b83c 208b 9c3b 8604 a9bd 6f46 93bd
00000050: 3eb7 a4bd 3eb7 aabd 1a14 65bd f591 263c
00000060: 89e4 dfb5 f1dc 30bd bc28 58bc 6840 63bd
00000070: 4a5e 00bc bc19 fabd 4e35 c8bd cf07 5abe
00000080: 8c7a d7bc 64d4 3bbd 9fc5 83bd 73a3 debc
00000090: 8c32 18bd 8229 8cbd 2186 ddbc a13b c9bd
000000a0: 143b cabd 2e11 793d 4f15 1fbd b270 afbd
000000b0: 7a81 56bd 5c6e 4cbd caa4 bebd 08e4 be3b
000000c0: 9b25 c1bd cf8e 9bbd 58c0 b5bc 99f4 22be
000000d0: c88b eabd 5bea 32be 3459 90bd 7971 abbd
000000e0: 5f62 f73a a9a9 69bd 77dc 3dbc 4dea 633d
000000f0: abff 32be fe03 2fbd 758e 00bc fcdd 8cbd
00000100: b8da af3c a7b4 a0bd 413f 58bc 2484 173c
00000110: 8843 efbd fcb0 87bd 7bac 52bd dcb4 d3bd
00000120: af88 e63c bcae 63bd 7f98 32bd 2791 713b
00000130: 7598 b8bd d327 51bd 0781 c6bd 6043 c8bd
00000140: 88f4 26be be1d f1bd 7d26 c1bc 9496 6abd
00000150: 31d7 a63c a9e5 f8bc e520 20bc d3c9 9dbd
00000160: bbc4 c4bd cb9f b9bd 06ac 33bd e6f1 d2bd
00000170: 2b16 b6bc 67b6 adbd a3cf 0c3d dd8f 90bd
00000180: c2ed cbbd 1677 a3bc 5c40 3cbd 2af2 aa3c
00000190: 917d b23d 6735 af3d bd86 b3bd 27db 44bd
000001a0: 9956 3a3d f3f9 8c3d 5691 e8bd 3b65 763d
000001b0: 29b8 26be 1ce5 fdbd f6fe 873d 0d16 003c
000001c0: 5f3b c63b a761 a3bd cf47 c0bc a58a 21be
000001d0: d2b7 bbbd ed91 82bd be60 38bd a182 16be
000001e0: 834d f7bd 65df b4bd d150 b4bd f4ea 9abc
000001f0: a084 d7bd f9fb 1abe e878 b5bc 17bf edbc
00000200: 2237 cf3c e810 eabb b729 78bd d481 0f3d
00000210: df82 38bd 95c9 07be 393c f9bb 19f7 03bc
00000220: 8d7f 743d 9a18 483b 53c3 cc3d 6b65 f2bd
00000230: 84af 4ebd 45b8 7abb 13f6 a4bd 757c f6bd
00000240: 2d21 93bd b5f1 5f3c 7850 80bd 7379 b13c
00000250: f431 39bd 4193 e33a f1c5 dabd ae6e 403d
00000260: 15d9 dabc 253f ffbd e299 a4bc 1af7 47be
00000270: 10d0 86bd 0fc5 fdbc d416 023d 0457 fdbc
00000280: 6cf3 ef3b 143a cdbd b216 b23c e0e4 f83b
00000290: b21d 4d3d ebc8 d3bd 17c8 e43d acfc 9d3c
000002a0: dae5 663d 96b8 0e3d f8ca 923d b25d b2bc
000002b0: 3f14 773c 6f70 f5bd 3630 5dbd a9fd 1dbd
000002c0: 058a 0ebd 68d2 53bd 06c8 873d a9a0 b9bd
000002d0: fbd2 913d b132 4cbd baa7 edbd 909c 073c
000002e0: dd9c afbd 3fb8 f3bd c5cb d3bc aec3 85bd
000002f0: 0bac 3e3d b256 9abd 4a76 8bbd 80c3 dfbd
00000300: 8619 dfbc 0e21 813d 6e44 bfbd eb91 c2bd
00000310: bd53 2bbe ba2d cfbd 6446 61bd fd9b bd3c
00000320: b512 b5bd 2c10 78bd 1f39 9cbd 98ed a1bd
00000330: 5c0d 9b3a 298b 1abe 39ea c83c 07e0 0b3d
00000340: 11ff ad3b ed75 fb3b 0c1d b0bd 7ac9 82bd
00000350: 58e0 4bbe c1ef 38bd 4f54 5ebd c03d c53d
00000360: cbd4 8bbb ea78 00be 3966 49bb a707 48bc
00000370: 381e d93c a8bb cebc 7817 69bd 09c0 10bc
00000380: a046 9bbd d31a 8bbd 410b d83b bbcf a8bd
00000390: 0279 563d b078 a5bd d1e7 c6bc ce2c 423c
000003a0: 6060 dcbd b715 0cbb 88a3 a43c 732f a7bc
000003b0: 5780 73bd b780 95bc 7307 0fbe 07b4 70bd
000003c0: 9a0f 48bd 9781 65bc 0b6e 6d3d e7cf 65bd
000003d0: 98ac f6bd d32b 26bd f772 cdbd ffef da3c
000003e0: 8aaf fdbc 209c 66bd 401e e2bd 0244 813d
000003f0: f305 9abd 335c bfbd d54c 8fbd 7134 f2bd

bias f4 [64]
-0.031468913 -0.04167319 -0.054030266 -0.029844154 -0.051710613 -0.06524367 -0.061185155 -0.073311895
-0.0191129 -0.059620585 -0.06321423 -0.0050396016 -0.098827995 -0.05732804 -0.025415791 -0.032946765
-0.065937765 -0.069491096 -0.024904463 -0.041916855 -0.066304214 -0.08182753 -0.08925705 -0.04101766
-0.05881014 -0.017291954 -0.07831747 -0.041014463 -0.056026734 0.09066923 -0.08937562 -0.076694086
-0.047583442 -0.042717036 -0.030146684 -0.094415605 -0.03803687 -0.090867095 -0.09892779 -0.0942441
-0.010113254 -0.07472119 -0.037526958 -0.047540434 -0.09118059 -0.07825213 -0.06890622 -0.055044908
-0.06657453 -0.07038379 -0.0470617 -0.034525093 -0.054910474 -0.0579254 -0.08034043 -0.032617625
-0.057634044 -0.037367634 0.0325592 0.05744965 -0.085194215 -0.010164891 -0.05767218 -0.07856491
00000000: 8ce5 00bd 82b1 2abd d74e 5dbd ba7b f4bc
00000010: 82ce 53bd 799e 85bd 499d 7abd 8c24 96bd
00000020: a892 9cbc b734 74bd 7676 81bd 3e23 a5bb
00000030: 5566 cabd cfd0 6abd c734 d0bc 30f3 06bd
00000040: 610a 87bd 5951 8ebd 7204 ccbc 02b1 2bbd
00000050: 81ca 87bd 3195 a7bd 66cc b6bd 2202 28bd
00000060: e7e2 70bd dba7 8dbc e964 a0bd c8fe 27bd
00000070: 4a7c 65bd cab0 b93d 910a b7bd ca11 9dbd
00000080: dbe6 42bd 0ff8 2ebd 2ef6 f6bc f85c c1bd
00000090: 8dcc 1bbd 8718 babd a79a cabd 0d03 c1bd
000000a0: 10b2 25bc 6c07 99bd deb5 19bd c2b9 42bd
000000b0: e4bc babd a742 a0bd b41e 8dbd c576 61bd
000000c0: 3a58 88bd 6025 90bd c5c3 40bd 2f6a 0dbd
000000d0: cee9 60bd 2f43 6dbd 8689 a4bd 0f9a 05bd
000000e0: ad11 6cbd ce0e 19bd cc5c 053d 5350 6b3d
000000f0: 4e7a aebd a58a 26bc aa39 6cbd a4e6 a0bd

weight f4 [32, 64, 3, 3]
0.10143022 0.06621116 -0.027855095 -0.027080892 0.20126112 -0.032616798 0.1337043 0.072265
0.09803333 0.07395859 0.047293898 0.032348134 0.032711104 0.15959601 0.04603185 0.16747151
0.021546708 0.07921444 0.1392645 0.11339959 0.12719508 0.04792467 0.052361667 0.090437844
0.08966196 0.113985285 0.100281365 -0.07982731 -0.18393011 -0.044950668 -0.0836047 0.047814865
0.0093878945 -0.009903039 -0.079183154 0.0629424 0.04239398 -0.0677322 -0.067159675 0.00846132
-0.062456142 -0.11215998 -0.02743745 -0.028996464 0.02789933 0.06635513 0.020564817 -0.026701948
0.117388576 0.0050376453 0.115446836 0.1880285 0.056483906 0.007962894 -0.0773401 -0.04413645
-0.0727848 -0.027277028 -0.11697437 -0.01036328 -0.013513201 -0.044376142 -0.08456426 0.016923374
-0.07661805 0.07391213 -0.07228636 -0.0078099 -0.072666556 -0.08992571 -0.022517951 -0.15096782
-0.022176865 -0.048587725 -0.055842068 0.0046808505 -0.019364748 0.01667096 -0.023804711 0.04356928
-0.09175208 -0.044329364 0.013906794 0.08991147 -0.074294776 -0.08234926 0.011104367 -0.033177122
0.010043033 -0.047839586 -0.026239973 -0.13166694 -0.042380303 -0.029205669 -0.10325998 0.006063941
-0.07488059 -0.09025401 -0.09006876 -0.0884776 -0.12588088 0.0006011872 -0.011501934 -0.030098055
-0.050588403 0.019302553 -0.014094441 0.0096934885 0.018642494 -0.0840795 -0.096861854 -0.09426165
-0.16982187 -0.06661084 -0.11505918 -0.07629002 -0.019944817 -0.0019423096 0.011537236 -0.038642105
-0.08736557 -0.10117198 -0.14690563 -0.024372168 -0.024517266 -0.028174253 0.09605079 0.060635723
0.06931469 -0.0042745867 0.119834565 -0.022205371 -0.03780144 0.09078468 -0.027404157 0.002470476
0.02102613 -0.16405937 -0.02780973 -0.06567639 0.026156636 -0.01953629 -0.076361634 -0.023961712
-0.10085798 0.08114167 -0.102012224 -0.0124917235 0.055869773 -0.023978448 -0.06175297 -0.092083625
-0.047409087 -0.009864113 -0.10333302 0.038538285 -0.06392696 -0.041198146 -0.07625153 -0.030534055
-0.017967563 -0.10016193 0.018094432 -0.009665126 0.09512678 0.12672628 0.011130333 0.034758672
0.0703592 -0.007318463 0.084761545 0.021613596 -0.011579021 -0.057989866 -0.079971135 -0.07276946
0.005024237 -0.16353764 -0.00032073734 -0.020177515 -0.13952221 -0.00045422665 0.031625744 -0.10427491
-0.117207155 0.10915803 -0.02705857 -0.060759827 0.043972977 -0.09032758 0.038838312 -0.11383982
-0.045513976 -0.04283632 0.13947242 0.059225887 -0.098864555 -0.10619653 0.13722526 0.05633714
0.14290014 -0.04141214 -0.038317036 0.13690911 0.068496704 0.06004636 0.0049663084 0.006359476
-0.06768191 -0.03827801 -0.07105134 -0.055649295 -0.023729865 -0.073374696 -0.0028380067 -0.119713835
-0.016278801 0.003486315 -0.0793803 -0.1589877 -0.0034870317 -0.014508534 -0.102664456 -0.09636436
0.021258159 0.028405748 0.044510894 -0.09109636 -0.13405998 -0.0009266772 -0.038435526 -0.005432697
-0.12722652 -0.06107897 0.12113726 0.06420507 -0.020547623 -0.05960629 -0.003333015 0.07765627
-0.0041387416 0.07605958 0.04132718 -0.10331013 -0.07119895 0.0067416644 0.005909901 -0.031360965
-0.121977836 -0.087565936 -0.022188516 -0.121061765 -0.046221044 0.045539994 0.19542538 -0.012338029
00000000: a6ba cf3d b799 873d 5e30 e4bc bfd8 ddbc
00000010: 6517 4e3e 3199 05bd c8e9 083e acff 933d
00000020: b3c5 c83d 9a77 973d 3fb7 413d 7a7f 043d
00000030: 14fc 053d 236d 233e e58b 3c3d a77d 2b3e
00000040: b982 b03c 2e3b a23d 5a9b 0e3e 0b3e e83d
00000050: 6d3f 023e a94c 443d 3079 563d 7a37 b93d
00000060: b1a0 b73d 1e71 e93d 5160 cd3d 807c a3bd
00000070: 2d58 3cbe 311e 38bd f138 abbd 85d9 433d
00000080: afcf 193c 5b40 22bc c72a a2bd f2e7 803d
00000090: 4fa5 2d3d 2eb7 8abd 038b 89bd 59a1 0a3c
000000a0: 03d2 7fbd 22b4 e5bd 81c4 e0bc fe89 edbc
000000b0: 238d e43c 33e5 873d 8c77 a83c 0bbe dabc
000000c0: 6c69 f03d d512 a53b 646f ec3d 8b8a 403e
000000d0: ab5b 673d cc76 023c 7d64 9ebd 6cc8 34bd
000000e0: 3210 95bd 1374 dfbc 4290 efbd bfca 29bc
000000f0: 7966 5dbc c2c3 35bd 0730 adbd e3a2 8a3c
00000100: ede9 9cbd 3e5f 973d df0a 94bd 31ea ffbb
00000110: 34d2 94bd f82a b8bd 9177 b8bc 4f97 1abe
00000120: 42ac b5bc ec03 47bd a7ba 64bd d261 993b
00000130: d2a2 9ebc 8991 883c 1902 c3bc b475 323d
00000140: 84e8 bbbd b592 35bd 52d9 633c 8123 b83d
00000150: dc27 98bd bba6 a8bd 17ef 353c bce4 07bd
00000160: 898b 243c 71f3 43bd 36f5 d6bc b3d3 06be
00000170: f896 2dbd ba40 efbc f879 d3bd 06b4 c63b
00000180: ff5a 99bd 18d7 b8bd f875 b8bd be33 b5bd
00000190: ebe6 00be fd98 1d3a 9c72 3cbc 3290 f6bc
000001a0: c935 4fbd 6320 9e3c 5fec 66bc 70d1 1e3c
000001b0: 25b8 983c df31 acbd 825f c6bd 410c c1bd
000001c0: c9e5 2dbe 446b 88bd 26a4 ebbd f13d 9cbd
000001d0: 5063 a3bc 1895 feba ad06 3d3c 2f47 1ebd
000001e0: b8ec b2bd 4133 cfbd 6e6e 16be 24a8 c7bc
000001f0: 6fd8 c8bc b1cd e6bc 47b6 c43d 2a5d 783d
00000200: dcf4 8d3d d511 8cbb d36b f53d 0ae8 b5bc
00000210: afd5 1abd 51ed b93d af7e e0bc b6e7 213b
00000220: fe3e ac3c 2eff 27be 3bd1 e3bc 5881 86bd
00000230: 7146 d63c 920a a0bc 7d63 9cbd 5a4b c4bc
00000240: a18e cebd 9b2d a63d c9eb d0bd 16aa 4cbc
00000250: b4d7 643d 736e c4bc aff0 7cbd 5796 bcbd
00000260: 0830 42bd 179d 21bc 43a0 d3bd 52da 1d3d
00000270: 23ec 82bd 63bf 28bd c329 9cbd 8e22 fabc
00000280: b630 93bc b321 cdbd c63a 943c 7a5a 1ebc
00000290: d4d1 c23d 89c4 013e 005c 363c 1c5f 0e3d
000002a0: 7c18 903d b8cf efbb 7697 ad3d ff0e b13c
000002b0: efb5 3dbc c886 6dbd e8c7 a3bd 2808 95bd
000002c0: 5ba2 a43b 6976 27be a328 a8b9 514b a5bc
000002d0: e9de 0ebe 4525 eeb9 ff89 013d 168e d5bd
000002e0: 4e0a f0bd 3f8e df3d efa9 ddbc 4cdf 78bd
000002f0: 021d 343d abfd b8bd ec14 1f3d da24 e9bd
00000300: dd6c 3abd 2375 2fbd dcd1 0e3e d896 723d
00000310: 8079 cabd 917d d9bd c784 0c3e c6c1 663d
00000320: 6a54 123e c79f 29bd 53f2 1cbd e731 0c3e
00000330: 0048 8c3d 2cf3 753d 6abc a23b 2763 d03b
00000340: d09c 8abd 67c9 1cbd 5d83 91bd 84f0 63bd
00000350: 2265 c2bc 7945 96bd dafd 39bb 872c f5bd
00000360: 1f5b 85bc a97a 643b 2492 a2bd accd 22be
00000370: af86 64bb 34b5 6dbc be41 d2bd ad5a c5bd
00000380: 9725 ae3c 2cb3 e83c 0e51 363d ba90 babd
00000390: 0547 09be 41ec 72ba 926e 1dbd c404 b2bb
000003a0: ab47 02be f12d 7abd d016 f83d f37d 833d
000003b0: 7d53 a8bc ba25 74bd b66e 5abb 400a 9f3d
000003c0: 489e 87bb 20c5 9b3d b046 293d 4394 d3bd
000003d0: c1d0 91bd 2ee9 dc3b d8a7 c13b 5b74 00bd
000003e0: 84cf f9bd c555 b3bd b1c4 b5bc 3bef f7bd
000003f0: 4752 3dbd 2588 3a3d 971d 483e 7225 4abc

bias f4 [32]
-0.08313842 -0.017827004 -0.08632182 0.18854138 -0.08434909 -0.05604037 0.030741965 -0.046829
-0.0993219 0.15712343 0.13742921 -0.04486613 -0.08686521 -0.057835218 -0.037115034 -0.0645942
-0.02380461 -0.109673426 -0.06870693 -0.090377524 0.08218547 -0.08313383 -0.08750326 0.13176826
-0.0769038 -0.048155423 -0.07845241 -0.03580066 -0.07891192 -0.04939637 -0.046230227 0.121316805
00000000: 7a44 aabd f009 92bc 7fc9 b0bd fe10 413e
00000010: 37bf acbd 968a 65bd 93d6 fb3c c4cf 3fbd
00000020: 4869 cbbd f7e4 203e 3eba 0c3e 8cc5 37bd
00000030: 63e6 b1bd 9fe4 6cbd ef05 18bd f749 84bd
00000040: e301 c3bc 769c e0bd 38b6 8cbd da17 b9bd
00000050: db50 a83d 1242 aabd e934 b3bd 42ee 063e
00000060: bd7f 9dbd 9f3e 45bd a8ab a0bd b6a3 12bd
00000070: 939c a1bd d953 4abd e85b 3dbd f274 f83d

weight f4 [16, 32, 3, 3]
0.050334655 -0.05621883 -0.117082305 0.014328074 -0.07897587 -0.13669808 -0.19064859 0.045159034
-0.13096209 0.06152958 0.06656763 0.075159095 0.15259399 0.073338255 0.03213351 -0.03824869
0.05818163 0.074770145 -0.07476366 0.021464214 0.01608968 -0.09773887 -0.03411491 0.062377468
-0.01729061 0.056480046 -0.05585008 0.19804628 0.25252718 0.12868458 0.117725655 0.33616862
0.088580385 0.19553404 0.16230783 0.012628254 -0.05849592 -0.0066999374 -0.15152268 -0.010777247
-0.016944876 -0.058080588 -0.037299152 -0.059745245 0.03721664 -0.04480057 -0.0077842036 -0.039482027
-0.022456877 0.06827523 -0.052604 0.04750146 0.05040468 -0.03537669 -0.18587224 0.18465316
0.024749167 -0.024332998 0.1401441 0.14205046 -0.02172064 -0.046817597 -0.17519206 0.0052054296
0.010544104 0.016838595 -0.119379 -0.07906358 -0.057039093 -0.111346096 0.023551911 -0.033239104
0.022610191 0.030708639 -0.02074687 0.08117104 0.06995888 0.024885787 0.080565386 -0.14334384
-0.059529744 0.11190244 0.08836367 0.067561835 0.027684964 0.18017724 0.22188431 0.11178659
-0.034369476 0.013613728 0.13224156 0.29068664 0.13638079 0.21015063 0.15862031 0.086767465
0.13828279 0.12335088 0.022771224 0.10878689 -0.03497786 0.027727555 0.0884496 -0.012021657
-0.054910507 0.078530684 0.0794252 0.019344445 0.05216675 0.095061414 -0.03539253 0.1167115
0.00015631871 -0.06143231 0.03681581 0.13718654 0.06709288 -0.06691343 0.0035776354 0.052076116
-0.07415857 -0.16932353 -0.13156886 -0.091078594 -0.094706 0.011355435 0.00438529 -0.074368656
0.0034241513 -0.06221296 -0.03515143 0.030758163 0.042079713 -0.043580536 -0.123540886 0.031851508
0.13630146 -0.009270429 0.03464471 0.12045252 0.05082453 0.07046953 0.12124816 0.13526133
0.017607002 -0.022744408 -0.04161219 -0.11674993 0.07386098 -0.10907967 -0.016168693 0.06705487
-0.07678177 0.025407925 -0.026790822 0.004573139 0.094360754 0.0464682 0.058987357 0.05577777
0.035438277 0.04433157 -0.009867698 0.040297613 -0.11717332 -0.056732047 0.003456523 -0.039600067
0.042323224 -0.037965603 0.010841214 0.018212965 -0.09432333 -0.061123874 0.14054456 -0.082338035
-0.01997006 -0.12793353 -0.028544307 -0.054250464 -0.0447078 0.015919061 -0.08308082 0.46757656
0.51931494 0.62036604 0.060607847 0.009729896 0.02110098 -0.09713094 -0.044728924 -0.06089294
0.069101706 -0.0446258 -0.102167696 -0.1242038 -0.115482256 -0.061778937 0.07976566 0.05793903
-0.074944414 -0.019297296 -0.024505509 0.026318839 0.063776426 0.025495347 -0.094769366 0.14140493
0.13554232 0.17269026 0.18513618 0.123364 0.17777312 0.16474842 0.11764389 0.059380222
0.18829252 -0.05696909 0.011635161 0.04019105 -0.032115623 0.15781903 -0.011702792 0.21598142
-0.026066681 0.011536846 0.043869007 0.08763226 -3.8977665e-05 0.07667369 -0.03373491 0.08628704
0.031105842 0.20711096 0.15934263 0.15488 -0.0017926153 0.042521916 0.08214467 -0.0019957947
0.09986808 0.06117533 0.037996735 -0.025411282 0.016111236 -0.13241713 -0.025764193 -0.03953974
-0.19514169 -0.04655307 -0.02857113 -0.17900465 -0.182846 -0.046503063 0.0148438215 -0.055009555
00000000: b62b 4e3d b745 66bd d9c8 efbd 4cc0 6a3c
00000010: 1abe a1bd 95fa 0bbe 6239 43be aef8 383d
00000020: ed1a 06be 7106 7c3d 9c54 883d 03ed 993d
00000030: 9941 1c3e 5e32 963d 6d9e 033d a9aa 1cbd
00000040: dc4f 6e3d 1721 993d b11d 99bd b8d5 af3c
00000050: 81ce 833c 512b c8bd 13bc 0bbd 847f 7f3d
00000060: 0aa5 8dbc 9f57 673d 0ec3 64bd a5cc 4a3e
00000070: 3e4b 813e e4c5 033e 261a f13d 4b1e ac3e
00000080: a269 b53d 133a 483e 0634 263e bce6 4e3c
00000090: 6b99 6fbd 268b dbbb c328 1bbe 0d93 30bc
000000a0: fbcf 8abc e9e5 6dbd ffc6 18bd 6eb7 74bd
000000b0: 7a70 183d cd80 37bd a212 ffbb e8b7 21bd
000000c0: 7cf7 b7bc e2d3 8b3d 4b77 57bd e490 423d
000000d0: 2375 4e3d 26e7 10bd 4b55 3ebe b815 3d3e
000000e0: c4be ca3c ff55 c7bc ef81 0f3e ad75 113e
000000f0: 7cef b1bc cfc3 3fbd 8c65 33be 4f92 aa3b
00000100: 2dc1 2c3c 18f1 893c fa7c f4bd 16ec a1bd
00000110: d3a1 69bd 6c09 e4bd f0ef c03c ba25 08bd
00000120: 0239 b93c af90 fb3c 57f5 a9bc 013d a63d
00000130: 9a46 8f3d 47dd cb3c 77ff a43d bac8 12be
00000140: 76d5 73bd 1b2d e53d 03f8 b43d dc5d 8a3d
00000150: 94cb e23c 6280 383e a435 633e 5ef0 e43d
00000160: 02c7 0cbd 1d0c 5f3c 556a 073e e1d4 943e
00000170: 68a7 0b3e ba31 573e 5d6d 223e 24b3 b13d
00000180: 019a 0d3e 639f fc3d b88a ba3c a9cb de3d
00000190: f244 0fbd e624 e33c 1025 b53d 7cf6 44bc
000001a0: d7e9 60bd b2d4 a03d aea9 a23d 3e78 9e3c
000001b0: cdac 553d 8faf c23d c2f7 10bd 7006 ef3d
000001c0: 7ce9 2339 72a0 7bbd 2dcc 163d a17a 0c3e
000001d0: fe67 893d e909 89bd c376 6a3b c44d 553d
000001e0: 73e0 97bd 2663 2dbe fdb9 06be 6a87 babd
000001f0: 38f5 c1bd 250c 3a3c 7bb2 8f3b 984e 98bd
00000200: ba67 603b 04d3 7ebd f2fa 0fbd 8bf8 fb3c
00000210: c75b 2c3d 8181 32bd 0103 fdbd ba76 023d
00000220: 9c92 0b3e ffe2 17bc 9de7 0d3d d0af f63d
00000230: 622d 503d 5452 903d f550 f83d f281 0a3e
00000240: 8f3c 903c 7b52 babc 8b71 2abd 961a efbd
00000250: 6d44 973d 2965 dfbd 3574 84bc 1054 893d
00000260: c33f 9dbd 4824 d03c 6d78 dbbc 45da 953b
00000270: 3640 c13d 7055 3e3d ba9c 713d 3b77 643d
00000280: ba27 113d 0595 353d 20ac 21bc 1c0f 253d
00000290: 91f8 efbd dd5f 68bd d586 623b ae33 22bd
000002a0: 1e5b 2d3d d281 1bbd 599f 313c 5b33 953c
000002b0: 972c c1bd 075d 7abd eaea 0f3e d8a0 a8bd
000002c0: 4098 a3bc 0201 03be c0d5 e9bc bc35 5ebd
000002d0: 871f 37bd b168 823c 4726 aabd 3266 ef3e
000002e0: d3f1 043f 4fd0 1e3f ef3f 783d 246a 1f3c
000002f0: f6db ac3c 96ec c6bd ad35 37bd e06a 79bd
00000300: 3285 8d3d 8bc9 36bd 4c3d d1bd 905e febd
00000310: f681 ecbd e90b 7dbd 2e5c a33d 7a51 6d3d
00000320: 757c 99bd 5d15 9ebc c7bf c8bc 9b9a d73c
00000330: 379d 823d 9edb d03c 7116 c2bd 74cc 103e
00000340: 9bcb 0a3e b7d5 303e 5794 3d3e 44a6 fc3d
00000350: 280a 363e cfb3 283e 48ef f03d ad38 733d
00000360: c1cf 403e 6c58 69bd 67a1 3e3c 5f9f 243d
00000370: ac8b 03bd 509b 213e 11bd 3fbc 3c2a 5d3e
00000380: cb89 d5bc 0a05 3d3c fdaf 333d 8b78 b33d
00000390: f37b 23b8 1807 9d3d 9e2d 0abd 42b7 b03d
000003a0: aed1 fe3c e514 543e b72a 233e dd98 1e3e
000003b0: 30f6 eaba 762b 2e3d 773b a83d e1cb 02bb
000003c0: a387 cc3d fc92 7a3d 77a2 1b3d 522b d0bc
000003d0: b6fb 833c 5b98 07be 6e0f d3bc 6cf4 21bd
000003e0: 39d3 47be 6fae 3ebd 010e eabc ff4c 37be
000003f0: fb3b 3bbe ff79 3ebd 8033 733c b351 61bd

bias f4 [16]
0.0038317337 0.034366727 0.037026107 0.05584049 0.021427177 -0.014684616 -0.0016211404 0.090775646
0.05630748 0.03692719 0.05696732 0.0022546519 0.06244007 0.062753804 0.05736649 0.047889147
00000000: d31d 7b3b 20c4 0c3d b0a8 173d ffb8 643d
00000010: 0c88 af3c be97 70bc 727c d4ba 95e8 b93d
00000020: aca2 663d f740 173d 9156 693d c8c2 133b
00000030: 29c1 7f3d 1185 803d 20f9 6a3d 6927 443d
