super_resolution/checkpoint_scale4/model_epoch_5.pth (torch_old, 260873 bytes, 8 tensors)

weight f4 [64, 1, 5, 5]
000000 f0 0c b3 bd e8 9e 8b be c0 06 a2 be 67 aa 97 bc
       -0.08742702 -0.27269673 -0.31645775 -0.018513871
000010 0b 6d 05 be ce 8d ef ba 73 ec 87 3e d7 f6 7b be
       -0.13029878 -0.0018276514 0.26547584 -0.2460588
000020 6b 9e 15 3e 08 1a 50 be e4 51 84 be 23 b0 ef be
       0.14611213 -0.2032243 -0.25843728 -0.4681407
000030 69 25 6a be 25 ea 79 bc c1 cf fc be 1d cf c3 bd
       -0.22865833 -0.015253578 -0.49377254 -0.09560988
000040 87 ba de bd 27 81 fb 3d 91 01 f8 3d fa 7b 4b bd
       -0.10875421 0.12280493 0.12109674 -0.04967878
000050 41 07 44 be db 0d 87 be 64 87 77 be 2b f4 3c 3d
       -0.19143392 -0.26377758 -0.24172741 0.046131294
000060 f8 fd 38 be aa 57 3f bd cc ed 12 3e 30 6a 45 be
       -0.18065631 -0.046714462 0.14348525 -0.19278789
000070 89 78 fb bd 74 06 2c be af bd a8 bd 4f 56 b7 3d
       -0.1227885 -0.16799337 -0.08239304 0.08952009
000080 90 7e 25 be b6 f2 6b be 1a 29 27 be c4 1c 32 be
       -0.16161561 -0.23041806 -0.16324273 -0.17393786
000090 4c f4 c1 3d 92 4c 70 be ad 79 05 be 80 00 13 3d
       0.09470424 -0.2346671 -0.13034697 0.03588915
0000a0 60 90 59 3d cc 0b d5 be a7 f7 28 be 61 bc 5d be
       0.053116202 -0.41610563 -0.16500722 -0.21653892
0000b0 25 65 73 3e b2 c2 bf bc e9 dc 62 3c 42 8a f1 bc
       0.23769052 -0.023408268 0.013846614 -0.029484872
0000c0 ce 17 9f bd 60 44 d8 be 40 9d ef 3d 29 ec a8 be
       -0.07768212 -0.42239666 0.11699915 -0.32992676
0000d0 4e 28 04 bc 93 12 6e 3e e0 5e 80 ba de 79 39 be
       -0.00806625 0.23249273 -0.00097939 -0.18112895
0000e0 9c c9 a0 bc f8 de 8a bd ca 29 0f 3d 01 52 97 be
       -0.019627385 -0.06780809 0.034951963 -0.29554752
0000f0 03 9e fd bd f3 25 8f be 00 69 ce bc d2 c5 30 bd
       -0.12383654 -0.2795864 -0.025196552 -0.043157406
000100 df 54 06 bc f3 53 a1 be 11 18 0a bb a8 0a 5c 3c
       -0.008198946 -0.3150936 -0.0021071474 0.013430275
000110 b1 2d c7 bd 20 02 04 3c 9b e3 89 3b ee f7 b5 bb
       -0.09725512 0.008057147 0.004208041 -0.005553237
000120 df 43 56 3c 2d 65 fb bd 18 b9 29 3e 02 e2 a5 be
       0.013077705 -0.12275157 0.16574514 -0.32398993
000130 57 c1 ef 3d 9a 3d 62 be 99 8e 80 be 2c fb 8a be
       0.117067985 -0.22093812 -0.25108793 -0.27144754
000140 80 c3 c9 3b dd 5d 7f be 85 94 95 bd 74 1f b0 3d
       0.0061573386 -0.2493815 -0.073037185 0.08599749
000150 db b6 4b be 41 f8 16 bd f6 ec 67 bd 6d 27 49 3d
       -0.19893973 -0.036857847 -0.056622468 0.049109865
000160 57 24 9d bc e5 e1 97 bd 66 eb 63 be 15 d4 d2 3d
       -0.019182367 -0.07416133 -0.22257766 0.10294358
000170 9a 9b b3 3e 76 3a f1 3c 7e 47 d2 bd 16 d6 0f 3d
       0.35079652 0.029446822 -0.10267542 0.035116278
000180 cc 9a f2 3d b8 4a e9 3c 77 8c 17 3d df b5 bf be
       0.118459314 0.028478011 0.036999192 -0.37443444
000190 d9 86 ac be 01 32 fe 3d 59 47 c6 bc 0f 26 66 be
       -0.3369663 0.12411881 -0.024203943 -0.22475456
0001a0 85 90 8f bd b8 80 3f 3e 1e e0 08 be b4 4c 14 be
       -0.07009987 0.18701446 -0.13366744 -0.14482385
0001b0 69 5e 06 3e c3 37 cd bb 4d 8f 01 bd fc 98 c6 3d
       0.13121952 -0.006262751 -0.031630803 0.09697148
0001c0 14 a5 96 3d 2f 4f bb 3d 3c dd 03 bd 3c df 7b 3e
       0.07355705 0.091459624 -0.032193407 0.24596876
0001d0 fa d4 84 3d 76 45 ef 3d f0 40 e2 3d 19 8f 95 be
       0.064859346 0.116831705 0.11047542 -0.29210737
0001e0 10 b3 a0 bb c1 51 23 3e 51 12 82 3d 50 27 9a be
       -0.0049041584 0.15949155 0.0635115 -0.30108118
0001f0 17 9a 0d be f0 68 01 3c 55 93 ac bd c2 ea 5c be
       -0.13828312 0.007898554 -0.08426539 -0.21573928
000200 b7 ea a7 be 80 bd c1 3e 68 00 5c 3e d3 32 1a 3e
       -0.3279626 0.3783989 0.2148453 0.1505845
000210 85 d6 2e be 49 18 5b bc 8d 03 27 3b cd a6 b5 3c
       -0.1707402 -0.013372489 0.0025484294 0.022174263
000220 d0 e8 b2 bd a4 41 2e be 21 e2 88 bd 1b be 20 bc
       -0.08735812 -0.17017227 -0.06683756 -0.00981095
000230 da ae 37 be 64 e7 40 3e eb 22 82 3c ce ee 67 be
       -0.17937794 0.18838269 0.01588579 -0.2264969
000240 0f 08 8b be 61 bc 1f be de a6 3d 3c fa 7a 20 be
       -0.27154586 -0.15599205 0.011575429 -0.15671912
000250 91 75 e9 bd db a0 e2 bd 9e a8 7c be ae a2 c4 be
       -0.11399377 -0.11065837 -0.24673697 -0.38405365
000260 a2 96 03 ba e1 a1 1a be 5e e3 6c be e7 2f 44 3e
       -0.00050196995 -0.15100814 -0.23133609 0.19158898
000270 76 3f 41 be 8d 9d 55 be 2b e8 60 be b9 4d 21 3d
       -0.18871865 -0.20860882 -0.21963565 0.039380763
000280 2a b4 77 be ba dd b5 bd 6d 31 61 bd 51 c7 aa bd
       -0.24189821 -0.088801816 -0.054978777 -0.08338798
000290 51 f2 88 be 24 4e a0 be c4 74 0e be 59 41 da bb
       -0.26747373 -0.31309617 -0.1391173 -0.006660622
0002a0 95 a7 2e be f7 1c 01 be 7d 23 82 be 40 c9 1e 3e
       -0.17056115 -0.12608705 -0.254177 0.15506458
0002b0 09 b1 68 be e9 86 5f be 3d c1 1d be 13 d5 1b be
       -0.22723784 -0.21828808 -0.15405746 -0.15218
0002c0 c8 97 f5 3d 24 d8 99 3d 44 96 64 be 41 cc 64 be
       0.119918406 0.07511929 -0.22322947 -0.22343542
0002d0 11 a8 ef bd 72 f6 01 3e 75 f4 34 3e 3c e0 a2 be
       -0.11701978 0.12691668 0.17671378 -0.31811702
0002e0 c9 69 cd be 60 f8 4b bd 1f a1 77 bd fc b9 57 bd
       -0.4011977 -0.049797416 -0.06045639 -0.052667603
0002f0 8e 8a 73 be c7 2f 4a be 47 22 47 be 5c e0 e4 bc
       -0.23783323 -0.19744788 -0.1944667 -0.027939014
000300 ca 34 88 bd fd fe 8f be 09 a1 66 be de 72 dd bc
       -0.06650694 -0.28124228 -0.22522368 -0.027032312
000310 83 e0 f8 bc 78 e9 86 3b 96 16 34 3e 99 3e 15 3e
       -0.030380493 0.004117187 0.17586741 0.1457466
000320 49 5a 30 3e 1a a9 69 3c ff e3 3a bd 05 2e e6 be
       0.17221941 0.014261508 -0.04562759 -0.44956985
000330 d1 75 19 3c 1f ea f8 3d 04 ea 91 bd da 2c 1a 3d
       0.0093664685 0.1215403 -0.07124713 0.03764043
000340 12 6c fe 3d 1c 29 06 be 83 c0 a2 3e 34 0d 22 be
       0.124229565 -0.1310162 0.317875 -0.15825349
000350 4e 92 42 be b3 65 ea bb a2 e4 36 3e 09 70 98 be
       -0.19001123 -0.007153237 0.17860654 -0.29772976
000360 cc d2 05 3e da 29 96 3d 32 c5 34 bd 3a 0b 47 3c
       0.13068694 0.07332201 -0.044133373 0.012148673
000370 c6 93 04 be 6e 52 3a 3d 66 e4 7d be 3d 2d 3e be
       -0.12946996 0.045488767 -0.24794158 -0.18571945
000380 e8 16 7a 3c 6d 72 2c 3c 67 e0 b1 3d 95 f2 17 bd
       0.01526425 0.010525328 0.086853795 -0.03709658
000390 f1 5d 00 3e f4 42 c3 3d 68 eb 35 39 64 bf 33 3d
       0.12535836 0.09534255 0.00017349201 0.043883696
0003a0 62 d3 b1 3d f1 e4 dd bc bc d9 ba bd 6b 81 7b be
       0.08682896 -0.027086707 -0.09123561 -0.24561088
0003b0 a7 e6 07 be 29 35 86 3d f6 30 30 be 66 7a a8 be
       -0.1327158 0.06553108 -0.17206177 -0.32905883
0003c0 0d 97 98 be 76 60 7f be 1c 9a 95 be 24 eb 1c be
       -0.29802743 -0.2493914 -0.2921914 -0.15324074
0003d0 30 be 1d 3d 09 43 fc 3d 07 01 41 bd 1c 1d 99 3e
       0.038511455 0.123174734 -0.04712012 0.2990502
0003e0 35 1f a5 be b8 be 5e bd f6 0d 3f be 99 fd 38 3e
       -0.32250372 -0.054381102 -0.1865767 0.1806549
0003f0 75 e3 a4 bd 6d d4 22 3e de cf c9 3c e7 3f 95 3e
       -0.080511965 0.15901347 0.024635252 0.29150316

bias f4 [64]
000000 0e c6 40 3d e9 8a e2 3c 82 bf 5a be 0e bd 64 bd
       0.04706388 0.027654128 -0.21362117 -0.05584436
000010 3c 32 f6 bd f3 55 23 3d c7 7c 7b 3d 11 c4 99 bc
       -0.120213 0.03987689 0.061398294 -0.01877025
000020 5c dc 6b be 1f 1d 65 be c7 01 d8 3d 92 3b bb bd
       -0.23033279 -0.2237439 0.10547214 -0.091422215
000030 b6 f2 80 bd 19 9b 0a be ea 22 43 be 1f 00 5e 3d
       -0.062962934 -0.13535728 -0.19056287 0.054199334
000040 1e 17 50 bd b7 0d 37 bc 7a 10 57 be 84 4e c5 3d
       -0.050803296 -0.0111727035 -0.21002379 0.09634116
000050 d4 47 a9 3d b8 ec 1f 3e 68 d8 b5 3d 53 82 25 3d
       0.08265653 0.15617645 0.08879167 0.04040749
000060 10 90 b4 bc 72 5b 5b be be f1 42 be 86 9d 81 bd
       -0.02204135 -0.21421602 -0.1903753 -0.06328873
000070 21 5c 93 3d 64 a6 7a bd ff c7 0c 3d b5 c6 5a bd
       0.071953066 -0.06119384 0.03437042 -0.053412158
000080 b5 b2 a3 bd aa 9e e1 bc 87 22 86 bd 08 57 26 be
       -0.0799307 -0.027541477 -0.06549554 -0.16244137
000090 de 07 ef bd ed 28 e6 3d e7 7f 95 3d a7 7a c3 bd
       -0.116714224 0.11238275 0.07299786 -0.095448785
0000a0 bf 61 44 be 7d 5b a7 3e 4d 09 ef bd 92 50 16 bd
       -0.19177912 0.32686988 -0.11671696 -0.03669793
0000b0 80 59 2c bb 6d 1d 47 bd 45 9f d6 bd e5 cd de 3d
       -0.0026298463 -0.048612047 -0.10479597 0.10879115
0000c0 51 45 8f 3d 82 30 74 be a4 47 3e be f6 ce 7c bd
       0.06995643 -0.2384663 -0.18582016 -0.06172081
0000d0 d0 df 12 3d 4e 9a 15 3d 28 13 c7 bd ef 9e 57 be
       0.035857975 0.03652411 -0.09720451 -0.21056722
0000e0 89 8e ff 3d 87 12 46 be 9b 00 1b be 04 24 1b 3e
       0.12478358 -0.19343005 -0.1513695 0.15150458
0000f0 0c d0 f0 3c a0 50 31 3d ca 0e 28 be fa 62 2d be
       0.02939608 0.04328978 -0.16411892 -0.16932288

weight f4 [64, 64, 3, 3]
000000 dd f0 4e bd e1 e7 34 bc a1 ce 17 be fe 26 5e 3c
       -0.050522674 -0.011041612 -0.14824916 0.013559101
000010 b2 49 92 bb 16 f5 56 3d e0 cb b8 3c 03 6b 12 3d
       -0.0044643516 0.052479826 0.022558153 0.035746586
000020 7e f2 b7 bd 97 78 ee bd c8 17 13 be ee a0 4b bc
       -0.089817986 -0.116440944 -0.1436454 -0.012428505
000030 f3 57 c4 3c aa 85 8b bd 5e 77 b2 3d 93 1c a2 bd
       0.023967719 -0.06812604 0.08714174 -0.07915606
000040 c1 d6 b8 3c 8e 62 9d 3b 00 f7 a8 bd e9 38 93 bd
       0.02256334 0.0048030084 -0.082502365 -0.07188589
000050 b9 a9 a4 bd b8 a9 aa bd 0a f9 64 bd 48 fe 26 3c
       -0.080401845 -0.083331525 -0.055901565 0.010192461
000060 54 ac ca 37 e1 c1 30 bd 69 bc 57 bc 5f 25 63 bd
       2.4160523e-05 -0.043153647 -0.013167479 -0.05545556
000070 11 e4 ff bb 37 0c fa bd d6 27 c8 bd 14 01 5a be
       -0.00780917 -0.12209361 -0.09773223 -0.21289474
000080 6a 44 d7 bc 69 b9 3b bd 1a b8 83 bd 51 6d de bc
       -0.02627774 -0.045831118 -0.06431599 -0.027151735
000090 7a 17 18 bd fc 1b 8c bd f4 4f dd bc 1b 2e c9 bd
       -0.037131764 -0.06841275 -0.027015664 -0.09823247
0000a0 8e 2d ca bd 40 2c 79 3d 3d fa 1e bd 2c 63 af bd
       -0.0987197 0.060833216 -0.038812865 -0.085638374
0000b0 68 66 56 bd 4a 53 4c bd 44 97 be bd b5 bc bf 3b
       -0.052343756 -0.04988412 -0.093061954 0.005851353
0000c0 15 18 c1 bd 49 81 9b bd 2b 8a b5 bc d9 ed 22 be
       -0.094284214 -0.075930186 -0.02216061 -0.15911044
0000d0 42 7e ea bd 9b e3 32 be 94 52 90 bd 7f 67 ab bd
       -0.11449863 -0.17469637 -0.070470005 -0.0836935
0000e0 3a 39 fa 3a c3 9e 69 bd 4e 8d 3d bc 6b 00 64 3d
       0.0019090541 -0.057036173 -0.011569334 0.05566446
0000f0 c8 fc 32 be 59 f0 2e bd 37 3a 00 bc ac d0 8c bd
       -0.17479241 -0.042709682 -0.0078263795 -0.068757385
000100 b6 10 b0 3c 23 a7 a0 bd d2 d4 57 bc 1a f0 17 3c
       0.021492343 -0.07844379 -0.013173299 0.009273553
000110 04 36 ef bd c2 a3 87 bd 82 91 52 bd 58 a7 d3 bd
       -0.116802245 -0.06623031 -0.0514083 -0.10334653
000120 dc be e6 3c aa 93 63 bd 6d 7d 32 bd 8a 42 73 3b
       0.02816718 -0.055560745 -0.043576647 0.0037118518
000130 ef 8a b8 bd c1 0c 51 bd 81 73 c6 bd da 35 c8 bd
       -0.090108745 -0.051037554 -0.09689999 -0.09775896
000140 c8 ed 26 be 3a 10 f1 bd 68 f0 c0 bc 8b 7b 6a bd
       -0.16301644 -0.11770673 -0.023552135 -0.057246726
000150 50 0d a7 3c 8d af f8 bc ab b4 1f bc 4f bc 9d bd
       0.02039209 -0.030357147 -0.009747664 -0.07701933
000160 38 b7 c4 bd 47 92 b9 bd 63 91 33 bd 7d e4 d2 bd
       -0.09605259 -0.09061103 -0.043839823 -0.10297487
000170 41 e0 b5 bc fe a8 ad bd 97 ea 0c 3d 65 82 90 bd
       -0.02220166 -0.08479498 0.03440341 -0.07056121
000180 50 e0 cb bd 25 41 a3 bc 66 25 3c bd 2a f2 aa 3c
       -0.099548936 -0.019928524 -0.045934103 0.020867426
000190 91 7d b2 3d 67 35 af 3d bd 86 b3 bd 27 db 44 bd
       0.08715356 0.085551076 -0.08765934 -0.048060562
0001a0 1f 56 3a 3d f3 f9 8c 3d 56 91 e8 bd 55 65 76 3d
       0.045492288 0.068836115 -0.11355846 0.06015523
0001b0 69 b1 26 be 96 d7 fd bd 7c 0c 88 3d 67 82 00 3c
       -0.16278614 -0.123946354 0.06643006 0.00784359
0001c0 0d 14 c7 3b 21 54 a3 bd a2 11 c0 bc e5 83 21 be
       0.0060753883 -0.07975031 -0.023445908 -0.1577297
0001d0 4c aa bb bd 6e 84 82 bd bd 45 38 bd e6 7b 16 be
       -0.09163341 -0.06372915 -0.044988383 -0.14695701
0001e0 ff 3f f7 bd e3 d1 b4 bd 55 43 b4 bd e2 b4 9a bc
       -0.12072753 -0.08829095 -0.08801905 -0.01888508
0001f0 1e 77 d7 bd 3e f5 1a be b3 63 b5 bc 02 bf ed bc
       -0.10520767 -0.15132615 -0.022142267 -0.029021744
000200 01 33 cf 3c 01 94 e9 bb 44 21 78 bd 8a 82 0f 3d
       0.025292875 -0.007128239 -0.0605786 0.0350366
000210 8d 73 38 bd 42 c7 07 be 4d 32 f9 bb d6 be 03 bc
       -0.045032073 -0.13259605 -0.0076048733 -0.008041104
000220 ea 99 74 3d f5 c4 49 3b d9 c8 cc 3d 49 58 f2 bd
       0.059717096 0.0030787562 0.09999246 -0.11833245
000230 bf 94 4e bd 55 03 7a bb ef e8 a4 bd 17 6f f6 bd
       -0.050434824 -0.0038148959 -0.08052241 -0.120329075
000240 c7 13 93 bd 74 5d 60 3c fe 42 80 bd 10 af b1 3c
       -0.071815066 0.013694156 -0.06262778 0.021689922
000250 20 17 39 bd 58 f2 e6 3a 8e b8 da bd 7b 89 40 3d
       -0.04518807 0.0017619831 -0.10679732 0.04700611
000260 34 a3 da bc 09 32 ff bd 81 65 a4 bc 8d f0 47 be
       -0.02668915 -0.12460715 -0.020067932 -0.19525357
000270 ac c6 86 bd ad 9f fd bc b5 2d 02 3d f8 43 fd bc
       -0.065808624 -0.030959928 0.03178187 -0.0309162
000280 a3 7b f0 3b 28 30 cd bd b2 16 b2 3c e5 e0 f8 3b
       0.0073389574 -0.10018951 0.021739338 0.007595169
000290 b2 1d 4d 3d eb c8 d3 bd 17 c8 e4 3d ac fc 9d 3c
       0.050077148 -0.103410564 0.111709766 0.019285522
0002a0 c7 e5 66 3d 96 b8 0e 3d f8 ca 92 3d ee 29 b2 bc
       0.056371477 0.034844004 0.071676195 -0.02174851
0002b0 60 7b 77 3c 53 63 f5 bd a1 15 5d bd 45 e3 1d bd
       0.0151050985 -0.11981835 -0.053975705 -0.03854682
0002c0 9e 6f 0e bd a8 b7 53 bd 45 d5 87 3d 7c 93 b9 bd
       -0.034774415 -0.05168882 0.06632475 -0.090613335
0002d0 61 da 91 3d c3 1f 4c bd 69 9c ed bd 51 d6 07 3c
       0.071217306 -0.049834978 -0.116020985 0.008290843
0002e0 6e 93 af bd 56 ad f3 bd c1 ac d3 bc 78 ba 85 bd
       -0.08573042 -0.118982956 -0.025839211 -0.06529707
0002f0 9f c1 3e 3d 2d 49 9a bd c5 68 8b bd fb b5 df bd
       0.04657137 -0.075334884 -0.068070926 -0.10923382
000300 9a e3 de bc 83 2e 81 3d fd 36 bf bd 74 84 c2 bd
       -0.027208138 0.063076995 -0.0933666 -0.0949792
000310 05 4d 2b be 4f 20 cf bd 6a 2b 61 bd 0e d2 bd 3c
       -0.167286 -0.10113584 -0.054973044 0.023171451
000320 30 05 b5 bd 40 f5 77 bd a3 2b 9c bd 13 e0 a1 bd
       -0.0883888 -0.060536623 -0.076255105 -0.07904067
000330 98 6b 9e 3a 6e 84 1a be 4e 20 c9 3c 91 ed 0b 3d
       0.0012086509 -0.1508958 0.024551537 0.034162108
000340 83 9d ae 3b af 38 fc 3b 8f 15 b0 bd d6 be 82 bd
       0.0053288355 0.007697187 -0.08597862 -0.06384055
000350 59 da 4b be 26 d9 38 bd 61 3c 5e bd ef 49 c5 3d
       -0.19907512 -0.045128964 -0.0542568 0.09633242
000360 1e fc 8a bb 2a 72 00 be d9 b4 47 bb 4f 9b 47 bc
       -0.0042414805 -0.1254355 -0.0030472784 -0.012183025
000370 65 54 d9 3c 7b 85 ce bc 66 fc 68 bd b1 53 10 bc
       0.0265295 -0.025210133 -0.05688133 -0.008809016
000380 1a 39 9b bd ab 0d 8b bd 2a d7 d8 3b 70 c3 a8 bd
       -0.07579251 -0.06789716 0.0066174464 -0.08240402
000390 7c 93 56 3d c9 6b a5 bd b4 b5 c6 bc ce 95 42 3c
       0.052386746 -0.08077199 -0.024256565 0.0118765365
0003a0 d8 53 dc bd af 90 0a bb af d9 a4 3c 4c f9 a6 bc
       -0.107581794 -0.0021143367 0.02012333 -0.020382546
0003b0 4a 65 73 bd 90 4a 95 bc b4 00 0f be fa 98 70 bd
       -0.05942277 -0.01822403 -0.13965112 -0.05873964
0003c0 8d f4 47 bd 47 15 65 bc 18 89 6d 3d d9 b4 65 bd
       -0.048817206 -0.013982124 0.05799207 -0.056080673
0003d0 12 9f f6 bd c2 10 26 bd 71 65 cd bd 2b 26 db 3c
       -0.12042059 -0.040543325 -0.10029114 0.026751598
0003e0 5d 79 fd bc 13 81 66 bd ba 10 e2 bd 88 51 81 3d
       -0.03094166 -0.05627544 -0.110383466 0.06314379
0003f0 6d f8 99 bd ad 4e bf bd 4f 3f 8f bd eb 26 f2 bd
       -0.075180866 -0.09341178 -0.06994497 -0.11823829

bias f4 [64]
000000 7a ca 00 bd 75 96 2a bd 9e 33 5d bd 2b 41 f4 bc
       -0.031443097 -0.041647393 -0.054004304 -0.02981623
000010 6c b0 53 bd 56 8c 85 bd 8c 7f 7a bd e2 15 96 bd
       -0.05168192 -0.065209076 -0.061156794 -0.073283926
000020 27 57 9c bc 5d 24 74 bd 7e 67 81 bd 0f 31 a4 bb
       -0.019084526 -0.05960499 -0.06318568 -0.005010731
000030 93 df c9 bd a1 b2 6a bd 9a fe cf bc 19 d5 06 bd
       -0.098570965 -0.05729926 -0.025389958 -0.03291807
000040 b3 fb 86 bd a5 42 8e bd 2e ce cb bc f0 92 2b bd
       -0.065909766 -0.06946305 -0.024878588 -0.041888177
000050 a3 bb 87 bd 44 86 a7 bd 92 be b6 bd e8 e4 27 bd
       -0.06627586 -0.08179906 -0.08923067 -0.040989786
000060 d5 c4 70 bd 5c 6d 8d bc f9 54 a0 bd ad e0 27 bd
       -0.058781464 -0.01726406 -0.07828707 -0.040985752
000070 3a 5c 65 bd 6a 43 19 3d 0c fd b6 bd e3 02 9d bd
       -0.055996157 0.037417807 -0.089349836 -0.07666566
000080 ef c5 42 bd ca d4 2e bd 2c ba f6 bc 73 4f c1 bd
       -0.047552045 -0.0426834 -0.03011807 -0.09438982
000090 a0 ae 1b bd 26 b8 b8 bd a5 8b ca bd b2 f2 c0 bd
       -0.038008332 -0.090194985 -0.09889916 -0.094212905
0000a0 cf 39 25 bc 55 f8 98 bd d1 9a 19 bd b0 9b 42 bd
       -0.010084583 -0.074692406 -0.03750116 -0.047511756
0000b0 5e af ba bd b6 33 a0 bd d5 0f 8d bd 0f 4f 61 bd
       -0.0911548 -0.07822363 -0.06887785 -0.055007037
0000c0 b0 4a 88 bd 5e 16 90 bd b3 a8 40 bd 6c 4c 0d bd
       -0.066548705 -0.07035516 -0.047035884 -0.03449671
0000d0 02 cc 60 bd d1 1a 6d bd 00 7c a4 bd 03 7c 05 bd
       -0.054882057 -0.057886902 -0.080314636 -0.03258897
0000e0 ff f2 6b bd a3 e9 18 bd 0d f1 2f 3c a3 46 e3 3c
       -0.057604786 -0.03733219 0.010738623 0.027743643
0000f0 8c 6c ae bd 86 12 26 bc 7f 1c 6c bd c5 d7 a0 bd
       -0.085167974 -0.010136252 -0.057644363 -0.07853655

weight f4 [32, 64, 3, 3]
000000 21 ad cf 3d 32 8c 87 3d 5c 66 e4 bc d1 0e de bc
       0.101404436 0.06618537 -0.02788084 -0.027106674
000010 aa 10 4e 3e 2a b4 05 bd 0d e3 08 3e 28 f2 93 3d
       0.20123544 -0.03264252 0.13367863 0.07223922
000020 34 b8 c8 3d 33 6a 97 3d 6b 9c 41 3d bd 64 04 3d
       0.09800759 0.07393303 0.047268312 0.032322634
000030 21 e1 05 3d 6c 66 23 3e 13 71 3c 3d ee 76 2b 3e
       0.032685403 0.1595704 0.046006273 0.16744587
000040 e4 4c b0 3c cd 2d a2 3d 9f 94 0e 3e 89 30 e8 3d
       0.02152104 0.07918892 0.13923882 0.11337382
000050 b2 38 02 3e ae 31 44 3d 2e 5e 56 3d fe 29 b9 3d
       0.1271694 0.04789894 0.05233591 0.090412125
000060 32 93 b7 3d 9c 63 e9 3d d2 52 cd 3d 80 6d a3 bd
       0.08963622 0.11395952 0.10025562 -0.0797987
000070 b0 50 3c be 28 00 38 bd f1 29 ab bd 89 f7 43 3d
       -0.18390155 -0.044922024 -0.08357609 0.04784349
000080 d4 47 1a 3c 3c c8 21 bc c7 1b a2 bd f4 f6 80 3d
       0.009416539 -0.0098744 -0.07915454 0.062971026
000090 61 c3 2d 3d 2c a8 8a bd 00 7c 89 bd af 19 0b 3c
       0.042422656 -0.067703575 -0.06713104 0.00849001
0000a0 f1 b3 7f bd 1f a5 e5 bd 58 88 e0 bc d6 4d ed bc
       -0.062427465 -0.11213135 -0.027408764 -0.02896778
0000b0 4d c9 e4 3c f1 d7 87 3d f4 42 a8 3c 35 f2 da bc
       0.027928019 0.066329844 0.020539738 -0.026726821
0000c0 61 5c f0 3d 5c 45 a4 3b c9 62 ec 3d 1e 84 40 3e
       0.1173637 0.005013151 0.11542279 0.18800399
0000d0 62 42 67 3d 52 13 02 3c 7b 55 9e bd 61 aa 34 bd
       0.056459792 0.007939177 -0.07731148 -0.0441078
0000e0 30 01 95 bd f6 37 df bc 40 81 ef bd 79 52 29 bc
       -0.07275617 -0.027248364 -0.11694574 -0.010334604
0000f0 41 ee 5c bc b6 a5 35 bd 05 21 ad bd e6 de 8a 3c
       -0.0134845385 -0.044347487 -0.084535636 0.01695199
000100 f0 da 9c bd 3b 6e 97 3d e5 fb 93 bd 4b fa fe bb
       -0.076589465 0.07394072 -0.072257794 -0.007781302
000110 39 c3 94 bd fd 1b b8 bd 90 3b b8 bc d6 8f 1a be
       -0.07263798 -0.08989713 -0.02248934 -0.15093932
000120 22 70 b5 bc e2 e5 46 bd 9d 9c 64 bd 45 52 9a 3b
       -0.022148196 -0.048559077 -0.05581342 0.0047095143
000130 bb 66 9e bc a0 cd 88 3c fb c5 c2 bc be 93 32 3d
       -0.019336095 0.016699612 -0.023776045 0.04359793
000140 82 d9 bb bd b5 92 35 bd ed dc 63 3c 7b 24 b8 3d
       -0.09172346 -0.044329364 0.013907653 0.08991333
000150 dc 27 98 bd ac a5 a8 bd 0d 00 36 3c bc e4 07 bd
       -0.074294776 -0.082347244 0.011108411 -0.033177122
000160 88 96 24 3c 31 ee 43 bd 1c b9 d6 bc 35 cc 06 be
       0.010045655 -0.04783458 -0.026211314 -0.13163836
000170 f3 78 2d bd a3 04 ef bc f6 6a d3 bd 53 a4 c7 3b
       -0.042351674 -0.029177016 -0.103231356 0.006092587
000180 fd 4b 99 bd 17 c8 b8 bd f7 66 b8 bd bb 24 b5 bd
       -0.07485197 -0.09022539 -0.09004014 -0.088448964
000190 6a df 00 be f6 1e 25 3a 48 fa 3b bc 09 54 f6 bc
       -0.12585226 0.0006298864 -0.011473246 -0.030069368
0001a0 b7 17 4f bd 8c 5c 9e 3c 0f 74 66 bc c4 49 1f 3c
       -0.050559726 0.01933124 -0.014065756 0.009722177
0001b0 39 f4 98 3c de 22 ac bd 80 50 c6 bd 40 fd c0 bd
       0.018671142 -0.08405088 -0.09683323 -0.094233036
0001c0 4c de 2d be 42 5c 88 bd 25 95 eb bd f0 2e 9c bd
       -0.16979331 -0.06658222 -0.115030564 -0.0762614
0001d0 39 27 a3 bc b8 d3 fa ba d4 7e 3d 3c 25 29 1e bd
       -0.019916164 -0.0019136583 0.011565883 -0.038613457
0001e0 b6 dd b2 bd 3f 24 cf bd ef 66 16 be 08 6c c7 bc
       -0.08733694 -0.10114335 -0.14687704 -0.024343506
0001f0 53 9c c8 bc 93 91 e6 bc c2 a8 c4 3d 1d 42 78 3d
       -0.024488604 -0.028145587 0.096025005 0.060609926
000200 57 e7 8d 3d 6e ea 8c bb 4e 5e f5 3d 31 1e b6 bc
       0.0692889 -0.004300407 0.11980878 -0.022231193
000210 bc f0 1a bd cb df b9 3d d6 b4 e0 bc 18 c9 23 3b
       -0.03782724 0.09075888 -0.02742998 0.0024991687
000220 27 7b ac 3c ae f7 27 be 12 95 e3 bc 56 72 86 bd
       0.021054817 -0.16403076 -0.027781043 -0.065647766
000230 91 82 d6 3c 69 ce 9f bc 7b 54 9c bd 3c 0f c4 bc
       0.026185306 -0.019507604 -0.07633301 -0.023933046
000240 a1 7f ce bd 9b 3c a6 3d c9 dc d0 bd 02 32 4c bc
       -0.10082937 0.08117028 -0.101983614 -0.012463095
000250 b3 f5 64 3d 67 32 c4 bc ab d2 7c bd 57 87 bc bd
       0.05589838 -0.023949815 -0.061724346 -0.092055015
000260 04 12 42 bd e7 24 21 bc 41 91 d3 bd 5b f8 1d 3d
       -0.047380462 -0.009835458 -0.10330439 0.03856693
000270 21 dd 82 bd 5f a1 28 bd c1 1a 9c bd 72 e6 f9 bc
       -0.06389833 -0.04116952 -0.076222904 -0.030505393
000280 9c f4 92 bc b1 12 cd bd a1 04 94 3c c1 c6 1e bc
       -0.017938904 -0.10013331 0.018068613 -0.009690941
000290 4f c4 c2 3d ca bd 01 3e b3 ef 35 3c 0f 44 0e 3d
       0.09510099 0.12670055 0.011104512 0.034732874
0002a0 f7 0a 90 3d 4f a8 f0 bb f1 89 ad 3d 2c 4b b1 3c
       0.070333414 -0.0073442827 0.08473576 0.02164229
0002b0 99 3d 3d bc b2 68 6d bd e5 b8 a3 bd 25 f9 94 bd
       -0.011550331 -0.057961173 -0.0799425 -0.07274083
0002c0 10 93 a5 3b e8 6e 27 be e3 1d 99 b9 25 0f a5 bc
       0.0050529316 -0.16350901 -0.000292047 -0.020148823
0002d0 6a d7 0e be 43 1d df b9 09 a8 01 3d 14 7f d5 bd
       -0.13949361 -0.00042555676 0.03165439 -0.10424629
0002e0 4c fb ef bd 41 9d df 3d d0 6d dd bc 40 c1 78 bd
       -0.11717853 0.10918666 -0.027029902 -0.060731173
0002f0 0f 3b 34 3d a9 ee b8 bd fa 32 1f 3d d8 15 e9 bd
       0.044001635 -0.09029896 0.038866974 -0.113811195
000300 d3 4e 3a bd 19 57 2f bd 5b d9 0e 3e e2 b4 72 3d
       -0.04548533 -0.042807672 0.13950102 0.059254535
000310 7e 6a ca bd 8f 6e d9 bd c3 81 0c 3e 6e b5 66 3d
       -0.09883593 -0.106167905 0.13721375 0.05632537
000320 3b 50 12 3e f8 ae 29 bd a3 01 1d bd 96 2c 0c 3e
       0.14288418 -0.04142663 -0.03833164 0.13688883
000330 a4 43 8c 3d f3 e3 75 3d e3 0a a2 3b 98 53 d1 3b
       0.06848839 0.060031842 0.0049451455 0.006388139
000340 ce 8d 8a bd 5e ab 1c bd 5b 74 91 bd 80 d2 63 bd
       -0.06765328 -0.038249366 -0.07102271 -0.05562067
000350 0e 29 c2 bc 77 36 96 bd 62 1d 38 bb 87 1d f5 bd
       -0.023701217 -0.07334607 -0.0028093685 -0.119685225
000360 f7 1e 85 bc df 5b 66 3b 22 83 a2 bd 2c c6 22 be
       -0.016250117 0.0035149974 -0.07935168 -0.15895909
000370 77 a5 62 bb e7 3c 6d bc bc 32 d2 bd ab 4b c5 bd
       -0.0034583488 -0.014479852 -0.10263583 -0.09633573
000380 c0 61 ae 3c 38 ef e8 3c 12 6f 36 3d ba 81 ba bd
       0.021286845 0.02843438 0.04453952 -0.09106775
000390 8a 3f 09 be a7 6a 6b ba 8f 50 1d bd 76 14 b1 bb
       -0.13403144 -0.0008980431 -0.038406905 -0.0054040505
0003a0 2d 40 02 be ed 0f 7a bd 5e 22 f8 3d 92 85 83 3d
       -0.12719794 -0.061050344 0.1211593 0.06421961
0003b0 db 31 a8 bc ad 13 74 bd 7a 08 5a bb f1 0d 9f 3d
       -0.020531585 -0.059589077 -0.0033269213 0.07766331
0003c0 73 74 88 bb b9 b7 9b 3d 11 2c 29 3d 41 85 d3 bd
       -0.0041642725 0.07603402 0.04130179 -0.103281505
0003d0 bf c1 91 bd bf d9 dd 3b 69 98 c2 3b 51 56 00 bd
       -0.07117032 0.006770342 0.005938579 -0.031332318
0003e0 82 c0 f9 bd c3 46 b3 bd 8e 88 b5 bc 39 e0 f7 bd
       -0.12194921 -0.08753731 -0.02215984 -0.12103314
0003f0 86 56 3d bd a0 79 3a 3d f7 16 48 3e e0 25 4a bc
       -0.046225093 0.045526147 0.1954001 -0.012338132

bias f4 [32]
000000 29 2e aa bd c2 f0 91 bc d5 b5 b0 bd cd b3 3a 3e
       -0.083095856 -0.017814998 -0.08628432 0.18232651
000010 a5 aa ac bd 97 b3 63 bd 8d ea bc bd ab 67 3f bd
       -0.08430985 -0.055591192 -0.092244245 -0.046729725
000020 b3 3d cb bd ba bf 1e 3e 56 6d 05 3e 30 a2 37 bd
       -0.099238776 0.15502825 0.1302999 -0.04483241
000030 e4 d5 b1 bd ee a4 6c bd b8 b4 17 bd 69 69 8e bd
       -0.086833745 -0.057774477 -0.03703758 -0.06953699
000040 21 5d be bc 55 31 d7 bd 09 a7 8c bd 42 60 99 bd
       -0.023237767 -0.10507456 -0.06867797 -0.07489063
000050 b3 12 8d bd 4a 32 aa bd a6 e2 b0 bd 49 69 05 3e
       -0.06888332 -0.08310373 -0.0863698 0.13028444
000060 d3 6d 9f bd 8e 23 45 bd 22 9e a0 bd 0e 1e 0c bd
       -0.07784619 -0.04812961 -0.078426614 -0.03420835
000070 63 8d a1 bd d6 03 4a bd b8 41 3d bd ef ea eb 3d
       -0.078882955 -0.049320064 -0.046205252 0.115194194

weight f4 [16, 32, 3, 3]
000000 b6 49 4e 3d b9 27 66 bd dc b9 ef bd 54 38 6b 3c
       0.050363265 -0.056190226 -0.11705372 0.014356691
000010 1d af a1 bd 1c f3 0b be e7 31 43 be ae 16 39 3d
       -0.07894728 -0.13666958 -0.19062005 0.045187645
000020 72 13 06 be 40 eb 7b 3d 06 47 88 3d 6d df 99 3d
       -0.13093355 0.06150365 0.06654172 0.07513318
000030 c9 3a 1c 3e c1 24 96 3d 29 83 03 3d f5 c5 1c bd
       0.152568 0.07331229 0.032107506 -0.038274724
000040 96 34 6e 3d 7e 13 99 3d c3 0e 99 bd 78 11 b0 3c
       0.05815562 0.07474421 -0.07473519 0.021492705
000050 41 0a 84 3c 63 1c c8 bd 36 9e 0b bd 61 9d 7f 3d
       0.01611817 -0.09771039 -0.03408643 0.062405948
000060 40 69 8d bc 7e 75 67 3d 2f a5 64 bd c1 ac 3b 3e
       -0.017262101 0.056508534 -0.055821594 0.18327619
000070 fe 64 4c 3e 39 6f 34 3e a3 2b e5 3d 35 87 9f 3e
       0.199604 0.17620553 0.11189964 0.31157842
000080 c2 57 15 3e 9c 24 7a 3e 8a c3 68 3e cc 72 1c 3e
       0.14584258 0.24428028 0.22730842 0.15278167
000090 78 7b 6f bd 9a 9b da bb 4e 21 1b be 3b 1b 30 bc
       -0.05846736 -0.006671381 -0.15149423 -0.01074868
0000a0 19 94 8a bc fc c7 6d bd 09 a9 18 bd 79 99 74 bd
       -0.016916322 -0.058052048 -0.03727058 -0.059716675
0000b0 6f 8e 18 3d 10 73 37 bd 44 58 fe bb ee ae 21 bd
       0.03724521 -0.044787467 -0.007761987 -0.039473467
0000c0 04 d5 b7 bc 68 e0 8b 3d 7e 73 57 bd 15 a9 42 3d
       -0.022440441 0.068299115 -0.052600376 0.04752453
0000d0 95 93 4e 3d 59 de 10 bd 7b c1 08 bd ab 04 67 3d
       0.050433714 -0.035368297 -0.033387642 0.056400936
0000e0 93 e9 5f bd 68 b4 97 bc 70 4d 4a bd ec 56 be bb
       -0.054666113 -0.018518642 -0.049390256 -0.0058087017
0000f0 c5 c8 1d 3d 8f 0e 91 3c 16 37 c0 3c 18 7f ab 3b
       0.038521547 0.017707137 0.023463767 0.0052336566
000100 7e 37 2d 3c 3d 2c 8a 3c 33 6e f4 bd 51 dd a1 bd
       0.010572312 0.016866798 -0.11935081 -0.07903541
000110 3f 84 69 bd a4 fa e3 bd 15 2b c1 3c 25 08 08 bd
       -0.057010885 -0.1113179 0.023580113 -0.033210892
000120 e9 04 b9 3c e6 b8 fb 3c 27 c6 a9 bc 34 2c a6 3d
       0.02258535 0.030727815 -0.02072437 0.081139
000130 28 50 8f 3d 52 0b cc 3c 62 ed a4 3d 33 c4 12 be
       0.069977105 0.024907742 0.0805309 -0.14332657
000140 fe be 73 bd 7c 73 d9 3d 5d 32 9c 3d ae ce 98 3d
       -0.059508316 0.1061773 0.076267935 0.07461296
000150 cf 1d 73 3c ab 58 3a 3e 26 9e 7a 3e c5 9c f8 3d
       0.01483865 0.18197887 0.24474391 0.121392764
000160 68 9a 14 bc ec dd 81 3d 49 94 1f 3e 9d f1 35 3e
       -0.009070016 0.06341156 0.1558391 0.1776795
000170 17 06 e5 3d c1 70 11 3e e2 dc 8d 3d 4b 26 06 3e
       0.11182802 0.14203168 0.06926896 0.13100545
000180 a4 10 11 3e 68 21 43 3e 96 de 3a 3e 1f be de 3d
       0.14166504 0.19055712 0.18248972 0.108761065
000190 e7 5f 0f bd 86 ee e2 3c 99 17 b5 3d c0 62 45 bc
       -0.03500357 0.027701627 0.088423915 -0.01204747
0001a0 10 05 61 bd 42 c7 a0 3d 37 9c a2 3d bb 41 9e 3c
       -0.05493647 0.078505054 0.07939952 0.019318452
0001b0 b5 91 55 3d 08 a2 c2 3d da 12 11 bd f1 f8 ee 3d
       0.05214091 0.09503561 -0.03541837 0.116685756
0001c0 a1 ce 08 39 86 bb 7b bd 26 b1 16 3d e6 73 0c 3e
       0.00013046946 -0.061458133 0.036790036 0.13716087
0001d0 77 5a 89 3d 0b fb 88 bd 20 53 6c 3b 83 6b 55 3d
       0.06706708 -0.06688508 0.0036060289 0.052104484
0001e0 9b d1 97 bd b9 5b 2d be 90 b2 06 be 94 78 ba bd
       -0.07413026 -0.1692952 -0.13154054 -0.0910503
0001f0 5a e6 c1 bd 3b 83 3a 3c 57 a0 90 3b c9 3f 98 bd
       -0.09467764 0.011383827 0.0044136452 -0.07434041
000200 38 42 62 3b 4e b5 7e bd 56 dd 0f bd bf 33 fc 3c
       0.0034524333 -0.062184624 -0.03512319 0.030786393
000210 7f 79 2c 3d df 63 32 bd 39 f4 fc bd ec 5e 05 3d
       0.042108055 -0.043552276 -0.12351269 0.032561228
000220 20 da fc 3d b5 c9 53 3d a5 27 0e 3d 0f 67 cd 3d
       0.123462915 0.051706035 0.034705777 0.100294225
000230 c4 b5 d5 3d d1 9d 90 3d 15 e0 cd 3d 05 29 0c 3e
       0.1043506 0.07061351 0.10052506 0.13687523
000240 8f 19 90 3c f9 80 ba bc cb c6 2a bd 4b 34 ef bd
       0.017590312 -0.022766577 -0.04169349 -0.11679896
000250 4f 23 97 3d d6 9a df bd ac a4 84 bc 9b 2c 89 3d
       0.073797815 -0.109182045 -0.016191803 0.06697961
000260 6d 83 9d bd 01 7c d0 3c 24 e5 dd bc 34 fd 8f 3b
       -0.07691083 0.025449755 -0.027086802 0.004394198
000270 d5 f8 c0 3d 45 9b 3e 3d c2 1e 70 3d e0 42 63 3d
       0.09422461 0.046534795 0.058623083 0.0554837
000280 96 72 10 3d f9 f9 33 3d e8 33 21 bc 26 2d 25 3d
       0.035265528 0.043939564 -0.009839036 0.04032626
000290 8f e9 ef bd d3 41 68 bd a8 67 64 3b a4 15 22 bd
       -0.1171447 -0.0567034 0.0034851823 -0.03957142
0002a0 2f 79 2d 3d c6 63 1b bd 9a 17 32 3c d5 1e aa 3d
       0.042351898 -0.03793695 0.010869885 0.08306662
0002b0 a0 5c a8 3d 74 70 49 3c 99 67 d7 3d 30 2e 88 3c
       0.08220792 0.012294877 0.105178066 0.016623586
0002c0 c0 db 93 3d dc 7d b5 3c 1a b5 d2 3c e3 de e1 3c
       0.07219648 0.022154741 0.025721122 0.027572101
0002d0 ca 98 ae 3d b7 7a a5 3d 9c 88 21 3e f4 59 9f 3d
       0.08525236 0.080800466 0.15774769 0.07780829
0002e0 bc 50 4a bc be 6b 58 3d 84 a8 66 3d 9d ae 10 3d
       -0.01234835 0.052837126 0.056313053 0.035322774
0002f0 0c 43 cc 3d 94 dd c6 bd 9b 17 37 bd ce 4c 79 bd
       0.09973726 -0.097102314 -0.044700246 -0.060864262
000300 34 94 8d 3d 7f ab 36 bd 4a 2e d1 bd 8e 4f fe bd
       0.06913033 -0.044597145 -0.10213907 -0.124175176
000310 f4 72 ec bd da ed 7c bd 75 59 a4 3d 91 3f 6f 3d
       -0.11545363 -0.06175027 0.08024875 0.05841023
000320 d9 7c 97 bd 7f f7 9b bc 08 e3 c6 bc c5 62 da 3c
       -0.0739686 -0.019038914 -0.024278179 0.026658425
000330 ac 28 83 3d f6 bf d2 3c 07 57 c1 bd f8 b6 d4 3d
       0.06404242 0.0257263 -0.09440427 0.10386461
000340 51 e7 d1 3d 70 d0 2c 3e 15 6e 2c 3e 01 ef f4 3d
       0.10249198 0.16876388 0.16838868 0.11959649
000350 01 1c 46 3e 2f c5 30 3e ee 4f 16 3e 71 16 e3 3d
       0.1934662 0.1726272 0.14678928 0.11088265
000360 cb 4f bb 3d 10 66 25 3d 88 ee 89 bc 5b 6e 54 3c
       0.09146079 0.040380538 -0.016837373 0.012965764
000370 bb 46 12 bd c9 1f 1a 3e 21 f2 cc bc 0c ec 66 3e
       -0.035711985 0.15051188 -0.0250178 0.22550982
000380 38 34 05 bd e7 98 3c 3c f7 94 33 3d 0c 6b b3 3d
       -0.032520503 0.011511064 0.043843236 0.08760652
000390 bc cf 87 b8 99 f9 9c 3d 9e 48 0a bd cb a9 b0 3d
       -6.475995e-05 0.076647945 -0.03376066 0.086261354
0003a0 d0 9b fe 3c 3a 0e 54 3e f8 23 23 3e 1e 92 1e 3e
       0.031080157 0.20708552 0.1593169 0.15485427
0003b0 af 58 ee ba 69 10 2e 3d f2 2d a8 3d 24 7d 04 bb
       -0.0018184389 0.04249612 0.082118884 -0.0020216191
0003c0 1e 7a cc 3d ef 77 7a 3d 6a 87 1b 3d 25 f2 cf bc
       0.099842295 0.061149534 0.037970938 -0.025384018
0003d0 d0 42 84 3c c7 8d 07 be d4 da d2 bc b3 d9 21 bd
       0.01614514 -0.13237678 -0.025739111 -0.039514255
0003e0 f2 cb 47 be 77 98 3e bd 83 e7 e9 bc e6 48 37 be
       -0.19511393 -0.04653212 -0.028552776 -0.17898902
0003f0 8b 34 3b be 32 5c 3e bd bc aa 73 3c e9 33 61 bd
       -0.18281762 -0.046474643 0.014872249 -0.054981146

bias f4 [16]
000000 2d 59 b2 bb 41 d6 13 3d d7 46 0a 3d 49 4c 6f 3d
       -0.0054427595 0.036093 0.033758964 0.05842236
000010 91 45 5d 3c 0a de e8 bc 83 c6 66 bc 9b 77 f6 3d
       0.013505355 -0.028426189 -0.014085415 0.12034532
000020 07 33 8c 3d 26 50 f8 3c e4 cb 90 3d e8 0e 88 bc
       0.0684567 0.030311655 0.07070139 -0.01660867
000030 bb 51 94 3d f3 ad 95 3d ef dc 7f 3d 2d 56 39 3d
       0.07242151 0.07308569 0.062466558 0.0452482
