super_resolution/checkpoint_scale4/model_epoch_21.pth (torch_old, 260873 bytes, 8 tensors)

weight f4 [64, 1, 5, 5]
0	0xbdaf7a98	-0.08568305
1	0xbe8ac4c1	-0.27103236
2	0xbe9fa219	-0.31178358
3	0xbc2f50af	-0.010700389
4	0xbe01f2bc	-0.12690252
5	0xb96dca02	-0.00022677335
6	0x3e88e57f	0.26737592
7	0xbe76ba15	-0.24094422
8	0x3e1dfeeb	0.15429275
9	0xbe4b9fb8	-0.19885147
10	0xbe8323c8	-0.25613236
11	0xbeee47c7	-0.46539137
12	0xbe62b9a2	-0.22141126
13	0xbbb8fbdb	-0.005645258
14	0xbefa4df3	-0.48887596
15	0xbdbc696c	-0.09199795
16	0xbdd2db6c	-0.10295758
17	0x3e0a55e1	0.13509323
18	0x3e0cbc62	0.13743737
19	0xbd3a4dde	-0.045484416
20	0xbe43deb3	-0.19127922
21	0xbe86d903	-0.26337442
22	0xbe74a004	-0.23889166
23	0x3d47f5a3	0.04881824
24	0xbe34d35b	-0.1765875
25	0xbd3f7844	-0.046745554
26	0x3e12e5b9	0.14345445
27	0xbe457291	-0.19281985
28	0xbdfb887d	-0.122818924
29	0xbe2c0e5c	-0.16802353
30	0xbda8ce37	-0.08242457
31	0x3db745ad	0.089488365
32	0xbe258736	-0.1616486
33	0xbe6bfab9	-0.23044862
34	0xbe273153	-0.1632741
35	0xbe322576	-0.17397103
36	0x3dc1e25d	0.094670035
37	0xbe70560e	-0.23470327
38	0xbe0581b7	-0.13037764
39	0x3d12dd5e	0.035855643
40	0x3d596db8	0.05308315
41	0xbed51050	-0.41614008
42	0xbe290132	-0.16504362
43	0xbe5dc45f	-0.21656941
44	0x3e735c52	0.23765686
45	0xbcc007e7	-0.023441268
46	0x3c624fda	0.013812983
47	0xbcf1d646	-0.029521119
48	0xbd9f272d	-0.07771144
49	0xbed84834	-0.42242587
50	0x3def8d17	0.116968326
51	0xbea8f02b	-0.32995734
52	0xbc04a7fa	-0.008096689
53	0x3e6e0aa2	0.23246244
54	0xba84587e	-0.0010097174
55	0xbe3981f9	-0.18115987
56	0xbca10a27	-0.019658161
57	0xbd8aeef6	-0.067838594
58	0x3d0f09ea	0.034921564
59	0xbe9755fb	-0.29557785
60	0xbdfdae4e	-0.123867616
61	0xbe8f29f8	-0.27961707
62	0xbccea8fe	-0.025227066
63	0xbd30e5b5	-0.043187816
64	0xbc06d442	-0.008229317
65	0xbea157fa	-0.31512433
66	0xbb0c1ac6	-0.0021378263
67	0x3c5b8af4	0.013399828
68	0xbdc73d9c	-0.09728548
69	0x3c0382ed	0.008026821
70	0x3b88e167	0.0041772607
71	0xbbb6f863	-0.005583809
72	0x3c55c469	0.013047316
73	0xbdfb7513	-0.122781895
74	0x3e29b12a	0.16571489
75	0xbea5ca7b	-0.32381043
76	0x3df01a07	0.11723714
77	0xbe620dd5	-0.22075589
78	0xbe80820c	-0.25099218
79	0xbe8afdae	-0.27146667
80	0x3bcd0e84	0.006257834
81	0xbe7f530f	-0.24934028
82	0xbd957c77	-0.072991304
83	0x3db01c9d	0.085992076
84	0xbe4bbb4d	-0.19895668
85	0xbd1687db	-0.036750656
86	0xbd67875e	-0.05652558
87	0x3d49e0a7	0.04928651
88	0xbc9ca7e4	-0.019123025
89	0xbd97d470	-0.07413566
90	0xbe63b789	-0.22237982
91	0x3dd32a92	0.10310854
92	0x3eb3b680	0.35100174
93	0x3cf157c0	0.029460788
94	0xbdd26073	-0.102723025
95	0x3d10b11b	0.03532515
96	0x3df2e92a	0.11860879
97	0x3cea731e	0.028619345
98	0x3d176a9d	0.03696691
99	0xbebfbe70	-0.3744998
100	0xbeab79b3	-0.33491287
101	0x3e00e8f3	0.12588863
102	0xbcbbb2d5	-0.022912422
103	0xbe64f690	-0.22359681
104	0xbd8af199	-0.06784362
105	0x3e4179e9	0.18894161
106	0xbe072021	-0.1319585
107	0xbe12f07d	-0.14349551
108	0x3e0789da	0.1323618
109	0xbb86f45b	-0.004118485
110	0xbcf36d2c	-0.029715143
111	0x3dca9b38	0.09892887
112	0x3d99ef5a	0.07516356
113	0x3dbdb99b	0.09263917
114	0xbcf731de	-0.030175146
115	0x3e7df583	0.24800687
116	0x3d895eb9	0.0670752
117	0x3df2d5d1	0.118571885
118	0x3de456e4	0.111493856
119	0xbe94a0ae	-0.2902884
120	0xbb581219	-0.0032969771
121	0x3e25570b	0.16146486
122	0x3d856692	0.06513704
123	0xbe99aefc	-0.30016315
124	0xbe0bd8e8	-0.13656962
125	0x3c096cdb	0.00838777
126	0xbdab9b04	-0.08379176
127	0xbe5c7c2b	-0.21531741
128	0xbea7b586	-0.3275568
129	0x3ec1f072	0.37878758
130	0x3e5c7933	0.21530609
131	0x3e1a9f59	0.15099849
132	0xbe2e7d67	-0.17040025
133	0xbc54ab35	-0.012980272
134	0x3b424abb	0.0029646594
135	0x3cb9edbf	0.022696374
136	0xbdb20e81	-0.08694173
137	0xbe2deeb3	-0.16985588
138	0xbd880fc8	-0.06643635
139	0xbc183d11	-0.009291903
140	0xbe37ce42	-0.17949775
141	0x3e40d657	0.18831764
142	0x3c818c4f	0.015813975
143	0xbe680b37	-0.22660528
144	0xbe8b17aa	-0.27166492
145	0xbe1fcf7b	-0.15606491
146	0x3c3d03b5	0.011536528
147	0xbe208bf7	-0.15678392
148	0xbde9a903	-0.114091896
149	0xbde2d371	-0.110754855
150	0xbe7cd0df	-0.24689053
151	0xbec4b2da	-0.38417703
152	0x3a0a872d	0.0005284425
153	0xbe19ff6e	-0.15038845
154	0xbe6c5921	-0.23080875
155	0x3e4404aa	0.19142404
156	0xbe4174ba	-0.18892184
157	0xbe546d49	-0.20744814
158	0xbe6022f2	-0.2188833
159	0x3d23d5ae	0.039998703
160	0xbe77a571	-0.24184205
161	0xbdb5e2a2	-0.088811174
162	0xbd5b38ae	-0.05352085
163	0xbda87855	-0.082260765
164	0xbe887d45	-0.26658073
165	0xbea03b71	-0.3129535
166	0xbe0e5349	-0.13898958
167	0xbbb0ee38	-0.0053994916
168	0xbe2d9e23	-0.16954856
169	0xbe004845	-0.12527569
170	0xbe820b0b	-0.2539905
171	0x3e1f2176	0.15540108
172	0xbe679c30	-0.22618175
173	0xbe5eb2af	-0.2174785
174	0xbe1d0e37	-0.15337454
175	0xbe1a4687	-0.15065967
176	0x3df9b669	0.12192995
177	0x3d9e36c1	0.07725287
178	0xbe64877b	-0.22317307
179	0xbe64c2b9	-0.22339906
180	0xbdec9932	-0.11552657
181	0x3e03eb9a	0.12882844
182	0x3e36fdd0	0.1787026
183	0xbea2dde9	-0.3180993
184	0xbecd65ec	-0.40116823
185	0xbd46e8de	-0.048561923
186	0xbd723b8e	-0.059138827
187	0xbd52a6d9	-0.05142865
188	0xbe738a57	-0.23783241
189	0xbe4a29bc	-0.19742483
190	0xbe4684d4	-0.19386607
191	0xbce053d3	-0.02738372
192	0xbd87a35f	-0.066229574
193	0xbe8fff7b	-0.28124604
194	0xbe669b32	-0.2252014
195	0xbcd8f532	-0.026484106
196	0xbcf4dd2b	-0.029890617
197	0x3b8cd1f7	0.0042974907
198	0x3e341738	0.17586982
199	0x3e1547fe	0.14578244
200	0x3e305955	0.17221577
201	0x3c69768c	0.014249455
202	0xbd3af7d5	-0.045646507
203	0xbee630f1	-0.44959214
204	0x3c1918b0	0.009344265
205	0x3df8e8af	0.12153756
206	0xbd91effe	-0.07125853
207	0x3d1a18aa	0.037621178
208	0x3dfe6062	0.12420727
209	0xbe062f11	-0.13103892
210	0x3ea2c051	0.3178735
211	0xbe220ff9	-0.15826406
212	0xbe429740	-0.1900301
213	0xbbeb1c6d	-0.0071750195
214	0x3e36dee0	0.17858458
215	0xbe9873da	-0.29775888
216	0x3e05cb38	0.13065803
217	0x3d961a93	0.073292874
218	0xbd34e46c	-0.044163153
219	0x3c468b6c	0.012118202
220	0xbe049b50	-0.12949872
221	0x3d3a343b	0.045459967
222	0xbe7debf5	-0.24797042
223	0xbe3e34cd	-0.1857483
224	0x3c799e49	0.015235492
225	0x3c2bf9b9	0.01049655
226	0x3db1d154	0.08682504
227	0xbd1810c6	-0.03712537
228	0x3e005664	0.12532955
229	0x3dc333dc	0.09531376
230	0x3917ba3b	0.00014469858
231	0x3d33a135	0.04385491
232	0x3db1c44f	0.08680021
233	0xbcde2166	-0.027115535
234	0xbdbae8d4	-0.0912644
235	0xbe7b88f6	-0.24563965
236	0xbe07ee31	-0.13274457
237	0x3d862619	0.06550235
238	0xbe303881	-0.17209055
239	0xbea87e2d	-0.32908764
240	0xbe989ad4	-0.29805624
241	0xbe7f6803	-0.24942021
242	0xbe959de1	-0.29222015
243	0xbe1cf2b1	-0.15326954
244	0x3d1d9ff5	0.038482625
245	0x3dfc33f2	0.12314595
246	0xbd411f3f	-0.04714894
247	0x3e991956	0.29902142
248	0xbea522fc	-0.32253253
249	0xbd5edcf3	-0.054409932
250	0xbe36629f	-0.17811058
251	0x3e42db6c	0.19029015
252	0xbd92f350	-0.071753144
253	0x3e2a4d3d	0.16631027
254	0x3cfbac2d	0.030721748
255	0x3e96177e	0.29314798

bias f4 [64]
0	0x3d64c1f3	0.055849027
1	0x3ce219d1	0.0276002
2	0xbe5ac77e	-0.21365163
3	0xbd63ec68	-0.055645376
4	0xbdf58af4	-0.11989394
5	0x3d24ec34	0.040264323
6	0x3d82afbb	0.06381174
7	0xbc8d9eb1	-0.017287584
8	0xbe6bdee3	-0.23034243
9	0xbe6524a9	-0.22377266
10	0x3dd16a32	0.10225333
11	0xbdbc4d6f	-0.09194457
12	0xbd80a2f6	-0.06281082
13	0xbe0a7b3a	-0.1352357
14	0xbe432c33	-0.1905983
15	0x3d5f4bc0	0.0545156
16	0xbd503909	-0.050835643
17	0xbc36f01d	-0.011165646
18	0xbe5717df	-0.210052
19	0x3dd6d88d	0.104905225
20	0x3da84fc9	0.08218343
21	0x3e1ead44	0.15495783
22	0x3db53bb3	0.08849277
23	0x3d2a9241	0.041643385
24	0xbcb25c9b	-0.021772673
25	0xbe5b62ee	-0.21424457
26	0xbe42d56e	-0.1902673
27	0xbd80fe98	-0.0629856
28	0x3d93f5a7	0.07224589
29	0xbd7eb735	-0.06218644
30	0x3d18d0a3	0.037308346
31	0xbd5a657c	-0.05331944
32	0xbda3c1b7	-0.079959325
33	0xbcdfe7c7	-0.0273322
34	0xbd85c809	-0.06532294
35	0xbe269335	-0.16267093
36	0xbdeed4f7	-0.116617136
37	0x3de6a43d	0.11261795
38	0x3d932f1a	0.07186718
39	0xbdc38148	-0.09546143
40	0xbe44693a	-0.19180766
41	0x3ebf524b	0.37367472
42	0xbdef094d	-0.11671696
43	0xbd168781	-0.03675032
44	0xbabf4712	-0.0014593324
45	0xbd41b568	-0.047292143
46	0xbdd63e2a	-0.104610756
47	0x3dd5b34b	0.10434588
48	0x3d8f4f31	0.069975264
49	0xbe743804	-0.23849493
50	0xbe3d5ff5	-0.18493636
51	0xbd6ec086	-0.058289073
52	0x3d18ca15	0.037302095
53	0x3d14f346	0.036364816
54	0xbdc720cd	-0.09723053
55	0xbe566a39	-0.20938958
56	0x3e05b764	0.13058239
57	0xbe461a07	-0.19345866
58	0xbe152b10	-0.14567208
59	0x3e1c2b18	0.15250814
60	0x3cf0a383	0.029374843
61	0x3d34fa6d	0.044184137
62	0xbe281643	-0.16414742
63	0xbe2d38df	-0.16916226

weight f4 [64, 64, 3, 3]
0	0xbd4ef1f2	-0.050523706
1	0xbc34ee90	-0.011043206
2	0xbe17cedb	-0.14825003
3	0x3c5e24c9	0.013558575
4	0xbb9255f0	-0.004465811
5	0x3d56f3a8	0.052478462
6	0x3cb8c5d8	0.022555277
7	0x3d1269b0	0.035745323
8	0xbdb7f36d	-0.08981977
9	0xbdee84e1	-0.116464384
10	0xbe131e6f	-0.14367078
11	0xbc4c0ca6	-0.0124541875
12	0x3cc424d6	0.023943346
13	0xbd8b930a	-0.06815155
14	0x3db269e9	0.08711607
15	0xbda229b1	-0.07918108
16	0x3cb8a11d	0.022537762
17	0x3b9c8b20	0.004777327
18	0xbda90486	-0.08252816
19	0xbd93466f	-0.071911685
20	0xbda4b73e	-0.08042763
21	0xbdaab73e	-0.08335732
22	0xbd65141a	-0.055927373
23	0x3c2691f5	0.010166635
24	0xb5dfe489	-1.6681307e-06
25	0xbd30dcf1	-0.043179456
26	0xbc5828bc	-0.013193306
27	0xbd634068	-0.055481344
28	0xbc005e4a	-0.00783498
29	0xbdfa19bc	-0.1221194
30	0xbdc8354e	-0.09775792
31	0xbe5a07cf	-0.21292041
32	0xbcd77a8c	-0.026303552
33	0xbd3bd464	-0.04585685
34	0xbd83c59f	-0.064341776
35	0xbcdea373	-0.027177548
36	0xbd18328c	-0.03715758
37	0xbd8c2982	-0.068438545
38	0xbcdd8621	-0.027041497
39	0xbdc93ba1	-0.098258264
40	0xbdca3b14	-0.098745495
41	0x3d79112e	0.0608074
42	0xbd1f154f	-0.03883868
43	0xbdaf70b2	-0.08566417
44	0xbd56817a	-0.052369572
45	0xbd4c6e5c	-0.049909934
46	0xbdbea4ca	-0.09308775
47	0x3bbee408	0.0058255233
48	0xbdc1259b	-0.09431001
49	0xbd9b8ecf	-0.07595598
50	0xbcb5c058	-0.022186443
51	0xbe22f499	-0.15913619
52	0xbdea8bc8	-0.114524424
53	0xbe32ea5b	-0.17472212
54	0xbd905934	-0.07048264
55	0xbdab7179	-0.083712526
56	0x3af7625f	0.0018873921
57	0xbd69a9a9	-0.057046566
58	0xbc3ddc77	-0.011588207
59	0x3d63ea4d	0.05564337
60	0xbe32ffab	-0.17480342
61	0xbd2f03fe	-0.042728417
62	0xbc008e75	-0.007846464
63	0xbd8cddfc	-0.06878278
64	0x3cafdab8	0.021466598
65	0xbda0b4a7	-0.07846957
66	0xbc583f41	-0.013198675
67	0x3c178424	0.009247813
68	0xbdef4388	-0.116828024
69	0xbd87b0fc	-0.06625554
70	0xbd52ac7b	-0.05143402
71	0xbdd3b4dc	-0.103372306
72	0x3ce688af	0.028141348
73	0xbd63aebc	-0.05558656
74	0xbd32987f	-0.043602463
75	0x3b719127	0.00368602
76	0xbdb89875	-0.09013454
77	0xbd5127d3	-0.05106337
78	0xbdc68107	-0.09692579
79	0xbdc84360	-0.09778476
80	0xbe26f488	-0.16304219
81	0xbdf11dbe	-0.11773251
82	0xbcc1267d	-0.023577923
83	0xbd6a9694	-0.05727251
84	0x3ca6d731	0.020366283
85	0xbcf8e5a9	-0.030382948
86	0xbc2020e5	-0.009773468
87	0xbd9dc9d3	-0.077045105
88	0xbdc4c4bb	-0.09607836
89	0xbdb99fcb	-0.09063681
90	0xbd33ac06	-0.043865226
91	0xbdd2f1e6	-0.10300045
92	0xbcb6162b	-0.022227367
93	0xbdadb667	-0.08482056
94	0x3d0ccfa3	0.034377705
95	0xbd908fdd	-0.0705869
96	0xbdcbedc2	-0.09957458
97	0xbca37716	-0.019954246
98	0xbd3c405c	-0.045959815
99	0x3caaf22a	0.020867426
100	0x3db27d91	0.08715356
101	0x3daf3567	0.085551076
102	0xbdb386bd	-0.08765934
103	0xbd44db27	-0.048060562
104	0x3d3a5699	0.045492742
105	0x3d8cf9f3	0.068836115
106	0xbde89156	-0.11355846
107	0x3d76653b	0.060155135
108	0xbe26b829	-0.16281189
109	0xbdfde51c	-0.12397215
110	0x3d87fef6	0.06640427
111	0x3c00160d	0.007817757
112	0x3bc63b5f	0.006049558
113	0xbda361a7	-0.0797761
114	0xbcc047cf	-0.023471741
115	0xbe218aa5	-0.15775545
116	0xbdbbb7d2	-0.0916592
117	0xbd8291ed	-0.063754894
118	0xbd3860be	-0.045014136
119	0xbe1682a1	-0.14698268
120	0xbdf74d83	-0.12075331
121	0xbdb4df65	-0.088316716
122	0xbdb450d1	-0.08804477
123	0xbc9aeaf4	-0.018910863
124	0xbdd784a0	-0.10523343
125	0xbe1afbf9	-0.15135182
126	0xbcb578e8	-0.02215238
127	0xbcedbf17	-0.029021783
128	0x3ccf3722	0.025294844
129	0xbbea10e8	-0.0071431287
130	0xbd7829b7	-0.060586657
131	0x3d0f81d4	0.035035923
132	0xbd3882df	-0.045046683
133	0xbe07c995	-0.13260491
134	0xbbf93c39	-0.007606056
135	0xbc03f719	-0.008054518
136	0x3d747f8d	0.059691954
137	0x3b48189a	0.0030532242
138	0x3dccc353	0.09998193
139	0xbdf2656b	-0.1183575
140	0xbd4eaf84	-0.050460353
141	0xbb7ab845	-0.0038256806
142	0xbda4f613	-0.080547474
143	0xbdf67c75	-0.12035457
144	0xbd93212d	-0.07184062
145	0x3c5ff1b5	0.013668467
146	0xbd805078	-0.06265348
147	0x3cb17973	0.021664357
148	0xbd3931f4	-0.045213655
149	0x3ae39341	0.0017362611
150	0xbddac5f1	-0.106822856
151	0x3d406eae	0.046980552
152	0xbcdad915	-0.02671484
153	0xbdff3f25	-0.12463216
154	0xbca499e2	-0.020092908
155	0xbe47f71a	-0.19527856
156	0xbd86d010	-0.065826535
157	0xbcfdc50f	-0.030977754
158	0x3d0216d4	0.03176005
159	0xbcfd5704	-0.030925281
160	0x3beff36c	0.0073227193
161	0xbdcd3a14	-0.10020843
162	0x3cb216b2	0.021739338
163	0x3bf8e4e0	0.0075956434
164	0x3d4d1db2	0.050077148
165	0xbdd3c8eb	-0.103410564
166	0x3de4c817	0.111709766
167	0x3c9dfcac	0.019285522
168	0x3d66e5da	0.056371547
169	0x3d0eb896	0.034844004
170	0x3d92caf8	0.071676195
171	0xbcb25db2	-0.021773193
172	0x3c77143f	0.015080511
173	0xbdf5706f	-0.11984336
174	0xbd5d3036	-0.054001056
175	0xbd1dfda9	-0.038571987
176	0xbd0e8a05	-0.034799594
177	0xbd53d268	-0.05171433
178	0x3d87c806	0.06629948
179	0xbdb9a0a9	-0.090638466
180	0x3d91d2fb	0.071203195
181	0xbd4c32b1	-0.04985303
182	0xbdeda7ba	-0.11604257
183	0x3c079c90	0.0082770735
184	0xbdaf9cdd	-0.08574841
185	0xbdf3b83f	-0.119003765
186	0xbcd3cbc5	-0.025854
187	0xbd85c3ae	-0.065314636
188	0x3d3eac0b	0.04655079
189	0xbd9a56b2	-0.07536067
190	0xbd8b764a	-0.06809671
191	0xbddfc380	-0.109259605
192	0xbcdf1986	-0.02723385
193	0x3d81210e	0.06305133
194	0xbdbf446e	-0.09339224
195	0xbdc291eb	-0.09500488
196	0xbe2b53bd	-0.16731162
197	0xbdcf2dba	-0.101161435
198	0xbd614664	-0.05499877
199	0x3cbd9bfd	0.02314567
200	0xbdb512b5	-0.08841459
201	0xbd78102c	-0.060562298
202	0xbd9c391f	-0.076280825
203	0xbda1ed98	-0.079066455
204	0x3a9b0d5c	0.0011829543
205	0xbe1a8b29	-0.15092148
206	0x3cc8ea39	0.024525749
207	0x3d0be007	0.034149196
208	0x3badff11	0.0053099473
209	0x3bfb75ed	0.00767397
210	0xbdb01d0c	-0.0859929
211	0xbd82c97a	-0.06386085
212	0xbe4be058	-0.19909799
213	0xbd38efc1	-0.045150522
214	0xbd5e544f	-0.05427962
215	0x3dc53dc0	0.096309185
216	0xbb8bd4cb	-0.0042673103
217	0xbe0078ea	-0.12546125
218	0xbb496639	-0.0030731095
219	0xbc4807a7	-0.012208856
220	0x3cd91e38	0.026503667
221	0xbccebba8	-0.025235966
222	0xbd691778	-0.056907147
223	0xbc10c009	-0.008834847
224	0xbd9b46a0	-0.0758183
225	0xbd8b1ad3	-0.06792226
226	0x3bd80b41	0.0065931384
227	0xbda8cfbb	-0.082427464
228	0x3d567902	0.052361496
229	0xbda578b0	-0.0807966
230	0xbcc6e7d1	-0.02428046
231	0x3c422cce	0.011851503
232	0xbddc6060	-0.107605696
233	0xbb0c15b7	-0.0021375248
234	0x3ca4a388	0.020097509
235	0xbca72f73	-0.020408368
236	0xbd738057	-0.059448566
237	0xbc9580b7	-0.018249853
238	0xbe0f0773	-0.13967685
239	0xbd70b407	-0.058765437
240	0xbd480f9a	-0.048843004
241	0xbc658197	-0.014007947
242	0x3d6d6e0b	0.057966273
243	0xbd65cfe7	-0.056106474
244	0xbdf6ac98	-0.120446384
245	0xbd262bd3	-0.040569138
246	0xbdcd72f7	-0.100316934
247	0x3cdaefff	0.026725767
248	0xbcfdaf8a	-0.030967493
249	0xbd669c20	-0.056301236
250	0xbde21e40	-0.11040926
251	0x3d814402	0.063117996
252	0xbd9a05f3	-0.07520666
253	0xbdbf5c33	-0.093437575
254	0xbd8f4cd5	-0.069970764
255	0xbdf23471	-0.11826409

bias f4 [64]
0	0xbd00e58c	-0.031468913
1	0xbd2ab182	-0.04167319
2	0xbd5d4ed7	-0.054030266
3	0xbcf47bba	-0.029844154
4	0xbd53ce82	-0.051710613
5	0xbd859e79	-0.06524367
6	0xbd7a9d49	-0.061185155
7	0xbd96248c	-0.073311895
8	0xbc9c92a8	-0.0191129
9	0xbd7434b7	-0.059620585
10	0xbd817676	-0.06321423
11	0xbba5233e	-0.0050396016
12	0xbdca6655	-0.098827995
13	0xbd6ad0cf	-0.05732804
14	0xbcd034c7	-0.025415791
15	0xbd06f330	-0.032946765
16	0xbd870a61	-0.065937765
17	0xbd8e5159	-0.069491096
18	0xbccc0472	-0.024904463
19	0xbd2bb102	-0.041916855
20	0xbd87ca81	-0.066304214
21	0xbda79531	-0.08182753
22	0xbdb6cc66	-0.08925705
23	0xbd280222	-0.04101766
24	0xbd70e2e7	-0.05881014
25	0xbc8da7db	-0.017291954
26	0xbda064e9	-0.07831747
27	0xbd27fec8	-0.041014463
28	0xbd657c4a	-0.056026734
29	0x3dbe57ce	0.09294091
30	0xbdb70a91	-0.08937562
31	0xbd9d11ca	-0.076694086
32	0xbd42e6db	-0.047583442
33	0xbd2ef80f	-0.042717036
34	0xbcf6f62e	-0.030146684
35	0xbdc15cf8	-0.094415605
36	0xbd1bcc8d	-0.03803687
37	0xbdba1887	-0.090867095
38	0xbdca9aa7	-0.09892779
39	0xbdc1030d	-0.0942441
40	0xbc25b210	-0.010113254
41	0xbd99076c	-0.07472119
42	0xbd19b5de	-0.037526958
43	0xbd42b9c2	-0.047540434
44	0xbdbabce4	-0.09118059
45	0xbda042a7	-0.07825213
46	0xbd8d1eb4	-0.06890622
47	0xbd6176c5	-0.055044908
48	0xbd88583a	-0.06657453
49	0xbd902560	-0.07038379
50	0xbd40c3c5	-0.0470617
51	0xbd0d6a2f	-0.034525093
52	0xbd60e9ce	-0.054910474
53	0xbd6d432f	-0.0579254
54	0xbda48986	-0.08034043
55	0xbd059a0f	-0.032617625
56	0xbd6c11ad	-0.057634044
57	0xbd190ece	-0.037367634
58	0x3cf76916	0.030201476
59	0x3d5a952d	0.05336492
60	0xbdae7a4e	-0.085194215
61	0xbc268aa5	-0.010164891
62	0xbd6c39aa	-0.05767218
63	0xbda0e6a4	-0.07856491

weight f4 [32, 64, 3, 3]
0	0x3dcfbaa6	0.10143022
1	0x3d8799b7	0.06621116
2	0xbce4305e	-0.027855095
3	0xbcddd8bf	-0.027080892
4	0x3e4e1765	0.20126112
5	0xbd059931	-0.032616798
6	0x3e08e9c8	0.1337043
7	0x3d93ffac	0.072265
8	0x3dc8c5b3	0.09803333
9	0x3d97779a	0.07395859
10	0x3d41b73f	0.047293898
11	0x3d047f7a	0.032348134
12	0x3d05fc14	0.032711104
13	0x3e236d23	0.15959601
14	0x3d3c8be5	0.04603185
15	0x3e2b7da7	0.16747151
16	0x3cb082b9	0.021546708
17	0x3da23b2e	0.07921444
18	0x3e0e9b5a	0.1392645
19	0x3de83e0b	0.11339959
20	0x3e023f6d	0.12719508
21	0x3d444ca9	0.04792467
22	0x3d567930	0.052361667
23	0x3db9377a	0.090437844
24	0x3db7a0b1	0.08966196
25	0x3de9711e	0.113985285
26	0x3dcd6051	0.100281365
27	0xbda37c80	-0.07982731
28	0xbe3c582d	-0.18393011
29	0xbd381e31	-0.044950668
30	0xbdab38f1	-0.0836047
31	0x3d43d985	0.047814865
32	0x3c19cfaf	0.0093878945
33	0xbc22405b	-0.009903039
34	0xbda22ac7	-0.079183154
35	0x3d80e7f2	0.0629424
36	0x3d2da54f	0.04239398
37	0xbd8ab72e	-0.0677322
38	0xbd898b03	-0.067159675
39	0x3c0aa159	0.00846132
40	0xbd7fd203	-0.062456142
41	0xbde5b422	-0.11215998
42	0xbce0c481	-0.02743745
43	0xbced89fe	-0.028996464
44	0x3ce48d23	0.02789933
45	0x3d87e533	0.06635513
46	0x3ca8778c	0.020564817
47	0xbcdabe0b	-0.026701948
48	0x3df0696c	0.117388576
49	0x3ba512d5	0.0050376453
50	0x3dec6f64	0.115446836
51	0x3e408a8b	0.1880285
52	0x3d675bab	0.056483906
53	0x3c0276cc	0.007962894
54	0xbd9e647d	-0.0773401
55	0xbd34c86c	-0.04413645
56	0xbd951032	-0.0727848
57	0xbcdf7413	-0.027277028
58	0xbdef9042	-0.11697437
59	0xbc29cabf	-0.01036328
60	0xbc5d6679	-0.013513201
61	0xbd35c3c2	-0.044376142
62	0xbdad3007	-0.08456426
63	0x3c8aa2e3	0.016923374
64	0xbd9ce9ed	-0.07661805
65	0x3d975f3e	0.07391213
66	0xbd940adf	-0.07228636
67	0xbbffea31	-0.0078099
68	0xbd94d234	-0.072666556
69	0xbdb82af8	-0.08992571
70	0xbcb87791	-0.022517951
71	0xbe1a974f	-0.15096782
72	0xbcb5ac42	-0.022176865
73	0xbd4703ec	-0.048587725
74	0xbd64baa7	-0.055842068
75	0x3b9961d2	0.0046808505
76	0xbc9ea2d2	-0.019364748
77	0x3c889189	0.01667096
78	0xbcc30219	-0.023804711
79	0x3d3275b4	0.04356928
80	0xbdbbe884	-0.09175208
81	0xbd3592b5	-0.044329364
82	0x3c63d952	0.013906794
83	0x3db82381	0.08991147
84	0xbd9827dc	-0.074294776
85	0xbda8a6bb	-0.08234926
86	0x3c35ef17	0.011104367
87	0xbd07e4bc	-0.033177122
88	0x3c248b89	0.010043033
89	0xbd43f371	-0.047839586
90	0xbcd6f536	-0.026239973
91	0xbe06d3b3	-0.13166694
92	0xbd2d96f8	-0.042380303
93	0xbcef40ba	-0.029205669
94	0xbdd379f8	-0.10325998
95	0x3bc6b406	0.006063941
96	0xbd995aff	-0.07488059
97	0xbdb8d718	-0.09025401
98	0xbdb875f8	-0.09006876
99	0xbdb533be	-0.0884776
100	0xbe00e6eb	-0.12588088
101	0x3a1d98fd	0.0006011872
102	0xbc3c729c	-0.011501934
103	0xbcf69032	-0.030098055
104	0xbd4f35c9	-0.050588403
105	0x3c9e2063	0.019302553
106	0xbc66ec5f	-0.014094441
107	0x3c1ed170	0.0096934885
108	0x3c98b825	0.018642494
109	0xbdac31df	-0.0840795
110	0xbdc65f82	-0.096861854
111	0xbdc10c41	-0.09426165
112	0xbe2de5c9	-0.16982187
113	0xbd886b44	-0.06661084
114	0xbdeba426	-0.11505918
115	0xbd9c3df1	-0.07629002
116	0xbca36350	-0.019944817
117	0xbafe9518	-0.0019423096
118	0x3c3d06ad	0.011537236
119	0xbd1e472f	-0.038642105
120	0xbdb2ecb8	-0.08736557
121	0xbdcf3341	-0.10117198
122	0xbe166e6e	-0.14690563
123	0xbcc7a824	-0.024372168
124	0xbcc8d86f	-0.024517266
125	0xbce6cdb1	-0.028174253
126	0x3dc4b647	0.09605079
127	0x3d785d2a	0.060635723
128	0x3d8df4dc	0.06931469
129	0xbb8c11d5	-0.0042745867
130	0x3df56bd3	0.119834565
131	0xbcb5e80a	-0.022205371
132	0xbd1ad5af	-0.03780144
133	0x3db9ed51	0.09078468
134	0xbce07eaf	-0.027404157
135	0x3b21e7b6	0.002470476
136	0x3cac3efe	0.02102613
137	0xbe27ff2e	-0.16405937
138	0xbce3d13b	-0.02780973
139	0xbd868158	-0.06567639
140	0x3cd64671	0.026156636
141	0xbca00a92	-0.01953629
142	0xbd9c637d	-0.076361634
143	0xbcc44b5a	-0.023961712
144	0xbdce8ea1	-0.10085798
145	0x3da62d9b	0.08114167
146	0xbdd0ebc9	-0.102012224
147	0xbc4caa16	-0.0124917235
148	0x3d64d7b4	0.055869773
149	0xbcc46e73	-0.023978448
150	0xbd7cf0af	-0.06175297
151	0xbdbc9657	-0.092083625
152	0xbd423008	-0.047409087
153	0xbc219d17	-0.009864113
154	0xbdd3a043	-0.10333302
155	0x3d1dda52	0.038538285
156	0xbd82ec23	-0.06392696
157	0xbd28bf63	-0.041198146
158	0xbd9c29c3	-0.07625153
159	0xbcfa228e	-0.030534055
160	0xbc9330b6	-0.017967563
161	0xbdcd21b3	-0.10016193
162	0x3c943ac6	0.018094432
163	0xbc1e5a7a	-0.009665126
164	0x3dc2d1d4	0.09512678
165	0x3e01c489	0.12672628
166	0x3c365c00	0.011130333
167	0x3d0e5f1c	0.034758672
168	0x3d90187c	0.0703592
169	0xbbefcfb8	-0.007318463
170	0x3dad9776	0.084761545
171	0x3cb10eff	0.021613596
172	0xbc3db5ef	-0.011579021
173	0xbd6d86c8	-0.057989866
174	0xbda3c7e8	-0.079971135
175	0xbd950828	-0.07276946
176	0x3ba4a25b	0.005024237
177	0xbe277669	-0.16353764
178	0xb9a828a3	-0.00032073734
179	0xbca54b51	-0.020177515
180	0xbe0edee9	-0.13952221
181	0xb9ee2545	-0.00045422665
182	0x3d0189ff	0.031625744
183	0xbdd58e16	-0.10427491
184	0xbdf00a4e	-0.117207155
185	0x3ddf8e3f	0.10915803
186	0xbcdda9ef	-0.02705857
187	0xbd78df4c	-0.060759827
188	0x3d341d02	0.043972977
189	0xbdb8fdab	-0.09032758
190	0x3d1f14ec	0.038838312
191	0xbde924da	-0.11383982
192	0xbd3a6cdd	-0.045513976
193	0xbd2f7523	-0.04283632
194	0x3e0ed1dc	0.13947242
195	0x3d7296d8	0.059225887
196	0xbdca7980	-0.098864555
197	0xbdd97d91	-0.10619653
198	0x3e0c84c7	0.13722526
199	0x3d66c1c6	0.05633714
200	0x3e12546a	0.14290014
201	0xbd299fc7	-0.04141214
202	0xbd1cf253	-0.038317036
203	0x3e0c31e7	0.13690911
204	0x3d8c4800	0.068496704
205	0x3d75f32c	0.06004636
206	0x3ba2bc6a	0.0049663084
207	0x3bd06327	0.006359476
208	0xbd8a9cd0	-0.06768191
209	0xbd1cc967	-0.03827801
210	0xbd91835d	-0.07105134
211	0xbd63f084	-0.055649295
212	0xbcc26522	-0.023729865
213	0xbd964579	-0.073374696
214	0xbb39fdda	-0.0028380067
215	0xbdf52c87	-0.119713835
216	0xbc855b1f	-0.016278801
217	0x3b647aa9	0.003486315
218	0xbda29224	-0.0793803
219	0xbe22cdac	-0.1589877
220	0xbb6486af	-0.0034870317
221	0xbc6db534	-0.014508534
222	0xbdd241be	-0.102664456
223	0xbdc55aad	-0.09636436
224	0x3cae2597	0.021258159
225	0x3ce8b32c	0.028405748
226	0x3d36510e	0.044510894
227	0xbdba90ba	-0.09109636
228	0xbe094705	-0.13405998
229	0xba72ec41	-0.0009266772
230	0xbd1d6e92	-0.038435526
231	0xbbb204c4	-0.005432697
232	0xbe0247ab	-0.12722652
233	0xbd7a2df1	-0.06107897
234	0x3df816d0	0.12113726
235	0x3d837df3	0.06420507
236	0xbca8537d	-0.020547623
237	0xbd7425ba	-0.05960629
238	0xbb5a6eb6	-0.003333015
239	0x3d9f0a40	0.07765627
240	0xbb879e48	-0.0041387416
241	0x3d9bc520	0.07605958
242	0x3d2946b0	0.04132718
243	0xbdd39443	-0.10331013
244	0xbd91d0c1	-0.07119895
245	0x3bdce92e	0.0067416644
246	0x3bc1a7d8	0.005909901
247	0xbd00745b	-0.031360965
248	0xbdf9cf84	-0.121977836
249	0xbdb355c5	-0.087565936
250	0xbcb5c4b1	-0.022188516
251	0xbdf7ef3b	-0.121061765
252	0xbd3d5247	-0.046221044
253	0x3d3a8825	0.045539994
254	0x3e481d97	0.19542538
255	0xbc4a2572	-0.012338029

bias f4 [32]
0	0xbdaa447a	-0.08313842
1	0xbc9209f0	-0.017827004
2	0xbdb0c97f	-0.08632182
3	0x3e3fa8ac	0.18716687
4	0xbdacbf37	-0.08434909
5	0xbd6654f7	-0.056233373
6	0x3c4f368a	0.0126472805
7	0xbd3fcfc4	-0.046829
8	0xbdcb6948	-0.0993219
9	0x3e202a7c	0.15641207
10	0x3e0b26ac	0.13588971
11	0xbd37c58c	-0.04486613
12	0xbdb1e663	-0.08686521
13	0xbd6ce49f	-0.057835218
14	0xbd1805ef	-0.037115034
15	0xbd8a9782	-0.06767179
16	0xbcc3bf1e	-0.023894843
17	0xbde09c76	-0.109673426
18	0xbd8cb638	-0.06870693
19	0xbdb57cbe	-0.08861683
20	0x3d52d1e6	0.051469706
21	0xbdaa4212	-0.08313383
22	0xbdb334e9	-0.08750326
23	0x3e067d30	0.13133693
24	0xbd9eb48f	-0.077492826
25	0xbd453e9f	-0.048155423
26	0xbda0aba8	-0.07845241
27	0xbd129e39	-0.035795424
28	0xbda19c93	-0.07891192
29	0xbd4a53d9	-0.04939637
30	0xbd3d5be8	-0.046230227
31	0x3df5f228	0.12009078

weight f4 [16, 32, 3, 3]
0	0x3d4e2bb6	0.050334655
1	0xbd6645b7	-0.05621883
2	0xbdefc8d9	-0.117082305
3	0x3c6ac04c	0.014328074
4	0xbda1be1a	-0.07897587
5	0xbe0bfa95	-0.13669808
6	0xbe433962	-0.19064859
7	0x3d38f8ae	0.045159034
8	0xbe061aed	-0.13096209
9	0x3d7c0671	0.06152958
10	0x3d88549c	0.06656763
11	0x3d99ed03	0.075159095
12	0x3e1c4199	0.15259399
13	0x3d96325e	0.073338255
14	0x3d039e6d	0.03213351
15	0xbd1caaa9	-0.03824869
16	0x3d6e4fdc	0.05818163
17	0x3d992117	0.074770145
18	0xbd991db1	-0.07476366
19	0x3cafd5b8	0.021464214
20	0x3c83ce81	0.01608968
21	0xbdc82b51	-0.09773887
22	0xbd0bbc13	-0.03411491
23	0x3d7f7f84	0.062377468
24	0xbc8da50a	-0.01729061
25	0x3d67579f	0.056480046
26	0xbd64c30e	-0.05585008
27	0x3e4bde7f	0.19909094
28	0x3e800103	0.25000772
29	0x3e0dc204	0.13843542
30	0x3df7eb45	0.12105421
31	0x3eacc6ea	0.3374551
32	0x3dc5abd0	0.09651911
33	0x3e4b88ef	0.19876455
34	0x3e298e12	0.16558102
35	0x3ca1255d	0.019671137
36	0xbd6f996b	-0.05849592
37	0xbbdb8b26	-0.0066999374
38	0xbe1b28c3	-0.15152268
39	0xbc30930d	-0.010777247
40	0xbc8acffb	-0.016944876
41	0xbd6de5e9	-0.058080588
42	0xbd18c6ff	-0.037299152
43	0xbd74b76e	-0.059745245
44	0x3d18707a	0.03721664
45	0xbd37816b	-0.044801157
46	0xbbfef47e	-0.0077806106
47	0xbd21b8d2	-0.0394829
48	0xbcb7f502	-0.022455696
49	0x3d8bd6b1	0.068280585
50	0xbd577744	-0.052603975
51	0x3d429314	0.047503546
52	0x3d4e7c95	0.05041178
53	0xbd10e4d0	-0.035374463
54	0xbe2482c1	-0.16065504
55	0x3e31f3a4	0.17378098
56	0x3cbb90f0	0.02289626
57	0xbd2efd0e	-0.0427218
58	0x3def0adf	0.11671995
59	0x3df09b04	0.11748317
60	0xbcaef9b0	-0.021359295
61	0xbc967273	-0.01836512
62	0xbe381f32	-0.1798065
63	0x3baa924f	0.0052054296
64	0x3c2cc12d	0.010544104
65	0x3c89f118	0.016838595
66	0xbdf47cfa	-0.119379
67	0xbda1ec16	-0.07906358
68	0xbd69a1d3	-0.057039093
69	0xbde4096c	-0.111346096
70	0x3cc0eff0	0.023551911
71	0xbd0825ba	-0.033239104
72	0x3cb93902	0.022610191
73	0x3cfb90af	0.030708639
74	0xbca9f557	-0.02074687
75	0x3da63d01	0.08117104
76	0x3d8f469a	0.06995888
77	0x3ccbdd47	0.024885787
78	0x3da4ff77	0.080565386
79	0xbe12c8ba	-0.14334384
80	0xbd73d576	-0.059529744
81	0x3de2fa6f	0.11082923
82	0x3db2167f	0.08695697
83	0x3d8aa111	0.06769002
84	0x3cda59dc	0.026654176
85	0x3e39afd7	0.18133484
86	0x3e662a3a	0.22477046
87	0x3de29a22	0.11064555
88	0xbd0b0fd0	-0.033950627
89	0x3c865c1c	0.016401343
90	0x3e0e579f	0.13900612
91	0x3e8f8d6f	0.28037593
92	0x3e0aa3d2	0.13539055
93	0x3e513a44	0.20432383
94	0x3e1dab09	0.15397276
95	0x3dbd5aa1	0.09245802
96	0x3e0fffe8	0.14062464
97	0x3e07cc3a	0.132615
98	0x3d007c83	0.031368744
99	0x3ddecba9	0.10878689
100	0xbd0f44f2	-0.03497786
101	0x3ce324e6	0.027727555
102	0x3db52510	0.0884496
103	0xbc44f67c	-0.012021657
104	0xbd60e9d7	-0.054910507
105	0x3da0d4b2	0.078530684
106	0x3da2a9ae	0.0794252
107	0x3c9e783e	0.019344445
108	0x3d55accd	0.05216675
109	0x3dc2af8f	0.095061414
110	0xbd10f7c2	-0.03539253
111	0x3def0670	0.1167115
112	0x3923e97c	0.00015631871
113	0xbd7ba072	-0.06143231
114	0x3d16cc2d	0.03681581
115	0x3e0c7aa1	0.13718654
116	0x3d8967fe	0.06709288
117	0xbd8909e9	-0.06691343
118	0x3b6a76c3	0.0035776354
119	0x3d554dc4	0.052076116
120	0xbd97e073	-0.07415857
121	0xbe2d6326	-0.16932353
122	0xbe06b9fd	-0.13156886
123	0xbdba876a	-0.091078594
124	0xbdc1f538	-0.094706
125	0x3c3a0c25	0.011355435
126	0x3b8fb27b	0.00438529
127	0xbd984e98	-0.074368656
128	0x3b6067ba	0.0034241513
129	0xbd7ed304	-0.06221296
130	0xbd0ffaf2	-0.03515143
131	0x3cfbf88b	0.030758163
132	0x3d2c5bc7	0.042079713
133	0xbd328181	-0.043580536
134	0xbdfd0301	-0.123540886
135	0x3d0315db	0.032003265
136	0x3e0720bb	0.1319608
137	0x3caa3917	0.020779176
138	0x3d0ddf43	0.034636747
139	0x3debf4cf	0.11521303
140	0x3da44eea	0.08022864
141	0x3d90437f	0.07044124
142	0x3de49bec	0.11162552
143	0x3e10acc7	0.1412841
144	0x3c9033c5	0.01760281
145	0xbcba5b93	-0.022748744
146	0xbd2a7542	-0.041615732
147	0xbdef1faf	-0.11675965
148	0x3d973fa5	0.07385186
149	0xbddf6a07	-0.10908895
150	0xbc847cc2	-0.01617277
151	0x3d895198	0.06705016
152	0xbd9d4212	-0.076786175
153	0x3cd02448	0.025407925
154	0xbcdb786d	-0.026790822
155	0x3b95da45	0.004573139
156	0x3dc14036	0.094360754
157	0x3d3e5570	0.0464682
158	0x3d719cba	0.058987357
159	0x3d64773b	0.05577777
160	0x3d1127ba	0.035438277
161	0x3d359505	0.04433157
162	0xbc21ac20	-0.009867698
163	0x3d250f1c	0.040297613
164	0xbdeff891	-0.11717332
165	0xbd685fdd	-0.056732047
166	0x3b6286d6	0.0034565232
167	0xbd2233ae	-0.039600067
168	0x3d2d5b1e	0.042323224
169	0xbd1b81d2	-0.037965603
170	0x3c319f59	0.010841214
171	0x3d3c9962	0.046044715
172	0xbdb462b0	-0.08807886
173	0xbd5301cd	-0.05151539
174	0x3e1a0687	0.15041552
175	0xbd9b9fff	-0.07598876
176	0xbb26ec9a	-0.0025470615
177	0xbdc322b1	-0.09528101
178	0xbd9df934	-0.07713547
179	0xbd8ffe41	-0.07030917
180	0xbd2f7d9c	-0.0428444
181	0xbc6a7f42	-0.014312567
182	0xbdc1aa18	-0.09456271
183	0x3efad577	0.48990986
184	0x3f00e532	0.50349724
185	0x3f18a8c2	0.59632504
186	0x3db00dbc	0.085963696
187	0x3d1fb0ca	0.03898696
188	0x3d518859	0.051155422
189	0xbdc6ec96	-0.09713094
190	0xbd3735ad	-0.044728924
191	0xbd796ae0	-0.06089294
192	0x3d8d8532	0.069101706
193	0xbd36c98b	-0.0446258
194	0xbdd13d4c	-0.102167696
195	0xbdfe5e90	-0.1242038
196	0xbdec81f6	-0.115482256
197	0xbd7d0be9	-0.061778937
198	0x3da35c2e	0.07976566
199	0x3d6d517a	0.05793903
200	0xbd997c75	-0.074944414
201	0xbc9e155d	-0.019297296
202	0xbcc8bfc7	-0.024505509
203	0x3cd79a9b	0.026318839
204	0x3d829d37	0.063776426
205	0x3cd0db9e	0.025495347
206	0xbdc21671	-0.094769366
207	0x3e096c6e	0.13420269
208	0x3e061d43	0.130971
209	0x3e2f1049	0.17096056
210	0x3e3a1edb	0.18175833
211	0x3dfc8a67	0.12331086
212	0x3e37803b	0.1792001
213	0x3e257c88	0.16160786
214	0x3df40e75	0.1191682
215	0x3d806127	0.0626853
216	0x3e1446f2	0.14480188
217	0xbb98643c	-0.0046506207
218	0xbc21b669	-0.00987015
219	0x3cdecd18	0.027197406
220	0xbd0af98f	-0.033929404
221	0x3e1d7fc1	0.15380765
222	0xbca0b173	-0.019615864
223	0x3e63cf6e	0.22247097
224	0xbcec22a9	-0.028825121
225	0x3c3d050a	0.011536846
226	0x3d33affd	0.043869007
227	0x3db3788b	0.08763226
228	0xb8237bf3	-3.8977665e-05
229	0x3d9d0718	0.07667369
230	0xbd0a2d9e	-0.03373491
231	0x3db0b742	0.08628704
232	0x3cfed1ae	0.031105842
233	0x3e5414e5	0.20711096
234	0x3e232ab7	0.15934263
235	0x3e1e98dd	0.15488
236	0xbaeaf630	-0.0017926153
237	0x3d2e2b76	0.042521916
238	0x3da83b77	0.08214467
239	0xbb02cbe1	-0.0019957947
240	0x3dcc87a3	0.09986808
241	0x3d7a92fc	0.06117533
242	0x3d1ba277	0.037996735
243	0xbcd02b52	-0.025411282
244	0x3c83fbd0	0.016111284
245	0xbe07985b	-0.13241713
246	0xbcd30f91	-0.025764259
247	0xbd21f46c	-0.03953974
248	0xbe47d339	-0.19514169
249	0xbd3eae82	-0.046553142
250	0xbcea0de6	-0.02857108
251	0xbe374cff	-0.17900465
252	0xbe3b3bfb	-0.182846
253	0xbd3e79ff	-0.046503063
254	0x3c733380	0.0148438215
255	0xbd6151b3	-0.055009555

bias f4 [16]
0	0x3b3a58c8	0.0028434265
1	0x3d0eb47a	0.034840085
2	0x3d189d47	0.037259366
3	0x3d670383	0.056399833
4	0x3cab4cdd	0.020910675
5	0xbc8b6385	-0.017015228
6	0xbb55e73c	-0.0032639047
7	0x3dc149c4	0.09437898
8	0x3d6b25a8	0.05740896
9	0x3d1a3d94	0.03765638
10	0x3d703e54	0.05865319
11	0x39d1e87c	0.000400368
12	0x3d854632	0.06507529
13	0x3d8552c4	0.06509927
14	0x3d6f4f0b	0.05842499
15	0x3d42e135	0.047578055
