super_resolution/checkpoint_scale4/model_epoch_7.pth (torch_old, 260873 bytes, 8 tensors)

weight f4 [64, 1, 5, 5]
-0.087380774 -0.2726501 -0.3164032 -0.01833129 -0.1303274 -0.0017901771 0.2655203 -0.2460046
0.14629363 -0.20326842 -0.25837702 -0.4680699 -0.22856158 -0.0150463 -0.4938463 -0.09548972
-0.10855207 0.12314042 0.1216014 -0.04974404 -0.19145598 -0.2638 -0.241776 0.04608319
-0.1807194 -0.046742294 0.14345734 -0.19281603 -0.12281593 -0.1680207 -0.08242097 0.08949208
-0.16164394 -0.23044552 -0.16327016 -0.17396577 0.09467612 -0.23469551 -0.13037443 0.03586163
0.05308836 -0.4161336 -0.16503559 -0.21656615 0.23766312 -0.023436088 0.013818647 -0.02951307
-0.077709295 -0.42242378 0.1169706 -0.3299552 -0.008094437 0.23246464 -0.0010074715 -0.18115763
-0.019655889 -0.06783635 0.034923803 -0.2955757 -0.12386533 -0.27961493 -0.025224812 -0.043185577
-0.00822707 -0.3151222 -0.0021355548 0.01340208 -0.097283244 0.008029062 0.00417954 -0.005581547
0.013049564 -0.12277967 0.1657171 -0.3239871 0.11707216 -0.2209309 -0.2511001 -0.27147332
0.006157905 -0.24938317 -0.07303502 0.08598321 -0.19896473 -0.03683901 -0.05660444 0.04914037
-0.019176535 -0.07417515 -0.22254226 0.10298105 0.35084176 0.029449673 -0.102694295 0.035165075
0.118505135 0.0285235 0.036993466 -0.37445688 -0.33678514 0.12432251 -0.024017468 -0.22456725
-0.06976734 0.18710898 -0.1335306 -0.14469837 0.13132587 -0.0060304734 -0.031528216 0.097154215
0.073729075 0.09156311 -0.03198884 0.24606456 0.065049686 0.11700659 0.11054527 -0.29193524
-0.004906049 0.159601 0.06361116 -0.30106705 -0.1381346 0.007995552 -0.08418375 -0.21569166
-0.32793665 0.37842235 0.21493506 0.1506531 -0.17070127 -0.013341592 0.0025770925 0.022262802
-0.08729322 -0.17013222 -0.0668005 -0.009759591 -0.17940159 0.18835941 0.015857251 -0.22653179
-0.27158025 -0.15601969 0.0115509415 -0.15674797 -0.11402812 -0.11069119 -0.24715522 -0.38444766
-0.00082217914 -0.15132426 -0.2316225 0.19116476 -0.18912484 -0.20895502 -0.21997854 0.03907553
-0.24229549 -0.08915423 -0.05528276 -0.08370234 -0.26776305 -0.31342524 -0.1394067 -0.0069147814
-0.17083457 -0.12634301 -0.2544547 0.15482427 -0.2274623 -0.21853293 -0.15427881 -0.15208505
0.12005518 0.07528657 -0.22325706 -0.22346412 -0.11692866 0.12704913 0.17687957 -0.3181449
-0.40122712 -0.04973326 -0.06036428 -0.052550916 -0.23786107 -0.19747698 -0.19443685 -0.02788773
-0.06644452 -0.28127086 -0.22525331 -0.027003441 -0.030338893 0.004162251 0.17583568 0.14571267
0.17219478 0.014236246 -0.045653403 -0.44959593 0.009340294 0.12151576 -0.071272425 0.037614483
0.124203436 -0.13104242 0.31785053 -0.1582788 -0.1900371 -0.0071793017 0.17858048 -0.29775634
0.13066024 0.07329534 -0.044160057 0.012122015 -0.12949665 0.04546207 -0.24796832 -0.18574618
0.015237548 0.010498681 0.08682713 -0.03712325 0.12533163 0.095315844 0.00014683083 0.04385703
0.0868023 -0.027113406 -0.09126231 -0.24563758 -0.1327425 0.06550444 -0.17208847 -0.3290856
-0.2980542 -0.24941814 -0.2922181 -0.15326747 0.038484745 0.12314804 -0.04714682 0.29902348
-0.32253048 -0.054407813 -0.1857929 0.18139587 -0.07998815 0.15929209 0.024710733 0.2918453
00000000: b1f4 b2bd cb98 8bbe 9aff a1be 802b 96bc
00000010: 8c74 05be 60a4 eaba 47f2 873e a1e8 7bbe
00000020: ffcd 153e 9925 50be fe49 84be dca6 efbe
00000030: 0c0c 6abe c284 76bc 6cd9 fcbe 1d90 c3bd
00000040: 8c50 debd 0b31 fc3d 280a f93d 68c0 4bbd
00000050: 090d 44be cb10 87be 2194 77be bac1 3c3d
00000060: 820e 39be d974 3fbd 7be6 123e 9171 45be
00000070: eb86 fbbd 9e0d 2cbe 53cc a8bd a047 b73d
00000080: fd85 25be e9f9 6bbe 4b30 27be 1524 32be
00000090: 8ee5 c13d 0554 70be e080 05be a5e3 123d
000000a0: 2e73 593d 770f d5be 17ff 28be 84c3 5dbe
000000b0: f65d 733e 0afd bfbc 9b67 623c 65c5 f1bc
000000c0: 0d26 9fbd ee47 d8be 488e ef3d e3ef a8be
000000d0: 889e 04bc 360b 6e3e 220d 84ba 6381 39be
000000e0: 6305 a1bc c9ed 8abd 430c 0f3d b355 97be
000000f0: 1bad fdbd b029 8fbe 44a4 cebc 5ce3 30bd
00000100: d5ca 06bc b257 a1be aaf4 0bbb 6694 5b3c
00000110: 703c c7bd 548c 033c 86f4 883b 69e5 b6bb
00000120: d7cd 553c e873 fbbd beb1 293e a3e1 a5be
00000130: 87c3 ef3d b63b 62be 3190 80be 8dfe 8abe
00000140: 40c8 c93b 4d5e 7fbe 6293 95bd f717 b03d
00000150: 69bd 4bbe 80e4 16bd 0fda 67bd 6a47 493d
00000160: 1c18 9dbc 24e9 97bd 1ee2 63be bbe7 d23d
00000170: 88a1 b33e 7140 f13c 6351 d2bd 4109 103d
00000180: d2b2 f23d 1daa e93c 7686 173d d0b8 bfbe
00000190: 1a6f acbe cd9c fe3d 48c0 c4bc f5f4 65be
000001a0: 2ee2 8ebd 7f99 3f3e 3fbc 08be cf2b 14be
000001b0: 4a7a 063e 479b c5bb bb23 01bd caf8 c63d
000001c0: 45ff 963d 7185 bb3d bb06 03bd 59f8 7b3e
000001d0: c538 853d 27a1 ef3d 8f65 e23d 8978 95be
000001e0: ecc2 a0bb 726e 233e 9146 823d 7625 9abe
000001f0: 2873 0dbe c7ff 023c 8868 acbd 46de 5cbe
00000200: 50e7 a7be 93c0 c13e f017 5c3e ce44 1a3e
00000210: 50cc 2ebe b196 5abc 70e4 283b 7b60 b63c
00000220: cac6 b2bd 2437 2ebe b3ce 88bd b1e6 1fbc
00000230: 0db5 37be 4ae1 403e 11e7 813c f3f7 67be
00000240: 910c 8bbe a0c3 1fbe 2940 3d3c 8a82 20be
00000250: 9387 e9bd 10b2 e2bd 4216 7dbe 53d6 c4be
00000260: 8287 57ba bff4 1abe 732e 6dbe b2c0 433e
00000270: f1a9 41be 4ef8 55be 0e42 61be aa0d 203d
00000280: 4f1c 78be 7e96 b6bd 2d70 62bd 226c abbd
00000290: 3d18 89be 4679 a0be a1c0 0ebe 6495 e2bb
000002a0: 42ef 2ebe 1060 01be e347 82be 418a 1e3e
000002b0: e1eb 68be 19c7 5fbe 44fb 1dbe 2fbc 1bbe
000002c0: 7ddf f53d d82f 9a3d 809d 64be c7d3 64be
000002d0: 4b78 efbd 2b19 023e eb1f 353e e3e3 a2be
000002e0: a46d cdbe 1ab5 4bbd 8940 77bd a13f 57bd
000002f0: da91 73be 6837 4abe 741a 47be cf74 e4bc
00000300: 1114 88bd bc02 90be cea8 66be 5236 ddbc
00000310: 4589 f8bc 7e63 883b 450e 343e b435 153e
00000320: d453 303e 253f 693c 10ff 3abd 7031 e6be
00000330: 0808 193c 41dd f83d 47f7 91bd a511 1a3d
00000340: 5f5e fe3d fc2f 06be 4ebd a23e d613 22be
00000350: 1699 42be 5940 ebbb cddd 363e 8573 98be
00000360: cccb 053e de1b 963d 2de1 34bd 6a9b 463c
00000370: c59a 04be 6f36 3a3d 68eb 7dbe 3f34 3ebe
00000380: e9a6 793c a902 2c3c 6cd2 b13d 8d0e 18bd
00000390: ef56 003e f434 c33d 9af6 1939 6ea3 333d
000003a0: 67c5 b13d ef1c debc bce7 babd 6b88 7bbe
000003b0: a6ed 07be 3127 863d f637 30be e87d a8be
000003c0: 8f9a 98be 7867 7fbe 9c9d 95be 26f2 1cbe
000003d0: 2ea2 1d3d 0a35 fc3d 061d 41bd 9b19 993e
000003e0: b722 a5be bada 5ebd 7e40 3ebe d7bf 393e
000003f0: d4d0 a3bd 771d 233e 2a6e ca3c bf6c 953e

bias f4 [64]
0.047051176 0.027624877 -0.2136494 -0.05580043 -0.12031298 0.03996576 0.061044626 -0.018690385
-0.23035799 -0.22377059 0.10523596 -0.0919059 -0.0631446 -0.13539141 -0.19059573 0.054157674
-0.050830822 -0.01119741 -0.21004999 0.09775424 0.08256132 0.15664978 0.08882313 0.04041317
-0.022052173 -0.21424252 -0.19038714 -0.063329734 0.071811736 -0.061244573 0.035178218 -0.053286754
-0.07995724 -0.02755437 -0.06559354 -0.16265395 -0.11672529 0.11254947 0.07282672 -0.09547548
-0.1918056 0.33734918 -0.11671696 -0.036709838 -0.0027076572 -0.048801664 -0.1048035 0.10792188
0.0699533 -0.23849288 -0.18521248 -0.061650548 0.035944387 0.036399186 -0.09723114 -0.21059136
0.12598844 -0.1934566 -0.1518866 0.15189838 0.029395321 0.043452572 -0.16414534 -0.1693296
00000000: bcb8 403d 914d e23c e9c6 5abe fe8e 64bd
00000010: a766 f6bd 23b3 233d ee09 7a3d 941c 99bc
00000020: f7e2 6bbe 1e24 65be f385 d73d 2939 bcbd
00000030: f551 81bd 0ca4 0abe 872b 43be 70d4 5d3d
00000040: fb33 50bd 5775 37bc 5817 57be 6033 c83d
00000050: e915 a93d cd68 203e e7e8 b53d 4888 253d
00000060: c2a6 b4bc 6462 5bbe d9f4 42be 05b3 81bd
00000070: 0812 933d 97db 7abd 0917 103d 3643 5abd
00000080: 9fc0 a3bd b4b9 e1bc e855 86bd c28e 26be
00000090: ab0d efbd 5680 e63d 2d26 953d a688 c3bd
000000a0: b068 44be 08b9 ac3e 4d09 efbd 0e5d 16bd
000000b0: f372 31bb 41e4 47bd 38a3 d6bd 2606 dd3d
000000c0: ad43 8f3d 7a37 74be 57a8 3dbe 4985 7cbd
000000d0: 6c3a 133d 5017 153d 1f21 c7bd 43a5 57be
000000e0: 1d03 013e 7d19 46be 2988 1bbe 408b 1b3e
000000f0: 75ce f03c 53fb 313d b715 28be bd64 2dbe

weight f4 [64, 64, 3, 3]
-0.050523642 -0.011043092 -0.14825003 0.01355861 -0.0044657057 0.052478552 0.022555482 0.0357454
-0.089819655 -0.116462685 -0.14366896 -0.012452288 0.023945145 -0.068149686 0.08711793 -0.07917924
0.022539651 0.0047792266 -0.08252629 -0.071909815 -0.08042576 -0.08335545 -0.055925477 0.010168546
2.4460127e-07 -0.04317756 -0.0131913945 -0.05547945 -0.00783307 -0.12211753 -0.09775605 -0.2129186
-0.026301641 -0.045854952 -0.064339906 -0.027175637 -0.03715568 -0.068436675 -0.027039582 -0.098256394
-0.098743625 0.0608093 -0.03883678 -0.0856623 -0.052367672 -0.049908035 -0.09308588 0.005827433
-0.09430814 -0.07595411 -0.022184528 -0.15913434 -0.114522554 -0.17472027 -0.07048173 -0.083711155
0.001888993 -0.05704581 -0.011586818 0.05564492 -0.17480266 -0.042727042 -0.007844985 -0.068780914
0.021468505 -0.0784677 -0.013196798 0.009249715 -0.116826154 -0.066253684 -0.051432125 -0.103370436
0.028143262 -0.05558466 -0.043600563 0.0036879315 -0.09013267 -0.05106147 -0.09692392 -0.09778289
-0.16304034 -0.11773064 -0.023576014 -0.057270613 0.020368194 -0.030381037 -0.009771559 -0.077043235
-0.09607649 -0.09063494 -0.043863352 -0.102998585 -0.022225467 -0.0848187 0.0343796 -0.07058503
-0.09957272 -0.019952344 -0.04595792 0.020867426 0.08715356 0.085551076 -0.08765934 -0.048060562
0.04549272 0.068836115 -0.11355846 0.060155135 -0.16281004 -0.12397028 0.06640614 0.007819668
0.0060514677 -0.07977423 -0.023469826 -0.1577536 -0.09165733 -0.063753024 -0.04501224 -0.14698087
-0.12075144 -0.088314846 -0.0880429 -0.018908955 -0.10523156 -0.15135 -0.022151645 -0.029021783
0.025294706 -0.007142033 -0.06058608 0.03503596 -0.045045618 -0.1326043 -0.0076059704 -0.008053536
0.059693806 0.0030551145 0.099982664 -0.118355654 -0.050458465 -0.0038248885 -0.08054563 -0.12035271
-0.07183876 0.013670367 -0.06265161 0.021666246 -0.045211766 0.0017381655 -0.10682099 0.04698244
-0.026712943 -0.12463032 -0.020091066 -0.19527674 -0.06582524 -0.030976448 0.031761657 -0.030924624
0.0073239156 -0.10020706 0.021739338 0.0075956103 0.050077148 -0.103410564 0.111709766 0.019285522
0.056371547 0.034844004 0.071676195 -0.021771373 0.015082327 -0.119841516 -0.05399918 -0.038570136
-0.034797743 -0.051712442 0.066301346 -0.09063662 0.0712042 -0.049851716 -0.116041 0.008278083
-0.085747115 -0.119002245 -0.025852915 -0.06531337 0.046552304 -0.0753588 -0.06809484 -0.109257735
-0.02723195 0.06305319 -0.093390375 -0.09500301 -0.1673098 -0.10115957 -0.054996874 0.023147577
-0.08841272 -0.0605604 -0.076278955 -0.079064585 0.0011848569 -0.15091966 0.024527658 0.03415013
0.0053113396 0.007675686 -0.08599189 -0.063859366 -0.19909635 -0.04514895 -0.054277945 0.09631087
-0.0042654006 -0.1254594 -0.003071198 -0.012206945 0.026505582 -0.025234051 -0.056905247 -0.008832936
-0.07581643 -0.06792041 0.0065949364 -0.082425766 0.05236336 -0.080794804 -0.024278702 0.011853351
-0.10760395 -0.0021358111 0.020099422 -0.020406455 -0.05944667 -0.01824794 -0.13967502 -0.05876354
-0.048841108 -0.014006036 0.05796817 -0.056104578 -0.120444514 -0.040567238 -0.100315064 0.02672768
-0.030965578 -0.05629934 -0.11040739 0.063119866 -0.07520479 -0.093435705 -0.069968894 -0.11826222
00000000: e1f1 4ebd 16ee 34bc dbce 17be ef24 5e3c
00000010: 0e55 92bb c0f3 563d 46c6 b83c c569 123d
00000020: 5ef3 b7bd fd83 eebd f51d 13be ae04 4cbc
00000030: 9c28 c43c 1092 8bbd e36a b23d ba28 a2bd
00000040: 13a5 b83c 0f9b 9c3b 8b03 a9bd 7445 93bd
00000050: 43b6 a4bd 43b6 aabd 1d12 65bd f999 263c
00000060: be51 8334 f4da 30bd b820 58bc 6b3e 63bd
00000070: 4756 00bc c118 fabd 5334 c8bd 5507 5abe
00000080: 8a76 d7bc 67d2 3bbd a4c4 83bd 719f debc
00000090: 8e30 18bd 8728 8cbd 1d82 ddbc a63a c9bd
000000a0: 193a cabd 2c13 793d 5113 1fbd b76f afbd
000000b0: 7c7f 56bd 5e6c 4cbd cfa3 bebd 0df4 be3b
000000c0: a024 c1bd d48d 9bbd 54bc b5bc 1df4 22be
000000d0: cd8a eabd dfe9 32be ba58 90bd c170 abbd
000000e0: 1698 f73a dea8 69bd a3d6 3dbc edeb 633d
000000f0: 78ff 32be 8d02 2fbd 4188 00bc 02dd 8cbd
00000100: b8de af3c acb3 a0bd 6237 58bc 1e8c 173c
00000110: 8d42 efbd 03b0 87bd 7eaa 52bd e1b3 d3bd
00000120: b38c e63c beac 63bd 8196 32bd 39b1 713b
00000130: 7a97 b8bd d525 51bd 0c80 c6bd 6542 c8bd
00000140: 0cf4 26be c31c f1bd 7c22 c1bc 9794 6abd
00000150: 33db a63c a7e1 f8bc e418 20bc d8c8 9dbd
00000160: c0c3 c4bd d09e b9bd 0faa 33bd ecf0 d2bd
00000170: 2f12 b6bc 6db5 adbd a0d1 0c3d e28e 90bd
00000180: c8ec cbbd 1973 a3bc 5f3e 3cbd 2af2 aa3c
00000190: 917d b23d 6735 af3d bd86 b3bd 27db 44bd
000001a0: 9356 3a3d f3f9 8c3d 5691 e8bd 3b65 763d
000001b0: adb7 26be 21e4 fdbd f1ff 873d 111e 003c
000001c0: 644b c63b ac60 a3bd cb43 c0bc 298a 21be
000001d0: d7b6 bbbd f290 82bd c15e 38bd 2782 16be
000001e0: 884c f7bd 6ade b4bd d64f b4bd f4e6 9abc
000001f0: a583 d7bd 7ffb 1abe 5e77 b5bc 17bf edbc
00000200: d836 cf3c b707 eabb 1c29 78bd de81 0f3d
00000210: c181 38bd 6cc9 07be 813b f9bb faf2 03bc
00000220: 7e81 743d 5138 483b b6c3 cc3d 7364 f2bd
00000230: 89ad 4ebd fbaa 7abb 1bf5 a4bd 7b7b f6bd
00000240: 3320 93bd adf9 5f3c 7d4f 80bd 697d b13c
00000250: f92f 39bd 28d3 e33a f7c4 dabd a970 403d
00000260: 1ad5 dabc 2e3e ffbd 0596 a4bc a0f6 47be
00000270: 62cf 86bd 52c2 fdbc 8318 023d a355 fdbc
00000280: 75fd ef3b 5c39 cdbd b216 b23c 99e4 f83b
00000290: b21d 4d3d ebc8 d3bd 17c8 e43d acfc 9d3c
000002a0: dae5 663d 96b8 0e3d f8ca 923d e159 b2bc
000002b0: dd1b 773c 786f f5bd 3f2e 5dbd b8fb 1dbd
000002c0: 1488 0ebd 6dd0 53bd 00c9 873d b19f b9bd
000002d0: 82d3 913d 5031 4cbd e7a6 edbd cca0 073c
000002e0: 2f9c afbd 73b7 f3bd 7ec9 d3bc 04c3 85bd
000002f0: a1ad 3e3d b755 9abd 4f75 8bbd 85c2 dfbd
00000300: 8a15 dfbc 0822 813d 7443 bfbd f090 c2bd
00000310: 4353 2bbe c02c cfbd 6744 61bd fd9f bd3c
00000320: ba11 b5bd 2f0e 78bd 2438 9cbd 9dec a1bd
00000330: 334d 9b3a af8a 1abe 3aee c83c 02e1 0b3d
00000340: bf0a ae3b 5284 fb3b 841c b0bd b3c8 82bd
00000350: eadf 4bbe 1bee 38bd 8d52 5ebd a23e c53d
00000360: c6c4 8bbb 6e78 00be 2746 49bb a3ff 47bc
00000370: 3c22 d93c a4b7 cebc 7a15 69bd 05b8 10bc
00000380: a545 9bbd db19 8bbd 561a d83b d7ce a8bd
00000390: f67a 563d bf77 a5bd 21e4 c6bc 8f34 423c
000003a0: 765f dcbd f7f8 0bbb 8ba7 a43c 702b a7bc
000003b0: 5a7e 73bd b47c 95bc f806 0fbe 0ab2 70bd
000003c0: 9d0d 48bd 9379 65bc 0870 6d3d eacd 65bd
000003d0: 9dab f6bd d529 26bd fc71 cdbd 02f4 da3c
000003e0: 86ab fdbc 239a 66bd 451d e2bd fd44 813d
000003f0: f804 9abd 385b bfbd da4b 8fbd 7633 f2bd

bias f4 [64]
-0.031467013 -0.041671295 -0.054028362 -0.029842092 -0.051708505 -0.065241136 -0.061183058 -0.07330983
-0.019110724 -0.05961944 -0.06321216 -0.005037464 -0.09880897 -0.057325922 -0.025413876 -0.032944657
-0.0659357 -0.06948903 -0.024902547 -0.041914746 -0.06630215 -0.08182546 -0.08925512 -0.041015606
-0.058808032 -0.017289894 -0.078315236 -0.041012354 -0.056024473 0.037920147 -0.08937375 -0.076692015
-0.047579557 -0.04271456 -0.030144565 -0.094413735 -0.03803477 -0.09081738 -0.0989257 -0.09424181
-0.010111134 -0.0747191 -0.03752506 -0.047538325 -0.09117872 -0.07825006 -0.068904154 -0.055042114
-0.06657266 -0.0703817 -0.0470598 -0.034522995 -0.054908376 -0.05792256 -0.08033856 -0.032615516
-0.057631895 -0.03736503 0.013876799 0.034990173 -0.0851923 -0.0101627745 -0.05767013 -0.07856285
00000000: 8ee3 00bd 85af 2abd d84c 5dbd 6777 f4bc
00000010: 4ccc 53bd 259d 85bd 169b 7abd 7723 96bd
00000020: 188e 9cbc 8433 74bd 6075 81bd 5011 a5bb
00000030: 5b5c cabd 96ce 6abd c330 d0bc faf0 06bd
00000040: 4c09 87bd 4450 8ebd 6d00 ccbc ccae 2bbd
00000050: 6cc9 87bd 1b94 a7bd 63cb b6bd fbff 27bd
00000060: b1e0 70bd 89a3 8dbc bd63 a0bd 92fc 27bd
00000070: eb79 65bd 2852 1b3d 9609 b7bd b410 9dbd
00000080: c8e2 42bd 76f5 2ebd bcf1 f6bc fd5b c1bd
00000090: 59ca 1bbd 76fe b9bd 8f99 cabd da01 c1bd
000000a0: 2ba9 25bc 5406 99bd e1b3 19bd 8cb7 42bd
000000b0: e9bb babd 9141 a0bd 9f1d 8dbd d773 61bd
000000c0: 3f57 88bd 4824 90bd c7c1 40bd fc67 0dbd
000000d0: 9be7 60bd 3540 6dbd 8b88 a4bd d997 05bd
000000e0: 6c0f 6cbd 130c 19bd 835b 633c db51 0f3d
000000f0: 4d79 aebd c481 26bc 8437 6cbd 8fe5 a0bd

weight f4 [32, 64, 3, 3]
0.10142835 0.06620929 -0.027857002 -0.027082799 0.2012593 -0.032618694 0.13370249 0.07226313
0.09803146 0.07395673 0.04729201 0.03234625 0.032709207 0.1595942 0.046029963 0.1674697
0.021544812 0.079212576 0.13926268 0.11339772 0.12719326 0.047922775 0.05235977 0.090435974
0.08966009 0.113983415 0.100279495 -0.07982523 -0.18392806 -0.04494856 -0.08360262 0.047816973
0.009390012 -0.009900922 -0.079181075 0.06294449 0.042396087 -0.067730114 -0.06715759 0.008463442
-0.062454034 -0.112157896 -0.027435329 -0.028994342 0.027901452 0.06635327 0.020562964 -0.02670378
0.11738675 0.0050358325 0.11544508 0.18802671 0.05648213 0.007961138 -0.07733802 -0.04413434
-0.07278271 -0.027274907 -0.11697228 -0.010361159 -0.013511081 -0.044374034 -0.084562175 0.016925493
-0.07661598 0.0739142 -0.07228429 -0.0078077842 -0.072664484 -0.089923635 -0.022515832 -0.15096577
-0.022174744 -0.048585616 -0.05583996 0.0046829716 -0.019362627 0.01667308 -0.02380259 0.04357139
-0.091749996 -0.044329364 0.013906854 0.08991158 -0.074294776 -0.08234914 0.011104658 -0.033177122
0.010043223 -0.047839228 -0.026237851 -0.13166489 -0.042378195 -0.029203547 -0.103257895 0.0060660616
-0.07487851 -0.09025192 -0.09006667 -0.08847551 -0.12587883 0.0006033123 -0.011499812 -0.030095933
-0.050586294 0.019304674 -0.01409232 0.009695611 0.018644616 -0.08407741 -0.09685977 -0.09425957
-0.16981982 -0.06660876 -0.115057096 -0.07628793 -0.019942695 -0.001940188 0.011539354 -0.038639996
-0.08736348 -0.10116989 -0.14690357 -0.024370046 -0.024515145 -0.028172132 0.09604892 0.060633827
0.06931282 -0.0042764964 0.119832695 -0.022207284 -0.037803337 0.09078281 -0.02740607 0.0024726002
0.021028252 -0.16405731 -0.027807608 -0.065674305 0.026158758 -0.019534169 -0.07635955 -0.02395959
-0.1008559 0.08114375 -0.102010146 -0.012489608 0.055871878 -0.023976328 -0.061750863 -0.09208155
-0.04740698 -0.009861995 -0.10333093 0.038540393 -0.06392487 -0.041196037 -0.07624944 -0.030531934
-0.017965442 -0.100159846 0.018092519 -0.009667036 0.09512491 0.12672445 0.011128422 0.034756776
0.07035733 -0.0073203724 0.084759675 0.021615718 -0.011576898 -0.057987757 -0.07996905 -0.07276738
0.0050263614 -0.16353558 -0.00031861267 -0.020175394 -0.13952015 -0.00045210356 0.031627852 -0.10427283
-0.11720507 0.10916012 -0.027056448 -0.06075772 0.043975085 -0.0903255 0.03884042 -0.113837734
-0.045511868 -0.04283421 0.13947448 0.059227996 -0.09886247 -0.106194444 0.13722448 0.05633629
0.14289899 -0.04141319 -0.0383181 0.13690765 0.068496116 0.06004531 0.004964748 0.006361597
-0.06767982 -0.0382759 -0.07104925 -0.055647187 -0.023727743 -0.07337261 -0.002835887 -0.11971176
-0.01627668 0.0034884384 -0.07937822 -0.15898564 -0.0034849083 -0.014506413 -0.10266237 -0.09636227
0.02126028 0.028407868 0.044513002 -0.09109428 -0.13405792 -0.00092455675 -0.03843342 -0.0054305764
-0.12722446 -0.06107686 0.12113888 0.06420613 -0.020546446 -0.059605025 -0.003332565 0.07765677
-0.0041406294 0.07605772 0.041325305 -0.103308044 -0.07119686 0.006743787 0.0059120236 -0.031358857
-0.12197575 -0.08756385 -0.022186395 -0.12105968 -0.046221334 0.045538973 0.19542356 -0.012338034
00000000: abb9 cf3d bc98 873d 5e34 e4bc bfdc ddbc
00000010: eb16 4e3e 2e9b 05bd 4ee9 083e b1fe 933d
00000020: b8c4 c83d a076 973d 44b5 413d 807d 043d
00000030: 17fa 053d a96c 233e ea89 3c3d 2d7d 2b3e
00000040: bf7e b03c 343a a23d e09a 0e3e 103d e83d
00000050: f33e 023e ac4a 443d 3377 563d 7f36 b93d
00000060: b69f b73d 2370 e93d 565f cd3d 697b a3bd
00000070: a357 3cbe fb1b 38bd da37 abbd bbdb 433d
00000080: 91d8 193c 7a37 22bc b029 a2bd 0ae9 803d
00000090: 85a7 2d3d 16b6 8abd eb89 89bd 40aa 0a3c
000000a0: cdcf 7fbd 0ab3 e5bd 0ec0 e0bc 8b85 edbc
000000b0: 9691 e43c 39e4 873d a973 a83c e3c1 dabc
000000c0: 7768 f03d a003 a53b 786e ec3d 138a 403e
000000d0: ce59 673d 6f6f 023c 6563 9ebd 36c6 34bd
000000e0: 1a0f 95bd a06f dfbc 2a8f efbd dac1 29bc
000000f0: 955d 5dbc 8cc1 35bd ef2e adbd 55a7 8a3c
00000100: d7e8 9cbd 5460 973d c909 94bd 71d8 ffbb
00000110: 1ed1 94bd e229 b8bd 1f73 b8bc c596 1abe
00000120: cfa7 b5bc b601 47bd 71b8 64bd 9d73 993b
00000130: 5f9e 9ebc fc95 883c a6fd c2bc ea77 323d
00000140: 6ce7 bbbd b592 35bd 93d9 633c 9023 b83d
00000150: dc27 98bd aaa6 a8bd 50f0 353c bce4 07bd
00000160: 558c 243c 11f3 43bd c3f0 d6bc 29d3 06be
00000170: c294 2dbd 473c efbc e078 d3bd d0c5 c63b
00000180: e759 99bd 00d6 b8bd e074 b8bd a632 b5bd
00000190: 61e6 00be 9a27 1e3a b569 3cbc bf8b f6bc
000001a0: 9333 4fbd d624 9e3c 79e3 66bc 57da 1e3c
000001b0: 98bc 983c c730 acbd 6a5e c6bd 290b c1bd
000001c0: 3fe5 2dbe 2c6a 88bd 0ea3 ebbd d93c 9cbd
000001d0: dd5e a3bc e84d feba 8f0f 3d3c f944 1ebd
000001e0: a0eb b2bd 2932 cfbd e46d 16be b1a3 c7bc
000001f0: fcd3 c8bc 3ec9 e6bc 4cb5 c43d 2d5b 783d
00000200: e1f3 8d3d da21 8cbb d86a f53d 0dec b5bc
00000210: acd7 1abd 56ec b93d b282 e0bc 590b 223b
00000220: 7143 ac3c a4fe 27be c8cc e3bc 4080 86bd
00000230: e44a d63c 1f06 a0bc 6562 9cbd e746 c4bc
00000240: 8a8d cebd b22e a63d b2ea d0bd 36a1 4cbc
00000250: e9d9 643d 016a c4bc 79ee 7cbd 4095 bcbd
00000260: d22d 42bd 3494 21bc 2b9f d3bd 88dc 1d3d
00000270: 0beb 82bd 2dbd 28bd ab28 9cbd 1b1e fabc
00000280: 432c 93bc 9b20 cdbd c336 943c 7d62 1ebc
00000290: d9d0 c23d 0ec4 013e fc53 363c 1f5d 0e3d
000002a0: 8117 903d bcdf efbb 7b96 ad3d 7213 b13c
000002b0: 08ad 3dbc 9284 6dbd d0c6 a3bd 1007 95bd
000002c0: 2db4 a43b df75 27be 780b a7b9 de46 a5bc
000002d0: 5fde 0ebe 5008 edb9 358c 013d fe8c d5bd
000002e0: 3609 f0bd 578f df3d 7ca5 ddbc 16dd 78bd
000002f0: 381f 343d 93fc b8bd 2217 1f3d c223 e9bd
00000300: a76a 3abd ed72 2fbd 66d2 0e3e 0e99 723d
00000310: 6878 cabd 797c d9bd 9384 0c3e e2c0 663d
00000320: 1d54 123e e1a0 29bd 71f3 1cbd 8531 0c3e
00000330: b147 8c3d 12f2 753d 53af a23b f274 d03b
00000340: b89b 8abd 31c7 1cbd 4582 91bd 4eee 63bd
00000350: af60 c2bc 6144 96bd 4ada 39bb 702b f5bd
00000360: ac56 85bc 499e 643b 0c91 a2bd 22cd 22be
00000370: 0f63 64bb 4eac 6dbc a640 d2bd 9559 c5bd
00000380: 0a2a ae3c 9eb7 e83c 4453 363d a38f babd
00000390: 7b46 09be f45d 72ba 5d6c 1dbd faf2 b1bb
000003a0: 2147 02be bb2b 7abd a917 f83d 817e 833d
000003b0: 0551 a8bc 6624 74bd 2a67 5abb 830a 9f3d
000003c0: 1eae 87bb 26c4 9b3d b944 293d 2b93 d3bd
000003d0: a9cf 91bd fcfa dc3b a6b9 c13b 2572 00bd
000003e0: 6cce f9bd ad54 b3bd 3ec0 b5bc 23ee f7bd
000003f0: 9552 3dbd 1387 3a3d 1d1d 483e 7725 4abc

bias f4 [32]
-0.0831353 -0.017826121 -0.08631906 0.18200918 -0.084346205 -0.056576792 -0.08496434 -0.046821654
-0.09931576 0.15534349 0.12971465 -0.04486364 -0.086862914 -0.057831045 -0.037109297 -0.069560915
-0.023594787 -0.10933292 -0.06870482 -0.08243116 -0.028506882 -0.083131626 -0.08741935 0.13066897
-0.077870116 -0.048153523 -0.07845054 -0.03497638 -0.07890981 -0.049390726 -0.04622838 0.11463156
00000000: d742 aabd 1608 92bc 0cc8 b0bd 9d60 3a3e
00000010: b4bd acbd 11bd 67bd c901 aebd 10c8 3fbd
00000020: 1066 cbbd 5d12 1f3e ebd3 043e f0c2 37bd
00000030: 2fe5 b1bd 3fe0 6cbd ebff 17bd f475 8ebd
00000040: db49 c1bc f0e9 dfbd 1db5 8cbd abd1 a8bd
00000050: 4487 e9bc ea40 aabd eb08 b3bd 16ce 053e
00000060: 5e7a 9fbd a13c 45bd adaa a0bd 6543 0fbd
00000070: 779b a1bd ee4d 4abd f859 3dbd f4c3 ea3d

weight f4 [16, 32, 3, 3]
0.05033676 -0.056216724 -0.117080234 0.01433019 -0.0789738 -0.13669603 -0.19064653 0.04516114
-0.13096003 0.061527677 0.066565745 0.07515721 0.15259212 0.07333637 0.032131594 -0.038250607
0.058179714 0.07476826 -0.07476159 0.021466324 0.01609179 -0.0977368 -0.03411281 0.062379565
-0.0172885 0.056482144 -0.055847984 0.1859774 0.20461744 0.16812815 0.11719135 0.31762594
0.13811333 0.24083649 0.22048208 0.12962337 -0.05849382 -0.006697825 -0.15152064 -0.010775134
-0.01694276 -0.058078486 -0.03729705 -0.059743144 0.037218742 -0.044805665 -0.007777325 -0.03948743
-0.022458302 0.06828532 -0.052609667 0.047506105 0.05042245 -0.035373613 -0.03210698 0.07455442
-0.048042286 -0.020755982 -0.038189556 -0.01112213 0.03784087 0.028905481 0.012582123 0.005207517
0.01054619 0.01684068 -0.119376935 -0.079061516 -0.057037003 -0.11134403 0.023553995 -0.033237014
0.02260836 0.030710056 -0.020745212 0.0811687 0.069960214 0.024887403 0.08056285 -0.14334261
-0.059528176 0.10622401 0.077418976 0.072008215 0.01568789 0.18212013 0.24061623 0.1184337
-0.013151467 0.05431613 0.15637125 0.18850641 0.10652664 0.15380393 0.0832792 0.12380246
0.14560014 0.18898237 0.15802163 0.10878502 -0.034979757 0.027725637 0.08844773 -0.012023567
-0.05491241 0.07852882 0.07942333 0.019342523 0.05216485 0.095059544 -0.03539443 0.11670963
0.00015440451 -0.06143421 0.036813915 0.13718472 0.06709101 -0.06691137 0.003579739 0.052078214
-0.07415651 -0.1693215 -0.13156684 -0.09107653 -0.094703935 0.011357535 0.0043873885 -0.07436659
0.0034262459 -0.06221086 -0.03514934 0.030760251 0.04208181 -0.043578446 -0.12353882 0.03258509
0.123486765 0.05172985 0.03472965 0.1003181 0.104374416 0.07063742 0.10054895 0.13689908
0.017562268 -0.02279024 -0.041704085 -0.11682656 0.07377586 -0.1091923 -0.016220208 0.0669597
-0.076914445 0.025411008 -0.026812667 0.0045599267 0.09435072 0.046473112 0.058960464 0.055756055
0.035425514 0.04430261 -0.009865578 0.04029972 -0.117171235 -0.05672994 0.0034586443 -0.03959796
0.042325333 -0.037963495 0.010843335 0.08007391 0.07732592 0.008011179 0.108362615 0.0156049095
0.069928795 0.05403606 0.031856813 0.031576876 -0.15609883 -0.16762355 -0.1043319 0.20673557
0.10938593 0.16385639 0.07829682 0.046686463 0.08197918 -0.09712885 -0.044726815 -0.06089083
0.06910379 -0.04462369 -0.10216561 -0.124201715 -0.11548017 -0.061776828 0.07980138 0.0579739
-0.074872166 -0.01927817 -0.024488686 0.02634398 0.063796096 0.025512444 -0.094742365 0.10290883
0.10469277 0.16619742 0.16740838 0.12067645 0.18992428 0.16694151 0.14230208 0.101163074
0.09148451 0.040404294 -0.016813615 0.012989639 -0.03568811 0.15053573 -0.024993945 0.22553368
-0.032496642 0.01153494 0.04386711 0.08763039 -4.0886905e-05 0.07667182 -0.033736806 0.08628517
0.031103944 0.20710914 0.1593408 0.15487817 -0.0017945273 0.04252002 0.0821428 -0.0019977055
0.09986621 0.061173435 0.03799484 -0.025410332 0.01611586 -0.13240534 -0.025765866 -0.03954136
-0.19513889 -0.046555735 -0.028575389 -0.17900755 -0.18284397 -0.046500966 0.014845924 -0.055007458
00000000: eb2d 4e3d 8243 66bd c3c7 efbd 2cc9 6a3c
00000010: 04bd a1bd 0bfa 0bbe d838 43be e3fa 383d
00000020: 631a 06be 7204 7c3d 9f53 883d 06ec 993d
00000030: 1c41 1c3e 6131 963d 6b9c 033d abac 1cbd
00000040: da4d 6e3d 1a20 993d 9b1c 99bd 25da af3c
00000050: eed2 833c 3b2a c8bd e0b9 0bbd b781 7f3d
00000060: 9da0 8dbc d259 673d dbc0 64bd dc70 3e3e
00000070: 3c87 513e c929 2c3e 0502 f03d de9f a23e
00000080: 956d 0d3e d79d 763e 0ec6 613e fdbb 043e
00000090: 3797 6fbd 6e79 dbbb 3a28 1bbe 308a 30bc
000000a0: 8bcb 8abc b5e3 6dbd cbc4 18bd 3ab5 74bd
000000b0: ae72 183d 2586 37bd eed8 febb 92bd 21bd
000000c0: 79fa b7bc 2dd9 8b3d 3c7d 57bd c395 423d
000000d0: c587 4e3d ece3 10bd 9c82 03bd fdaf 983d
000000e0: fdc7 44bd 7308 aabc a76c 1cbd 9839 36bc
000000f0: 07ff 1a3d 30cb ec3c 4025 4e3c d2a3 aa3b
00000100: edc9 2c3c 77f5 893c e57b f4bd 01eb a1bd
00000110: a29f 69bd 5708 e4bd 4ff4 c03c 8923 08bd
00000120: 2b35 b93c a893 fb3c ddf1 a9bc c63b a63d
00000130: 4d47 8f3d abe0 cb3c 23fe a43d 68c8 12be
00000140: d1d3 73bd f98b d93d d78d 9e3d 0b79 933d
00000150: e483 803c b37d 3a3e 1a64 763e 5e8d f23d
00000160: 4079 57bc 977a 5e3d c91f 203e d307 413e
00000170: a42a da3d c77e 1d3e 498e aa3d 258c fd3d
00000180: 3418 153e 9884 413e 6cd0 213e aeca de3d
00000190: ef46 0fbd e020 e33c 1524 b53d 7ffe 44bc
000001a0: d6eb 60bd b8d3 a03d b3a8 a23d 3674 9e3c
000001b0: cfaa 553d 94ae c23d c0f9 10bd 7505 ef3d
000001c0: a5e7 2139 70a2 7bbd 30ca 163d 277a 0c3e
000001d0: 0367 893d d408 89bd 0e9a 6a3b f74f 553d
000001e0: 5edf 97bd 9e62 2dbe 75b9 06be 5586 babd
000001f0: 23f4 c1bd f414 3a3c 15c4 8f3b 834d 98bd
00000200: de8a 603b d1d0 7ebd c1f8 0fbd ecfc fb3c
00000210: fa5d 2c3d 507f 32bd ec01 fdbd f177 053d
00000220: a1e6 fc3d aee2 533d ad40 0e3d 9373 cd3d
00000230: 41c2 d53d 5aaa 903d 9cec cd3d 462f 0c3e
00000240: bfde 8f3c 99b2 babc e7d1 2abd c342 efbd
00000250: cc17 973d 36a0 dfbd 3ee0 84bc 2b22 893d
00000260: 5285 9dbd bf2a d03c 3da6 dbbc 706b 953b
00000270: f33a c13d 975a 3e3d 8780 713d 7660 643d
00000280: 581a 113d a776 353d 3ca3 21bc 5211 253d
00000290: 79f7 efbd a75d 68bd 6caa 623b 7831 22bd
000002a0: 545d 2d3d 9c7f 1bbd 3ea8 313c cafd a33d
000002b0: 0d5d 9e3d 5241 033c 38ed dd3d bcab 7f3c
000002c0: d436 8f3d ea54 5d3d 4a7c 023d c156 013d
000002d0: 5fd8 1fbe 82a5 2bbe f7ab d5bd 7db2 533e
000002e0: bb05 e03d f8c9 273e 155a a03d 4e3a 3f3d
000002f0: b3e4 a73d 7eeb c6bd 7733 37bd aa68 79bd
00000300: 4a86 8d3d 55c7 36bd 343c d1bd 785d febd
00000310: de80 ecbd b309 7dbd e86e a33d 0a76 6d3d
00000320: 9456 99bd 41ed 9dbc 7f9c c8bc 55cf d73c
00000330: 87a7 823d 79ff d03c 4908 c2bd ddc1 d23d
00000340: 2a69 d63d a82f 2a3e 1a6d 2b3e 3725 f73d
00000350: 837b 423e b7f2 2a3e a3b7 113e 962e cf3d
00000360: 3b5c bb3d f97e 253d b5bc 89bc 7fd2 543c
00000370: b22d 12bd 0a26 1a3e 1ac0 ccbc 4df2 663e
00000380: 331b 05bd 0cfd 3c3c 00ae 333d 9077 b33d
00000390: fb7d 2bb8 1d06 9d3d 9b2f 0abd 47b6 b03d
000003a0: b3cd fe3c 6b14 543e 3c2a 233e 6298 1e3e
000003b0: 5836 ebba 7929 2e3d 7c3a a83d f0eb 02bb
000003c0: a886 cc3d ff90 7a3d 7aa0 1b3d 5429 d0bc
000003d0: 6805 843c 4495 07be f012 d3bc 1ff6 21bd
000003e0: 7dd2 47be 3ab1 3ebd ef16 eabc c14d 37be
000003f0: 733b 3bbe cc77 3ebd 523c 733c 804f 61bd

bias f4 [16]
-0.0036860853 0.03630795 0.034916226 0.058504373 0.015485775 -0.026024075 -0.0119869765 0.115964584
0.06709554 0.032395255 0.067590475 -0.013528645 0.070358746 0.071819134 0.061480165 0.04558126
00000000: 4092 71bb a5b7 143d 5104 0f3d 48a2 6f3d
00000010: 0cb8 7d3c 7130 d5bc 0665 44bc d77e ed3d
00000020: 6369 893d e3b0 043d e06c 8a3d 40a7 5dbc
00000030: 3f18 903d e915 933d a0d2 7b3d 6ab3 3a3d
