super_resolution/checkpoint_scale4/model_epoch_13.pth (torch_old, 260873 bytes, 8 tensors)

weight f4 [64, 1, 5, 5]
-0.086685136 -0.27195004 -0.3154805 -0.016249223 -0.13013689 -0.0011922552 0.26618323 -0.24510074
0.14834675 -0.20314255 -0.25758377 -0.46717775 -0.22723888 -0.012739807 -0.49391022 -0.094195895
-0.106507875 0.12657432 0.12657686 -0.049815163 -0.19146532 -0.2638095 -0.24183056 0.046028208
-0.18078515 -0.046746224 0.14345253 -0.19282128 -0.12281892 -0.16802353 -0.08242475 0.08948774
-0.16164891 -0.23044862 -0.16327366 -0.17396991 0.09467143 -0.23470138 -0.1303776 0.03585715
0.05308453 -0.4161382 -0.16504094 -0.216569 0.23765877 -0.023439854 0.0138145825 -0.029518064
-0.07771144 -0.42242587 0.116968326 -0.32995734 -0.008096689 0.23246244 -0.001009717 -0.18115987
-0.019658161 -0.067838594 0.034921564 -0.29557785 -0.123867616 -0.27961707 -0.025227066 -0.043187816
-0.008229317 -0.31512433 -0.0021378263 0.013399828 -0.09728548 0.008026821 0.0041772607 -0.005583809
0.013047316 -0.122781895 0.16571489 -0.32389137 0.11716537 -0.22083023 -0.25102895 -0.27147508
0.0062187673 -0.24934341 -0.07299071 0.086028814 -0.1989625 -0.03676834 -0.056545336 0.0492408
-0.0190806 -0.07412258 -0.22242163 0.10308225 0.35096306 0.02952221 -0.10267882 0.035301518
0.118615225 0.028626213 0.03703292 -0.3744536 -0.3360315 0.12499685 -0.023494482 -0.22410718
-0.06878122 0.18777996 -0.13290818 -0.14419113 0.13175195 -0.0051304027 -0.030892145 0.097843274
0.074283205 0.091915675 -0.031224431 0.24674878 0.0658501 0.11762465 0.110813774 -0.2912681
-0.0044012005 0.16029781 0.06416224 -0.30086598 -0.13752306 0.008248589 -0.08394019 -0.2154898
-0.32774952 0.37858546 0.21517071 0.15087101 -0.17053242 -0.013156237 0.0027483236 0.022499505
-0.08708453 -0.16997515 -0.06661095 -0.009539126 -0.17945103 0.18834235 0.015838247 -0.22656444
-0.2716274 -0.15604278 0.01154744 -0.1567586 -0.11405275 -0.110721365 -0.2472211 -0.38450924
-0.00076024974 -0.1512647 -0.23156945 0.19110128 -0.18919973 -0.20888959 -0.21991844 0.03913132
-0.24228017 -0.08915492 -0.055128902 -0.083551615 -0.26763192 -0.31339672 -0.13938546 -0.006774608
-0.17068818 -0.12622398 -0.25441265 0.15488477 -0.22734231 -0.21841376 -0.15418038 -0.15153466
0.12075658 0.07610061 -0.22323564 -0.22344996 -0.11636655 0.12772727 0.17763208 -0.31813556
-0.40121654 -0.04928553 -0.059906 -0.05208965 -0.23785658 -0.19746807 -0.19423568 -0.027704792
-0.066343404 -0.28126937 -0.2252491 -0.026836563 -0.030192839 0.0042130267 0.17582919 0.1457046
0.17219754 0.0142371785 -0.045653198 -0.44959605 0.009339967 0.121519014 -0.07127068 0.03761476
0.12420302 -0.13104314 0.31785455 -0.15827632 -0.1900367 -0.0071795513 0.17858012 -0.29775876
0.13065803 0.07329299 -0.044162642 0.012119143 -0.12949872 0.045459952 -0.24797042 -0.1857483
0.015235407 0.01049655 0.08682504 -0.03712537 0.12532955 0.09531376 0.00014469928 0.04385491
0.08680021 -0.027115535 -0.0912644 -0.24563965 -0.13274457 0.06550235 -0.17209055 -0.32908764
-0.29805624 -0.24942021 -0.29222015 -0.15326954 0.038482625 0.12314595 -0.04714894 0.29902142
-0.32253253 -0.054409932 -0.18214984 0.18504655 -0.0771561 0.16139227 0.026154764 0.2929332
00000000: fa87 b1bd 093d 8bbe a986 a1be 171d 85bc
00000010: 9b42 05be 7245 9cba 2b49 883e b0fb 7abe
00000020: 36e8 173e 9a04 50be 05e2 83be ec31 efbe
00000030: 4fb1 68be a0ba 50bc cde1 fcbe c7e9 c0bd
00000040: cd20 dabd b39c 013e 5d9d 013e fc0a 4cbd
00000050: 7c0f 44be 0a12 87be 6ea2 77be 1388 3c3d
00000060: be1f 39be f878 3fbd 38e5 123e f172 45be
00000070: 7c88 fbbd 5c0e 2cbe 4fce a8bd 5945 b73d
00000080: 4b87 25be b9fa 6bbe 3631 27be 2b25 32be
00000090: 18e3 c13d 8f55 70be b581 05be f2de 123d
000000a0: 2a6f 593d 1110 d5be 7e00 29be 44c4 5dbe
000000b0: d25c 733e f004 c0bc 8f56 623c decf f1bc
000000c0: 2d27 9fbd 3448 d8be 178d ef3d 2bf0 a8be
000000d0: faa7 04bc a20a 6e3e 7b58 84ba f981 39be
000000e0: 270a a1bc f6ee 8abd ea09 0f3d fb55 97be
000000f0: 4eae fdbd f829 8fbe fea8 cebc b5e5 30bd
00000100: 42d4 06bc fa57 a1be c61a 0cbb f48a 5b3c
00000110: 9c3d c7bd ed82 033c 67e1 883b 63f8 b6bb
00000120: 69c4 553c 1375 fbbd 2ab1 293e 17d5 a5be
00000130: 66f4 ef3d 5221 62be de86 80be c8fe 8abe
00000140: cdc6 cb3b e153 7fbe 277c 95bd e02f b03d
00000150: d3bc 4bbe 669a 16bd 159c 67bd b9b0 493d
00000160: eb4e 9cbc 94cd 97bd 7fc2 63be c91c d33d
00000170: 6eb1 b33e 90d8 f13c 4649 d2bd 5398 103d
00000180: 8aec f23d 8581 ea3c d5af 173d 62b8 bfbe
00000190: 520c acbe 59fe ff3d 8077 c0bc 5a7c 65be
000001a0: 2bdd 8cbd 6449 403e 1519 08be d7a6 13be
000001b0: fce9 063e f01c a8bb 8611 fdbc 0e62 c83d
000001c0: cb21 983d 493e bc3d 61ca ffbc b6ab 7c3e
000001d0: 6bdc 863d 31e5 f03d 55f2 e23d 1821 95be
000001e0: f237 90bb 1c25 243e 7e67 833d 1b0b 9abe
000001f0: d8d2 0cbe 1725 073c d6e8 abbd 5ca9 5cbe
00000200: c9ce a7be f4d5 c13e b655 5c3e ee7d 1a3e
00000210: 0da0 2ebe 428d 57bc 381d 343b e250 b83c
00000220: 6059 b2bd f70d 2ebe 526b 88bd ff49 1cbc
00000230: 03c2 37be d1dc 403e 36bf 813c 8200 68be
00000240: bf12 8bbe aec9 1fbe 7931 3d3c 5485 20be
00000250: 7d94 e9bd e2c1 e2bd 8727 7dbe 65de c4be
00000260: 7f4b 47ba 22e5 1abe 8b20 6dbe 0eb0 433e
00000270: 93bd 41be 27e7 55be 4d32 61be 2a48 203d
00000280: 4b18 78be db96 b6bd d8ce 61bd 1c1d abbd
00000290: 0d07 89be 8975 a0be 10bb 0ebe 88fd ddbb
000002a0: e2c8 2ebe dc40 01be 6042 82be 1d9a 1e3e
000002b0: 6ccc 68be dba7 5fbe 76e1 1dbe e72b 1bbe
000002c0: 3a4f f73d a3da 9b3d e297 64be 11d0 64be
000002d0: 9651 eebd f0ca 023e 2fe5 353e aae2 a2be
000002e0: 416c cdbe a0df 49bd fe5f 75bd f55b 55bd
000002f0: ad90 73be 1235 4abe b8e5 46be 29f5 e2bc
00000300: 0ddf 87bd 8a02 90be b3a7 66be 5ad8 dbbc
00000310: f956 f7bc 6e0d 8a3b 910c 343e 9633 153e
00000320: 8d54 303e 0e43 693c d9fe 3abd 7431 e6be
00000330: a906 193c f6de f83d 5df6 91bd ef11 1a3d
00000340: 275e fe3d 2c30 06be d5bd a23e 3013 22be
00000350: fb98 42be 7142 ebbb b5dd 363e d673 98be
00000360: 38cb 053e a31a 963d e3e3 34bd 5f8f 463c
00000370: 509b 04be 3734 3a3d f5eb 7dbe cd34 3ebe
00000380: ee9d 793c b9f9 2b3c 54d1 b13d c610 18bd
00000390: 6456 003e dc33 c33d 6bba 1739 35a1 333d
000003a0: 4fc4 b13d 6621 debc d4e8 babd f688 7bbe
000003b0: 31ee 07be 1926 863d 8138 30be 2d7e a8be
000003c0: d49a 98be 0368 7fbe e19d 95be b1f2 1cbe
000003d0: f59f 1d3d f233 fc3d 3f1f 41bd 5619 993e
000003e0: fc22 a5be f3dc 5ebd 7d85 3abe d87c 3d3e
000003f0: 0404 9ebd 0444 253e 8442 d63c 57fb 953e

bias f4 [64]
0.04767234 0.027608002 -0.21365163 -0.055683523 -0.120284975 0.04014225 0.061295778 -0.01814595
-0.23035614 -0.22377266 0.103160016 -0.09194457 -0.06304828 -0.13538292 -0.1905983 0.054180015
-0.050834473 -0.011188711 -0.210052 0.099510394 0.08235217 0.15579565 0.088656485 0.040762424
-0.02188225 -0.21424457 -0.19032921 -0.063216336 0.07175521 -0.06166959 0.035985958 -0.053112008
-0.079959325 -0.02748378 -0.06557787 -0.16267093 -0.116744146 0.11277278 0.07240715 -0.095475525
-0.19180766 0.35413322 -0.11671696 -0.036736872 -0.001982397 -0.048367396 -0.10465813 0.10687229
0.07006489 -0.23849493 -0.18573926 -0.060810316 0.03641933 0.036265086 -0.097233266 -0.21043739
0.1280167 -0.19345866 -0.15040714 0.1523879 0.029399907 0.04376515 -0.16414742 -0.16925408
00000000: 1244 433d 2d2a e23c 7ec7 5abe 6814 64bd
00000010: f857 f6bd 336c 243d 4811 7b3d d1a6 94bc
00000020: 7be2 6bbe a924 65be 8f45 d33d 6f4d bcbd
00000030: 751f 81bd d2a1 0abe 332c 43be ddeb 5d3d
00000040: cf37 50bd db50 37bc df17 57be 1bcc cb3d
00000050: 41a8 a83d e588 1f3e 8891 b53d 80f6 263d
00000060: 6842 b3bc ee62 5bbe a9e5 42be 9177 81bd
00000070: 65f4 923d 4199 7cbd 0366 133d fa8b 59bd
00000080: b7c1 a3bd aa25 e1bc b14d 86bd 3593 26be
00000090: 8e17 efbd 6af5 e63d 334a 943d ac88 c3bd
000000a0: 3a69 44be f350 b53e 4d09 efbd 6779 16bd
000000b0: 1aeb 01bb e41c 46bd 0057 d6bd dcdf da3d
000000c0: 2e7e 8f3d 0438 74be 6f32 3ebe 3d14 79bd
000000d0: 6f2c 153d b38a 143d 3c22 c7bd e67c 57be
000000e0: cf16 033e 071a 46be 5404 1abe 930b 1c3e
000000f0: 13d8 f03c 1643 333d 4316 28be f150 2dbe

weight f4 [64, 64, 3, 3]
-0.050523706 -0.011043206 -0.14825003 0.013558575 -0.004465811 0.052478462 0.022555277 0.035745323
-0.08981977 -0.116464384 -0.14367078 -0.0124541875 0.023943346 -0.06815155 0.08711607 -0.07918108
0.022537762 0.004777327 -0.08252816 -0.071911685 -0.08042763 -0.08335732 -0.055927373 0.010166635
-1.6674472e-06 -0.043179456 -0.013193306 -0.055481344 -0.00783498 -0.1221194 -0.09775792 -0.21292041
-0.026303552 -0.04585685 -0.064341776 -0.027177548 -0.03715758 -0.068438545 -0.027041497 -0.098258264
-0.098745495 0.0608074 -0.03883868 -0.08566417 -0.052369572 -0.049909934 -0.09308775 0.0058255233
-0.09431001 -0.07595598 -0.022186443 -0.15913619 -0.114524424 -0.17472212 -0.07048264 -0.083712526
0.0018873921 -0.057046566 -0.011588207 0.05564337 -0.17480342 -0.042728417 -0.007846464 -0.06878278
0.021466598 -0.07846957 -0.013198675 0.009247813 -0.116828024 -0.06625554 -0.05143402 -0.103372306
0.028141348 -0.05558656 -0.043602463 0.00368602 -0.09013454 -0.05106337 -0.09692579 -0.09778476
-0.16304219 -0.11773251 -0.023577923 -0.05727251 0.020366283 -0.030382948 -0.009773468 -0.077045105
-0.09607836 -0.09063681 -0.043865226 -0.10300045 -0.022227367 -0.08482056 0.034377705 -0.0705869
-0.09957458 -0.019954246 -0.045959815 0.020867426 0.08715356 0.085551076 -0.08765934 -0.048060562
0.045492742 0.068836115 -0.11355846 0.060155135 -0.16281189 -0.12397215 0.06640427 0.007817757
0.006049558 -0.0797761 -0.023471741 -0.15775545 -0.0916592 -0.063754894 -0.045014136 -0.14698268
-0.12075331 -0.088316716 -0.08804477 -0.018910863 -0.10523343 -0.15135182 -0.02215238 -0.029021783
0.025294844 -0.0071431287 -0.060586657 0.035035923 -0.045046683 -0.13260491 -0.007606056 -0.008054518
0.059691954 0.0030532242 0.09998193 -0.1183575 -0.050460353 -0.0038256806 -0.080547474 -0.12035457
-0.07184062 0.013668467 -0.06265348 0.021664357 -0.045213655 0.0017362613 -0.106822856 0.046980552
-0.02671484 -0.12463216 -0.020092908 -0.19527856 -0.065826535 -0.030977754 0.03176005 -0.030925281
0.0073227193 -0.10020843 0.021739338 0.0075956434 0.050077148 -0.103410564 0.111709766 0.019285522
0.056371547 0.034844004 0.071676195 -0.021773193 0.015080511 -0.11984336 -0.054001056 -0.038571987
-0.034799594 -0.05171433 0.06629948 -0.090638466 0.071203195 -0.04985303 -0.11604257 0.0082770735
-0.08574841 -0.119003765 -0.025854 -0.065314636 0.04655079 -0.07536067 -0.06809671 -0.109259605
-0.02723385 0.06305133 -0.09339224 -0.09500488 -0.16731162 -0.101161435 -0.05499877 0.02314567
-0.08841459 -0.060562298 -0.076280825 -0.079066455 0.0011829545 -0.15092148 0.024525749 0.034149196
0.0053099473 0.00767397 -0.0859929 -0.06386085 -0.19909799 -0.045150522 -0.05427962 0.096309185
-0.0042673103 -0.12546125 -0.0030731095 -0.012208856 0.026503667 -0.025235966 -0.056907147 -0.008834847
-0.0758183 -0.06792226 0.0065931384 -0.082427464 0.052361496 -0.0807966 -0.02428046 0.011851503
-0.107605696 -0.0021375248 0.020097509 -0.020408368 -0.059448566 -0.018249853 -0.13967685 -0.058765437
-0.048843004 -0.014007947 0.057966273 -0.056106474 -0.120446384 -0.040569138 -0.100316934 0.026725767
-0.030967493 -0.056301236 -0.11040926 0.063117996 -0.07520666 -0.093437575 -0.069970764 -0.11826409
00000000: f2f1 4ebd 90ee 34bc dbce 17be c924 5e3c
00000010: f055 92bb a8f3 563d d8c5 b83c b069 123d
00000020: 6df3 b7bd e184 eebd 6f1e 13be a60c 4cbc
00000030: d624 c43c 0a93 8bbd e969 b23d b129 a2bd
00000040: 1da1 b83c 208b 9c3b 8604 a9bd 6f46 93bd
00000050: 3eb7 a4bd 3eb7 aabd 1a14 65bd f591 263c
00000060: 0dcd dfb5 f1dc 30bd bc28 58bc 6840 63bd
00000070: 4a5e 00bc bc19 fabd 4e35 c8bd cf07 5abe
00000080: 8c7a d7bc 64d4 3bbd 9fc5 83bd 73a3 debc
00000090: 8c32 18bd 8229 8cbd 2186 ddbc a13b c9bd
000000a0: 143b cabd 2e11 793d 4f15 1fbd b270 afbd
000000b0: 7a81 56bd 5c6e 4cbd caa4 bebd 08e4 be3b
000000c0: 9b25 c1bd cf8e 9bbd 58c0 b5bc 99f4 22be
000000d0: c88b eabd 5bea 32be 3459 90bd 7971 abbd
000000e0: 5f62 f73a a9a9 69bd 77dc 3dbc 4dea 633d
000000f0: abff 32be fe03 2fbd 758e 00bc fcdd 8cbd
00000100: b8da af3c a7b4 a0bd 413f 58bc 2484 173c
00000110: 8843 efbd fcb0 87bd 7bac 52bd dcb4 d3bd
00000120: af88 e63c bcae 63bd 7f98 32bd 2791 713b
00000130: 7598 b8bd d327 51bd 0781 c6bd 6043 c8bd
00000140: 88f4 26be be1d f1bd 7d26 c1bc 9496 6abd
00000150: 31d7 a63c a9e5 f8bc e520 20bc d3c9 9dbd
00000160: bbc4 c4bd cb9f b9bd 06ac 33bd e6f1 d2bd
00000170: 2b16 b6bc 67b6 adbd a3cf 0c3d dd8f 90bd
00000180: c2ed cbbd 1677 a3bc 5c40 3cbd 2af2 aa3c
00000190: 917d b23d 6735 af3d bd86 b3bd 27db 44bd
000001a0: 9956 3a3d f3f9 8c3d 5691 e8bd 3b65 763d
000001b0: 29b8 26be 1ce5 fdbd f6fe 873d 0d16 003c
000001c0: 5f3b c63b a761 a3bd cf47 c0bc a58a 21be
000001d0: d2b7 bbbd ed91 82bd be60 38bd a182 16be
000001e0: 834d f7bd 65df b4bd d150 b4bd f4ea 9abc
000001f0: a084 d7bd f9fb 1abe e878 b5bc 17bf edbc
00000200: 2237 cf3c e810 eabb b729 78bd d481 0f3d
00000210: df82 38bd 95c9 07be 393c f9bb 19f7 03bc
00000220: 8d7f 743d 9a18 483b 53c3 cc3d 6b65 f2bd
00000230: 84af 4ebd 45b8 7abb 13f6 a4bd 757c f6bd
00000240: 2d21 93bd b5f1 5f3c 7850 80bd 7379 b13c
00000250: f431 39bd 4393 e33a f1c5 dabd ae6e 403d
00000260: 15d9 dabc 253f ffbd e299 a4bc 1af7 47be
00000270: 10d0 86bd 0fc5 fdbc d416 023d 0457 fdbc
00000280: 6cf3 ef3b 143a cdbd b216 b23c e0e4 f83b
00000290: b21d 4d3d ebc8 d3bd 17c8 e43d acfc 9d3c
000002a0: dae5 663d 96b8 0e3d f8ca 923d b25d b2bc
000002b0: 3f14 773c 6f70 f5bd 3630 5dbd a9fd 1dbd
000002c0: 058a 0ebd 68d2 53bd 06c8 873d a9a0 b9bd
000002d0: fbd2 913d b132 4cbd baa7 edbd 909c 073c
000002e0: dd9c afbd 3fb8 f3bd c5cb d3bc aec3 85bd
000002f0: 0bac 3e3d b256 9abd 4a76 8bbd 80c3 dfbd
00000300: 8619 dfbc 0e21 813d 6e44 bfbd eb91 c2bd
00000310: bd53 2bbe ba2d cfbd 6446 61bd fd9b bd3c
00000320: b512 b5bd 2c10 78bd 1f39 9cbd 98ed a1bd
00000330: 5e0d 9b3a 298b 1abe 39ea c83c 07e0 0b3d
00000340: 11ff ad3b ed75 fb3b 0c1d b0bd 7ac9 82bd
00000350: 58e0 4bbe c1ef 38bd 4f54 5ebd c03d c53d
00000360: cbd4 8bbb ea78 00be 3966 49bb a707 48bc
00000370: 381e d93c a8bb cebc 7817 69bd 09c0 10bc
00000380: a046 9bbd d31a 8bbd 410b d83b bbcf a8bd
00000390: 0279 563d b078 a5bd d1e7 c6bc ce2c 423c
000003a0: 6060 dcbd b715 0cbb 88a3 a43c 732f a7bc
000003b0: 5780 73bd b780 95bc 7307 0fbe 07b4 70bd
000003c0: 9a0f 48bd 9781 65bc 0b6e 6d3d e7cf 65bd
000003d0: 98ac f6bd d32b 26bd f772 cdbd ffef da3c
000003e0: 8aaf fdbc 209c 66bd 401e e2bd 0244 813d
000003f0: f305 9abd 335c bfbd d54c 8fbd 7134 f2bd

bias f4 [64]
-0.031468913 -0.04167319 -0.054030266 -0.029844154 -0.051710613 -0.06524367 -0.061185155 -0.073311895
-0.0191129 -0.059620585 -0.06321423 -0.0050396016 -0.098827995 -0.05732804 -0.025415791 -0.032946765
-0.065937765 -0.069491096 -0.024904463 -0.041916855 -0.066304214 -0.08182753 -0.08925705 -0.04101766
-0.05881014 -0.017291954 -0.07831747 -0.041014463 -0.056026734 0.0820664 -0.08937562 -0.076694086
-0.047583442 -0.042717036 -0.030146684 -0.094415605 -0.03803687 -0.090867095 -0.09892779 -0.0942441
-0.010113254 -0.07472119 -0.037526958 -0.047540434 -0.09118059 -0.07825213 -0.06890622 -0.055044908
-0.06657453 -0.07038379 -0.0470617 -0.034525093 -0.054910474 -0.0579254 -0.08034043 -0.032617625
-0.057634044 -0.037367634 0.021018472 0.042294808 -0.085194215 -0.010164891 -0.05767218 -0.07856491
00000000: 8ce5 00bd 82b1 2abd d74e 5dbd ba7b f4bc
00000010: 82ce 53bd 799e 85bd 499d 7abd 8c24 96bd
00000020: a892 9cbc b734 74bd 7676 81bd 3e23 a5bb
00000030: 5566 cabd cfd0 6abd c734 d0bc 30f3 06bd
00000040: 610a 87bd 5951 8ebd 7204 ccbc 02b1 2bbd
00000050: 81ca 87bd 3195 a7bd 66cc b6bd 2202 28bd
00000060: e7e2 70bd dba7 8dbc e964 a0bd c8fe 27bd
00000070: 4a7c 65bd 6e12 a83d 910a b7bd ca11 9dbd
00000080: dbe6 42bd 0ff8 2ebd 2ef6 f6bc f85c c1bd
00000090: 8dcc 1bbd 8718 babd a79a cabd 0d03 c1bd
000000a0: 10b2 25bc 6c07 99bd deb5 19bd c2b9 42bd
000000b0: e4bc babd a742 a0bd b41e 8dbd c576 61bd
000000c0: 3a58 88bd 6025 90bd c5c3 40bd 2f6a 0dbd
000000d0: cee9 60bd 2f43 6dbd 8689 a4bd 0f9a 05bd
000000e0: ad11 6cbd ce0e 19bd ee2e ac3c 523d 2d3d
000000f0: 4e7a aebd a58a 26bc aa39 6cbd a4e6 a0bd

weight f4 [32, 64, 3, 3]
0.10143022 0.06621116 -0.027855095 -0.027080892 0.20126112 -0.032616798 0.1337043 0.072265
0.09803333 0.07395859 0.047293898 0.032348134 0.032711104 0.15959601 0.04603185 0.16747151
0.021546708 0.07921444 0.1392645 0.11339959 0.12719508 0.04792467 0.052361667 0.090437844
0.08966196 0.113985285 0.100281365 -0.07982731 -0.18393011 -0.044950668 -0.0836047 0.047814865
0.0093878945 -0.009903039 -0.079183154 0.0629424 0.04239398 -0.0677322 -0.067159675 0.00846132
-0.062456142 -0.11215998 -0.02743745 -0.028996464 0.02789933 0.06635513 0.020564817 -0.026701948
0.117388576 0.0050376453 0.115446836 0.1880285 0.056483906 0.007962894 -0.0773401 -0.04413645
-0.0727848 -0.027277028 -0.11697437 -0.01036328 -0.013513201 -0.044376142 -0.08456426 0.016923374
-0.07661805 0.07391213 -0.07228636 -0.0078099 -0.072666556 -0.08992571 -0.022517951 -0.15096782
-0.022176865 -0.048587725 -0.055842068 0.0046808505 -0.019364748 0.01667096 -0.023804711 0.04356928
-0.09175208 -0.044329364 0.013906794 0.08991147 -0.074294776 -0.08234926 0.011104367 -0.033177122
0.010043033 -0.047839586 -0.026239973 -0.13166694 -0.042380303 -0.029205669 -0.10325998 0.006063941
-0.07488059 -0.09025401 -0.09006876 -0.0884776 -0.12588088 0.00060118776 -0.011501934 -0.030098055
-0.050588403 0.019302553 -0.014094441 0.0096934885 0.018642494 -0.0840795 -0.096861854 -0.09426165
-0.16982187 -0.06661084 -0.11505918 -0.07629002 -0.019944817 -0.0019423092 0.011537236 -0.038642105
-0.08736557 -0.10117198 -0.14690563 -0.024372168 -0.024517266 -0.028174253 0.09605079 0.060635723
0.06931469 -0.0042745867 0.119834565 -0.022205371 -0.03780144 0.09078468 -0.027404157 0.002470476
0.02102613 -0.16405937 -0.02780973 -0.06567639 0.026156636 -0.01953629 -0.076361634 -0.023961712
-0.10085798 0.08114167 -0.102012224 -0.0124917235 0.055869773 -0.023978448 -0.06175297 -0.092083625
-0.047409087 -0.009864113 -0.10333302 0.038538285 -0.06392696 -0.041198146 -0.07625153 -0.030534055
-0.017967563 -0.10016193 0.018094432 -0.009665126 0.09512678 0.12672628 0.011130333 0.034758672
0.0703592 -0.007318463 0.084761545 0.021613596 -0.011579021 -0.057989866 -0.079971135 -0.07276946
0.005024237 -0.16353764 -0.00032073667 -0.020177515 -0.13952221 -0.00045422598 0.031625744 -0.10427491
-0.117207155 0.10915803 -0.02705857 -0.060759827 0.043972977 -0.09032758 0.038838312 -0.11383982
-0.045513976 -0.04283632 0.13947242 0.059225887 -0.098864555 -0.10619653 0.13722526 0.05633714
0.14290014 -0.04141214 -0.038317036 0.13690911 0.068496704 0.06004636 0.0049663084 0.006359476
-0.06768191 -0.03827801 -0.07105134 -0.055649295 -0.023729865 -0.073374696 -0.0028380067 -0.119713835
-0.016278801 0.003486315 -0.0793803 -0.1589877 -0.0034870317 -0.014508534 -0.102664456 -0.09636436
0.021258159 0.028405748 0.044510894 -0.09109636 -0.13405998 -0.0009266766 -0.038435526 -0.005432697
-0.12722652 -0.06107897 0.12113726 0.06420507 -0.020547623 -0.05960629 -0.003333015 0.07765627
-0.0041387416 0.07605958 0.04132718 -0.10331013 -0.07119895 0.0067416644 0.005909901 -0.031360965
-0.121977836 -0.087565936 -0.022188516 -0.121061765 -0.046221044 0.045539994 0.19542538 -0.012338029
00000000: a6ba cf3d b799 873d 5e30 e4bc bfd8 ddbc
00000010: 6517 4e3e 3199 05bd c8e9 083e acff 933d
00000020: b3c5 c83d 9a77 973d 3fb7 413d 7a7f 043d
00000030: 14fc 053d 236d 233e e58b 3c3d a77d 2b3e
00000040: b982 b03c 2e3b a23d 5a9b 0e3e 0b3e e83d
00000050: 6d3f 023e a94c 443d 3079 563d 7a37 b93d
00000060: b1a0 b73d 1e71 e93d 5160 cd3d 807c a3bd
00000070: 2d58 3cbe 311e 38bd f138 abbd 85d9 433d
00000080: afcf 193c 5b40 22bc c72a a2bd f2e7 803d
00000090: 4fa5 2d3d 2eb7 8abd 038b 89bd 59a1 0a3c
000000a0: 03d2 7fbd 22b4 e5bd 81c4 e0bc fe89 edbc
000000b0: 238d e43c 33e5 873d 8c77 a83c 0bbe dabc
000000c0: 6c69 f03d d512 a53b 646f ec3d 8b8a 403e
000000d0: ab5b 673d cc76 023c 7d64 9ebd 6cc8 34bd
000000e0: 3210 95bd 1374 dfbc 4290 efbd bfca 29bc
000000f0: 7966 5dbc c2c3 35bd 0730 adbd e3a2 8a3c
00000100: ede9 9cbd 3e5f 973d df0a 94bd 31ea ffbb
00000110: 34d2 94bd f82a b8bd 9177 b8bc 4f97 1abe
00000120: 42ac b5bc ec03 47bd a7ba 64bd d261 993b
00000130: d2a2 9ebc 8991 883c 1902 c3bc b475 323d
00000140: 84e8 bbbd b592 35bd 52d9 633c 8123 b83d
00000150: dc27 98bd bba6 a8bd 17ef 353c bce4 07bd
00000160: 898b 243c 71f3 43bd 36f5 d6bc b3d3 06be
00000170: f896 2dbd ba40 efbc f879 d3bd 06b4 c63b
00000180: ff5a 99bd 18d7 b8bd f875 b8bd be33 b5bd
00000190: ebe6 00be 0799 1d3a 9c72 3cbc 3290 f6bc
000001a0: c935 4fbd 6320 9e3c 5fec 66bc 70d1 1e3c
000001b0: 25b8 983c df31 acbd 825f c6bd 410c c1bd
000001c0: c9e5 2dbe 446b 88bd 26a4 ebbd f13d 9cbd
000001d0: 5063 a3bc 1595 feba ad06 3d3c 2f47 1ebd
000001e0: b8ec b2bd 4133 cfbd 6e6e 16be 24a8 c7bc
000001f0: 6fd8 c8bc b1cd e6bc 47b6 c43d 2a5d 783d
00000200: dcf4 8d3d d511 8cbb d36b f53d 0ae8 b5bc
00000210: afd5 1abd 51ed b93d af7e e0bc b6e7 213b
00000220: fe3e ac3c 2eff 27be 3bd1 e3bc 5881 86bd
00000230: 7146 d63c 920a a0bc 7d63 9cbd 5a4b c4bc
00000240: a18e cebd 9b2d a63d c9eb d0bd 16aa 4cbc
00000250: b4d7 643d 736e c4bc aff0 7cbd 5796 bcbd
00000260: 0830 42bd 179d 21bc 43a0 d3bd 52da 1d3d
00000270: 23ec 82bd 63bf 28bd c329 9cbd 8e22 fabc
00000280: b630 93bc b321 cdbd c63a 943c 7a5a 1ebc
00000290: d4d1 c23d 89c4 013e 005c 363c 1c5f 0e3d
000002a0: 7c18 903d b8cf efbb 7697 ad3d ff0e b13c
000002b0: efb5 3dbc c886 6dbd e8c7 a3bd 2808 95bd
000002c0: 5ba2 a43b 6976 27be 8c28 a8b9 514b a5bc
000002d0: e9de 0ebe 2e25 eeb9 ff89 013d 168e d5bd
000002e0: 4e0a f0bd 3f8e df3d efa9 ddbc 4cdf 78bd
000002f0: 021d 343d abfd b8bd ec14 1f3d da24 e9bd
00000300: dd6c 3abd 2375 2fbd dcd1 0e3e d896 723d
00000310: 8079 cabd 917d d9bd c784 0c3e c6c1 663d
00000320: 6a54 123e c79f 29bd 53f2 1cbd e731 0c3e
00000330: 0048 8c3d 2cf3 753d 6abc a23b 2763 d03b
00000340: d09c 8abd 67c9 1cbd 5d83 91bd 84f0 63bd
00000350: 2265 c2bc 7945 96bd dafd 39bb 872c f5bd
00000360: 1f5b 85bc a97a 643b 2492 a2bd accd 22be
00000370: af86 64bb 34b5 6dbc be41 d2bd ad5a c5bd
00000380: 9725 ae3c 2cb3 e83c 0e51 363d ba90 babd
00000390: 0547 09be 37ec 72ba 926e 1dbd c404 b2bb
000003a0: ab47 02be f12d 7abd d016 f83d f37d 833d
000003b0: 7d53 a8bc ba25 74bd b66e 5abb 400a 9f3d
000003c0: 489e 87bb 20c5 9b3d b046 293d 4394 d3bd
000003d0: c1d0 91bd 2ee9 dc3b d8a7 c13b 5b74 00bd
000003e0: 84cf f9bd c555 b3bd b1c4 b5bc 3bef f7bd
000003f0: 4752 3dbd 2588 3a3d 971d 483e 7225 4abc

bias f4 [32]
-0.08313842 -0.017827004 -0.08632182 0.18505143 -0.08434909 -0.05653911 -0.046025053 -0.046829
-0.0993219 0.15671413 0.13342282 -0.04486613 -0.08686521 -0.057835527 -0.037115034 -0.069562785
-0.02363478 -0.10967333 -0.06870694 -0.110735685 -0.02610847 -0.08313383 -0.08750326 0.13152906
-0.077871986 -0.048155423 -0.07845241 -0.03564357 -0.07891192 -0.04939637 -0.046230227 0.11784612
00000000: 7a44 aabd f009 92bc 7fc9 b0bd 1f7e 3d3e
00000010: 37bf acbd 8e95 67bd c484 3cbd c4cf 3fbd
00000020: 4869 cbbd ab79 203e fe9f 083e 8cc5 37bd
00000030: 63e6 b1bd f2e4 6cbd ef05 18bd ef76 8ebd
00000040: ba9d c1bc 699c e0bd 39b6 8cbd 64c9 e2bd
00000050: 6ee1 d5bc 1242 aabd e934 b3bd 8eaf 063e
00000060: 597b 9fbd 9f3e 45bd a8ab a0bd fefe 11bd
00000070: 939c a1bd d953 4abd e85b 3dbd 4e59 f13d

weight f4 [16, 32, 3, 3]
0.050334655 -0.05621883 -0.117082305 0.014328074 -0.07897587 -0.13669808 -0.19064859 0.045159034
-0.13096209 0.06152958 0.06656763 0.075159095 0.15259399 0.073338255 0.03213351 -0.03824869
0.05818163 0.074770145 -0.07476366 0.021464214 0.01608968 -0.09773887 -0.03411491 0.062377468
-0.01729061 0.056480046 -0.05585008 0.19856428 0.23680177 0.16094726 0.124547616 0.33459327
0.11926917 0.2212479 0.19083948 0.060865752 -0.05849592 -0.0066999374 -0.15152268 -0.010777247
-0.016944876 -0.058080588 -0.037299152 -0.059745245 0.03721664 -0.04480353 -0.0077764294 -0.039485376
-0.022455791 0.0682869 -0.052606188 0.047507327 0.05042311 -0.035370946 -0.08068495 0.16246302
0.028881975 -0.06409466 0.031920902 0.022854127 0.0041520894 0.05467995 -0.14080171 0.0052054296
0.010544104 0.016838595 -0.119379 -0.07906358 -0.057039093 -0.111346096 0.023551911 -0.033239104
0.022610191 0.030708639 -0.02074687 0.08117104 0.06995888 0.024885787 0.080565386 -0.14334384
-0.059529744 0.10759827 0.082850136 0.06868447 0.020842068 0.18324007 0.23250864 0.11030147
-0.02755747 0.028864726 0.15758291 0.24412867 0.12235166 0.1818355 0.12579957 0.10804357
0.15100266 0.16921926 0.08173425 0.10878689 -0.03497786 0.027727555 0.0884496 -0.012021657
-0.054910507 0.078530684 0.0794252 0.019344445 0.05216675 0.095061414 -0.03539253 0.1167115
0.00015631808 -0.06143231 0.03681581 0.13718654 0.06709288 -0.06691343 0.0035776359 0.052076116
-0.07415857 -0.16932353 -0.13156886 -0.091078594 -0.094706 0.011355435 0.00438529 -0.074368656
0.0034241513 -0.06221296 -0.03515143 0.030758163 0.042079713 -0.043580536 -0.123540886 0.032586984
0.123488635 0.051731747 0.034731545 0.10031997 0.104376286 0.07063929 0.10055082 0.1369009
0.0175747 -0.022778008 -0.04165456 -0.11680282 0.07380561 -0.109140016 -0.016203655 0.06700683
-0.076833956 0.025407925 -0.026790822 0.0045731356 0.094360754 0.0464682 0.058987357 0.05577777
0.035438277 0.04433157 -0.009867698 0.040297613 -0.11717332 -0.056732047 0.0034565232 -0.039600067
0.042323224 -0.037965603 0.010841214 0.06517539 0.03683152 -0.052714333 0.13710953 0.010948744
0.03180711 0.12270486 0.028341757 -0.10833552 -0.079868436 -0.08198841 -0.07888442 0.45771188
0.4011888 0.4748512 0.09609623 0.05541736 0.07207273 -0.09713094 -0.044728924 -0.06089294
0.069101706 -0.0446258 -0.102167696 -0.1242038 -0.115482256 -0.061778937 0.07976566 0.05793903
-0.074944414 -0.019297296 -0.024505509 0.026318839 0.063776426 0.025495347 -0.094769366 0.111564904
0.11686724 0.16588324 0.17100841 0.12381825 0.18340005 0.15619344 0.12780412 0.07492946
0.09148637 0.04040619 -0.016811721 0.012991545 -0.035686214 0.15053755 -0.024992038 0.2255355
-0.032494746 0.011536846 0.043869007 0.08763226 -3.8978334e-05 0.07667369 -0.03373491 0.08628704
0.031105842 0.20711096 0.15934263 0.15488 -0.0017926155 0.042521916 0.08214467 -0.0019957947
0.09986808 0.06117533 0.037996735 -0.025411313 0.016111387 -0.1324168 -0.025764765 -0.039540086
-0.19514184 -0.04655383 -0.028571399 -0.1790049 -0.182846 -0.046503063 0.0148438215 -0.055009555
00000000: b62b 4e3d b745 66bd d9c8 efbd 4cc0 6a3c
00000010: 1abe a1bd 95fa 0bbe 6239 43be aef8 383d
00000020: ed1a 06be 7106 7c3d 9c54 883d 03ed 993d
00000030: 9941 1c3e 5e32 963d 6d9e 033d a9aa 1cbd
00000040: dc4f 6e3d 1721 993d b11d 99bd b8d5 af3c
00000050: 81ce 833c 512b c8bd 13bc 0bbd 847f 7f3d
00000060: 0aa5 8dbc 9f57 673d 0ec3 64bd 6f54 4b3e
00000070: 2a7c 723e 5ccf 243e d212 ff3d cf4f ab3e
00000080: 6543 f43d cf8e 623e 6d6b 433e 5e4e 793d
00000090: 6b99 6fbd 268b dbbb c328 1bbe 0d93 30bc
000000a0: fbcf 8abc e9e5 6dbd ffc6 18bd 6eb7 74bd
000000b0: 7a70 183d e883 37bd 6bd1 febb 6bbb 21bd
000000c0: 35f5 b7bc 01da 8b3d 9679 57bd 0b97 423d
000000d0: 7788 4e3d 20e1 10bd 273e a5bd b55c 263e
000000e0: e499 ec3c 1044 83bd 7ebf 023d 9438 bb3c
000000f0: 400e 883b 15f8 5f3d 532e 10be 4f92 aa3b
00000100: 2dc1 2c3c 18f1 893c fa7c f4bd 16ec a1bd
00000110: d3a1 69bd 6c09 e4bd f0ef c03c ba25 08bd
00000120: 0239 b93c af90 fb3c 57f5 a9bc 013d a63d
00000130: 9a46 8f3d 47dd cb3c 77ff a43d bac8 12be
00000140: 76d5 73bd 7b5c dc3d 55ad a93d 72aa 8c3d
00000150: fcbc aa3c 49a3 3b3e bf16 6e3e bde5 e13d
00000160: 34c0 e1bc b875 ec3c 6a5d 213e defc 793e
00000170: 8293 fa3d 1633 3a3e 9ad1 003e f245 dd3d
00000180: 71a0 1a3e d047 2d3e 4964 a73d a9cb de3d
00000190: f244 0fbd e624 e33c 1025 b53d 7cf6 44bc
000001a0: d7e9 60bd b2d4 a03d aea9 a23d 3e78 9e3c
000001b0: cdac 553d 8faf c23d c2f7 10bd 7006 ef3d
000001c0: 51e9 2339 72a0 7bbd 2dcc 163d a17a 0c3e
000001d0: fe67 893d e909 89bd c576 6a3b c44d 553d
000001e0: 73e0 97bd 2663 2dbe fdb9 06be 6a87 babd
000001f0: 38f5 c1bd 250c 3a3c 7bb2 8f3b 984e 98bd
00000200: ba67 603b 04d3 7ebd f2fa 0fbd 8bf8 fb3c
00000210: c75b 2c3d 8181 32bd 0103 fdbd ee79 053d
00000220: 9ce7 fc3d abe4 533d aa42 0e3d 8e74 cd3d
00000230: 3cc3 d53d 55ab 903d 97ed cd3d c02f 0c3e
00000240: d1f8 8f3c f298 babc f99d 2abd 5136 efbd
00000250: 6527 973d cd84 dfbd 87bd 84bc e03a 893d
00000260: 1f5b 9dbd 4824 d03c 6d78 dbbc 3eda 953b
00000270: 3640 c13d 7055 3e3d ba9c 713d 3b77 643d
00000280: ba27 113d 0595 353d 20ac 21bc 1c0f 253d
00000290: 91f8 efbd dd5f 68bd d686 623b ae33 22bd
000002a0: 1e5b 2d3d d281 1bbd 599f 313c ad7a 853d
000002b0: a6dc 163d fcea 57bd 7166 0c3e 5c62 333c
000002c0: 2c48 023d b04c fb3d f92c e83c 03df ddbd
000002d0: 1092 a3bd 8ae9 a7bd 288e a1bd 3659 ea3e
000002e0: 9e68 cd3e b21f f33e 1ace c43d 50fd 623d
000002f0: de9a 933d 96ec c6bd ad35 37bd e06a 79bd
00000300: 3285 8d3d 8bc9 36bd 4c3d d1bd 905e febd
00000310: f681 ecbd e90b 7dbd 2e5c a33d 7a51 6d3d
00000320: 757c 99bd 5d15 9ebc c7bf c8bc 9b9a d73c
00000330: 379d 823d 9edb d03c 7116 c2bd 247c e43d
00000340: 1758 ef3d 4cdd 293e d41c 2f3e 6c94 fd3d
00000350: 39cd 3b3e 2cf1 1f3e 15df 023e 9e74 993d
00000360: 355d bb3d f680 253d bcb8 89bc 7dda 543c
00000370: b52b 12bd 8426 1a3e 1abc ccbc c7f2 663e
00000380: 3619 05bd 0a05 3d3c fdaf 333d 8b78 b33d
00000390: ab7c 23b8 1807 9d3d 9e2d 0abd 42b7 b03d
000003a0: aed1 fe3c e514 543e b72a 233e dd98 1e3e
000003b0: 32f6 eaba 762b 2e3d 773b a83d e1cb 02bb
000003c0: a387 cc3d fc92 7a3d 77a2 1b3d 632b d0bc
000003d0: 07fc 833c 4598 07be a110 d3bc c9f4 21bd
000003e0: 43d3 47be 3baf 3ebd 910e eabc 0f4d 37be
000003f0: fb3b 3bbe ff79 3ebd 8033 733c b351 61bd

bias f4 [16]
0.0007502533 0.036954835 0.038141675 0.058398955 0.018836837 -0.02132039 -0.0070161396 0.10490695
0.06083152 0.03621796 0.06199116 -0.0051937657 0.06705957 0.06735083 0.059304968 0.045760535
00000000: a6ac 443a f45d 173d 723a 1c3d be33 6f3d
00000010: b64f 9a3c 19a8 aebc a5e7 e5bb 74d9 d63d
00000020: 792a 793d 4959 143d 71ea 7d3d 7730 aabb
00000030: 8756 893d 3bef 893d c4e9 723d 666f 3b3d
