super_resolution/checkpoint_scale4/model_epoch_12.pth (torch_old, 260873 bytes, 8 tensors)

weight f4 [64, 1, 5, 5]
00000000: d4ec b1bd 5456 8bbe 77a9 a1be 3dc7 89bc
00000010: 0b56 05be 0e11 b2ba 4431 883e dc41 7bbe
00000020: 6853 173e 8117 50be 81fe 83be b151 efbe
00000030: b31a 69be 6582 5bbc 5be8 fcbe 119e c1bd
00000040: e73b dbbd 2ca4 003e cc3a 003e 8432 4cbd
00000050: 750f 44be 0412 87be 03aa 77be 0f6d 3c3d
00000060: 4229 39be e778 3fbd 38e5 123e ed72 45be
00000070: 7488 fbbd 5c0e 2cbe 3fce a8bd 6645 b73d
00000080: 3e87 25be b8fa 6bbe 2a31 27be 1e25 32be
00000090: 3ae3 c13d 7755 70be b381 05be 3edf 123d
000000a0: 5c6f 593d 0510 d5be 6500 29be 3ec4 5dbe
000000b0: e65c 733e 8704 c0bc 7757 623c 15cf f1bc
000000c0: 2d27 9fbd 3448 d8be 178d ef3d 2bf0 a8be
000000d0: faa7 04bc a20a 6e3e 6758 84ba f981 39be
000000e0: 270a a1bc f6ee 8abd ea09 0f3d fb55 97be
000000f0: 4eae fdbd f829 8fbe fea8 cebc b5e5 30bd
00000100: 42d4 06bc fa57 a1be bc1a 0cbb f48a 5b3c
00000110: 9c3d c7bd ed82 033c 6ae1 883b 60f8 b6bb
00000120: 69c4 553c 1375 fbbd 2ab1 293e 77d7 a5be
00000130: cdeb ef3d b125 62be 8d88 80be ddfe 8abe
00000140: 4e20 cb3b 9857 7fbe 5683 95bd 3e28 b03d
00000150: 0bbd 4bbe acb3 16bd 37b1 67bd da96 493d
00000160: ab75 9cbc 46cc 97bd 63ca 63be 7c10 d33d
00000170: fead b33e 7ab7 f13c 6545 d2bd 9a7b 103d
00000180: 7ce1 f23d 3253 ea3c 35a2 173d 66b7 bfbe
00000190: 3f1e acbe 37c5 ff3d e113 c1bc 158e 65be
000001a0: 652a 8dbd e624 403e 6936 08be e5bc 13be
000001b0: 93d5 063e f8ec acbb f725 febc 4223 c83d
000001c0: 20f3 973d ed1b bc3d 2f65 00bd 3786 7c3e
000001d0: b590 863d f2ae f03d add5 e23d 352f 95be
000001e0: 4e08 94bb 6b02 243e 7833 833d 5411 9abe
000001f0: ddec 0cbe 5298 063c 94fa abbd bfb1 5cbe
00000200: 15d3 a7be e8d1 c13e bc4d 5c3e c376 1a3e
00000210: 5da6 2ebe ad0a 58bc 0716 323b 870e b83c
00000220: 6366 b2bd 3e13 2ebe 067a 88bd c4db 1cbc
00000230: 3ac0 37be d1dd 403e ebc6 813c 36ff 67be
00000240: f011 8bbe 16c9 1fbe 9d33 3d3c da84 20be
00000250: 9092 e9bd f2bf e2bd 0524 7dbe d2dc c4be
00000260: 9c87 53ba 6bf1 1abe 622b 6dbe 1cb3 433e
00000270: e9b9 41be 2af5 55be 3940 61be ea17 203d
00000280: 8a18 78be 2b96 b6bd 6016 62bd 6b41 abbd
00000290: c00e 89be 6976 a0be acbc 0ebe a4e3 dfbb
000002a0: f9d8 2ebe 474e 01be 7243 82be 4096 1e3e
000002b0: c9d8 68be d2b4 5fbe 9eec 1dbe a940 1bbe
000002c0: e417 f73d 00a0 9b3d b099 64be 6dd1 64be
000002d0: d67c eebd fcb0 023e a9cc 353e 1ee3 a2be
000002e0: cc6c cdbe 5e20 4abd 009b 75bd 4f83 55bd
000002f0: 3b91 73be 0236 4abe 8fed 46be b31a e3bc
00000300: b3d8 87bd ba02 90be 49a8 66be 390d dcbc
00000310: 6f71 f7bc d992 8a3b 640c 343e 6733 153e
00000320: 4054 303e df3f 693c 56ff 3abd 8131 e6be
00000330: 6b05 193c 54de f83d cff6 91bd 6d11 1a3d
00000340: 025e fe3d 3c30 06be abbd a23e 6d13 22be
00000350: 1c99 42be f644 ebbb a0dd 363e d673 98be
00000360: 38cb 053e a31a 963d d4e3 34bd c28f 463c
00000370: 509b 04be 3734 3a3d f5eb 7dbe cd34 3ebe
00000380: ee9d 793c b9f9 2b3c 54d1 b13d c610 18bd
00000390: 6456 003e dc33 c33d fdba 1739 35a1 333d
000003a0: 4fc4 b13d 6621 debc d4e8 babd f688 7bbe
000003b0: 31ee 07be 1926 863d 8138 30be 2d7e a8be
000003c0: d49a 98be 0368 7fbe e19d 95be b1f2 1cbe
000003d0: f59f 1d3d f233 fc3d 3f1f 41bd 5619 993e
000003e0: fc22 a5be f3dc 5ebd 2e4a 3bbe c5b5 3c3e
000003f0: d53e 9fbd 9fc5 243e a26f d33c 49d2 953e
-0.086877495 -0.272143 -0.31574604 -0.016818637 -0.13021104 -0.0013585405 0.26600087 -0.24536842
0.1477791 -0.20321466 -0.2578011 -0.46742013 -0.22764091 -0.013397788 -0.49396023 -0.09453977
-0.10704785 0.12562627 0.12522429 -0.049852863 -0.19146521 -0.26380932 -0.24185948 0.046002444
-0.18082145 -0.04674616 0.14345253 -0.19282122 -0.12281886 -0.16802353 -0.08242463 0.089487836
-0.16164872 -0.2304486 -0.16327348 -0.17396972 0.09467168 -0.23470102 -0.13037758 0.03585743
0.053084716 -0.41613784 -0.16504057 -0.21656892 0.23765907 -0.023439659 0.013814799 -0.02951769
-0.07771144 -0.42242587 0.116968326 -0.32995734 -0.008096689 0.23246244 -0.0010097147 -0.18115987
-0.019658161 -0.067838594 0.034921564 -0.29557785 -0.123867616 -0.27961707 -0.025227066 -0.043187816
-0.008229317 -0.31512433 -0.002137824 0.013399828 -0.09728548 0.008026821 0.004177262 -0.005583808
0.013047316 -0.122781895 0.16571489 -0.3239095 0.11714897 -0.2208469 -0.2510418 -0.2714757
0.0061989194 -0.24935758 -0.07300441 0.086014256 -0.19896333 -0.036792442 -0.05656549 0.04921613
-0.019099077 -0.07412009 -0.22245173 0.103058785 0.35093683 0.029506434 -0.10267142 0.035274126
0.11859414 0.028604124 0.037019927 -0.3744461 -0.33616826 0.124887876 -0.02356905 -0.22417481
-0.06892852 0.18764076 -0.13302006 -0.14427526 0.1316741 -0.0052772723 -0.031023962 0.0977235
0.07419419 0.09185014 -0.031346496 0.24660574 0.065705694 0.11752118 0.11075912 -0.2913758
-0.0045175916 0.16016547 0.06406301 -0.30091345 -0.13762231 0.008215027 -0.08397403 -0.2155218
-0.3277823 0.37855458 0.21514028 0.15084367 -0.1705565 -0.013186139 0.0027173774 0.022467865
-0.08710935 -0.16999528 -0.06663899 -0.009573881 -0.17944422 0.18834616 0.015841922 -0.22655949
-0.27162123 -0.15604052 0.01154795 -0.15675679 -0.11404908 -0.11071767 -0.24720772 -0.38449723
-0.00080692186 -0.15131156 -0.2316108 0.19111294 -0.18918575 -0.20894304 -0.21997155 0.039085306
-0.24228111 -0.08915361 -0.05519712 -0.08362087 -0.26769066 -0.3134034 -0.1393916 -0.006832557
-0.17074956 -0.12627517 -0.25442082 0.15487003 -0.22738947 -0.21846321 -0.15422294 -0.15161385
0.12065104 0.07598877 -0.22324252 -0.22345515 -0.11644904 0.12762827 0.17753853 -0.31813902
-0.40122068 -0.049347274 -0.059962273 -0.05212718 -0.2378587 -0.19747165 -0.19426559 -0.027722692
-0.06633129 -0.2812708 -0.22525133 -0.026861774 -0.030205457 0.0042289314 0.17582852 0.1457039
0.17219639 0.014236419 -0.045653664 -0.44959643 0.009339671 0.12151781 -0.07127153 0.037614275
0.12420274 -0.13104337 0.3178533 -0.15827723 -0.19003719 -0.0071798516 0.1785798 -0.29775876
0.13065803 0.07329299 -0.044162586 0.0121192355 -0.12949872 0.045459952 -0.24797042 -0.1857483
0.015235407 0.01049655 0.08682504 -0.03712537 0.12532955 0.09531376 0.00014470141 0.04385491
0.08680021 -0.027115535 -0.0912644 -0.24563965 -0.13274457 0.06550235 -0.17209055 -0.32908764
-0.29805624 -0.24942021 -0.29222015 -0.15326954 0.038482625 0.12314595 -0.04714894 0.29902142
-0.32253253 -0.054409932 -0.18290016 0.18428715 -0.07775656 0.16091011 0.025810067 0.29261997

bias f4 [64]
00000000: 812a 423d 3e2d e23c 7ec7 5abe 032b 64bd
00000010: 9068 f6bd a248 243d 00a3 7a3d 6762 95bc
00000020: b8e2 6bbe a924 65be 8edb d33d 6b4d bcbd
00000030: fe2a 81bd cba4 0abe 332c 43be 47ba 5d3d
00000040: 6737 50bd e159 37bc df17 57be d93a cb3d
00000050: 7f97 a83d a4ca 1f3e bb8e b53d 319b 263d
00000060: d890 b3bc ee62 5bbe 60e8 42be 8282 81bd
00000070: 89e9 923d 4a29 7cbd 7074 133d df9a 59bd
00000080: b7c1 a3bd 944b e1bc 3958 86bd 3593 26be
00000090: 8919 efbd 3de7 e63d 0e5c 943d 0689 c3bd
000000a0: 3a69 44be 6c2c b43e 4d09 efbd 7173 16bd
000000b0: 8b1e 0bbb 0a8a 46bd 9759 d6bd e950 db3d
000000c0: b674 8f3d 0438 74be 0df3 3dbe 9f01 7abd
000000d0: 6cb1 143d 8873 143d 3c22 c7bd 478b 57be
000000e0: cbc6 023e 071a 46be 9781 1abe bdff 1b3e
000000f0: aee1 f03c a810 333d 4316 28be 2a55 2dbe
0.047403816 0.027609464 -0.21365163 -0.05570508 -0.120316625 0.04010833 0.061190605 -0.018235398
-0.23035705 -0.22377266 0.10344611 -0.09194454 -0.06307028 -0.13539426 -0.1905983 0.054132726
-0.050834086 -0.011190862 -0.210052 0.09923334 0.082320206 0.15604645 0.08865114 0.040675346
-0.021919653 -0.21424457 -0.19033957 -0.063237205 0.071734495 -0.061562814 0.035999715 -0.053126212
-0.079959325 -0.027501859 -0.06559796 -0.16267093 -0.11674792 0.11274574 0.072441205 -0.095476195
-0.19180766 0.3519014 -0.11671696 -0.036731187 -0.0021227922 -0.048471488 -0.10466307 0.10708792
0.07004683 -0.23849493 -0.18549748 -0.061036702 0.036302015 0.03624299 -0.097233266 -0.21049224
0.12771146 -0.19345866 -0.15088497 0.15234275 0.029404487 0.043717057 -0.16414742 -0.16927019

weight f4 [64, 64, 3, 3]
00000000: f2f1 4ebd 90ee 34bc dbce 17be c924 5e3c
00000010: f055 92bb a8f3 563d d8c5 b83c b069 123d
00000020: 6df3 b7bd e184 eebd 6f1e 13be a60c 4cbc
00000030: d624 c43c 0a93 8bbd e969 b23d b129 a2bd
00000040: 1da1 b83c 218b 9c3b 8604 a9bd 6f46 93bd
00000050: 3eb7 a4bd 3eb7 aabd 1a14 65bd f591 263c
00000060: a28b dfb5 f1dc 30bd bc28 58bc 6840 63bd
00000070: 4a5e 00bc bc19 fabd 4e35 c8bd cf07 5abe
00000080: 8c7a d7bc 64d4 3bbd 9fc5 83bd 73a3 debc
00000090: 8c32 18bd 8229 8cbd 2186 ddbc a13b c9bd
000000a0: 143b cabd 2e11 793d 4f15 1fbd b270 afbd
000000b0: 7a81 56bd 5c6e 4cbd caa4 bebd 09e4 be3b
000000c0: 9b25 c1bd cf8e 9bbd 58c0 b5bc 99f4 22be
000000d0: c88b eabd 5bea 32be 3459 90bd 7971 abbd
000000e0: 6e62 f73a a9a9 69bd 77dc 3dbc 4dea 633d
000000f0: abff 32be fe03 2fbd 758e 00bc fcdd 8cbd
00000100: b8da af3c a7b4 a0bd 413f 58bc 2484 173c
00000110: 8843 efbd fcb0 87bd 7bac 52bd dcb4 d3bd
00000120: af88 e63c bcae 63bd 7f98 32bd 2f91 713b
00000130: 7598 b8bd d327 51bd 0781 c6bd 6043 c8bd
00000140: 88f4 26be be1d f1bd 7d26 c1bc 9496 6abd
00000150: 31d7 a63c a9e5 f8bc e520 20bc d3c9 9dbd
00000160: bbc4 c4bd cb9f b9bd 06ac 33bd e6f1 d2bd
00000170: 2b16 b6bc 67b6 adbd a3cf 0c3d dd8f 90bd
00000180: c2ed cbbd 1677 a3bc 5c40 3cbd 2af2 aa3c
00000190: 917d b23d 6735 af3d bd86 b3bd 27db 44bd
000001a0: 9956 3a3d f3f9 8c3d 5691 e8bd 3b65 763d
000001b0: 29b8 26be 1ce5 fdbd f6fe 873d 0d16 003c
000001c0: 603b c63b a761 a3bd cf47 c0bc a58a 21be
000001d0: d2b7 bbbd ed91 82bd be60 38bd a182 16be
000001e0: 834d f7bd 65df b4bd d150 b4bd f4ea 9abc
000001f0: a084 d7bd f9fb 1abe e878 b5bc 17bf edbc
00000200: 2237 cf3c e810 eabb b729 78bd d481 0f3d
00000210: df82 38bd 95c9 07be 393c f9bb 19f7 03bc
00000220: 8d7f 743d a218 483b 53c3 cc3d 6b65 f2bd
00000230: 84af 4ebd 45b8 7abb 13f6 a4bd 757c f6bd
00000240: 2d21 93bd b5f1 5f3c 7850 80bd 7379 b13c
00000250: f431 39bd 5493 e33a f1c5 dabd ae6e 403d
00000260: 15d9 dabc 253f ffbd e299 a4bc 1af7 47be
00000270: 10d0 86bd 0fc5 fdbc d416 023d 0457 fdbc
00000280: 6cf3 ef3b 143a cdbd b216 b23c e0e4 f83b
00000290: b21d 4d3d ebc8 d3bd 17c8 e43d acfc 9d3c
000002a0: dae5 663d 96b8 0e3d f8ca 923d b25d b2bc
000002b0: 3f14 773c 6f70 f5bd 3630 5dbd a9fd 1dbd
000002c0: 058a 0ebd 68d2 53bd 06c8 873d a9a0 b9bd
000002d0: fbd2 913d b132 4cbd baa7 edbd 909c 073c
000002e0: dd9c afbd 3fb8 f3bd c5cb d3bc aec3 85bd
000002f0: 0bac 3e3d b256 9abd 4a76 8bbd 80c3 dfbd
00000300: 8619 dfbc 0e21 813d 6e44 bfbd eb91 c2bd
00000310: bd53 2bbe ba2d cfbd 6446 61bd fd9b bd3c
00000320: b512 b5bd 2c10 78bd 1f39 9cbd 98ed a1bd
00000330: 6f0d 9b3a 298b 1abe 39ea c83c 07e0 0b3d
00000340: 11ff ad3b ed75 fb3b 0c1d b0bd 7ac9 82bd
00000350: 58e0 4bbe c1ef 38bd 4f54 5ebd c03d c53d
00000360: cad4 8bbb ea78 00be 3166 49bb a707 48bc
00000370: 381e d93c a8bb cebc 7817 69bd 09c0 10bc
00000380: a046 9bbd d31a 8bbd 420b d83b bbcf a8bd
00000390: 0279 563d b078 a5bd d1e7 c6bc ce2c 423c
000003a0: 6060 dcbd b015 0cbb 88a3 a43c 732f a7bc
000003b0: 5780 73bd b780 95bc 7307 0fbe 07b4 70bd
000003c0: 9a0f 48bd 9781 65bc 0b6e 6d3d e7cf 65bd
000003d0: 98ac f6bd d32b 26bd f772 cdbd ffef da3c
000003e0: 8aaf fdbc 209c 66bd 401e e2bd 0244 813d
000003f0: f305 9abd 335c bfbd d54c 8fbd 7134 f2bd
-0.050523706 -0.011043206 -0.14825003 0.013558575 -0.004465811 0.052478462 0.022555277 0.035745323
-0.08981977 -0.116464384 -0.14367078 -0.0124541875 0.023943346 -0.06815155 0.08711607 -0.07918108
0.022537762 0.0047773276 -0.08252816 -0.071911685 -0.08042763 -0.08335732 -0.055927373 0.010166635
-1.6655433e-06 -0.043179456 -0.013193306 -0.055481344 -0.00783498 -0.1221194 -0.09775792 -0.21292041
-0.026303552 -0.04585685 -0.064341776 -0.027177548 -0.03715758 -0.068438545 -0.027041497 -0.098258264
-0.098745495 0.0608074 -0.03883868 -0.08566417 -0.052369572 -0.049909934 -0.09308775 0.0058255238
-0.09431001 -0.07595598 -0.022186443 -0.15913619 -0.114524424 -0.17472212 -0.07048264 -0.083712526
0.0018873939 -0.057046566 -0.011588207 0.05564337 -0.17480342 -0.042728417 -0.007846464 -0.06878278
0.021466598 -0.07846957 -0.013198675 0.009247813 -0.116828024 -0.06625554 -0.05143402 -0.103372306
0.028141348 -0.05558656 -0.043602463 0.0036860218 -0.09013454 -0.05106337 -0.09692579 -0.09778476
-0.16304219 -0.11773251 -0.023577923 -0.05727251 0.020366283 -0.030382948 -0.009773468 -0.077045105
-0.09607836 -0.09063681 -0.043865226 -0.10300045 -0.022227367 -0.08482056 0.034377705 -0.0705869
-0.09957458 -0.019954246 -0.045959815 0.020867426 0.08715356 0.085551076 -0.08765934 -0.048060562
0.045492742 0.068836115 -0.11355846 0.060155135 -0.16281189 -0.12397215 0.06640427 0.007817757
0.0060495585 -0.0797761 -0.023471741 -0.15775545 -0.0916592 -0.063754894 -0.045014136 -0.14698268
-0.12075331 -0.088316716 -0.08804477 -0.018910863 -0.10523343 -0.15135182 -0.02215238 -0.029021783
0.025294844 -0.0071431287 -0.060586657 0.035035923 -0.045046683 -0.13260491 -0.007606056 -0.008054518
0.059691954 0.003053226 0.09998193 -0.1183575 -0.050460353 -0.0038256806 -0.080547474 -0.12035457
-0.07184062 0.013668467 -0.06265348 0.021664357 -0.045213655 0.0017362633 -0.106822856 0.046980552
-0.02671484 -0.12463216 -0.020092908 -0.19527856 -0.065826535 -0.030977754 0.03176005 -0.030925281
0.0073227193 -0.10020843 0.021739338 0.0075956434 0.050077148 -0.103410564 0.111709766 0.019285522
0.056371547 0.034844004 0.071676195 -0.021773193 0.015080511 -0.11984336 -0.054001056 -0.038571987
-0.034799594 -0.05171433 0.06629948 -0.090638466 0.071203195 -0.04985303 -0.11604257 0.0082770735
-0.08574841 -0.119003765 -0.025854 -0.065314636 0.04655079 -0.07536067 -0.06809671 -0.109259605
-0.02723385 0.06305133 -0.09339224 -0.09500488 -0.16731162 -0.101161435 -0.05499877 0.02314567
-0.08841459 -0.060562298 -0.076280825 -0.079066455 0.0011829565 -0.15092148 0.024525749 0.034149196
0.0053099473 0.00767397 -0.0859929 -0.06386085 -0.19909799 -0.045150522 -0.05427962 0.096309185
-0.00426731 -0.12546125 -0.0030731077 -0.012208856 0.026503667 -0.025235966 -0.056907147 -0.008834847
-0.0758183 -0.06792226 0.006593139 -0.082427464 0.052361496 -0.0807966 -0.02428046 0.011851503
-0.107605696 -0.0021375231 0.020097509 -0.020408368 -0.059448566 -0.018249853 -0.13967685 -0.058765437
-0.048843004 -0.014007947 0.057966273 -0.056106474 -0.120446384 -0.040569138 -0.100316934 0.026725767
-0.030967493 -0.056301236 -0.11040926 0.063117996 -0.07520666 -0.093437575 -0.069970764 -0.11826409

bias f4 [64]
00000000: 8ce5 00bd 82b1 2abd d74e 5dbd ba7b f4bc
00000010: 82ce 53bd 799e 85bd 499d 7abd 8c24 96bd
00000020: a892 9cbc b734 74bd 7676 81bd 3c23 a5bb
00000030: 5566 cabd cfd0 6abd c734 d0bc 30f3 06bd
00000040: 610a 87bd 5951 8ebd 7204 ccbc 02b1 2bbd
00000050: 81ca 87bd 3195 a7bd 66cc b6bd 2202 28bd
00000060: e7e2 70bd dba7 8dbc e964 a0bd c8fe 27bd
00000070: 4a7c 65bd 91c5 9e3d 910a b7bd ca11 9dbd
00000080: dbe6 42bd 0ff8 2ebd 2ef6 f6bc f85c c1bd
00000090: 8dcc 1bbd 8118 babd a79a cabd 0d03 c1bd
000000a0: 10b2 25bc 6c07 99bd deb5 19bd c2b9 42bd
000000b0: e4bc babd a742 a0bd b41e 8dbd c576 61bd
000000c0: 3a58 88bd 6025 90bd c5c3 40bd 2f6a 0dbd
000000d0: cee9 60bd 2f43 6dbd 8689 a4bd 0f9a 05bd
000000e0: ad11 6cbd ce0e 19bd d9e1 a33c 2860 263d
000000f0: 4e7a aebd a58a 26bc aa39 6cbd a4e6 a0bd
-0.031468913 -0.04167319 -0.054030266 -0.029844154 -0.051710613 -0.06524367 -0.061185155 -0.073311895
-0.0191129 -0.059620585 -0.06321423 -0.0050396007 -0.098827995 -0.05732804 -0.025415791 -0.032946765
-0.065937765 -0.069491096 -0.024904463 -0.041916855 -0.066304214 -0.08182753 -0.08925705 -0.04101766
-0.05881014 -0.017291954 -0.07831747 -0.041014463 -0.056026734 0.077525266 -0.08937562 -0.076694086
-0.047583442 -0.042717036 -0.030146684 -0.094415605 -0.03803687 -0.09086705 -0.09892779 -0.0942441
-0.010113254 -0.07472119 -0.037526958 -0.047540434 -0.09118059 -0.07825213 -0.06890622 -0.055044908
-0.06657453 -0.07038379 -0.0470617 -0.034525093 -0.054910474 -0.0579254 -0.08034043 -0.032617625
-0.057634044 -0.037367634 0.020005153 0.040619045 -0.085194215 -0.010164891 -0.05767218 -0.07856491

weight f4 [32, 64, 3, 3]
00000000: a6ba cf3d b799 873d 5e30 e4bc bfd8 ddbc
00000010: 6517 4e3e 3199 05bd c8e9 083e acff 933d
00000020: b3c5 c83d 9a77 973d 3fb7 413d 7a7f 043d
00000030: 14fc 053d 236d 233e e58b 3c3d a77d 2b3e
00000040: b982 b03c 2e3b a23d 5a9b 0e3e 0b3e e83d
00000050: 6d3f 023e a94c 443d 3079 563d 7a37 b93d
00000060: b1a0 b73d 1e71 e93d 5160 cd3d 807c a3bd
00000070: 2d58 3cbe 311e 38bd f138 abbd 85d9 433d
00000080: afcf 193c 5b40 22bc c72a a2bd f2e7 803d
00000090: 4fa5 2d3d 2eb7 8abd 038b 89bd 59a1 0a3c
000000a0: 03d2 7fbd 22b4 e5bd 81c4 e0bc fe89 edbc
000000b0: 238d e43c 33e5 873d 8c77 a83c 0bbe dabc
000000c0: 6c69 f03d d412 a53b 646f ec3d 8b8a 403e
000000d0: ab5b 673d cc76 023c 7d64 9ebd 6cc8 34bd
000000e0: 3210 95bd 1374 dfbc 4290 efbd bfca 29bc
000000f0: 7966 5dbc c2c3 35bd 0730 adbd e3a2 8a3c
00000100: ede9 9cbd 3e5f 973d df0a 94bd 2fea ffbb
00000110: 34d2 94bd f82a b8bd 9177 b8bc 4f97 1abe
00000120: 42ac b5bc ec03 47bd a7ba 64bd d461 993b
00000130: d2a2 9ebc 8991 883c 1902 c3bc b475 323d
00000140: 84e8 bbbd b592 35bd 52d9 633c 8123 b83d
00000150: dc27 98bd bba6 a8bd 17ef 353c bce4 07bd
00000160: 898b 243c 71f3 43bd 36f5 d6bc b3d3 06be
00000170: f896 2dbd ba40 efbc f879 d3bd 08b4 c63b
00000180: ff5a 99bd 18d7 b8bd f875 b8bd be33 b5bd
00000190: ebe6 00be 2c99 1d3a 9c72 3cbc 3290 f6bc
000001a0: c935 4fbd 6320 9e3c 5fec 66bc 70d1 1e3c
000001b0: 25b8 983c df31 acbd 825f c6bd 410c c1bd
000001c0: c9e5 2dbe 446b 88bd 26a4 ebbd f13d 9cbd
000001d0: 5063 a3bc 0395 feba ad06 3d3c 2f47 1ebd
000001e0: b8ec b2bd 4133 cfbd 6e6e 16be 24a8 c7bc
000001f0: 6fd8 c8bc b1cd e6bc 47b6 c43d 2a5d 783d
00000200: dcf4 8d3d d611 8cbb d36b f53d 0ae8 b5bc
00000210: afd5 1abd 51ed b93d af7e e0bc bfe7 213b
00000220: fe3e ac3c 2eff 27be 3bd1 e3bc 5881 86bd
00000230: 7146 d63c 920a a0bc 7d63 9cbd 5a4b c4bc
00000240: a18e cebd 9b2d a63d c9eb d0bd 16aa 4cbc
00000250: b4d7 643d 736e c4bc aff0 7cbd 5796 bcbd
00000260: 0830 42bd 179d 21bc 43a0 d3bd 52da 1d3d
00000270: 23ec 82bd 63bf 28bd c329 9cbd 8e22 fabc
00000280: b630 93bc b321 cdbd c63a 943c 7a5a 1ebc
00000290: d4d1 c23d 89c4 013e 005c 363c 1c5f 0e3d
000002a0: 7c18 903d b9cf efbb 7697 ad3d ff0e b13c
000002b0: efb5 3dbc c886 6dbd e8c7 a3bd 2808 95bd
000002c0: 5da2 a43b 6976 27be 4328 a8b9 514b a5bc
000002d0: e9de 0ebe e524 eeb9 ff89 013d 168e d5bd
000002e0: 4e0a f0bd 3f8e df3d efa9 ddbc 4cdf 78bd
000002f0: 021d 343d abfd b8bd ec14 1f3d da24 e9bd
00000300: dd6c 3abd 2375 2fbd dcd1 0e3e d896 723d
00000310: 8079 cabd 917d d9bd c784 0c3e c6c1 663d
00000320: 6a54 123e c79f 29bd 53f2 1cbd e731 0c3e
00000330: 0048 8c3d 2cf3 753d 6abc a23b 2963 d03b
00000340: d09c 8abd 67c9 1cbd 5d83 91bd 84f0 63bd
00000350: 2265 c2bc 7945 96bd d1fd 39bb 872c f5bd
00000360: 1f5b 85bc b27a 643b 2492 a2bd accd 22be
00000370: a686 64bb 34b5 6dbc be41 d2bd ad5a c5bd
00000380: 9725 ae3c 2cb3 e83c 0e51 363d ba90 babd
00000390: 0547 09be 12ec 72ba 926e 1dbd c204 b2bb
000003a0: ab47 02be f12d 7abd d016 f83d f37d 833d
000003b0: 7d53 a8bc ba25 74bd b66e 5abb 400a 9f3d
000003c0: 499e 87bb 20c5 9b3d b046 293d 4394 d3bd
000003d0: c1d0 91bd 30e9 dc3b daa7 c13b 5b74 00bd
000003e0: 84cf f9bd c555 b3bd b1c4 b5bc 3bef f7bd
000003f0: 4752 3dbd 2588 3a3d 971d 483e 7225 4abc
0.10143022 0.06621116 -0.027855095 -0.027080892 0.20126112 -0.032616798 0.1337043 0.072265
0.09803333 0.07395859 0.047293898 0.032348134 0.032711104 0.15959601 0.04603185 0.16747151
0.021546708 0.07921444 0.1392645 0.11339959 0.12719508 0.04792467 0.052361667 0.090437844
0.08966196 0.113985285 0.100281365 -0.07982731 -0.18393011 -0.044950668 -0.0836047 0.047814865
0.0093878945 -0.009903039 -0.079183154 0.0629424 0.04239398 -0.0677322 -0.067159675 0.00846132
-0.062456142 -0.11215998 -0.02743745 -0.028996464 0.02789933 0.06635513 0.020564817 -0.026701948
0.117388576 0.005037645 0.115446836 0.1880285 0.056483906 0.007962894 -0.0773401 -0.04413645
-0.0727848 -0.027277028 -0.11697437 -0.01036328 -0.013513201 -0.044376142 -0.08456426 0.016923374
-0.07661805 0.07391213 -0.07228636 -0.0078098993 -0.072666556 -0.08992571 -0.022517951 -0.15096782
-0.022176865 -0.048587725 -0.055842068 0.0046808515 -0.019364748 0.01667096 -0.023804711 0.04356928
-0.09175208 -0.044329364 0.013906794 0.08991147 -0.074294776 -0.08234926 0.011104367 -0.033177122
0.010043033 -0.047839586 -0.026239973 -0.13166694 -0.042380303 -0.029205669 -0.10325998 0.006063942
-0.07488059 -0.09025401 -0.09006876 -0.0884776 -0.12588088 0.0006011899 -0.011501934 -0.030098055
-0.050588403 0.019302553 -0.014094441 0.0096934885 0.018642494 -0.0840795 -0.096861854 -0.09426165
-0.16982187 -0.06661084 -0.11505918 -0.07629002 -0.019944817 -0.0019423071 0.011537236 -0.038642105
-0.08736557 -0.10117198 -0.14690563 -0.024372168 -0.024517266 -0.028174253 0.09605079 0.060635723
0.06931469 -0.004274587 0.119834565 -0.022205371 -0.03780144 0.09078468 -0.027404157 0.0024704782
0.02102613 -0.16405937 -0.02780973 -0.06567639 0.026156636 -0.01953629 -0.076361634 -0.023961712
-0.10085798 0.08114167 -0.102012224 -0.0124917235 0.055869773 -0.023978448 -0.06175297 -0.092083625
-0.047409087 -0.009864113 -0.10333302 0.038538285 -0.06392696 -0.041198146 -0.07625153 -0.030534055
-0.017967563 -0.10016193 0.018094432 -0.009665126 0.09512678 0.12672628 0.011130333 0.034758672
0.0703592 -0.0073184636 0.084761545 0.021613596 -0.011579021 -0.057989866 -0.079971135 -0.07276946
0.005024238 -0.16353764 -0.00032073454 -0.020177515 -0.13952221 -0.00045422386 0.031625744 -0.10427491
-0.117207155 0.10915803 -0.02705857 -0.060759827 0.043972977 -0.09032758 0.038838312 -0.11383982
-0.045513976 -0.04283632 0.13947242 0.059225887 -0.098864555 -0.10619653 0.13722526 0.05633714
0.14290014 -0.04141214 -0.038317036 0.13690911 0.068496704 0.06004636 0.0049663084 0.006359477
-0.06768191 -0.03827801 -0.07105134 -0.055649295 -0.023729865 -0.073374696 -0.0028380046 -0.119713835
-0.016278801 0.0034863171 -0.0793803 -0.1589877 -0.0034870296 -0.014508534 -0.102664456 -0.09636436
0.021258159 0.028405748 0.044510894 -0.09109636 -0.13405998 -0.00092667446 -0.038435526 -0.005432696
-0.12722652 -0.06107897 0.12113726 0.06420507 -0.020547623 -0.05960629 -0.003333015 0.07765627
-0.004138742 0.07605958 0.04132718 -0.10331013 -0.07119895 0.0067416653 0.005909902 -0.031360965
-0.121977836 -0.087565936 -0.022188516 -0.121061765 -0.046221044 0.045539994 0.19542538 -0.012338029

bias f4 [32]
00000000: 7a44 aabd f009 92bc 7fc9 b0bd a28e 3d3e
00000010: 37bf acbd 41bf 67bd b670 5fbd c4cf 3fbd
00000020: 4869 cbbd 8ae5 203e 8f93 083e 8cc5 37bd
00000030: 63e6 b1bd fce4 6cbd ef05 18bd ef76 8ebd
00000040: 62ed c0bc 3c9c e0bd 39b6 8cbd 29a7 a9bd
00000050: 1a0f 0bbd 1242 aabd de34 b3bd 692f 073e
00000060: 597b 9fbd 9f3e 45bd a8ab a0bd 37c3 11bd
00000070: 939c a1bd d953 4abd e85b 3dbd 0a1d f13d
-0.08313842 -0.017827004 -0.08632182 0.18511441 -0.08434909 -0.05657888 -0.05455085 -0.046829
-0.0993219 0.15712562 0.13337539 -0.04486613 -0.08686521 -0.057835564 -0.037115034 -0.069562785
-0.023550693 -0.10967299 -0.06870694 -0.082838364 -0.03394995 -0.08313383 -0.08750318 0.1320168
-0.077871986 -0.048155423 -0.07845241 -0.035586562 -0.07891192 -0.04939637 -0.046230227 0.11773117

weight f4 [16, 32, 3, 3]
00000000: b62b 4e3d b745 66bd d9c8 efbd 4cc0 6a3c
00000010: 1abe a1bd 95fa 0bbe 6239 43be aef8 383d
00000020: ed1a 06be 7106 7c3d 9c54 883d 03ed 993d
00000030: 9941 1c3e 5e32 963d 6d9e 033d a9aa 1cbd
00000040: dc4f 6e3d 1721 993d b11d 99bd b8d5 af3c
00000050: 81ce 833c 512b c8bd 13bc 0bbd 847f 7f3d
00000060: 0aa5 8dbc 9f57 673d 0ec3 64bd fc3d 4b3e
00000070: bb80 6f3e 9cff 263e 2905 003e cbbc aa3e
00000080: d0fa fa3d 9bfb 663e 3eb2 483e e739 8f3d
00000090: 6b99 6fbd 248b dbbb c328 1bbe 0d93 30bc
000000a0: fbcf 8abc e9e5 6dbd ffc6 18bd 6eb7 74bd
000000b0: 7a70 183d 7384 37bd 28d0 febb b8bb 21bd
000000c0: 3cf6 b7bc 15da 8b3d 017a 57bd e796 423d
000000d0: 0d89 4e3d 16e1 10bd 630c 91bd 6f43 233e
000000e0: 8c3e a83c 7bff 6abd dbce c53c 341a ad3b
000000f0: f152 4b3c c1ae 7a3d 3a85 fdbd 5192 aa3b
00000100: 2dc1 2c3c 18f1 893c fa7c f4bd 16ec a1bd
00000110: d3a1 69bd 6c09 e4bd f0ef c03c ba25 08bd
00000120: 0239 b93c af90 fb3c 57f5 a9bc 013d a63d
00000130: 9a46 8f3d 47dd cb3c 77ff a43d bac8 12be
00000140: 76d5 73bd 3065 dc3d ae3b a93d a5e6 8d3d
00000150: 02d4 a43c 2ff7 3b3e e65b 6f3e 7b82 e33d
00000160: 0c71 d1bc 7878 023d 0615 243e 741a 743e
00000170: d206 f63d b2be 373e 702e f83d f961 e23d
00000180: 321e 1c3e 16bd 323e 562b bd3d a9cb de3d
00000190: f244 0fbd e624 e33c 1025 b53d 7cf6 44bc
000001a0: d7e9 60bd b2d4 a03d aea9 a23d 3e78 9e3c
000001b0: cdac 553d 8faf c23d c2f7 10bd 7006 ef3d
000001c0: cfe8 2339 72a0 7bbd 2dcc 163d a17a 0c3e
000001d0: fe67 893d e909 89bd d276 6a3b c44d 553d
000001e0: 73e0 97bd 2663 2dbe fdb9 06be 6a87 babd
000001f0: 38f5 c1bd 250c 3a3c 7db2 8f3b 984e 98bd
00000200: c367 603b 04d3 7ebd f2fa 0fbd 8bf8 fb3c
00000210: c75b 2c3d 8181 32bd 0103 fdbd ee79 053d
00000220: 9ce7 fc3d abe4 533d aa42 0e3d 8e74 cd3d
00000230: 3cc3 d53d 55ab 903d 97ed cd3d c02f 0c3e
00000240: b5f1 8f3c b69f babc eaa5 2abd 4539 efbd
00000250: 5724 973d e988 dfbd 68c6 84bc c436 893d
00000260: bc60 9dbd 4824 d03c 7978 dbbc 23da 953b
00000270: 3640 c13d 7055 3e3d b39c 713d 3677 643d
00000280: ba27 113d fe94 353d 20ac 21bc 1c0f 253d
00000290: 91f8 efbd dd5f 68bd df86 623b ae33 22bd
000002a0: 1e5b 2d3d d281 1bbd 599f 313c dd57 9a3d
000002b0: 28b9 783d e7e9 ccbc 7ba6 093e 0237 b83c
000002c0: a24f 643d dfe1 203e bd5f 883d cc41 c0bc
000002d0: 1b13 c5bd 8b79 d3bd d76f c0bd a40a dc3e
000002e0: 71c3 b93e 6ea1 dc3e c23f bf3d 26d2 573d
000002f0: b326 8e3d 96ec c6bd ad35 37bd e06a 79bd
00000300: 3285 8d3d 8bc9 36bd 4c3d d1bd 905e febd
00000310: f681 ecbd e90b 7dbd 315c a33d 8351 6d3d
00000320: 6b7c 99bd 5315 9ebc bebf c8bc aa9a d73c
00000330: 379d 823d a7db d03c 7116 c2bd d8bc e03d
00000340: 4bab ed3d e23f 2a3e a45d 2e3e 8c23 ff3d
00000350: 852b 3d3e 16b3 203e 188c 053e c933 a03d
00000360: 355d bb3d f680 253d bcb8 89bc 7dda 543c
00000370: b52b 12bd 8426 1a3e 1abc ccbc c7f2 663e
00000380: 3619 05bd 0a05 3d3c fdaf 333d 8b78 b33d
00000390: b47e 23b8 1807 9d3d 9e2d 0abd 42b7 b03d
000003a0: aed1 fe3c e514 543e b72a 233e dd98 1e3e
000003b0: 43f6 eaba 762b 2e3d 773b a83d e9cb 02bb
000003c0: a387 cc3d fc92 7a3d 77a2 1b3d 7d2b d0bc
000003d0: 0efc 833c 2098 07be 5811 d3bc 2bf5 21bd
000003e0: 43d3 47be 89af 3ebd 390f eabc 114d 37be
000003f0: fb3b 3bbe ff79 3ebd 8033 733c b351 61bd
0.050334655 -0.05621883 -0.117082305 0.014328074 -0.07897587 -0.13669808 -0.19064859 0.045159034
-0.13096209 0.06152958 0.06656763 0.075159095 0.15259399 0.073338255 0.03213351 -0.03824869
0.05818163 0.074770145 -0.07476366 0.021464214 0.01608968 -0.09773887 -0.03411491 0.062377468
-0.01729061 0.056480046 -0.05585008 0.19847864 0.2338895 0.16308445 0.12501968 0.33347163
0.1225487 0.22556917 0.19599244 0.06993466 -0.05849592 -0.0066999365 -0.15152268 -0.010777247
-0.016944876 -0.058080588 -0.037299152 -0.059745245 0.03721664 -0.044804048 -0.007776279 -0.039485663
-0.02245628 0.06828705 -0.052606586 0.047507193 0.05042367 -0.03537091 -0.07082441 0.15943693
0.020537637 -0.05737255 0.024146488 0.0052826647 0.0124099115 0.061201815 -0.123789266 0.0052054306
0.010544104 0.016838595 -0.119379 -0.07906358 -0.057039093 -0.111346096 0.023551911 -0.033239104
0.022610191 0.030708639 -0.02074687 0.08117104 0.06995888 0.024885787 0.080565386 -0.14334384
-0.059529744 0.107614875 0.08263336 0.069287576 0.020120624 0.18356012 0.233749 0.111088715
-0.0255666 0.03185317 0.16023645 0.23838216 0.120130196 0.17943838 0.12118232 0.11053843
0.15245894 0.17454943 0.09236781 0.10878689 -0.03497786 0.027727555 0.0884496 -0.012021657
-0.054910507 0.078530684 0.0794252 0.019344445 0.05216675 0.095061414 -0.03539253 0.1167115
0.0001563162 -0.06143231 0.03681581 0.13718654 0.06709288 -0.06691343 0.0035776389 0.052076116
-0.07415857 -0.16932353 -0.13156886 -0.091078594 -0.094706 0.011355435 0.004385291 -0.074368656
0.0034241534 -0.06221296 -0.03515143 0.030758163 0.042079713 -0.043580536 -0.123540886 0.032586984
0.123488635 0.051731747 0.034731545 0.10031997 0.104376286 0.07063929 0.10055082 0.1369009
0.01757131 -0.022781234 -0.041662134 -0.11680845 0.07379978 -0.109147854 -0.016207889 0.06699899
-0.07684466 0.025407925 -0.026790844 0.004573123 0.094360754 0.0464682 0.05898733 0.05577775
0.035438277 0.044331543 -0.009867698 0.040297613 -0.11717332 -0.056732047 0.0034565253 -0.039600067
0.042323224 -0.037965603 0.010841214 0.0753629 0.060723454 -0.025013877 0.13442414 0.022487167
0.055740006 0.15711163 0.06658886 -0.023468874 -0.09622785 -0.10325917 -0.09396332 0.42976868
0.36281922 0.4309191 0.09338333 0.052690648 0.06940975 -0.09713094 -0.044728924 -0.06089294
0.069101706 -0.0446258 -0.102167696 -0.1242038 -0.115482256 -0.061778937 0.079765685 0.057939064
-0.07494434 -0.019297278 -0.024505492 0.026318867 0.063776426 0.025495363 -0.094769366 0.10973519
0.11604937 0.16625932 0.17027909 0.12457952 0.18473633 0.15693316 0.13041723 0.07822377
0.09148637 0.04040619 -0.016811721 0.012991545 -0.035686214 0.15053755 -0.024992038 0.2255355
-0.032494746 0.011536846 0.043869007 0.08763226 -3.898023e-05 0.07667369 -0.03373491 0.08628704
0.031105842 0.20711096 0.15934263 0.15488 -0.0017926175 0.042521916 0.08214467 -0.0019957966
0.09986808 0.06117533 0.037996735 -0.025411362 0.0161114 -0.13241625 -0.025765106 -0.03954045
-0.19514184 -0.046554122 -0.028571712 -0.17900492 -0.182846 -0.046503063 0.0148438215 -0.055009555

bias f4 [16]
00000000: 393c bb39 6465 183d e436 1c3d 914e 703d
00000010: b9d1 963c ce77 b3bc a76d fabb faf2 da3d
00000020: 03c8 7b3d 54b3 123d db96 803d 905d c9bb
00000030: 57d1 893d 1750 8a3d c8ac 733d 9ac6 3a3d
0.0003571229 0.03720607 0.038138285 0.058668677 0.01841055 -0.021907713 -0.007642466 0.10690875
0.061470043 0.035815552 0.062787734 -0.0061451867 0.067293815 0.06753557 0.05949095 0.045599557
