super_resolution/checkpoint_scale4/model_epoch_10.pth (torch_old, 260873 bytes, 8 tensors)

weight f4 [64, 1, 5, 5]
000000 68 5e b2 bd f2 72 8b be d8 d0 a1 be b3 2e 8f bc
       -0.08709413 -0.27236134 -0.31604648 -0.017478323
000010 3b 6a 05 be b4 ac ca ba ff 15 88 3e a6 8c 7b be
       -0.13028805 -0.0015462846 0.26579282 -0.24565372
000020 c9 ab 16 3e 0e 24 50 be 1b 1f 84 be 56 76 ef be
       0.14713968 -0.20326254 -0.25804982 -0.4676997
000030 73 85 69 be bc 1e 67 bc 0e e6 fc be b9 70 c2 bd
       -0.22804813 -0.014106449 -0.49394268 -0.094941564
000040 a1 88 dc bd 53 1c ff 3d d9 4f fd 3d 89 1b 4c bd
       -0.107682474 0.12456574 0.12368745 -0.049830947
000050 9c 0e 44 be 96 11 87 be 17 a5 77 be 6b 81 3c 3d
       -0.19146198 -0.26380605 -0.2418407 0.04602186
000060 f6 23 39 be 4b 78 3f bd 73 e5 12 3e ab 72 45 be
       -0.18080124 -0.04674558 0.1434534 -0.19282024
000070 4f 88 fb bd 4a 0e 2c be f8 cd a8 bd c7 45 b7 3d
       -0.12281858 -0.16802326 -0.082424104 0.08948856
000080 00 87 25 be a0 fa 6b be 0c 31 27 be ef 24 32 be
       -0.1616478 -0.23044825 -0.16327304 -0.17396902
000090 b3 e3 c1 3d 1f 55 70 be 99 81 05 be 0f e0 12 3d
       0.09467258 -0.23469971 -0.13037719 0.03585821
0000a0 ff 6f 59 3d e9 0f d5 be 17 00 29 be 2b c4 5d be
       0.053085323 -0.416137 -0.1650394 -0.21656863
0000b0 19 5d 73 3e 4e 03 c0 bc 57 5a 62 3c e2 cc f1 bc
       0.23765983 -0.023439076 0.013815484 -0.029516641
0000c0 2c 27 9f bd 34 48 d8 be 19 8d ef 3d 2b f0 a8 be
       -0.07771143 -0.42242587 0.11696834 -0.32995734
0000d0 cf a7 04 bc a2 0a 6e 3e 0d 57 84 ba f9 81 39 be
       -0.008096649 0.23246244 -0.0010096744 -0.18115987
0000e0 13 0a a1 bc f4 ee 8a bd f2 09 0f 3d fb 55 97 be
       -0.019658124 -0.06783858 0.034921594 -0.29557785
0000f0 4c ae fd bd f8 29 8f be ea a8 ce bc ad e5 30 bd
       -0.1238676 -0.27961707 -0.025227029 -0.043187786
000100 18 d4 06 bc fa 57 a1 be 0e 1a 0c bb 1f 8b 5b 3c
       -0.008229278 -0.31512433 -0.0021377834 0.013399868
000110 9a 3d c7 bd 17 83 03 3c c0 e1 88 3b 0a f8 b6 bb
       -0.097285464 0.00802686 0.004177302 -0.005583768
000120 93 c4 55 3c 11 75 fb bd 2a b1 29 3e 02 dc a5 be
       0.013047355 -0.12278188 0.16571489 -0.32394415
000130 b9 da ef 3d d4 2e 62 be 45 8c 80 be e9 fe 8a be
       0.1171164 -0.22088176 -0.25107017 -0.27147606
000140 2b 73 ca 3b d8 5a 7f be 5c 8a 95 bd 15 1f b0 3d
       0.00617828 -0.24936998 -0.073017806 0.085996784
000150 7f bd 4b be 75 cf 16 bd 81 c6 67 bd 09 74 49 3d
       -0.19896506 -0.03681894 -0.056585792 0.049182925
000160 d5 b4 9c bc 3b d1 97 bd b9 d5 63 be 23 ff d2 3d
       -0.019129196 -0.074129544 -0.22249497 0.1030257
000170 d7 a8 b3 3e 0c 84 f1 3c c1 43 d2 bd 7a 4a 10 3d
       0.35089752 0.02948191 -0.10266829 0.035227276
000180 38 cf f2 3d c9 0d ea 3c de 90 17 3d 9e b6 bf be
       0.1185593 0.028571026 0.03700339 -0.37444013
000190 7f 43 ac be 6d 47 ff 3d 67 87 c2 bc d7 b6 65 be
       -0.33645245 0.12464795 -0.023746205 -0.22433029
0001a0 a7 d4 8d bd 58 de 3f 3e 09 73 08 be 28 ec 13 be
       -0.06925326 0.18737161 -0.13325132 -0.14445555
0001b0 77 ad 06 3e d4 e9 b6 bb cc 1b 00 bd 93 9f c7 3d
       0.13152109 -0.0055820737 -0.03127651 0.09747233
0001c0 9b 8e 97 3d 1e db bb 3d c9 6c 01 bd 5a 3e 7c 3e
       0.07400247 0.09172653 -0.031597886 0.2463316
0001d0 e2 f2 85 3d 68 39 f0 3d 55 a0 e2 3d fc 4b 95 be
       0.06540467 0.117296994 0.11065737 -0.29159534
0001e0 19 47 9b bb 24 ba 23 3e b6 c2 82 3d fa 1c 9a be
       -0.0047387 0.15988976 0.063847944 -0.30100232
0001f0 ae 21 0d be be 6a 05 3c 4b 20 ac bd 8c c2 5c be
       -0.13782379 0.008143125 -0.08404597 -0.21558589
000200 e3 db a7 be dd c9 c1 3e 6b 3c 5c 3e 67 66 1a 3e
       -0.32784948 0.37849322 0.21507423 0.15078126
000210 e5 b3 2e be 4c 17 59 bc 20 07 2e 3b c8 7e b7 3c
       -0.17060812 -0.013250183 0.002655454 0.022399321
000220 ff 85 b2 bd 3a 1f 2e be fd 9a 88 bd 60 16 1e bc
       -0.08716964 -0.170041 -0.06670187 -0.009648889
000230 d5 bb 37 be 5a df 40 3e dc d4 81 3c 8a fc 67 be
       -0.17942746 0.18835202 0.01584857 -0.2265493
000240 05 10 8b be 72 c7 1f be 02 32 3d 3c 3b 84 20 be
       -0.2716066 -0.15603426 0.011547567 -0.15675442
000250 cc 8e e9 bd 35 bb e2 bd 81 1e 7d be 36 da c4 be
       -0.114041895 -0.11070863 -0.24718668 -0.38447732
000260 18 53 5b ba cd fa 1a be b8 33 6d be 5e b8 43 3e
       -0.0008366569 -0.15134735 -0.2316426 0.19113299
000270 4f b3 41 be f0 fc 55 be 40 49 61 be 26 f6 1f 3d
       -0.18916057 -0.20897269 -0.22000599 0.039053105
000280 96 1b 78 be 84 98 b6 bd 62 5a 62 bd 55 66 ab bd
       -0.24229273 -0.08915809 -0.055261977 -0.08369128
000290 fc 16 89 be 56 78 a0 be a3 bf 0e be 5e d2 e1 bb
       -0.26775348 -0.3134181 -0.13940291 -0.006891533
0002a0 c3 ea 2e be 10 5d 01 be dc 45 82 be 9f 8f 1e 3e
       -0.17081742 -0.12633157 -0.25443923 0.15484475
0002b0 3d e6 68 be bf c3 5f be 09 f9 1d be 02 75 1b be
       -0.22744079 -0.21852015 -0.1542703 -0.15181354
0002c0 f9 a1 f6 3d 4e 19 9b 3d 68 9c 64 be 8d d3 64 be
       0.120426126 0.07573186 -0.22325289 -0.22346325
0002d0 eb eb ee bd 62 77 02 3e 73 90 35 3e d7 e3 a2 be
       -0.116660915 0.12740853 0.17730884 -0.31814453
0002e0 aa 6d cd be 9d d2 4a bd 34 26 76 bd 22 f2 55 bd
       -0.4012273 -0.049517263 -0.060095027 -0.05223287
0002f0 1b 92 73 be 94 37 4a be a5 fc 46 be 9a 36 e3 bc
       -0.23786204 -0.19747764 -0.19432314 -0.027735997
000300 c0 bd 87 bd 1e 03 90 be ea a9 66 be 44 62 dc bc
       -0.06627989 -0.28127378 -0.22525755 -0.026902325
000310 e9 77 f7 bc 13 8d 8c 3b 99 0b 34 3e c7 31 15 3e
       -0.030208545 0.0042892783 0.17582549 0.1456977
000320 d7 53 30 3e 1b 3c 69 3c 07 00 3b bd 97 31 e6 be
       0.17219482 0.014235522 -0.045654323 -0.4495971
000330 f9 02 19 3c 66 dd f8 3d 72 f7 91 bd b1 10 1a 3d
       0.009339088 0.121516034 -0.071272746 0.037613574
000340 ba 5d fe 3d 59 30 06 be 66 bd a2 3e d0 13 22 be
       0.12420221 -0.1310438 0.31785125 -0.1582787
000350 4e 99 42 be e9 49 eb bb 7f dd 36 3e d4 73 98 be
       -0.19003794 -0.0071804416 0.17857932 -0.2977587
000360 38 cb 05 3e b7 1a 96 3d 9b e3 34 bd 2e 91 46 3c
       0.13065803 0.07329314 -0.044162374 0.0121195745
000370 50 9b 04 be 3f 34 3a 3d f5 eb 7d be cd 34 3e be
       -0.12949872 0.045459982 -0.24797042 -0.1857483
000380 17 9e 79 3c e2 f9 2b 3c 55 d1 b1 3d be 10 18 bd
       0.015235445 0.010496588 0.08682505 -0.03712534
000390 64 56 00 3e dd 33 c3 3d 38 c5 17 39 3d a1 33 3d
       0.12532955 0.095313765 0.00014473952 0.04385494
0003a0 50 c4 b1 3d 53 21 de bc d3 e8 ba bd f6 88 7b be
       0.08680022 -0.0271155 -0.09126439 -0.24563965
0003b0 31 ee 07 be 1a 26 86 3d 81 38 30 be 2d 7e a8 be
       -0.13274457 0.06550236 -0.17209055 -0.32908764
0003c0 d4 9a 98 be 03 68 7f be e1 9d 95 be b1 f2 1c be
       -0.29805624 -0.24942021 -0.29222015 -0.15326954
0003d0 fd 9f 1d 3d f3 33 fc 3d 37 1f 41 bd 56 19 99 3e
       0.038482655 0.12314596 -0.04714891 0.29902142
0003e0 fc 22 a5 be eb dc 5e bd 80 06 3d be d1 ff 3a 3e
       -0.32253253 -0.054409903 -0.18459511 0.18261649
0003f0 cc 05 a2 bd e9 ad 23 3e d1 ed cc 3c f5 8b 95 3e
       -0.07911262 0.1598431 0.025015743 0.2920834

bias f4 [64]
000000 18 5b 41 3d b3 37 e2 3c 7e c7 5a be ea 51 64 bd
       0.047206014 0.02761445 -0.21365163 -0.05574218
000010 af 79 f6 bd a5 10 24 3d 52 35 7a 3d 63 e5 96 bc
       -0.12034928 0.040054936 0.061086006 -0.018419927
000020 11 e3 6b be a9 24 65 be 49 13 d5 3d 0e 4d bc bd
       -0.23035838 -0.22377266 0.10404069 -0.091943845
000030 c1 3f 81 bd 69 a8 0a be 33 2c 43 be 8b a6 5d 3d
       -0.06310988 -0.13540806 -0.1905983 0.054113906
000040 4c 36 50 bd 5d 69 37 bc df 17 57 be 05 78 ca 3d
       -0.05083303 -0.011194554 -0.210052 0.09886173
000050 58 c6 a8 3d ea 24 20 3e 89 97 b5 3d 06 f8 25 3d
       0.08240956 0.15639082 0.08866794 0.040519737
000060 b4 2e b4 bc ee 62 5b be 5c ed 42 be 0a a4 81 bd
       -0.021994926 -0.21424457 -0.19035858 -0.06330116
000070 0a e4 92 3d f7 26 7b bd eb 73 13 3d 95 c5 59 bd
       0.07172401 -0.061316457 0.03599922 -0.053166945
000080 b6 c1 a3 bd e9 80 e1 bc 40 60 86 bd 22 93 26 be
       -0.07995932 -0.02752729 -0.06561327 -0.16267064
000090 b4 16 ef bd f7 b4 e6 3d 58 92 94 3d 85 89 c3 bd
       -0.11674252 0.11264985 0.07254475 -0.09547714
0000a0 3a 69 44 be 17 83 b1 3e 4d 09 ef bd a7 67 16 bd
       -0.19180766 0.34670326 -0.11671696 -0.036719944
0000b0 6d 49 1c bb e7 4d 47 bd b4 72 d6 bd b5 19 dc 3d
       -0.0023847476 -0.048658278 -0.10471097 0.10747091
0000c0 c7 62 8f 3d 04 38 74 be 44 69 3d be 84 68 7b bd
       0.07001262 -0.23849493 -0.18497187 -0.06137897
0000d0 24 0c 14 3d aa 6b 14 3d 33 22 c7 bd 1c 9a 57 be
       0.03614439 0.03623549 -0.0972332 -0.21054882
0000e0 ba 2e 02 3e 07 1a 46 be 03 19 1b be f9 e4 1b 3e
       0.12713137 -0.19345866 -0.1514626 0.15224065
0000f0 fe ec f0 3c 21 b9 32 3d 43 16 28 be f3 5b 2d be
       0.029409882 0.043633584 -0.16414742 -0.16929607

weight f4 [64, 64, 3, 3]
000000 f2 f1 4e bd 90 ee 34 bc db ce 17 be c9 24 5e 3c
       -0.050523706 -0.011043206 -0.14825003 0.013558575
000010 f0 55 92 bb a8 f3 56 3d d8 c5 b8 3c b0 69 12 3d
       -0.004465811 0.052478462 0.022555277 0.035745323
000020 6d f3 b7 bd e1 84 ee bd 6f 1e 13 be 82 0c 4c bc
       -0.08981977 -0.116464384 -0.14367078 -0.012454154
000030 e5 24 c4 3c 0a 93 8b bd e9 69 b2 3d b1 29 a2 bd
       0.023943374 -0.06815155 0.08711607 -0.07918108
000040 2e a1 b8 3c 6b 8b 9c 3b 86 04 a9 bd 6f 46 93 bd
       0.022537794 0.004777362 -0.08252816 -0.071911685
000050 3e b7 a4 bd 3e b7 aa bd 13 14 65 bd 19 92 26 3c
       -0.08042763 -0.08335732 -0.055927347 0.010166668
000060 2d f5 da b5 ea dc 30 bd 98 28 58 bc 61 40 63 bd
       -1.6313621e-06 -0.04317943 -0.013193272 -0.05548132
000070 26 5e 00 bc bc 19 fa bd 4e 35 c8 bd cf 07 5a be
       -0.007834947 -0.1221194 -0.09775792 -0.21292041
000080 7b 7a d7 bc 5d d4 3b bd 9f c5 83 bd 62 a3 de bc
       -0.02630352 -0.045856822 -0.064341776 -0.027177516
000090 85 32 18 bd 82 29 8c bd 10 86 dd bc a1 3b c9 bd
       -0.037157554 -0.068438545 -0.027041465 -0.098258264
0000a0 14 3b ca bd 35 11 79 3d 48 15 1f bd b2 70 af bd
       -0.098745495 0.060807426 -0.038838655 -0.08566417
0000b0 73 81 56 bd 55 6e 4c bd ca a4 be bd 53 e4 be 3b
       -0.052369546 -0.04990991 -0.09308775 0.005825558
0000c0 9b 25 c1 bd cf 8e 9b bd 47 c0 b5 bc 99 f4 22 be
       -0.09431001 -0.07595598 -0.022186412 -0.15913619
0000d0 c8 8b ea bd 5b ea 32 be 34 59 90 bd 79 71 ab bd
       -0.114524424 -0.17472212 -0.07048264 -0.083712526
0000e0 64 63 f7 3a a9 a9 69 bd 5d dc 3d bc 52 ea 63 3d
       0.0018874225 -0.057046566 -0.011588183 0.055643387
0000f0 ab ff 32 be fa 03 2f bd 5a 8e 00 bc fc dd 8c bd
       -0.17480342 -0.0427284 -0.007846439 -0.06878278
000100 c9 da af 3c a7 b4 a0 bd 1e 3f 58 bc 48 84 17 3c
       0.02146663 -0.07846957 -0.013198642 0.009247847
000110 88 43 ef bd fc b0 87 bd 74 ac 52 bd dc b4 d3 bd
       -0.116828024 -0.06625554 -0.051433995 -0.103372306
000120 c0 88 e6 3c b5 ae 63 bd 78 98 32 bd c1 91 71 3b
       0.02814138 -0.055586535 -0.043602437 0.0036860558
000130 75 98 b8 bd cc 27 51 bd 07 81 c6 bd 60 43 c8 bd
       -0.09013454 -0.051063344 -0.09692579 -0.09778476
000140 88 f4 26 be be 1d f1 bd 6c 26 c1 bc 8d 96 6a bd
       -0.16304219 -0.11773251 -0.023577891 -0.057272483
000150 42 d7 a6 3c 98 e5 f8 bc c1 20 20 bc d3 c9 9d bd
       0.020366315 -0.030382916 -0.009773434 -0.077045105
000160 bb c4 c4 bd cb 9f b9 bd ff ab 33 bd e6 f1 d2 bd
       -0.09607836 -0.09063681 -0.0438652 -0.10300045
000170 1a 16 b6 bc 67 b6 ad bd aa cf 0c 3d dd 8f 90 bd
       -0.022227336 -0.08482056 0.03437773 -0.0705869
000180 c2 ed cb bd 05 77 a3 bc 55 40 3c bd 2a f2 aa 3c
       -0.09957458 -0.019954214 -0.04595979 0.020867426
000190 91 7d b2 3d 67 35 af 3d bd 86 b3 bd 27 db 44 bd
       0.08715356 0.085551076 -0.08765934 -0.048060562
0001a0 99 56 3a 3d f3 f9 8c 3d 56 91 e8 bd 3b 65 76 3d
       0.045492742 0.068836115 -0.11355846 0.060155135
0001b0 29 b8 26 be 1c e5 fd bd f6 fe 87 3d 31 16 00 3c
       -0.16281189 -0.12397215 0.06640427 0.007817791
0001c0 aa 3b c6 3b a7 61 a3 bd be 47 c0 bc a5 8a 21 be
       0.006049593 -0.0797761 -0.02347171 -0.15775545
0001d0 d2 b7 bb bd ed 91 82 bd b7 60 38 bd a1 82 16 be
       -0.0916592 -0.063754894 -0.04501411 -0.14698268
0001e0 83 4d f7 bd 65 df b4 bd d1 50 b4 bd e3 ea 9a bc
       -0.12075331 -0.088316716 -0.08804477 -0.01891083
0001f0 a0 84 d7 bd f9 fb 1a be e4 78 b5 bc 17 bf ed bc
       -0.10523343 -0.15135182 -0.022152372 -0.029021783
000200 22 37 cf 3c be 10 ea bb b7 29 78 bd d4 81 0f 3d
       0.025294844 -0.007143109 -0.060586657 0.035035923
000210 de 82 38 bd 95 c9 07 be 39 3c f9 bb 08 f7 03 bc
       -0.04504668 -0.13260491 -0.007606056 -0.008054502
000220 94 7f 74 3d 31 19 48 3b 53 c3 cc 3d 6b 65 f2 bd
       0.05969198 0.0030532593 0.09998193 -0.1183575
000230 7d af 4e bd 07 b8 7a bb 13 f6 a4 bd 75 7c f6 bd
       -0.050460327 -0.0038256662 -0.080547474 -0.12035457
000240 2d 21 93 bd d9 f1 5f 3c 78 50 80 bd 84 79 b1 3c
       -0.07184062 0.013668501 -0.06265348 0.021664388
000250 ed 31 39 bd 77 94 e3 3a f1 c5 da bd b5 6e 40 3d
       -0.04521363 0.0017362972 -0.106822856 0.04698058
000260 04 d9 da bc 25 3f ff bd d2 99 a4 bc 1a f7 47 be
       -0.02671481 -0.12463216 -0.020092878 -0.19527856
000270 10 d0 86 bd 05 c5 fd bc d9 16 02 3d 01 57 fd bc
       -0.065826535 -0.030977735 0.03176007 -0.030925276
000280 9b f3 ef 3b 14 3a cd bd b2 16 b2 3c e0 e4 f8 3b
       0.007322741 -0.10020843 0.021739338 0.0075956434
000290 b2 1d 4d 3d eb c8 d3 bd 17 c8 e4 3d ac fc 9d 3c
       0.050077148 -0.103410564 0.111709766 0.019285522
0002a0 da e5 66 3d 96 b8 0e 3d f8 ca 92 3d a3 5d b2 bc
       0.056371547 0.034844004 0.071676195 -0.021773165
0002b0 61 14 77 3c 6f 70 f5 bd 2f 30 5d bd a2 fd 1d bd
       0.015080542 -0.11984336 -0.05400103 -0.03857196
0002c0 fe 89 0e bd 61 d2 53 bd 06 c8 87 3d a9 a0 b9 bd
       -0.03479957 -0.051714305 0.06629948 -0.090638466
0002d0 fb d2 91 3d ae 32 4c bd ba a7 ed bd a1 9c 07 3c
       0.071203195 -0.04985302 -0.11604257 0.008277089
0002e0 dd 9c af bd 3f b8 f3 bd bd cb d3 bc ae c3 85 bd
       -0.08574841 -0.119003765 -0.025853986 -0.065314636
0002f0 10 ac 3e 3d b2 56 9a bd 4a 76 8b bd 80 c3 df bd
       0.04655081 -0.07536067 -0.06809671 -0.109259605
000300 75 19 df bc 0e 21 81 3d 6e 44 bf bd eb 91 c2 bd
       -0.027233819 0.06305133 -0.09339224 -0.09500488
000310 bd 53 2b be ba 2d cf bd 5d 46 61 bd 0e 9c bd 3c
       -0.16731162 -0.101161435 -0.054998744 0.023145702
000320 b5 12 b5 bd 25 10 78 bd 1f 39 9c bd 98 ed a1 bd
       -0.08841459 -0.06056227 -0.076280825 -0.079066455
000330 91 0e 9b 3a 29 8b 1a be 4a ea c8 3c 07 e0 0b 3d
       0.0011829903 -0.15092148 0.02452578 0.034149196
000340 47 ff ad 3b 30 76 fb 3b 0c 1d b0 bd 7a c9 82 bd
       0.0053099724 0.007674001 -0.0859929 -0.06386085
000350 58 e0 4b be bc ef 38 bd 49 54 5e bd c0 3d c5 3d
       -0.19909799 -0.045150504 -0.0542796 0.096309185
000360 80 d4 8b bb ea 78 00 be 9f 65 49 bb 83 07 48 bc
       -0.0042672753 -0.12546125 -0.0030730737 -0.012208822
000370 49 1e d9 3c 97 bb ce bc 71 17 69 bd e5 bf 10 bc
       0.026503699 -0.025235934 -0.05690712 -0.008834814
000380 a0 46 9b bd d3 1a 8b bd 88 0b d8 3b bb cf a8 bd
       -0.0758183 -0.06792226 0.0065931715 -0.082427464
000390 09 79 56 3d b0 78 a5 bd c2 e7 c6 bc f0 2c 42 3c
       0.052361522 -0.0807966 -0.024280433 0.011851534
0003a0 60 60 dc bd 2f 15 0c bb 99 a3 a4 3c 62 2f a7 bc
       -0.107605696 -0.002137493 0.02009754 -0.020408336
0003b0 50 80 73 bd a6 80 95 bc 73 07 0f be 00 b4 70 bd
       -0.05944854 -0.01824982 -0.13967685 -0.05876541
0003c0 93 0f 48 bd 73 81 65 bc 12 6e 6d 3d e0 cf 65 bd
       -0.048842978 -0.014007914 0.0579663 -0.05610645
0003d0 98 ac f6 bd cc 2b 26 bd f7 72 cd bd 10 f0 da 3c
       -0.120446384 -0.04056911 -0.100316934 0.026725799
0003e0 79 af fd bc 19 9c 66 bd 40 1e e2 bd 02 44 81 3d
       -0.030967461 -0.05630121 -0.11040926 0.063117996
0003f0 f3 05 9a bd 33 5c bf bd d5 4c 8f bd 71 34 f2 bd
       -0.07520666 -0.093437575 -0.069970764 -0.11826409

bias f4 [64]
000000 85 e5 00 bd 7b b1 2a bd d0 4e 5d bd a8 7b f4 bc
       -0.031468887 -0.041673165 -0.05403024 -0.02984412
000010 7a ce 53 bd 76 9e 85 bd 41 9d 7a bd 8b 24 96 bd
       -0.051710583 -0.06524365 -0.061185125 -0.07331189
000020 95 92 9c bc b5 34 74 bd 75 76 81 bd e8 22 a5 bb
       -0.019112865 -0.059620578 -0.06321422 -0.0050395615
000030 26 66 ca bd c7 d0 6a bd b6 34 d0 bc 28 f3 06 bd
       -0.098827645 -0.05732801 -0.02541576 -0.032946736
000040 60 0a 87 bd 58 51 8e bd 61 04 cc bc fa b0 2b bd
       -0.06593776 -0.06949109 -0.024904432 -0.041916825
000050 80 ca 87 bd 30 95 a7 bd 66 cc b6 bd 1a 02 28 bd
       -0.06630421 -0.08182752 -0.08925705 -0.04101763
000060 df e2 70 bd c9 a7 8d bc e7 64 a0 bd c0 fe 27 bd
       -0.05881011 -0.01729192 -0.078317456 -0.041014433
000070 41 7c 65 bd bb c3 7b 3d 91 0a b7 bd c9 11 9d bd
       -0.0560267 0.06146596 -0.08937562 -0.07669408
000080 c1 e6 42 bd 06 f8 2e bd 1b f6 f6 bc f8 5c c1 bd
       -0.047583345 -0.042717002 -0.03014665 -0.094415605
000090 85 cc 1b bd 0c 18 ba bd a6 9a ca bd 0b 03 c1 bd
       -0.038036842 -0.09086618 -0.09892778 -0.094244085
0000a0 e8 b1 25 bc 6b 07 99 bd d7 b5 19 bd ba b9 42 bd
       -0.010113217 -0.07472118 -0.03752693 -0.047540404
0000b0 e4 bc ba bd a6 42 a0 bd b3 1e 8d bd ba 76 61 bd
       -0.09118059 -0.07825212 -0.06890621 -0.055044867
0000c0 3a 58 88 bd 5f 25 90 bd be c3 40 bd 27 6a 0d bd
       -0.06657453 -0.07038378 -0.047061674 -0.034525063
0000d0 c6 e9 60 bd 24 43 6d bd 86 89 a4 bd 07 9a 05 bd
       -0.054910444 -0.05792536 -0.08034043 -0.032617595
0000e0 a5 11 6c bd c4 0e 19 bd 9b 44 8c 3c d2 4c 1f 3d
       -0.057634015 -0.037367597 0.017122557 0.03889162
0000f0 4e 7a ae bd 7d 8a 26 bc a2 39 6c bd a3 e6 a0 bd
       -0.085194215 -0.010164854 -0.05767215 -0.078564905

weight f4 [32, 64, 3, 3]
000000 a6 ba cf 3d b7 99 87 3d 6f 30 e4 bc d0 d8 dd bc
       0.10143022 0.06621116 -0.027855126 -0.027080923
000010 65 17 4e 3e 38 99 05 bd c8 e9 08 3e ac ff 93 3d
       0.20126112 -0.032616824 0.1337043 0.072265
000020 b3 c5 c8 3d 9a 77 97 3d 38 b7 41 3d 73 7f 04 3d
       0.09803333 0.07395859 0.04729387 0.032348108
000030 0d fc 05 3d 23 6d 23 3e de 8b 3c 3d a7 7d 2b 3e
       0.032711077 0.15959601 0.046031825 0.16747151
000040 a8 82 b0 3c 2e 3b a2 3d 5a 9b 0e 3e 0b 3e e8 3d
       0.021546677 0.07921444 0.1392645 0.11339959
000050 6d 3f 02 3e a2 4c 44 3d 29 79 56 3d 7a 37 b9 3d
       0.12719508 0.047924645 0.05236164 0.090437844
000060 b1 a0 b7 3d 1e 71 e9 3d 51 60 cd 3d 7f 7c a3 bd
       0.08966196 0.113985285 0.100281365 -0.0798273
000070 2d 58 3c be 29 1e 38 bd f0 38 ab bd 8d d9 43 3d
       -0.18393011 -0.044950638 -0.08360469 0.047814894
000080 d7 cf 19 3c 33 40 22 bc c6 2a a2 bd f3 e7 80 3d
       0.009387932 -0.009903002 -0.07918315 0.06294241
000090 57 a5 2d 3d 2d b7 8a bd 02 8b 89 bd 82 a1 0a 3c
       0.04239401 -0.06773219 -0.06715967 0.008461358
0000a0 fb d1 7f bd 21 b4 e5 bd 6e c4 e0 bc eb 89 ed bc
       -0.062456112 -0.112159975 -0.027437415 -0.028996428
0000b0 36 8d e4 3c 33 e5 87 3d 7c 77 a8 3c 1b be da bc
       0.027899366 0.06635513 0.020564787 -0.026701977
0000c0 6c 69 f0 3d 8d 12 a5 3b 64 6f ec 3d 8b 8a 40 3e
       0.117388576 0.005037612 0.115446836 0.1880285
0000d0 a5 5b 67 3d aa 76 02 3c 7c 64 9e bd 64 c8 34 bd
       0.056483883 0.007962862 -0.077340096 -0.04413642
0000e0 31 10 95 bd 00 74 df bc 41 90 ef bd 97 ca 29 bc
       -0.07278479 -0.027276993 -0.11697436 -0.010363243
0000f0 51 66 5d bc ba c3 35 bd 06 30 ad bd f6 a2 8a 3c
       -0.013513164 -0.044376113 -0.08456425 0.016923409
000100 ec e9 9c bd 3f 5f 97 3d de 0a 94 bd de e9 ff bb
       -0.076618046 0.073912136 -0.07228635 -0.0078098616
000110 33 d2 94 bd f7 2a b8 bd 7e 77 b8 bc 4f 97 1a be
       -0.07266655 -0.0899257 -0.022517916 -0.15096782
000120 2f ac b5 bc e4 03 47 bd 9f ba 64 bd 27 62 99 3b
       -0.02217683 -0.048587695 -0.05584204 0.00468089
000130 bf a2 9e bc 9c 91 88 3c 06 02 c3 bc bc 75 32 3d
       -0.019364713 0.016670994 -0.023804676 0.04356931
000140 83 e8 bb bd b5 92 35 bd 52 d9 63 3c 81 23 b8 3d
       -0.091752075 -0.044329364 0.013906794 0.08991147
000150 dc 27 98 bd bb a6 a8 bd 19 ef 35 3c bc e4 07 bd
       -0.074294776 -0.08234926 0.011104369 -0.033177122
000160 89 8b 24 3c 71 f3 43 bd 23 f5 d6 bc b3 d3 06 be
       0.010043033 -0.047839586 -0.026239937 -0.13166694
000170 f0 96 2d bd a7 40 ef bc f7 79 d3 bd 5b b4 c6 3b
       -0.042380273 -0.029205633 -0.10325997 0.0060639805
000180 fe 5a 99 bd 17 d7 b8 bd f7 75 b8 bd bd 33 b5 bd
       -0.074880585 -0.090254 -0.09006875 -0.08847759
000190 eb e6 00 be b7 9b 1d 3a 73 72 3c bc 1f 90 f6 bc
       -0.12588088 0.0006012278 -0.011501896 -0.03009802
0001a0 c1 35 4f bd 76 20 9e 3c 37 ec 66 bc 99 d1 1e 3c
       -0.050588373 0.019302588 -0.014094404 0.009693527
0001b0 38 b8 98 3c de 31 ac bd 81 5f c6 bd 40 0c c1 bd
       0.01864253 -0.08407949 -0.09686185 -0.094261646
0001c0 c9 e5 2d be 43 6b 88 bd 25 a4 eb bd f0 3d 9c bd
       -0.16982187 -0.066610835 -0.115059175 -0.07629001
0001d0 3d 63 a3 bc bd 93 fe ba d5 06 3d 3c 27 47 1e bd
       -0.019944781 -0.0019422692 0.011537273 -0.038642075
0001e0 b7 ec b2 bd 40 33 cf bd 6e 6e 16 be 11 a8 c7 bc
       -0.08736556 -0.10117197 -0.14690563 -0.024372132
0001f0 5c d8 c8 bc 9e cd e6 bc 47 b6 c4 3d 23 5d 78 3d
       -0.02451723 -0.028174218 0.09605079 0.060635697
000200 dc f4 8d 3d 20 12 8c bb d3 6b f5 3d 1b e8 b5 bc
       0.06931469 -0.0042746216 0.119834565 -0.022205403
000210 b6 d5 1a bd 51 ed b9 3d c0 7e e0 bc 62 e8 21 3b
       -0.037801467 0.09078468 -0.02740419 0.0024705161
000220 11 3f ac 3c 2e ff 27 be 28 d1 e3 bc 57 81 86 bd
       0.021026166 -0.16405937 -0.027809694 -0.06567638
000230 84 46 d6 3c 7f 0a a0 bc 7c 63 9c bd 47 4b c4 bc
       0.026156671 -0.019536255 -0.07636163 -0.023961676
000240 a0 8e ce bd 9c 2d a6 3d c8 eb d0 bd ee a9 4c bc
       -0.10085797 0.08114168 -0.10201222 -0.012491686
000250 bc d7 64 3d 60 6e c4 bc a7 f0 7c bd 56 96 bc bd
       0.055869803 -0.023978412 -0.06175294 -0.09208362
000260 00 30 42 bd ef 9c 21 bc 42 a0 d3 bd 5a da 1d 3d
       -0.047409058 -0.009864076 -0.10333301 0.038538314
000270 22 ec 82 bd 5b bf 28 bd c2 29 9c bd 7b 22 fa bc
       -0.06392695 -0.041198116 -0.07625152 -0.03053402
000280 a3 30 93 bc b2 21 cd bd b5 3a 94 3c 9e 5a 1e bc
       -0.017967528 -0.100161925 0.0180944 -0.0096651595
000290 d4 d1 c2 3d 89 c4 01 3e dc 5b 36 3c 15 5f 0e 3d
       0.09512678 0.12672628 0.011130299 0.034758646
0002a0 7c 18 90 3d 03 d0 ef bb 76 97 ad 3d 12 0f b1 3c
       0.0703592 -0.007318498 0.084761545 0.021613631
0002b0 c6 b5 3d bc c0 86 6d bd e7 c7 a3 bd 27 08 95 bd
       -0.011578983 -0.057989836 -0.07997113 -0.072769456
0002c0 b0 a2 a4 3b 69 76 27 be 29 23 a8 b9 3e 4b a5 bc
       0.0050242767 -0.16353764 -0.00032069653 -0.02017748
0002d0 e9 de 0e be cc 1f ee b9 07 8a 01 3d 15 8e d5 bd
       -0.13952221 -0.00045418588 0.031625774 -0.104274906
0002e0 4d 0a f0 bd 40 8e df 3d dc a9 dd bc 44 df 78 bd
       -0.11720715 0.10915804 -0.027058534 -0.060759798
0002f0 0a 1d 34 3d aa fd b8 bd f4 14 1f 3d d9 24 e9 bd
       0.043973006 -0.090327576 0.03883834 -0.11383981
000300 d5 6c 3a bd 1b 75 2f bd dc d1 0e 3e e0 96 72 3d
       -0.045513947 -0.04283629 0.13947242 0.059225917
000310 7f 79 ca bd 90 7d d9 bd c7 84 0c 3e c6 c1 66 3d
       -0.09886455 -0.10619652 0.13722526 0.05633714
000320 6a 54 12 3e c8 9f 29 bd 54 f2 1c bd e7 31 0c 3e
       0.14290014 -0.041412145 -0.03831704 0.13690911
000330 00 48 8c 3d 2b f3 75 3d 2e bc a2 3b 7c 63 d0 3b
       0.068496704 0.060046356 0.0049662804 0.0063595157
000340 cf 9c 8a bd 5f c9 1c bd 5c 83 91 bd 7c f0 63 bd
       -0.0676819 -0.03827798 -0.07105133 -0.055649266
000350 0f 65 c2 bc 78 45 96 bd 2f fd 39 bb 86 2c f5 bd
       -0.02372983 -0.07337469 -0.002837967 -0.11971383
000360 0c 5b 85 bc 55 7b 64 3b 23 92 a2 bd ac cd 22 be
       -0.016278766 0.003486355 -0.079380296 -0.1589877
000370 03 86 64 bb 0c b5 6d bc bd 41 d2 bd ac 5a c5 bd
       -0.0034869916 -0.014508497 -0.10266445 -0.09636435
000380 aa 25 ae 3c 3f b3 e8 3c 16 51 36 3d b9 90 ba bd
       0.021258194 0.028405784 0.044510923 -0.09109635
000390 05 47 09 be 87 e9 72 ba 8a 6e 1d bd 6f 04 b2 bb
       -0.13405998 -0.00092663657 -0.038435496 -0.0054326574
0003a0 ab 47 02 be e9 2d 7a bd d0 16 f8 3d f3 7d 83 3d
       -0.12722652 -0.06107894 0.12113726 0.06420507
0003b0 74 53 a8 bc b7 25 74 bd 94 6e 5a bb 40 0a 9f 3d
       -0.020547606 -0.05960628 -0.003333007 0.07765627
0003c0 93 9e 87 bb 20 c5 9b 3d a9 46 29 3d 42 94 d3 bd
       -0.0041387766 0.07605958 0.041327152 -0.10331012
0003d0 c0 d0 91 bd 83 e9 dc 3b 2d a8 c1 3b 53 74 00 bd
       -0.07119894 0.006741704 0.0059099407 -0.031360935
0003e0 83 cf f9 bd c4 55 b3 bd 9e c4 b5 bc 3a ef f7 bd
       -0.12197783 -0.08756593 -0.022188481 -0.12106176
0003f0 47 52 3d bd 24 88 3a 3d 97 1d 48 3e 72 25 4a bc
       -0.046221044 0.04553999 0.19542538 -0.012338029

bias f4 [32]
000000 75 44 aa bd ea 09 92 bc 7b c9 b0 bd 5c 18 3d 3e
       -0.083138384 -0.017826993 -0.08632179 0.18466324
000010 33 bf ac bd 7c 16 68 bd 08 0e 8d bd a2 cf 3f bd
       -0.08434906 -0.056662068 -0.06887442 -0.046828873
000020 3b 69 cb bd 59 ea 20 3e 45 20 08 3e 83 c5 37 bd
       -0.099321805 0.15714397 0.1329356 -0.044866096
000030 61 e6 b1 bd fa e4 6c bd d4 05 18 bd ef 76 8e bd
       -0.086865194 -0.057835557 -0.037114933 -0.069562785
000040 93 39 c0 bc 0b 99 e0 bd 38 b6 8c bd 21 19 99 bd
       -0.023464954 -0.10966691 -0.06870693 -0.07475496
000050 9b f5 5a bd 10 42 aa bd 15 34 b3 bd ed 49 07 3e
       -0.053456884 -0.08313382 -0.08750168 0.13211794
000060 59 7b 9f bd 98 3e 45 bd a8 ab a0 bd 39 07 11 bd
       -0.077871986 -0.048155397 -0.07845241 -0.03540728
000070 92 9c a1 bd be 53 4a bd e1 5b 3d bd c7 4b f0 3d
       -0.078911915 -0.04939627 -0.0462302 0.117332034

weight f4 [16, 32, 3, 3]
000000 be 2b 4e 3d af 45 66 bd d8 c8 ef bd 74 c0 6a 3c
       0.050334685 -0.0562188 -0.1170823 0.014328111
000010 19 be a1 bd 95 fa 0b be 62 39 43 be b6 f8 38 3d
       -0.078975864 -0.13669808 -0.19064859 0.045159064
000020 ed 1a 06 be 6a 06 7c 3d 9c 54 88 3d 03 ed 99 3d
       -0.13096209 0.061529554 0.06656763 0.075159095
000030 99 41 1c 3e 5e 32 96 3d 66 9e 03 3d b0 aa 1c bd
       0.15259399 0.073338255 0.032133482 -0.038248718
000040 d5 4f 6e 3d 17 21 99 3d b0 1d 99 bd cb d5 af 3c
       0.058181603 0.074770145 -0.074763656 0.02146425
000050 94 ce 83 3c 50 2b c8 bd 0b bc 0b bd 8c 7f 7f 3d
       0.016089715 -0.09773886 -0.03411488 0.062377498
000060 f7 a4 8d bc a7 57 67 3d 06 c3 64 bd 74 fe 47 3e
       -0.017290575 0.056480076 -0.05585005 0.1953066
000070 11 aa 64 3e d7 38 29 3e 52 f9 fd 3d 2a 0d a8 3e
       0.223305 0.16525589 0.1240107 0.32822543
000080 2e a0 03 3e 11 2e 6f 3e dc 54 53 3e 88 c2 bb 3d
       0.12854072 0.23357417 0.2063784 0.09167963
000090 63 99 6f bd d3 8a db bb c3 28 1b be e5 92 30 bc
       -0.05849589 -0.0066998987 -0.15152268 -0.01077721
0000a0 e8 cf 8a bc e1 e5 6d bd f7 c6 18 bd 66 b7 74 bd
       -0.01694484 -0.058080558 -0.037299123 -0.059745215
0000b0 82 70 18 3d e9 84 37 bd 6b ce fe bb fc bb 21 bd
       0.03721667 -0.044804487 -0.007776072 -0.039485916
0000c0 5a f7 b7 bc 1e da 8b 3d 8e 7a 57 bd be 96 42 3d
       -0.022456814 0.06828712 -0.05260711 0.04750704
0000d0 8c 89 4e 3d 23 e1 10 bd 03 29 47 bd 7c ea 00 3e
       0.050424144 -0.035370957 -0.048623096 0.12589449
0000e0 b0 5e ca bc 16 c5 11 bd 84 0a 35 bb be ce e4 bc
       -0.024703354 -0.035588346 -0.0027624676 -0.027930614
0000f0 93 24 05 3d 7f ff 74 3d 14 ef 8b bd a2 92 aa 3b
       0.032505583 0.059813973 -0.0683271 0.0052054683
000100 55 c1 2c 3c 2b f1 89 3c f9 7c f4 bd 15 ec a1 bd
       0.010544141 0.01683863 -0.11937899 -0.07906357
000110 cb a1 69 bd 6b 09 e4 bd 03 f0 c0 3c b2 25 08 bd
       -0.057039063 -0.11134609 0.023551947 -0.033239074
000120 f2 38 b9 3c ba 90 fb 3c 49 f5 a9 bc ff 3c a6 3d
       0.022610161 0.03070866 -0.020746844 0.08117103
000130 9a 46 8f 3d 54 dd cb 3c 74 ff a4 3d ba c8 12 be
       0.06995888 0.02488581 0.08056536 -0.14334384
000140 71 d5 73 bd b7 7c db 3d 05 d3 a5 3d cf c3 8f 3d
       -0.059529725 0.10717147 0.080968894 0.070197694
000150 e0 e9 95 3c 76 8b 3b 3e 6e a9 71 3e c2 31 e8 3d
       0.018299997 0.18314919 0.23599789 0.113376155
000160 01 b2 ad bc bf dc 20 3d 64 e6 25 3e 92 83 61 3e
       -0.021203043 0.03927302 0.16201168 0.22022846
000170 64 6a e8 3d 79 13 30 3e 17 16 dc 3d 01 59 eb 3d
       0.113484174 0.17194928 0.10746401 0.114915855
000180 1f 1c 1c 3e 5a ea 3a 3e 89 0e ef 3d a9 cb de 3d
       0.15245102 0.1825346 0.11672694 0.10878689
000190 f9 44 0f bd d5 24 e3 3c 10 25 b5 3d a0 f6 44 bc
       -0.034977887 0.027727524 0.0884496 -0.012021691
0001a0 de e9 60 bd b2 d4 a0 3d ae a9 a2 3d 2d 78 9e 3c
       -0.054910533 0.078530684 0.0794252 0.019344414
0001b0 c6 ac 55 3d 8f af c2 3d c9 f7 10 bd 70 06 ef 3d
       0.052166723 0.095061414 -0.035392556 0.1167115
0001c0 a1 df 23 39 79 a0 7b bd 26 cc 16 3d a1 7a 0c 3e
       0.000156282 -0.061432336 0.036815785 0.13718654
0001d0 fe 67 89 3d e8 09 89 bd 75 77 6a 3b cc 4d 55 3d
       0.06709288 -0.066913426 0.0035776768 0.052076146
0001e0 72 e0 97 bd 26 63 2d be fd b9 06 be 69 87 ba bd
       -0.074158564 -0.16932353 -0.13156886 -0.09107859
0001f0 37 f5 c1 bd 4d 0c 3a 3c ce b2 8f 3b 97 4e 98 bd
       -0.09470599 0.011355472 0.004385329 -0.07436865
000200 62 68 60 3b fc d2 7e bd ea fa 0f bd 9e f8 fb 3c
       0.0034241905 -0.06221293 -0.0351514 0.030758198
000210 cf 5b 2c 3d 79 81 32 bd 00 03 fd bd e7 79 05 3d
       0.042079743 -0.043580506 -0.12354088 0.03258696
000220 9c e7 fc 3d a4 e4 53 3d a3 42 0e 3d 8e 74 cd 3d
       0.123488635 0.05173172 0.03473152 0.10031997
000230 3c c3 d5 3d 55 ab 90 3d 97 ed cd 3d c0 2f 0c 3e
       0.104376286 0.07063929 0.10055082 0.1369009
000240 56 e7 8f 3c ea a5 ba bc f2 b7 2a bd dc 3e ef bd
       0.017566364 -0.022784192 -0.04167933 -0.11681911
000250 f7 1e 97 3d 35 92 df bd 3b d8 84 bc e5 2c 89 3d
       0.07378953 -0.10916559 -0.016216388 0.06698016
000260 f3 6f 9d bd 65 24 d0 3c 4b 79 db bc 28 d8 95 3b
       -0.07687368 0.02540798 -0.026791235 0.004572887
000270 1f 40 c1 3d 85 55 3e 3d 33 9c 71 3d cd 76 64 3d
       0.09436058 0.046468277 0.058986854 0.05577736
000280 7c 27 11 3d 73 94 35 3d f8 ab 21 bc 24 0f 25 3d
       0.035438046 0.044331025 -0.009867661 0.040297642
000290 90 f8 ef bd d5 5f 68 bd 82 87 62 3b a6 33 22 bd
       -0.117173314 -0.056732018 0.0034565632 -0.039600037
0002a0 26 5b 2d 3d ca 81 1b bd 81 9f 31 3c d1 5a 9c 3d
       0.042323254 -0.037965573 0.010841251 0.07634509
0002b0 b2 ae 93 3d 50 67 34 3b 41 16 e9 3d d5 47 8a 3c
       0.07211055 0.00275274 0.11381198 0.016879955
0002c0 4e e2 8f 3d f9 dd a5 3d 5b 8b 20 3d 76 07 21 3d
       0.07025586 0.080989785 0.0391954 0.039313756
0002d0 97 bb 08 be 91 d5 17 be e7 f9 00 be 31 b1 ba 3e
       -0.1335281 -0.14827563 -0.1259533 0.3646331
0002e0 0c 8f 8d 3e 6a 1f ab 3e 3b a9 ba 3d 46 51 4f 3d
       0.276482 0.33422405 0.091143094 0.050614618
0002f0 9e 44 8b 3d 95 ec c6 bd a5 35 37 bd d8 6a 79 bd
       0.06800197 -0.09713093 -0.044728894 -0.06089291
000300 33 85 8d 3d 83 c9 36 bd 4b 3d d1 bd 8f 5e fe bd
       0.06910171 -0.04462577 -0.10216769 -0.12420379
000310 f5 81 ec bd e1 0b 7d bd 87 5c a3 3d 2b 52 6d 3d
       -0.11548225 -0.061778907 0.079766326 0.05793969
000320 bd 7b 99 bd 9d 14 9e bc 1f bf c8 bc 9b 9b d7 3c
       -0.07494304 -0.019296939 -0.024505196 0.026319316
000330 66 9d 82 3d 4a dc d0 3c 2f 16 c2 bd 5a c6 d9 3d
       0.063776776 0.025495667 -0.094768874 0.10633536
000340 ca 6c e6 3d 94 73 2a 3e 31 e6 2c 3e fb 22 fe 3d
       0.112512186 0.16645652 0.16884686 0.12409016
000350 0b 6a 3f 3e 6f 5f 23 3e f1 1c 0a 3e 62 e2 af 3d
       0.18692796 0.15954374 0.13487603 0.08588101
000360 35 5d bb 3d ef 80 25 3d cd b8 89 bc 59 da 54 3c
       0.09148637 0.040406164 -0.016811753 0.012991511
000370 bc 2b 12 bd 84 26 1a 3e 2b bc cc bc c7 f2 66 3e
       -0.03568624 0.15053755 -0.02499207 0.2255355
000380 3d 19 05 bd e6 04 3d 3c f6 af 33 3d 8b 78 b3 3d
       -0.032494772 0.011536812 0.04386898 0.08763226
000390 55 a3 23 b8 18 07 9d 3d a5 2d 0a bd 42 b7 b0 3d
       -3.9014343e-05 0.07667369 -0.033734936 0.08628704
0003a0 9d d1 fe 3c e5 14 54 3e b7 2a 23 3e dd 98 1e 3e
       0.03110581 0.20711096 0.15934263 0.15488
0003b0 69 f7 ea ba 6f 2b 2e 3d 77 3b a8 3d 7b cc 02 bb
       -0.0017926517 0.04252189 0.08214467 -0.0019958306
0003c0 a3 87 cc 3d f5 92 7a 3d 70 a2 1b 3d b8 2b d0 bc
       0.09986808 0.061175305 0.03799671 -0.025411472
0003d0 f3 fc 83 3c 64 97 07 be 62 13 d3 bc 50 f6 21 bd
       0.016111827 -0.13241345 -0.025766078 -0.039541543
0003e0 1f d3 47 be 92 b0 3e bd 53 12 ea bc 2d 4d 37 be
       -0.1951413 -0.04655511 -0.02857319 -0.17900534
0003f0 fb 3b 3b be f7 79 3e bd a8 33 73 3c ab 51 61 bd
       -0.182846 -0.046503033 0.014843859 -0.055009525

bias f4 [16]
000000 c0 39 2d ba f7 65 19 3d d2 3d 1a 3d c2 09 72 3d
       -0.00066080317 0.037450757 0.037656613 0.059091337
000010 79 96 8d 3c 01 72 bb bc ac e8 12 bc b4 25 e3 3d
       0.017283665 -0.02288151 -0.008966606 0.11091176
000020 aa fe 81 3d bd a8 0c 3d 6e cb 83 3d 50 26 0c bc
       0.063474014 0.03434061 0.064352855 -0.008554056
000030 c3 5f 8a 3d 6d a6 8b 3d 85 8e 75 3d 9b a7 3a 3d
       0.06756546 0.068188526 0.05995037 0.045569997
