super_resolution/checkpoint_scale4/model_epoch_1.pth (torch_old, 260873 bytes, 8 tensors)

weight f4 [64, 1, 5, 5]
000000 2b c9 a9 bd 26 50 89 be a4 91 9f be 7c 21 62 bc
       -0.08290323 -0.2681896 -0.31165802 -0.013801929
000010 c1 8a 00 be f9 91 33 3b 98 44 8a 3e 59 f7 76 be
       -0.1255293 0.002740024 0.27005458 -0.24117793
000020 5f 80 1a 3e 06 0c 4b be 2e f3 81 be 69 50 ed be
       0.15088032 -0.19828805 -0.25380844 -0.4635041
000030 9e 11 65 be 08 1c 2b bc a9 3a fa be 77 8e ba bd
       -0.22370002 -0.010443695 -0.4887288 -0.09109204
000040 19 86 d5 bd 2d 87 02 3e e5 a6 00 3e d4 56 37 bd
       -0.10425968 0.12746878 0.12563665 -0.04476054
000050 39 7f 3f be f7 c1 84 be 00 b1 72 be a6 34 50 3d
       -0.18700875 -0.25929233 -0.23700333 0.05083146
000060 e9 2c 34 be 6d 82 2c bd 17 a6 17 3e 77 a9 40 be
       -0.17595257 -0.04211657 0.14809452 -0.18814646
000070 89 2c f2 bd c1 63 27 be fa 4c 9f bd c3 cd c0 3d
       -0.11824901 -0.16346647 -0.07778354 0.09414246
000080 09 b9 20 be fe 4b 67 be 71 85 22 be 42 65 2d be
       -0.15695585 -0.22587582 -0.15871216 -0.16933158
000090 da 6d cb 3d 7a 86 6b be 77 d3 00 be 42 8c 25 3d
       0.09933062 -0.23000517 -0.12580667 0.040416963
0000a0 de 5b 6c 3d 46 af d2 be 81 37 24 be 93 1c 59 be
       0.0577048 -0.41149348 -0.16036798 -0.21202306
0000b0 a2 02 78 3e 02 35 9a bc cb 20 97 3c c6 ad cb bc
       0.24219754 -0.018824104 0.018448254 -0.024863135
0000c0 ec d9 95 bd 1b f6 d5 be 9a 53 f9 3d 4e 81 a6 be
       -0.07316956 -0.41789326 0.12174149 -0.32520527
0000d0 31 c8 5d bb bf d9 72 3e 6d 7b 71 3b e1 97 34 be
       -0.0033841247 0.23715876 0.003684725 -0.17636062
0000e0 57 04 74 bc 19 43 81 bd d4 50 22 3d 6d ed 94 be
       -0.014893613 -0.06311626 0.039627865 -0.29087391
0000f0 28 d4 f3 bd 2c b9 8c be 6f f5 a7 bc f1 9c 1d bd
       -0.119057 -0.27485025 -0.020502774 -0.03847975
000100 7f 40 67 bb a9 e3 9e be 81 1e 2b 3b 50 62 94 3c
       -0.0035286245 -0.31033066 0.002611071 0.018113285
000110 ab 9b bd bd 19 71 50 3c b5 80 12 3c 06 2c 5f ba
       -0.09258207 0.012722277 0.008941819 -0.0008513335
000120 10 6d 91 3c 4b d6 f1 bd 71 7e 2e 3e 33 a2 a3 be
       0.0177522 -0.11808451 0.17040421 -0.31959686
000130 60 bf f8 3d ca be 5d be 19 9c 7c be a9 b9 88 be
       0.12145877 -0.21654812 -0.24668922 -0.26704147
000140 f3 ff 2c 3c ec dc 7a be 29 93 8c bd 5f 29 b9 3d
       0.01055907 -0.24498338 -0.06864006 0.09041094
000150 a3 34 47 be 70 fb 04 bd f7 f9 55 bd 1e 17 5b 3d
       -0.19453673 -0.032466352 -0.05224034 0.053488843
000160 6b 16 72 bc 11 e1 8e bd d3 6c 5f be 76 cb db 3d
       -0.014775853 -0.06976522 -0.21818857 0.107321665
000170 57 d9 b5 3e a4 a9 0a 3d 5a 46 c9 bd d3 d7 21 3d
       0.3551738 0.03385319 -0.098278716 0.039512467
000180 17 97 fb 3d d7 9d 06 3d 99 9e 29 3d 8b 75 bd be
       0.122846775 0.03286537 0.041411016 -0.3700374
000190 84 f0 a9 be 85 3b 04 3e 8e 4c 9d bc 7f 38 61 be
       -0.3319131 0.1291333 -0.019201543 -0.21994208
0001a0 5c f6 85 bd 6c bc 44 3e dc b4 03 be e0 23 0f be
       -0.0654113 0.19212502 -0.12861961 -0.13978529
0001b0 84 5d 0b 3e 78 d4 c3 ba 21 64 d9 bc 47 d3 d0 3d
       0.13609892 -0.001494064 -0.026537003 0.10196548
0001c0 52 d9 a0 3d 33 47 c5 3d 64 89 e0 bc 24 92 80 3e
       0.078539506 0.09632721 -0.027409263 0.25111496
0001d0 b8 1f 8f 3d 74 82 f9 3d 93 48 ec 3d 1a 18 93 be
       0.06988472 0.12183085 0.1153728 -0.28729326
0001e0 c8 32 bc 39 82 96 28 3e 57 84 8c 3d 66 9e 97 be
       0.0003589599 0.16463664 0.06861179 -0.29613036
0001f0 31 a6 08 be 39 e1 49 3c c5 6c a3 bd 96 50 58 be
       -0.13344647 0.012321764 -0.079797305 -0.21124491
000200 66 a2 a5 be c9 f4 c3 3e 38 8b 60 3e 5b cb 1e 3e
       -0.32350463 0.38272694 0.21928108 0.15507261
000210 52 36 2a be cb 47 11 bc a2 29 e4 3b f6 1a da 3c
       -0.16622284 -0.008867214 0.006962971 0.026624184
000220 f6 b4 a9 bd 2f a1 29 be f5 44 7f bd 56 28 af bb
       -0.08286469 -0.16565393 -0.062321622 -0.0053453846
000230 ab 10 33 be 9d 8a 45 3e 1a 62 a7 3c a6 43 63 be
       -0.17486827 0.19291158 0.02043252 -0.22193775
000240 4c b4 88 be f6 1d 1b be b4 eb 83 3c 9e d4 1b be
       -0.26700056 -0.15148148 0.016103603 -0.15217826
000250 3b 23 e0 bd 5e 51 d9 bd 15 1f 3e be 02 a9 a6 be
       -0.1094422 -0.10611223 -0.18566544 -0.32550818
000260 2a f1 3d 3d 13 a2 e0 bd 00 a3 46 be 6c 20 82 3e
       0.04637257 -0.10968413 -0.19398117 0.2541536
000270 01 88 03 be af ae 21 be f5 c2 32 be bd b7 a2 3d
       -0.1284485 -0.15789293 -0.17457183 0.079452015
000280 f8 ae 38 be cc d2 0d bd 4b fe 06 bc 9d f7 22 bd
       -0.18035495 -0.03462486 -0.008239339 -0.039786924
000290 50 dd 68 be ec b1 86 be 65 97 c3 bd 9d 28 03 3d
       -0.22740674 -0.2630762 -0.095503606 0.032021154
0002a0 a3 18 08 be e3 53 ba bd 9c 36 59 be 3b 28 44 3e
       -0.13290648 -0.09098031 -0.21212238 0.19155972
0002b0 17 a9 45 be 6b 23 3d be 1f bd fd bd eb 3d 17 be
       -0.19302784 -0.18470542 -0.123895876 -0.14769714
0002c0 5e d9 fe 3d c2 2b a3 3d 48 10 60 be 43 45 60 be
       0.12443803 0.079673305 -0.21881211 -0.21901421
0002d0 75 87 e6 bd 7c 8d 06 3e a1 93 39 3e 2d 9d a0 be
       -0.11256305 0.1313991 0.18122722 -0.31369916
0002e0 ee 25 cb be da c0 39 bd 2d 59 65 bd f2 5a 45 bd
       -0.39677376 -0.045349933 -0.055993248 -0.048182435
0002f0 53 04 6f be ee a7 45 be eb 92 42 be 58 4c c0 bc
       -0.23341493 -0.19302341 -0.19001357 -0.023473904
000300 45 12 7e bd 5d bb 8d be ea 17 62 be 26 c4 b8 bc
       -0.062029142 -0.2768201 -0.22079435 -0.022554468
000310 cc 21 d4 bc 7d 14 0d 3c 26 a3 38 3e b0 cf 19 3e
       -0.025895022 0.008610842 0.18030986 0.15020633
000320 bf e3 34 3e cb 24 99 3c 6b ba 28 bd d3 e8 e3 be
       0.17665003 0.018694302 -0.041193407 -0.44513568
000330 e8 18 62 3c cd fe 00 3e 3e d5 88 bd 04 58 2c 3d
       0.013799883 0.12597199 -0.06681298 0.042076126
000340 ca c0 03 3e 96 9e 01 be 4e 05 a5 3e 05 83 1d be
       0.12866512 -0.12658152 0.3223061 -0.15382011
000350 bc 07 3e be a4 27 32 bb fe 6e 3b 3e d7 2a 96 be
       -0.18557638 -0.0027184272 0.18304059 -0.2932956
000360 5c 5d 0a 3e 26 3f 9f 3d 53 9a 22 bd 57 da 87 3c
       0.13512176 0.077757165 -0.039697956 0.016583605
000370 1c 09 00 be ae 7d 4c 3d 7e 59 79 be 47 a2 39 be
       -0.12503475 0.049924545 -0.24350545 -0.1812831
000380 4c 62 a1 3c da f5 74 3c 2e f2 ba 3d 70 cd 05 bd
       0.019700192 0.014951194 0.09128223 -0.032666624
000390 dd e8 04 3e 4c 59 cc 3d 83 c9 96 3b 19 e3 45 3d
       0.12979455 0.099779695 0.004601659 0.04831228
0003a0 17 e5 ba 3d 37 90 b9 bc 4c c3 b1 bd 85 f7 76 be
       0.09125727 -0.022651775 -0.08679828 -0.24117859
0003b0 64 5d 03 be 50 45 8f 3d e2 a6 2b be fc 34 a6 be
       -0.12828594 0.06995642 -0.1676288 -0.324623
0003c0 87 51 96 be d4 d5 7a be 7b 55 93 be df 5f 18 be
       -0.29359075 -0.24495631 -0.28776154 -0.14880322
0003d0 c9 e9 2f 3d fe ab 02 3e b8 d6 2e bd d6 61 9b 3e
       0.042947564 0.12760922 -0.04268524 0.3034808
0003e0 85 d9 a2 be d3 92 4c bd 29 84 39 be 0d be 3e 3e
       -0.3180658 -0.04994471 -0.18116821 0.18627186
0003f0 39 64 98 bd 12 05 2a 3e 34 df 05 3d 36 9c 98 3e
       -0.07440991 0.16603497 0.032683566 0.2980668

bias f4 [64]
000000 12 0b 59 3d 99 f4 03 3d 2e f2 55 be 29 9b 52 bd
       0.052989073 0.03221569 -0.20893165 -0.051417504
000010 5e b8 eb bd 4f 77 35 3d 68 2e ed 3d 25 d3 68 bc
       -0.115097746 0.044303235 0.11581117 -0.014210497
000020 45 52 67 be c1 93 60 be 68 13 fc 3d df eb 36 bc
       -0.22589977 -0.21931364 0.12308389 -0.0111646345
000030 cf 91 6f bd af 1c 06 be 2a 8d 3d be 26 2e 70 3d
       -0.058488663 -0.1309688 -0.18510881 0.05863776
000040 41 00 3e bd 62 e5 dd bb 33 9c 52 be 4e 9d cf 3d
       -0.04638696 -0.0067717293 -0.20567398 0.10137425
000050 24 a9 b6 3d 7b ad 22 3e 91 63 c0 3d 31 ed 37 3d
       0.0891898 0.1588649 0.09393991 0.044903938
000060 7a 17 90 bc ae d8 56 be 90 77 3e be e8 fa 70 bd
       -0.01758932 -0.20981094 -0.18600297 -0.058833033
000070 a9 49 9d 3d 08 27 68 bd e8 c2 1b 3d 51 d3 49 bd
       0.07680065 -0.056677848 0.038027674 -0.049273793
000080 ac ac 9a bd e7 97 bd bc 4f c0 7b bd e2 2a 02 be
       -0.07552466 -0.023143722 -0.061462697 -0.12711671
000090 ec 38 e6 bd 27 1c ef 3d c3 87 a0 3d 7d 66 ba bd
       -0.11241326 0.116752915 0.078383945 -0.09101579
0000a0 95 df 3f be 7a 80 62 3e 4d 09 ef bd 10 39 04 bd
       -0.18737634 0.22119322 -0.11671696 -0.03228098
0000b0 41 1d 31 3b 17 54 37 bd 82 92 cd bd d7 de f6 3d
       0.0027025493 -0.04475793 -0.1003771 0.12054222
0000c0 05 8c 98 3d 06 ab 6f be 62 ac 39 be 5b c9 6a bd
       0.074485816 -0.23405084 -0.18132165 -0.057320934
0000d0 26 7c 26 3d 34 aa 28 3d f0 09 be bd 25 10 53 be
       0.04064574 0.041177943 -0.09279239 -0.20611627
0000e0 80 fc 01 3e 33 8e 41 be 42 f8 b0 bd 51 10 1f 3e
       0.12693977 -0.18901901 -0.086411014 0.15533568
0000f0 79 5f 0a 3d 68 fe 43 3d ab 8f 23 be 61 ef 28 be
       0.033782456 0.047850043 -0.15972774 -0.16497566

weight f4 [64, 64, 3, 3]
000000 b7 44 4e bd 65 c8 30 bc 43 a9 17 be 18 87 5f 3c
       -0.0503585 -0.010789965 -0.14810662 0.013643049
000010 d2 bd 8a bb 4f d7 57 3d 4d 85 bc 3c 8d 3d 13 3d
       -0.004234054 0.05269557 0.023012782 0.03594737
000020 50 5d b7 bd 6a 10 e7 bd d2 13 0f be d9 e6 0a bc
       -0.08953345 -0.112824276 -0.13972405 -0.00847789
000030 fa 18 e3 3c 2d 78 83 bd ff 8e ba 3d 7b 38 9a bd
       0.02772187 -0.06419406 0.091093056 -0.07530304
000040 3a 12 d9 3c fc 6a 0f 3c 81 d4 a0 bd 7e 16 8b bd
       0.026497949 0.008753534 -0.07853032 -0.067913994
000050 5f 87 9c bd 21 87 a2 bd f7 b3 54 bd 06 12 68 3c
       -0.076430075 -0.0793593 -0.05192944 0.014164453
000060 25 f4 82 3b cb 7c 20 bd 9e a8 16 bc 05 e5 52 bd
       0.0039963895 -0.03918151 -0.009195475 -0.05148794
000070 8e 9b 7b bb a7 ea f1 bd 0e 0c c0 bd d0 f0 55 be
       -0.0038392278 -0.118123345 -0.09377299 -0.20892644
000080 66 c0 b6 bc b7 80 2b bd 46 2f 77 bd 8f e9 bd bc
       -0.02230854 -0.0418708 -0.060347818 -0.023182658
000090 6e d1 07 bd f4 f8 83 bd d7 c3 bc bc 13 0b c1 bd
       -0.033158712 -0.064439684 -0.023042602 -0.0942594
0000a0 86 0a c2 bd 26 b9 84 3d 32 b4 0e bd 24 40 a7 bd
       -0.094746634 0.06480627 -0.034839816 -0.08166531
0000b0 5c 20 46 bd 6e 0d 3c bd 58 74 b6 bd d5 f5 20 3c
       -0.048370704 -0.045911245 -0.089089096 0.009824236
0000c0 2a f5 b8 bd 5e 5e 93 bd 74 fe 94 bc 62 dc 1e be
       -0.09031136 -0.071957335 -0.018187739 -0.15513757
0000d0 5a 5b e2 bd 24 d2 2e be 5c 48 8c bd 52 5c a5 bd
       -0.1105258 -0.1707235 -0.06849739 -0.08074249
0000e0 02 2c ac 3b 3c f7 62 bd 16 a8 0d bc b7 5b 71 3d
       0.0052542696 -0.055411562 -0.008646032 0.058925357
0000f0 2b 39 31 be 95 0c 23 bd 34 a3 9a bb 7f d0 84 bd
       -0.17306964 -0.03980692 -0.0047191624 -0.0648508
000100 65 80 d0 3c 39 87 98 bd a1 da 17 bc 67 cf 58 3c
       0.025451848 -0.07447667 -0.009268434 0.013233042
000110 00 16 e7 bd 9b 5d 7f bd c5 5b 42 bd 5c 87 cb bd
       -0.11283493 -0.06234513 -0.0474508 -0.09937927
000120 5b a5 03 3d be 4d 53 bd 83 37 22 bd b0 d0 fb 3b
       0.032140117 -0.051587813 -0.03960372 0.0076847896
000130 f6 67 b0 bd d7 c6 40 bd 88 50 be bd e1 12 c0 bd
       -0.08613579 -0.04706463 -0.09292704 -0.09378601
000140 4c dc 22 be 86 f0 e8 bd 45 71 a0 bc 35 3b 5a bd
       -0.15904349 -0.11374001 -0.019585261 -0.05327912
000150 33 90 c7 3c 0b 2d d8 bc d5 5c bd bb c7 9c 95 bd
       0.024360752 -0.026388666 -0.0057788887 -0.073052935
000160 f0 97 bc bd 9c 72 b1 bd ed 8e 23 bd e6 d1 ca bd
       -0.09208667 -0.08664438 -0.039931227 -0.09903316
000170 bb 7a 95 bc 9f 96 a5 bd a9 1c 1d 3d 03 67 88 bd
       -0.018246999 -0.08085369 0.03835741 -0.06660273
000180 6c ca c3 bd ce d8 82 bc 5e f1 2b bd 2a f2 aa 3c
       -0.09560093 -0.015972521 -0.041978233 0.020867426
000190 91 7d b2 3d 67 35 af 3d bd 86 b3 bd 27 db 44 bd
       0.08715356 0.085551076 -0.08765934 -0.048060562
0001a0 f3 07 3a 3d f3 f9 8c 3d 56 91 e8 bd 0e 77 76 3d
       0.045417737 0.068836115 -0.11355846 0.060172133
0001b0 e9 9f 22 be 98 b4 f5 bd 79 2f 90 3d 61 9a 41 3c
       -0.15881313 -0.11997336 0.07040305 0.011816592
0001c0 fa a1 24 3c 23 31 9b bd a7 85 9f bc 65 72 1d be
       0.010048384 -0.075777315 -0.01947291 -0.1537567
0001d0 4e 87 b3 bd 7c cc 74 bd 70 09 28 bd 6b 6d 12 be
       -0.08766042 -0.059765324 -0.041024625 -0.14299552
0001e0 76 20 ef bd db b2 ac bd f8 25 ac bd 57 6e 74 bc
       -0.11676113 -0.084325515 -0.084056795 -0.014918885
0001f0 4f 58 cf bd 36 e7 16 be 21 6e a8 bc 21 af ed bc
       -0.101242654 -0.14736637 -0.020560326 -0.029014172
000200 0f a6 cc 3c 11 b9 9d bb 5a f3 72 bd 09 f4 0f 3d
       0.024981527 -0.0048133214 -0.05931411 0.03514484
000210 06 23 2f bd 77 5a 06 be 2b 16 f3 bb 0b 05 c3 bb
       -0.04275801 -0.13120447 -0.007418414 -0.005951529
000220 d5 39 82 3d 72 97 e5 3b 4b 2c d0 3d bb 71 ea bd
       0.06358687 0.007006579 0.10164698 -0.114474736
000230 66 7e 3e bd 45 ac 0b bb b2 01 9d bd 73 64 ee bd
       -0.04650726 -0.0021312397 -0.07666339 -0.11640253
000240 a0 03 8b bd eb 8d 90 3c 25 4c 70 bd 9d e7 d1 3c
       -0.06787801 0.017645797 -0.058666367 0.025623137
000250 93 f7 28 bd a8 60 bb 3b 22 a9 d2 bd e8 a4 50 3d
       -0.04125173 0.0057183094 -0.10286166 0.050938517
000260 bf 42 ba bc 40 4f f7 bd b4 e4 84 bc 2c 00 44 be
       -0.022736905 -0.120756626 -0.016222335 -0.1914069
000270 72 13 81 bd 92 f9 e6 bc 82 fb 0f 3d 98 9d f1 bc
       -0.06302537 -0.028195176 0.035151966 -0.029494092
000280 73 8c 21 3c 3d 2b c7 bd b2 16 b2 3c 2d 6c f6 3b
       0.009860146 -0.09725044 0.021739338 0.00752022
000290 b2 1d 4d 3d 76 c9 d3 bd 17 c8 e4 3d ac fc 9d 3c
       0.050077148 -0.1034116 0.111709766 0.019285522
0002a0 a7 d7 66 3d 96 b8 0e 3d f8 ca 92 3d 35 06 93 bc
       0.056358006 0.034844004 0.071676195 -0.017947296
0002b0 3e c3 9a 3c 5f 82 ed bd 0f 1a 4d bd 78 04 0e bd
       0.018891927 -0.11597132 -0.05007368 -0.03467223
0002c0 9c 1e fd bc a3 a3 43 bd cf cb 8f 3d 76 a6 b1 bd
       -0.030898385 -0.047763478 0.07021295 -0.08674328
0002d0 b0 5c 96 3d 15 a7 40 bd 19 c7 e6 bd 2f f7 2a 3c
       0.073418975 -0.04703434 -0.112684436 0.01043491
0002e0 7e db a9 bd c8 17 ed bd c2 d3 c0 bc ad 24 80 bd
       -0.08293818 -0.115768015 -0.023538474 -0.06256995
0002f0 63 ca 4b 3d 9f 28 92 bd 5f 48 83 bd 9f 95 d7 bd
       0.049753558 -0.07136654 -0.06410288 -0.10526585
000300 71 7c be bc c4 46 89 3d 1b 21 b7 bd c5 69 ba bd
       -0.023252698 0.067029506 -0.08941861 -0.09102205
000310 05 41 27 be 12 0c c7 bd 54 f5 50 bd 70 4e de 3c
       -0.16333397 -0.09719099 -0.051015213 0.027137011
000320 78 e4 ac bd d9 c6 67 bd 77 0e 94 bd fb bf 99 bd
       -0.084420145 -0.05658612 -0.072293214 -0.075073205
000330 d4 1e a9 3b c9 75 16 be dc 9f e9 3c c2 2c 14 3d
       0.0051611457 -0.14693369 0.02851861 0.036175497
000340 99 3b 07 3c af c3 38 3c c6 84 ab bd a7 a5 78 bd
       0.008253955 0.011277123 -0.08374934 -0.060704853
000350 b2 3b 48 be 67 32 2b bd 6b cf 4f bd a9 a3 cc 3d
       -0.19554022 -0.041796114 -0.05073492 0.09992153
000360 f4 d8 8c b9 66 c1 f8 bd ee a0 72 3a f1 83 06 bc
       -0.00026864524 -0.12146263 0.0009255548 -0.008210168
000370 1b e0 f9 3c cd f9 ad bc 90 b6 58 bd 9b 78 9e bb
       0.03050237 -0.021237278 -0.05290848 -0.0048361546
000380 2f 16 93 bd 80 22 83 bd 42 c3 29 3c c8 58 a1 bd
       -0.071819656 -0.06403065 0.0103614945 -0.07878262
000390 b7 7e 66 3d 2d a8 9d bd db 89 a8 bc f5 db 80 3c
       0.05627319 -0.076980926 -0.020573547 0.015729884
0003a0 fa c7 d4 bd 94 8d bf 3a 01 63 c5 3c 87 70 86 bc
       -0.10389705 0.0014614337 0.02409506 -0.01641108
0003b0 24 21 63 bd 62 84 69 bc b0 ef 0a be 0e 55 60 bd
       -0.055451527 -0.014252754 -0.13567996 -0.054768614
0003c0 4f b0 37 bd 52 04 24 bc 45 cd 7d 3d e3 6f 55 bd
       -0.044845875 -0.010010796 0.06196334 -0.052108657
0003d0 6e 7c ee bd 71 cb 15 bd fb 42 c5 bd c4 b0 fb 3c
       -0.11644827 -0.03657097 -0.09631916 0.030723937
0003e0 a9 ee dc bc 47 3c 56 bd 18 ee d9 bd 37 74 89 3d
       -0.02696927 -0.05230358 -0.10641116 0.06711619
0003f0 72 d5 91 bd b3 2b b7 bd 55 1c 87 bd f0 03 ea bd
       -0.071207896 -0.08943882 -0.06597201 -0.11426532

bias f4 [64]
000000 ca 08 e1 bc 1d 52 1a bd b6 d6 4c bd 16 12 d1 bc
       -0.027470011 -0.037675966 -0.05000945 -0.02552132
000010 b1 9c 41 bd f6 47 75 bd 1f a0 68 bd 20 47 8d bd
       -0.047268573 -0.05988308 -0.05679333 -0.06898332
000020 8a 66 70 bc 47 32 6a bd 18 cb 70 bd 94 a8 15 ba
       -0.014672885 -0.057176854 -0.058787435 -0.0005709019
000030 cd d3 71 bd 6e 8f 58 bd 61 72 af bc 78 81 e9 bc
       -0.05903988 -0.05287116 -0.021416845 -0.028504118
000040 c1 52 7c bd f5 6c 85 bd 17 35 ab bc 9a 80 19 bd
       -0.061602358 -0.065149225 -0.020899339 -0.03747616
000050 06 97 7d bd 1d 8e 9e bd 0f 6d ae bd ae 54 16 bd
       -0.061911605 -0.0774195 -0.08516895 -0.03670185
000060 62 b3 5e bd 42 91 54 bc 3d be 96 bd b0 c7 15 bd
       -0.05437029 -0.012974085 -0.07360504 -0.03656739
000070 9d 17 52 bd 4b ea ff bb e7 da ae bd 69 0c 94 bd
       -0.05129205 -0.0078099123 -0.08537846 -0.072289295
000080 6e 0d 30 bd 3f a2 19 bd 46 ae d2 bc 2b 2d b9 bd
       -0.042981558 -0.037508246 -0.025717866 -0.09041818
000090 75 b1 09 bd 97 26 c7 bc b8 82 c1 bd a9 1b b7 bd
       -0.0336165 -0.024310393 -0.09448761 -0.08940823
0000a0 c8 f7 b9 bb 25 e4 8f bd e6 56 09 bd 3b 8a 30 bd
       -0.00567529 -0.07025937 -0.03353014 -0.043100577
0000b0 f3 8c b2 bd f1 36 97 bd 82 1d 84 bd 0f 72 49 bd
       -0.0871829 -0.07383526 -0.06450941 -0.04918104
0000c0 0a 25 80 bd 24 0d 87 bd ac 62 30 bd 5d d5 f6 bc
       -0.06257065 -0.06594303 -0.04306285 -0.030131036
0000d0 6b e5 4e bd db 93 58 bd f2 58 9c bd e2 d8 e6 bc
       -0.05051176 -0.05287538 -0.076341525 -0.02817959
0000e0 1d 83 59 bd da 91 02 bd 9a 3c 6a 3d a9 2b 31 bd
       -0.053103555 -0.031877376 0.0571867 -0.04325453
0000f0 09 26 a6 bd 5a ce bb bb af 94 5a bd 33 e4 97 bd
       -0.081127234 -0.005731386 -0.053364452 -0.074165724

weight f4 [32, 64, 3, 3]
000000 bb 8c c7 3d f3 d7 7e 3d 25 6b 02 bd c1 8c fe bc
       0.09743639 0.062217664 -0.031840462 -0.031072976
000010 f3 00 4a 3e 8d e9 15 bd 59 d3 04 3e 93 d2 8b 3d
       0.19726925 -0.036599685 0.12971248 0.06827273
000020 97 9a c0 3d 61 59 8f 3d b5 7c 31 3d 65 a7 e8 3c
       0.09404486 0.069994695 0.04333182 0.028400132
000030 a0 5f eb 3c 5a 5b 1f 3e 13 53 2c 3d 9c 69 27 3e
       0.028732121 0.15562192 0.042071413 0.1634888
000040 dc f2 8f 3c c6 1f 9a 3d 6f 86 0a 3e ab 11 e0 3d
       0.017571859 0.075255916 0.13527845 0.1094087
000050 7a 53 fc 3d 8b f9 33 3d 75 21 46 3d cc 0c b1 3d
       0.123206094 0.043939155 0.04837175 0.08645019
000060 3f 75 af 3d b6 44 e1 3d e9 34 c5 3d 4e 68 9a bd
       0.08567285 0.10999434 0.096292324 -0.07539426
000070 e0 cd 37 be 50 f3 25 bd cc 24 a2 bd 6a 02 56 3d
       -0.17949629 -0.040515244 -0.07917175 0.052248396
000080 d0 78 62 3c 64 39 b3 bb 5f 16 99 bd 10 fd 89 3d
       0.013822749 -0.005469488 -0.0747497 0.06737721
000090 8a d6 3f 3d fe 9e 81 bd 68 72 80 bd 64 66 53 3c
       0.04683546 -0.063291535 -0.06271821 0.01290283
0000a0 98 a1 6d bd 7f 9b dc bd fe 62 bc bc c8 29 c9 bc
       -0.058015436 -0.10771846 -0.022996422 -0.024556056
0000b0 a3 77 04 3d 4f c1 7f 3d bf a9 88 3c f5 4b fa bc
       0.032340657 0.062440213 0.016682504 -0.030553797
0000c0 d2 84 e8 3d 90 4b a3 3a c0 cc e4 3d 6e a6 3c 3e
       0.113534585 0.0012458432 0.111718655 0.18422863
0000d0 b9 10 58 3d c9 a1 8c 3b 78 4e 95 bd 2e 9b 22 bd
       0.052750323 0.004291747 -0.07290357 -0.039698772
0000e0 8e f9 8b bd 6a 19 bb bc fd 78 e6 bd ea 22 c2 bb
       -0.06834708 -0.022839267 -0.112535454 -0.0059245722
0000f0 ec b2 14 bc fc 95 23 bd 26 19 a4 bd 83 ec ae 3c
       -0.009075861 -0.039937958 -0.08012609 0.021353012
000100 f1 d7 93 bd db 71 a0 3d 8d f9 8a bd db b1 5d bb
       -0.07218922 0.07834216 -0.06785879 -0.0033827934
000110 5c c0 8b bd 1c 19 af bd fb 30 94 bc 28 0e 16 be
       -0.06823799 -0.08549711 -0.018089762 -0.14653838
000120 4e 4f 91 bc 6a d7 34 bd de 8d 52 bd df 63 15 3c
       -0.01773801 -0.044150747 -0.051404826 0.009118049
000130 22 9a 74 bc 7d e7 ac 3c 4c a6 9e bc dc a1 44 3d
       -0.014929326 0.021106476 -0.019366406 0.048005924
000140 6b d2 b2 bd b5 92 35 bd 6c 16 66 3c 66 bf b8 3d
       -0.0873154 -0.044329364 0.014043432 0.09020881
000150 dc 27 98 bd 4b fd a7 bd 2e 6e 40 3c bc e4 07 bd
       -0.074294776 -0.08202609 0.011745019 -0.033177122
000160 67 5b 2b 3c f0 b3 40 bd 5f 9d b2 bc f9 48 02 be
       0.010458804 -0.0470466 -0.021803556 -0.1272315
000170 af 6c 1b bd 19 eb ca bc 0d 65 ca bd 51 00 2c 3c
       -0.037945446 -0.024770306 -0.09882555 0.010498122
000180 10 46 90 bd 4e c2 af bd 3c 61 af bd aa 1a ac bd
       -0.07044613 -0.085819826 -0.08563468 -0.08403523
000190 ea b4 f8 bd cb 44 a5 3b e3 5f e7 bb cc 2f d2 bc
       -0.121438816 0.005043601 -0.007060991 -0.025657557
0001a0 74 05 3d bd ad 81 c2 3c e5 2a 1e bc e9 93 67 3c
       -0.04614778 0.023743475 -0.009653782 0.014134386
0001b0 a4 0a bd 3c 2a 1d a3 bd 6b 4a bd bd a7 f7 b7 bd
       0.023076363 -0.07964547 -0.0924271 -0.08982783
0001c0 60 5b 29 be 0a ac 7e bd 82 8f e2 bd 3b 29 93 bd
       -0.16538763 -0.062175788 -0.11062528 -0.071855985
0001d0 ef 1e 7e bc c9 5b 23 3b ef d8 82 3c a3 1a 0c bd
       -0.015510305 0.0024926534 0.015972583 -0.03420509
0001e0 46 d7 a9 bd 76 1d c6 bd 27 e3 11 be 7f 4f a3 bc
       -0.08293013 -0.09673588 -0.14246808 -0.019935368
0001f0 15 7f a4 bc 3e 72 c2 bc 9d 86 bc 3d 71 fd 67 3d
       -0.020080129 -0.023736116 0.09205363 0.056638185
000200 0d c5 85 3d bb 86 07 bc ee 3b ed 3d 51 a7 d6 bc
       0.06531725 -0.008271868 0.11583696 -0.02620283
000210 40 35 2b bd 63 bd b1 3d fb 9e 00 bd d6 7d e2 3b
       -0.04179883 0.08678701 -0.031401616 0.0069119735
000220 8a 9f d0 3c 4a 73 23 be bd 70 bf bc a4 d3 7a bd
       0.0254667 -0.15961948 -0.023369187 -0.061236992
000230 f1 a2 fa 3c 59 54 77 bc 1b 4c 93 bd 7e ef 9f bc
       0.030595275 -0.015095794 -0.0719225 -0.019523378
000240 45 7a c5 bd 9b 41 af 3d 39 d7 c7 bd 54 0d 04 bc
       -0.09642462 0.08557435 -0.09757847 -0.008059818
000250 aa fd 76 3d 1e 1f a0 bc 6d c7 6a bd 66 82 b3 bd
       0.060300507 -0.019546088 -0.057319093 -0.08765106
000260 29 06 30 bd e7 dd b1 bb de 8a ca bd 40 05 30 3d
       -0.042974625 -0.005428064 -0.09889768 0.042973757
000270 79 ad 73 bd 8e 95 16 bd a7 14 93 bd 94 c8 d5 bc
       -0.05949161 -0.03676372 -0.071816735 -0.02609662
000280 6c b1 5d bc 87 0b c4 bd 32 fd 66 3c f1 d4 5f bc
       -0.01353107 -0.09572511 0.014098452 -0.013661609
000290 2a a2 ba 3d bf 59 fb 3d 51 bf e9 3b dc fe fb 3c
       0.091129616 0.12272977 0.0071334024 0.030761175
0002a0 1e e9 87 3d 65 64 39 bc 9c 67 a5 3d 56 73 d5 3c
       0.066362604 -0.01131544 0.080764025 0.026055973
0002b0 50 e1 e9 bb dd 54 5b bd 22 af 9a bd ca ef 8b bd
       -0.007137455 -0.05354773 -0.07552935 -0.068328455
0002c0 b2 16 1b 3c 01 ea 22 be 3d 03 87 3b 9e e8 80 bc
       0.00946586 -0.15909578 0.004120259 -0.01573592
0002d0 85 53 0a be e9 88 82 3b fe b6 13 3d 99 77 cc bd
       -0.13508423 0.003983606 0.036063187 -0.09983749
0002e0 27 f4 e6 bd 29 a4 e8 3d ef 4d b9 bc 5b b1 66 bd
       -0.11277037 0.11359436 -0.02262017 -0.056321483
0002f0 11 4b 46 3d 46 e6 af bd 2d 43 31 3d da 0d e0 bd
       0.048411433 -0.08588843 0.043276954 -0.10940142
000300 3b 40 28 bd f5 48 1d bd ce 5c 13 3e 06 62 82 3d
       -0.04107688 -0.038399655 0.14390871 0.06366353
000310 00 63 c1 bd 4d 67 d0 bd d3 a8 0a 3e ab 2c 5f 3d
       -0.09442711 -0.10175953 0.13540964 0.054485958
000320 65 c5 0f 3e d1 ec 32 bd 7c 50 26 bd c3 f4 08 3e
       0.14040144 -0.043682877 -0.0406041 0.13374619
000330 a1 98 89 3d 0a a1 6c 3d dc 8a db 3a 57 e3 30 3c
       0.06718565 0.057770766 0.0016749757 0.01079639
000340 41 87 81 bd 4e 9e 0a bd 5a 6e 88 bd 90 c7 51 bd
       -0.06324626 -0.033842377 -0.06661673 -0.05121571
000350 91 12 9e bc 99 30 8d bd d0 12 d1 3a 2c 18 ec bd
       -0.019295963 -0.06894035 0.0015951041 -0.11528048
000360 d1 f5 41 bc 99 dc 01 3c 54 7a 99 bd a6 41 1e be
       -0.011838392 0.00792613 -0.07494035 -0.1545473
000370 b2 cf 79 3a c3 f5 24 bc 7e 29 c9 bd ae 42 bc bd
       0.0009529545 -0.01006836 -0.09822367 -0.09192406
000380 38 86 d2 3c f4 81 06 3d a4 79 48 3d 7d 7c b1 bd
       0.025698766 0.032838777 0.04894413 -0.086663224
000390 4b bd 04 be 8e be 65 3b 26 47 0b bd 25 df 82 ba
       -0.12962835 0.0035056206 -0.0340034 -0.0009984715
0003a0 3e 7a fb bd 33 04 68 bd 11 15 ff 3d 84 1a 88 3d
       -0.12279175 -0.05664463 0.1245519 0.066456825
0003b0 15 fa 93 bc 39 38 69 bd ce 98 1c bb 91 47 a1 3d
       -0.018063584 -0.056938384 -0.002389479 0.07874978
0003c0 b8 95 04 bc 0c a7 93 3d 48 2b 19 3d 31 7c ca bd
       -0.008092336 0.07209596 0.03739479 -0.09886969
0003d0 c0 b9 88 bd b7 30 37 3c 6b 90 29 3c 09 8f dc bc
       -0.06676054 0.011181048 0.010349373 -0.026923673
0003e0 51 b8 f0 bd 8b 3d aa bd e4 66 91 bc 0b d7 ee bd
       -0.117539056 -0.0831252 -0.017749257 -0.1166211
0003f0 be e4 3f bd 88 c0 31 3d 56 19 44 3e eb 6a 4a bc
       -0.046849005 0.043396503 0.1915029 -0.012354593

bias f4 [32]
000000 bf ac 9e bd 24 cf 82 bc 5d 37 a7 bd c2 3b 04 3e
       -0.077477925 -0.015967913 -0.081648566 0.12913421
000010 d5 f0 a2 bd 62 41 4e bd 39 84 b7 bd 97 06 08 bd
       -0.07956091 -0.050355323 -0.08960766 -0.03320941
000020 68 ee bb bd 1d 8f d5 3d 65 bf b5 3d ba 3d 27 bd
       -0.09176332 0.10427687 0.08874396 -0.04083035
000030 58 84 a9 bd de 24 54 bd 92 a4 f2 bc 63 46 86 bd
       -0.08277196 -0.05179297 -0.029619489 -0.06556394
000040 52 1d 80 bc f7 a9 3b bd b9 db 83 bd 29 99 92 bd
       -0.015638981 -0.045816388 -0.06438393 -0.07158119
000050 d6 83 93 bd 5c 03 a1 bd 4c aa dd bc 62 0b ba 3d
       -0.0720288 -0.07861969 -0.027058743 0.09084202
000060 4d 4b 97 bd 19 de 34 bd 14 7b 98 bd 6b eb e4 bc
       -0.07387409 -0.04415712 -0.0744535 -0.027944287
000070 fa 97 98 bd 07 6c 28 bd b2 85 2d bd 30 66 98 3d
       -0.07450862 -0.041118648 -0.04236383 0.07441366

weight f4 [16, 32, 3, 3]
000000 0f 54 60 3d 7c 1e 54 bd 72 b5 e6 bd d4 ad 99 3c
       0.054767665 -0.051786885 -0.11265077 0.018759646
000010 23 ab 98 bd 1c 71 07 be 2a af 3e be 3e 21 4b 3d
       -0.07454517 -0.13226742 -0.18621507 0.04959225
000020 c8 90 01 be 99 92 6b 3d 30 1a 80 3d 5d b2 91 3d
       -0.12652886 0.057512853 0.06254995 0.07114098
000030 5a 21 18 3e d1 f2 8d 3d 27 40 e6 3c f5 2d 2d bd
       0.14856473 0.06931079 0.028106762 -0.042280156
000040 25 d0 5d 3d 59 e2 90 3d 55 15 90 bd 91 f7 d3 3c
       0.05415358 0.070744224 -0.07035319 0.025874885
000050 fc ef a7 3c 7e 22 bf bd 63 55 f3 bc 51 c8 88 3d
       0.020500176 -0.09332751 -0.029703801 0.06678832
000060 5c fd 52 bc 56 6a 79 3d c5 b0 52 bd ba 2a 0e 3e
       -0.012877788 0.060892425 -0.05143811 0.13883486
000070 91 20 1a 3e 09 5d 10 3e 98 e0 76 3d e8 85 82 3e
       0.15051486 0.1409799 0.060272783 0.25492787
000080 49 0e d8 3d d2 f2 54 3e 0a d9 3e 3e 0e 4e 04 3e
       0.105496 0.20795754 0.18637481 0.129204
000090 4f 7c 5d bd b4 5e 15 bb f2 a1 16 be c8 39 d0 bb
       -0.054073628 -0.0022792043 -0.14710215 -0.0063545443
0000a0 c6 31 4d bc d1 ca 5b bd dc a7 06 bd 0b 9a 62 bd
       -0.012524074 -0.053660218 -0.032874927 -0.055322688
0000b0 9e 8d 2a 3d cf aa 25 bd 33 a4 60 bb 63 eb 0f bd
       0.041638963 -0.0404461 -0.0034277558 -0.03513659
0000c0 97 44 94 bc 18 bf 94 3d da b9 45 bd ed 76 54 3d
       -0.018099112 0.07263011 -0.048272945 0.05187123
0000d0 69 55 60 3d ef 48 fe bc 27 40 fc bc ba c0 65 3d
       0.054768953 -0.031040637 -0.030792309 0.056092
0000e0 c6 5e 68 bd c8 1a 7e bc 07 50 4b bd 22 3d 07 bc
       -0.056731008 -0.015509315 -0.049636867 -0.008254321
0000f0 d3 3d 2a 3d b5 9f 91 3c 02 94 af 3c 34 e9 1c 3c
       0.041562866 0.01777635 0.02143288 0.009577084
000100 7b 57 74 3c 71 bc ad 3c 59 89 eb bd e1 f9 98 bd
       0.014913435 0.02120802 -0.11500806 -0.074695356
000110 74 bd 57 bd 19 15 db bd 7b bb e4 3c 92 80 ec bc
       -0.05267091 -0.106973834 0.027921429 -0.0288699
000120 41 ab 98 3c a5 45 0a 3d f2 ab 8c bc 78 2e 9d 3d
       0.018636348 0.033757824 -0.017171834 0.07674879
000130 57 89 95 3d 21 52 e9 3c 1c a8 9b 3d a0 b9 0f be
       0.07301586 0.028481545 0.07600424 -0.14035654
000140 d7 3e 65 bd ed 48 b0 3d 51 3f 5d 3d fb 5a 71 3d
       -0.055968132 0.086076595 0.05401546 0.058924656
000150 96 90 15 bc 25 18 20 3e 1a b9 68 3e 9a 42 da 3d
       -0.00912871 0.1563421 0.2272686 0.106572345
000160 13 77 dc bc 3e 17 5d 3d 51 79 f9 3d 12 c3 08 3e
       -0.026912248 0.053977244 0.121813424 0.13355663
000170 0e d3 a8 3d 74 61 c3 3d c7 54 8d 3c fc 2c cc 3d
       0.082433805 0.09540072 0.017252339 0.099695176
000180 73 bb e1 3d 1a ab 20 3e 81 d3 2d 3e b5 9b d6 3d
       0.11022081 0.1569027 0.16975214 0.104789175
000190 39 a4 1f bd 0b 64 c2 3c 6e f5 ac 3d c3 3a 83 bc
       -0.038974974 0.023729345 0.084452495 -0.01601923
0001a0 7b 4a 71 bd 32 a5 98 3d fe 79 9a 3d 45 6d 7b 3c
       -0.05890892 0.074533835 0.075427994 0.015345876
0001b0 67 4c 45 3d 5d 7f ba 3d 2a 58 21 bd da d6 e6 3d
       0.048168566 0.09106324 -0.03939072 0.112714484
0001c0 0a ca 7b bb 6a 00 86 bd a4 6c 06 3d c2 62 08 3e
       -0.0038419985 -0.06543048 0.03281845 0.13318923
0001d0 cb 37 81 3d bc 09 80 bd 8d 9b 02 3c 24 4d 67 3d
       0.0630947 -0.06251857 0.0079716565 0.05647005
0001e0 2d e1 8e bd 93 e3 28 be 61 3a 02 be 0d 88 b1 bd
       -0.069765426 -0.16493063 -0.12717582 -0.08668528
0001f0 c0 f5 b8 bd c4 04 81 3c f1 0d 10 3c 79 4b 8f bd
       -0.09031248 0.015749343 0.008792386 -0.06996817
000200 38 2f 00 3c fb c7 6c bd 7a f0 fb bc 7f fd 0f 3d
       0.007823758 -0.057807904 -0.030754317 0.035153862
000210 db 69 3e 3d bb 7b 20 bd e7 01 f4 bd d5 44 ea 3c
       0.04648767 -0.0391805 -0.11914425 0.028597275
000220 f5 bc f4 3d 81 95 43 3d d3 d2 fb 3c d9 48 c5 3d
       0.11950103 0.04775 0.030740177 0.09633035
000230 c3 99 cd 3d 51 7e 88 3d 4d c1 c5 3d a3 1a 08 3e
       0.10039093 0.06664718 0.0965601 0.13291411
000240 ed cd b3 3c d5 eb 96 bc a7 0c 19 bd 13 49 e6 bd
       0.021948779 -0.018423 -0.03736558 -0.112444066
000250 ba 07 a0 3d 86 bf d6 bd 1f fb 41 bc 06 12 92 3d
       0.07813974 -0.10485749 -0.011839657 0.07132344
000260 68 a7 94 bd 5e 58 8d bc c5 ef 8f bd f2 be 15 bd
       -0.07258493 -0.01725405 -0.07028154 -0.036559053
000270 4a 9c 40 3d 5a 3e 56 3a f1 88 48 3c 12 51 d3 3b
       0.04702405 0.0008172743 0.012239681 0.0064488733
000280 ef 88 54 bc 1e 2d 8c bb 15 f1 b1 bb ac 3b 37 3d
       -0.012972101 -0.0042778393 -0.0054303505 0.044734642
000290 2d e2 e6 bd 4a 33 56 bd 24 51 01 3c bc 07 10 bd
       -0.11273608 -0.052295007 0.007892881 -0.035163626
0002a0 ce 89 3f 3d e3 53 09 bd 6f 56 7a 3c 1b 05 a2 3d
       0.04676228 -0.033527266 0.015279396 0.0791113
0002b0 3c 43 a0 3d 92 8e 08 3c ef 47 cf 3d 95 a1 4f 3c
       0.07825324 0.008334773 0.10121142 0.0126728015
0002c0 15 c3 8b 3d a1 fd 93 3c 99 c7 b1 3c 91 b4 c0 3c
       0.06824318 0.018065276 0.02170162 0.0235236
0002d0 21 3d a9 3d a4 6f a0 3d 49 c0 1e 3e 72 ff 95 3d
       0.082636125 0.07833794 0.15503038 0.07324113
0002e0 df 4c 8c bc 8f 69 44 3d 88 4c 54 3d 8c 93 fb 3c
       -0.017126499 0.04795223 0.0518308 0.030710004
0002f0 e7 9b c2 3d af d4 bd bd 2d 06 25 bd 27 3b 67 bd
       0.09502392 -0.09269082 -0.040289093 -0.056452896
000300 54 9c 96 3d ab 9b 24 bd 4c 26 c8 bd 3e 47 f5 bd
       0.07354036 -0.04018752 -0.097729295 -0.11976479
000310 d4 6a e3 bd 70 dd 6a bd d3 5c e5 3d 9f 96 b7 3d
       -0.1110436 -0.057340086 0.111993454 0.089642756
000320 b9 2c 8b bc 9c 18 36 bb 48 bf 22 bc 10 7a 4a 3d
       -0.016989099 -0.0027785664 -0.0099333 0.049432814
000330 5c 9c a5 3d fa 62 25 3d 8e d5 8e bd f4 76 92 3d
       0.08086464 0.040377595 -0.06974326 0.07151595
000340 88 70 82 3d 7f cf 10 3e 07 af 03 3e 74 f0 95 3d
       0.0636912 0.14141653 0.12859736 0.073212534
000350 62 9f 24 3e bb a0 16 3e 65 f1 e6 3d 77 2a b8 3d
       0.16076425 0.14709751 0.11276511 0.089924745
000360 6a 3c b3 3d 5a 3c 15 3d 80 43 aa bc 85 75 13 3c
       0.087517574 0.03643451 -0.02078414 0.009000187
000370 60 85 22 bd ff 0f 16 3e 77 67 ed bc 43 dd 62 3e
       -0.039677978 0.1465454 -0.02898 0.22154717
000380 b5 70 15 bd 0a 3c f7 3b 75 56 23 3d 9f 4c ab 3d
       -0.03648444 0.007544999 0.039877374 0.08364224
000390 71 0e 84 bb 1d db 94 3d bc 82 1a bd f9 8e a8 3d
       -0.004030042 0.07268355 -0.037722334 0.08230395
0003a0 5a 3d de 3c 4f 08 50 3e e1 12 1f 3e 03 81 1a 3e
       0.027128864 0.2031567 0.15534545 0.15088277
0003b0 b1 b9 bd bb df cb 1d 3d 98 0b a0 3d 71 64 c4 bb
       -0.0057899584 0.038524505 0.07814711 -0.005993419
0003c0 c8 57 c4 3d 1c 33 6a 3d 89 42 0b 3d 85 13 ac bc
       0.095870554 0.057177648 0.033999 -0.021005401
0003d0 30 22 a8 3c 12 12 03 be 0b f8 ae bc e2 e8 0f bd
       0.020524114 -0.12799862 -0.02135851 -0.035134204
0003e0 58 50 43 be 31 a5 2c bd c3 02 c6 bc 3b cd 32 be
       -0.19073617 -0.042149726 -0.024171239 -0.17461102
0003f0 b0 ba 36 be 7e 73 2c bd 63 a7 9d 3c 65 4e 4f bd
       -0.17844653 -0.04210233 0.019244855 -0.050611872

bias f4 [16]
000000 d6 1b a9 bc dc cf 7d 3c e7 c3 13 3c 92 5d 44 3d
       -0.020643156 0.015491452 0.009018875 0.047940798
000010 b0 a0 0b bc 11 52 32 bd 44 3a e2 bc 6d cf bf 3d
       -0.008522198 -0.043535296 -0.027615674 0.09365735
000020 bb de 61 3d a5 9c ed 3a 7b a0 42 3d b8 c3 13 bd
       0.055144053 0.0018128349 0.047516327 -0.036075324
000030 92 03 4e 3d b5 60 3c 3d be 3d 48 3d 95 1b cb 3c
       0.050296374 0.045990665 0.048887007 0.024793426
