super_resolution/checkpoint_scale4/model_epoch_2.pth (torch_old, 260873 bytes, 8 tensors)

weight f4 [64, 1, 5, 5]
000000 23 57 b0 bd 1f f2 8a be 1b 4d a1 be 2b 90 8c bc
       -0.0861037 -0.2713785 -0.3150414 -0.017158588
000010 1e f5 03 be ee e4 00 ba d7 9b 88 3e 28 7e 7a be
       -0.12886474 -0.00049169257 0.26681396 -0.24462187
000020 2c 05 17 3e 47 91 4e be 00 a1 83 be 52 ff ee be
       0.14748067 -0.20172606 -0.2570877 -0.4667917
000030 79 ad 68 be 98 ad 63 bc 03 08 fc be bd 2d c1 bd
       -0.22722425 -0.013896368 -0.49224862 -0.09432552
000040 42 29 dc bd 2a 13 fe 3d 0c 67 fa 3d 37 7d 45 bd
       -0.10750057 0.12405999 0.12226686 -0.048215117
000050 a0 b8 42 be b6 63 86 be 89 20 76 be a1 8a 42 3d
       -0.19015741 -0.26247948 -0.24035849 0.047495488
000060 34 97 37 be e5 ed 39 bd 21 49 14 3e 65 0c 44 be
       -0.17928773 -0.04539289 0.14481021 -0.19145353
000070 27 cc f8 bd 36 b1 2a be d7 06 a6 bd 2b 0f ba 3d
       -0.12148314 -0.16669163 -0.08106773 0.09084924
000080 4a 1f 24 be 4d 9c 6a be 8a d3 25 be 93 c1 30 be
       -0.16027561 -0.22911187 -0.16193977 -0.17261343
000090 b9 ad c4 3d 1a ed 6e be 69 23 04 be 0c 56 18 3d
       0.096034475 -0.23332635 -0.12904133 0.037191436
0000a0 8b f7 5e 3d 03 5e d4 be fe 99 27 be 1f 68 5c be
       0.054435294 -0.41477975 -0.16367337 -0.21524094
0000b0 d1 b8 74 3e b6 f7 b4 bc 3d 88 78 3c 4f a8 e6 bc
       0.23898627 -0.022090774 0.0151692005 -0.028156428
0000c0 db 6f 9c bd b9 9a d7 be d5 67 f2 3d 4d 3a a8 be
       -0.07638522 -0.42110232 0.11836211 -0.3285698
0000d0 6e 38 dc bb 1f 72 6f 3e 6e 50 bd 39 9d 12 38 be
       -0.006720594 0.23383377 0.00036108814 -0.1797585
0000e0 71 a4 95 bc fe 1b 88 bd f1 aa 14 3d f1 a1 96 be
       -0.018266888 -0.06645964 0.036295835 -0.29420426
0000f0 d3 cd fa bd 89 73 8e be f0 5b c3 bc 27 44 2b bd
       -0.12246289 -0.2782252 -0.02384755 -0.041813042
000100 08 ae e0 bb 87 a0 a0 be c9 e6 44 ba cf 17 72 3c
       -0.0068566836 -0.31372473 -0.00075111963 0.014776184
000110 8b 6d c4 bd b9 f9 19 3c 4f 78 b6 3b 14 b0 89 bb
       -0.09591206 0.009397917 0.005568541 -0.0042018984
000120 c4 46 6c 3c f0 a5 f8 bd 1d 18 2b 3e 78 3d a5 be
       0.014421169 -0.12141025 0.16708417 -0.3227346
000130 ac 52 f2 3d 24 f5 60 be fd d2 7f be 6b 55 8a be
       0.11832175 -0.21968514 -0.2498283 -0.27018294
000140 f3 72 f3 3b 14 11 7e be 5e fb 92 bd d0 bd b2 3d
       0.0074294745 -0.24811202 -0.07176851 0.0872761
000150 63 6b 4a be ac c1 11 bd e8 bc 62 bd 43 54 4e 3d
       -0.19767527 -0.03558509 -0.055355936 0.050373327
000160 e5 a8 92 bc 3d 4a 95 bd b9 9e 62 be 40 69 d5 3d
       -0.0179028 -0.072895505 -0.2213086 0.104204655
000170 c1 40 b4 3e 42 b2 fb 3c 29 b0 cf bd b9 0e 15 3d
       0.35205653 0.030724648 -0.10141022 0.036390994
000180 b8 33 f5 3d fc ad f3 3c fe cc 1c 3d 19 10 bf be
       0.11972755 0.029746048 0.038281433 -0.3731697
000190 ca b4 ab be 93 b2 00 3e 52 91 b9 bc f7 c3 64 be
       -0.3353637 0.1256812 -0.022652302 -0.2234038
0001a0 40 20 8d bd a9 3b 41 3e 10 36 07 be 44 a5 12 be
       -0.06890917 0.18870415 -0.13204217 -0.14320856
0001b0 1c d8 07 3e e5 ca a2 bb 4f 48 f5 bc 3e da c9 3d
       0.13266033 -0.0049680346 -0.029941706 0.098560795
0001c0 8c de 99 3d 87 40 be 3d de f5 fc bc 2c a6 7d 3e
       0.075131506 0.09289651 -0.030878957 0.24770421
0001d0 fe 24 88 3d e4 84 f2 3d 31 3d e5 3d f4 df 94 be
       0.06647681 0.11841753 0.11193312 -0.29077113
0001e0 c0 cf 47 bb 48 1a 25 3e e4 89 85 3d 0f 60 99 be
       -0.003048882 0.16123307 0.06520441 -0.299561
0001f0 47 33 0c be db 53 14 3c 17 1e aa bd 45 a8 5b be
       -0.13691436 0.009053196 -0.083065204 -0.21450908
000200 f9 4d a7 be 32 4a c2 3e c6 2f 5d 3e 0d 70 1b 3e
       -0.32676676 0.37947232 0.21600255 0.15179463
000210 f0 8f 2d be 5f df 46 bc d1 42 72 3b 44 39 bf 3c
       -0.16949439 -0.012138217 0.0036966095 0.023342736
000220 ca 6d b0 bd a8 fb 2c be 29 57 86 bd a8 2f 0d bc
       -0.086146906 -0.16892874 -0.06559593 -0.008617319
000230 38 67 36 be 76 32 42 3e e2 a2 8c 3c fb 9b 66 be
       -0.17812812 0.18964562 0.017167512 -0.2252044
000240 54 60 8a be b7 71 1e be 3a 79 52 3c c2 2a 1f be
       -0.27026618 -0.15473066 0.0128462855 -0.15543655
000250 3d d0 e6 bd 75 fe df bd 32 9d 65 be 62 c2 b9 be
       -0.11270187 -0.10937206 -0.22423247 -0.36281115
000260 b9 4c 87 3c a0 2d 0b be 6a e8 5e be 8c 76 5b 3e
       0.016516076 -0.13591623 -0.21768346 0.21431941
000270 e3 11 2b be 55 f2 42 be 05 3b 50 be b7 b8 5c 3d
       -0.16706042 -0.19037755 -0.20335014 0.053887095
000280 92 1c 61 be 9f 4a 8e bd 17 ec 1c bd 69 cb 8a bd
       -0.21983555 -0.069478266 -0.03831109 -0.06777079
000290 6a 97 81 be e8 0e 97 be 46 ce fc bd 76 e1 eb 3b
       -0.25310832 -0.2950356 -0.12344031 0.007198508
0002a0 9b c8 20 be 2e 58 e8 bd 99 7e 74 be e3 57 2c 3e
       -0.15701525 -0.11344944 -0.23876418 0.16830401
0002b0 42 13 5c be 6c 14 53 be 2f 91 12 be 79 7b 1a be
       -0.21491721 -0.20613259 -0.14313196 -0.15086164
0002c0 5b 56 f8 3d b6 a3 9c 3d ed 48 63 be 90 7e 63 be
       0.12125846 0.07648413 -0.22195788 -0.22216249
0002d0 3a 01 ed bd 76 4c 03 3e ad 4f 36 3e 9b 39 a2 be
       -0.115724996 0.12822136 0.17803831 -0.31684574
0002e0 cd c2 cc be f8 b2 46 bd 10 5b 72 bd 1c 6a 52 bd
       -0.3999237 -0.04851052 -0.059168875 -0.051370725
0002f0 5c 3d 72 be cf e1 48 be 31 d1 45 be dc 5b da bc
       -0.23656219 -0.19617389 -0.19318081 -0.02665513
000300 b9 92 85 bd 33 58 8f be 78 52 65 be b3 c7 d2 bc
       -0.06522126 -0.27996978 -0.2239474 -0.02572999
000310 af 3e ee bc a0 77 b1 3b 4d 66 35 3e 65 90 16 3e
       -0.029082624 0.0054158717 0.17714806 0.1470352
000320 d9 a7 31 3e 76 86 7e 3c 13 ac 35 bd 07 87 e5 be
       0.17349185 0.015534988 -0.044353556 -0.4482958
000330 d1 54 2e 3c 60 85 fb 3d 33 4e 8f bd 3a 65 1f 3d
       0.010640339 0.12281299 -0.06997337 0.038914897
000340 23 84 00 3e 12 db 04 be 4c 67 a3 3e 60 bf 20 be
       0.12550406 -0.12974194 0.31914747 -0.15698004
000350 49 44 41 be 78 a4 c0 bb a2 32 38 3e 01 c9 97 be
       -0.18873705 -0.005878981 0.17988065 -0.2964554
000360 ed 20 07 3e 28 c6 98 3d 79 8c 2f bd 92 ed 5b 3c
       0.13196154 0.0745967 -0.042858575 0.01342334
000370 9f 45 03 be 36 8b 3f 3d 2e 96 7c be 02 df 3c be
       -0.12819527 0.04676362 -0.24666664 -0.18444446
000380 23 7d 87 3c 9a 49 41 3c b1 7b b4 3d 8f bb 12 bd
       0.016539162 0.011797333 0.08812655 -0.0358234
000390 29 ac 01 3e 8d df c5 3d 02 8d bd 3a 01 f6 38 3d
       0.1266333 0.096617796 0.0014461579 0.045156483
0003a0 a6 6e b4 3d e4 73 d3 bc 1b 3d b8 bd 7c 33 7a be
       0.08810167 -0.025812097 -0.0899603 -0.24433702
0003b0 e6 98 06 be fd cf 88 3d f9 e2 2e be 4c d3 a7 be
       -0.13144264 0.066802956 -0.1707877 -0.32778394
0003c0 ec ef 97 be 53 12 7e be 3c f3 94 be d1 9c 1b be
       -0.29675233 -0.24811678 -0.29091823 -0.1519654
0003d0 11 f7 22 3d 3c df fe 3d 86 c8 3b bd 02 c4 99 3e
       0.039786402 0.12444922 -0.04584553 0.30032355
0003e0 0a 78 a4 be c0 85 59 bd d4 27 3e be d5 25 3a 3e
       -0.32122833 -0.05310607 -0.1856988 0.18178494
0003f0 c5 ed a1 bd 93 de 24 3e 4e f9 dd 3c ee 05 96 3e
       -0.07906679 0.1610053 0.027096417 0.293014

bias f4 [64]
000000 1e 40 48 3d aa 4e ed 3c 31 5e 59 be b4 64 5f bd
       0.048889272 0.028968174 -0.21227337 -0.054539397
000010 cb 55 f2 bd 82 be 27 3d 6f 31 a8 3d 5d 6a 8e bc
       -0.1183277 0.040953167 0.08212554 -0.017384702
000020 8d 8e 6a be 56 cf 63 be ea bf e3 3d 21 f2 8b bd
       -0.22905941 -0.22247061 0.11120589 -0.06833292
000030 63 79 7c bd ec 53 09 be 00 88 41 be fe f0 62 3d
       -0.0616392 -0.1341092 -0.18899536 0.05540561
000040 9b e1 4a bd a3 55 22 bc c3 c8 55 be 99 f2 c5 3d
       -0.04953156 -0.009908113 -0.20877366 0.096654125
000050 14 ca ad 3d 7b 2d 1f 3e e6 85 b8 3d aa a3 2a 3d
       0.08485809 0.15544693 0.09009914 0.04165999
000060 31 cf a9 bc 8f 0f 5a be b7 a8 41 be 6a db 7d bd
       -0.02072868 -0.21294998 -0.18912016 -0.061976828
000070 a4 5c 96 3d a1 1a 75 bd 00 32 0f 3d 6f 97 56 bd
       0.073418885 -0.05983985 0.034959793 -0.052390512
000080 cc 1a a1 bd 73 53 d7 bc 8d 21 84 bd ec f1 1b be
       -0.07866439 -0.026284909 -0.06451712 -0.15229005
000090 80 94 ec bd 29 f2 e8 3d 82 2e 99 3d c9 de c0 bd
       -0.115517616 0.113743134 0.07479574 -0.09417493
0000a0 0a 16 43 be b0 d1 8a 3e 4d 09 ef bd ba 0a 11 bd
       -0.19051376 0.27113104 -0.11671696 -0.03541062
0000b0 96 53 f4 b9 9c e9 43 bd 16 00 d4 bd 2c 4e eb 3d
       -0.00046601583 -0.04783021 -0.10351579 0.114895195
0000c0 93 ec 91 3d d9 e3 72 be f4 52 3d be ae d3 77 bd
       0.07125201 -0.2371973 -0.18488675 -0.060504608
0000d0 08 66 19 3d 74 bf 1b 3d 4a 7a c4 bd 3d 4e 56 be
       0.03745082 0.03802438 -0.09593637 -0.20928283
0000e0 a2 89 fe 3d 32 c6 44 be a3 7d 05 be 34 be 1b 3e
       0.12428595 -0.1921623 -0.13036208 0.15209275
0000f0 b0 f7 fa 3c dc 99 36 3d ed c3 26 be 45 1e 2c be
       0.030635685 0.044580325 -0.16285677 -0.16808422

weight f4 [64, 64, 3, 3]
000000 af bf 4e bd 47 ba 33 bc f3 c3 17 be 93 8b 5e 3c
       -0.050475772 -0.010969705 -0.14820842 0.013583082
000010 ab 21 90 bb ba 35 57 3d 67 dc b9 3c 2a a7 12 3d
       -0.004398545 0.052541472 0.022688104 0.03580395
000020 db c7 b7 bd ee 57 ec bd 5e f0 11 be d1 06 39 bc
       -0.08973666 -0.11540209 -0.14251849 -0.011293129
000030 e8 2d cd 3c 39 35 89 bd bd ca b4 3d 19 d8 9f bd
       0.025046304 -0.066996045 0.08827732 -0.07804889
000040 1c 1a c2 3c 93 96 c2 3b 7c a0 a6 bd 6a e2 90 bd
       0.02369409 0.00593836 -0.08136079 -0.07074435
000050 3e 53 a2 bd 2f 53 a8 bd fc 4b 60 bd 53 b2 39 3c
       -0.079260334 -0.08218991 -0.054759964 0.01133402
000060 54 cd 98 3a d3 14 2c bd 5c 08 45 bc b1 79 5e bd
       0.0011657872 -0.042012047 -0.012025919 -0.054315273
000070 f2 80 da bb f8 b5 f7 bd 43 d3 c5 bd 1c d6 58 be
       -0.0066682035 -0.12095255 -0.096594356 -0.21175426
000080 16 ec cd bc f2 0f 37 bd 2d 62 81 bd 10 15 d5 bc
       -0.025136989 -0.04469294 -0.06317554 -0.02601102
000090 26 6a 13 bd 50 c5 89 bd 4a f5 d3 bc 6f d7 c6 bd
       -0.035989903 -0.067270875 -0.025873799 -0.097090594
0000a0 e2 d6 c7 bd 94 d9 7d 3d e9 4c 1a bd 80 0c ad bd
       -0.097577825 0.061975077 -0.037671003 -0.0844965
0000b0 14 b9 51 bd 01 a6 47 bd a2 40 bc bd f7 26 e5 3b
       -0.051201895 -0.048742298 -0.09192015 0.0069931704
0000c0 74 c1 be bd a8 2a 99 bd 9d 2f ac bc 86 c2 21 be
       -0.09314242 -0.07478839 -0.021018798 -0.15796861
0000d0 a1 27 e8 bd 48 b8 31 be 43 2a 8f bd 8b ab a9 bd
       -0.113356836 -0.17355454 -0.06990483 -0.08284672
0000e0 eb 0e 3c 3b f1 b6 67 bd 25 cf 2f bc 0b d6 67 3d
       0.0028695415 -0.05657095 -0.010730539 0.05660061
0000f0 71 7b 32 be 05 87 2b bd 48 3b e3 bb 14 84 8a bd
       -0.17429902 -0.04187681 -0.006934557 -0.06763473
000100 28 63 b9 3c 5e 51 9e bd 2f 72 45 bc fa 94 2a 3c
       0.02263029 -0.07730363 -0.012051149 0.010411495
000110 38 e0 ec bd 69 5a 85 bd e4 e8 4d bd 8c 51 d1 bd
       -0.11566204 -0.06511385 -0.05027093 -0.10220632
000120 72 19 f0 3c 5d e6 5e bd 20 d0 2d bd a6 0b 9f 3b
       0.029309008 -0.05441891 -0.04243481 0.0048536835
000130 47 34 b6 bd 74 5f 4c bd d9 1c c4 bd 32 df c5 bd
       -0.0889669 -0.04989572 -0.09575815 -0.09661712
000140 74 c2 25 be 87 ba ee bd 7d 99 b7 bc de cf 65 bd
       -0.16187459 -0.11656671 -0.022412056 -0.05610644
000150 51 65 b0 3c a9 57 ef bc 88 04 0d bc a8 66 9b bd
       0.021532686 -0.029216604 -0.008607037 -0.075879395
000160 a5 61 c2 bd 96 3c b7 bd 9a f7 2e bd 94 92 d0 bd
       -0.094912805 -0.08947103 -0.0427166 -0.101842076
000170 bf 90 ac bc 24 57 ab bd 25 92 11 3d ee 2d 8e bd
       -0.021065114 -0.0836623 0.035539765 -0.06942354
000180 72 8d c9 bd d4 f0 99 bc 47 7d 37 bd 2a f2 aa 3c
       -0.09841432 -0.018791594 -0.04479721 0.020867426
000190 91 7d b2 3d 67 35 af 3d bd 86 b3 bd 27 db 44 bd
       0.08715356 0.085551076 -0.08765934 -0.048060562
0001a0 cc 3f 3a 3d f3 f9 8c 3d 56 91 e8 bd 64 6a 76 3d
       0.045470998 0.068836115 -0.11355846 0.060160056
0001b0 14 86 25 be ed 80 fb bd 25 63 8a 3d ab 37 13 3c
       -0.16164428 -0.1228045 0.067571916 0.00898544
0001c0 91 7e ec 3b 78 fd a0 bd 03 b7 b6 bc 90 58 20 be
       0.0072172363 -0.07860845 -0.022304064 -0.15658784
0001d0 a3 53 b9 bd 29 2f 80 bd 38 9b 33 bd 70 51 15 be
       -0.090491556 -0.06258995 -0.0438492 -0.14581847
0001e0 58 ea f4 bd 5f 7c b2 bd 4c ee b1 bd 61 5e 91 bc
       -0.1195876 -0.08715128 -0.0868803 -0.017745199
0001f0 ac 21 d5 bd ea ca 19 be bd ad b1 bc 79 ba ed bc
       -0.10406813 -0.15018812 -0.02168929 -0.029019581
000200 69 78 ce 3c 46 d5 d3 bb c9 a5 76 bd f8 a2 0f 3d
       0.0252039 -0.006464633 -0.0602167 0.03506753
000210 09 c8 35 bd d5 5e 07 be 66 73 f7 bb 98 de f3 bb
       -0.04438022 -0.1321977 -0.0075515984 -0.0074423067
000220 ef 27 79 3d 6c df 89 3b 43 c1 cd 3d 19 13 f0 bd
       0.0608291 0.004207542 0.10046627 -0.117223926
000230 37 f5 49 bd ce 69 5a bb 8c a3 a2 bd 7b 1f f4 bd
       -0.04930612 -0.0033327225 -0.0794135 -0.11920067
000240 92 c2 90 bd d0 f8 72 3c 31 dc 7b bd 93 f1 ba 3c
       -0.07068361 0.014829829 -0.061489288 0.02282027
000250 ed 74 34 bd 57 fd 3d 3b 8f 67 d8 bd 7c 2a 45 3d
       -0.04405682 0.0028990114 -0.10566627 0.04813622
000260 25 55 d1 bc f1 ed fc bd 1f 58 9b bc cc ce 46 be
       -0.025553295 -0.12350071 -0.018962918 -0.19414824
000270 0e 24 85 bd 67 20 f7 bc 61 24 06 3d 35 ee f9 bc
       -0.065010175 -0.030166818 0.032749537 -0.030509094
000280 29 16 04 3c fd 75 cb bd b2 16 b2 3c 4b 2d f8 3b
       0.008061924 -0.09934614 0.021739338 0.0075737587
000290 b2 1d 4d 3d 10 c9 d3 bd 17 c8 e4 3d ac fc 9d 3c
       0.050077148 -0.10341084 0.111709766 0.019285522
0002a0 bc e1 66 3d 96 b8 0e 3d f8 ca 92 3d 73 37 a9 bc
       0.05636762 0.034844004 0.071676195 -0.020656323
0002b0 74 a7 84 3c c3 1f f3 bd d3 7d 58 bd c9 53 19 bd
       0.01619313 -0.118712924 -0.05285437 -0.03743342
0002c0 b3 df 09 bd ca 18 4f bd 13 1f 8a 3d 6d 4c b7 bd
       -0.0336606 -0.05056075 0.06744208 -0.08950124
0002d0 3b 25 93 3d 4b d5 48 bd 27 a6 eb bd 92 e7 11 3c
       0.071848355 -0.049031537 -0.115063004 0.008905308
0002e0 78 ef ad bd 79 c9 f1 bd 9f 45 ce bc 54 20 84 bd
       -0.08492941 -0.11806006 -0.025179682 -0.064514786
0002f0 72 7f 42 3d 3a f3 97 bd dd 12 89 bd 16 60 dd bd
       0.047484823 -0.07419439 -0.06693051 -0.108093426
000300 9f 93 d5 bc 10 82 83 3d 20 e4 bc bd 33 30 c0 bd
       -0.026071368 0.06421292 -0.09223199 -0.09384193
000310 4a 23 2a be ec cd cc bd b2 82 5c bd 2b 28 c7 3c
       -0.16615024 -0.10000214 -0.05383558 0.024311146
000320 32 af b2 bd c1 4e 73 bd a9 d6 99 bd 40 8a 9f bd
       -0.08724822 -0.059401277 -0.07511646 -0.07790041
000330 5f a7 19 3b ed 59 19 be 57 77 d2 3c 7c 4a 0e 3d
       0.0023445708 -0.1497571 0.025691671 0.034739003
000340 41 1e ca 3b 27 f5 0e 3c 8f c6 ae bd f6 e6 80 bd
       0.0061681573 0.008725441 -0.08533966 -0.06294052
000350 36 d0 4a be bf ed 34 bd c0 17 5a bd 6f 66 c7 3d
       -0.19805989 -0.044172045 -0.053245306 0.097363345
000360 00 24 4b bb af 8d fe bd 32 c1 f9 ba 37 e6 34 bc
       -0.00309968 -0.12429368 -0.0019054769 -0.011041216
000370 f3 ae e2 3c f0 2a c5 bc 20 4f 64 bd 2f 3d fb bb
       0.027671313 -0.024068326 -0.055739522 -0.0076672058
000380 79 e2 98 bd 28 c7 88 bd 82 16 fc 3b 0e a2 a6 bd
       -0.07465071 -0.06678611 0.007693113 -0.08136378
000390 8c 26 5b 3d b3 30 a3 bd da 0a be bc f7 b9 54 3c
       0.053503558 -0.07968273 -0.023198534 0.012983791
0003a0 de 28 da bd 3a 83 8e ba 8c 33 ae 3c 96 9f 9d bc
       -0.10652326 -0.0010872849 0.021264814 -0.019241136
0003b0 82 b8 6e bd fc f0 8b bc 81 d5 0d be 45 ec 6b bd
       -0.05828143 -0.017082684 -0.13850977 -0.05759837
0003c0 bd 47 43 bd 0a 62 52 bc e2 35 72 3d d4 07 61 bd
       -0.047675837 -0.012840757 0.059133418 -0.054939106
0003d0 87 48 f4 bd a3 63 21 bd ef 0e cb bd 67 80 e4 3c
       -0.11927896 -0.03940166 -0.09914958 0.027893258
0003e0 19 1f f4 bc 1c d4 61 bd 2f ba df bd 17 a8 83 3d
       -0.029799985 -0.055133924 -0.109241836 0.06428545
0003f0 c4 a1 97 bd 05 f8 bc bd a7 e8 8c bd 42 d0 ef bd
       -0.07403901 -0.092269935 -0.068803124 -0.11709644

bias f4 [64]
000000 46 3a f8 bc a0 e9 25 bd bb 7f 58 bd 83 24 ea bc
       -0.030301224 -0.040506005 -0.05285619 -0.028581863
000010 67 7e 4e bd ce 69 82 bd 8e 5c 75 bd db 8d 93 bd
       -0.050413515 -0.06367837 -0.05990272 -0.07204791
000020 f7 12 92 bc a3 4a 71 bd 85 a1 7d bd 09 c1 74 bb
       -0.017831309 -0.05890907 -0.061921615 -0.0037346503
000030 7b 9b b2 bd 29 7c 65 bd e6 a3 c6 bc e6 a2 01 bd
       -0.08721062 -0.05602661 -0.024248075 -0.031649493
000040 a8 72 84 bd a2 b8 8b bd c8 6f c2 bc 50 61 26 bd
       -0.064671814 -0.06822325 -0.023734942 -0.04062015
000050 05 2a 85 bd 5a f2 a4 bd 9e 5a b4 bd b8 d8 22 bd
       -0.06502155 -0.080540374 -0.08806346 -0.03975746
000060 77 93 6b bd ad 53 83 bc 7c 93 9d bd 25 ad 22 bd
       -0.05751368 -0.01603111 -0.07694146 -0.039715905
000070 96 d2 5f bd 2c 81 98 3c a3 a6 b4 bd 73 6f 9a bd
       -0.05464419 0.018616281 -0.08820846 -0.075407885
000080 90 64 3d bd 37 bd 28 bd 0c 5e ec bc ff f8 be bd
       -0.046238482 -0.041196074 -0.028853439 -0.09324836
000090 16 83 16 bd 8a bf 77 bd e6 f2 c7 bd ce 1e be bd
       -0.036746107 -0.0604854 -0.09763126 -0.09283219
0000a0 9a 76 10 bc 5d 5c 96 bd 1c ee 14 bd 52 6a 3d bd
       -0.008817339 -0.07341836 -0.03635989 -0.046243973
0000b0 df 58 b8 bd 77 9e 9d bd 94 7d 8a bd 54 73 5a bd
       -0.09001326 -0.076962404 -0.067622334 -0.05333264
0000c0 45 f3 85 bd 8b 7d 8d bd 60 fb 3b bd c5 28 08 bd
       -0.065405406 -0.06908711 -0.045894027 -0.033242006
0000d0 f6 a6 5b bd 0e 0c 67 bd 53 25 a2 bd 2e 4b 00 bd
       -0.053626023 -0.05640798 -0.07917275 -0.031321697
0000e0 80 a6 66 bd c0 7d 12 bd 45 97 34 3c 25 72 b0 bc
       -0.05631113 -0.035764456 0.011022394 -0.021538803
0000f0 ae 0b ac bd ab 54 11 bc af 12 67 bd 2a 45 9e bd
       -0.08400665 -0.008870284 -0.056414302 -0.07728036

weight f4 [32, 64, 3, 3]
000000 39 57 cd 3d 55 36 85 3d e1 b8 ed bc 66 65 e7 bc
       0.10026402 0.06504504 -0.029018821 -0.028246593
000010 db e5 4c 3e ac 5c 0a bd 3f b8 07 3e 7e 9c 91 3d
       0.20009558 -0.033779785 0.13253878 0.07109927
000020 1a 63 c6 3d ca 18 95 3d 2c fa 3c 3d 7a 8d ff 3c
       0.09686871 0.07280119 0.04613702 0.031195391
000030 c9 39 01 3d f4 3c 22 3e 55 cf 37 3d cf 4c 2a 3e
       0.03154925 0.15843564 0.04487546 0.16630863
000040 b5 00 a7 3c 33 dd 9f 3d 3d 6a 0d 3e 11 db e5 3d
       0.02038608 0.07805862 0.13810058 0.11223424
000050 18 0e 01 3e 5a 88 3f 3d 89 b3 51 3d 01 d5 b6 3d
       0.12603033 0.046760894 0.05119661 0.08927346
000060 fe 3d b5 3d 21 0e e7 3d 9e fd ca 3d d5 d5 a0 bd
       0.08849715 0.11281992 0.09911655 -0.07853285
000070 c9 04 3b be 1f d0 32 bd 48 92 a8 bd 04 27 49 3d
       -0.18263544 -0.04365551 -0.08231026 0.049109474
000080 4f 07 2f 3c 52 0a 0d bc 0f 84 9f bd e2 8e 83 3d
       0.010682895 -0.008608418 -0.0778886 0.06423737
000090 3d f5 32 3d 5e 0f 88 bd 11 e3 86 bd 23 e1 1f 3c
       0.04369091 -0.06643556 -0.06586278 0.009758267
0000a0 4f 82 7a bd 2d 0c e3 bd e7 24 d6 bc c5 ea e2 bc
       -0.06115943 -0.11086307 -0.026140643 -0.027699837
0000b0 e8 2c ef 3c da 8d 85 3d 1c 2e 9f 3c ce f4 e3 bc
       0.029196218 0.06521197 0.019431166 -0.027826693
0000c0 69 1b ee 3d c2 ca 80 3b a7 34 ea 3d ae 67 3f 3e
       0.11626322 0.0039304206 0.11435824 0.18691894
0000d0 7e e4 62 3d 0b cd e1 3b 48 bd 9b bd a9 79 2f bd
       0.05539369 0.006890898 -0.07604462 -0.042840634
0000e0 d2 68 92 bd 79 d6 d4 bc b0 e8 ec bd 5f 8e 14 bc
       -0.07148899 -0.025981175 -0.11567819 -0.009067147
0000f0 cd 2b 48 bc d6 74 30 bd 94 88 aa bd 83 3b 95 3c
       -0.012217474 -0.043080173 -0.083268315 0.018216854
000100 e8 43 9a bd 73 05 9a 3d 0c 65 91 bd e7 8d d5 bb
       -0.07532483 0.075205706 -0.07099351 -0.00651716
000110 3a 2c 92 bd fd 84 b5 bd d2 df ad bc 45 44 19 be
       -0.07137342 -0.08863256 -0.02122489 -0.14967449
000120 00 0e ab bc 60 b5 41 bd 08 6c 5f bd d6 d6 c3 3b
       -0.0208807 -0.047292113 -0.054546386 0.005976538
000130 a8 06 94 bc c3 2d 93 3c 2e 64 b8 bc 26 c4 37 3d
       -0.01806958 0.017966157 -0.022508707 0.044864796
000140 4c 41 b9 bd b5 92 35 bd a1 7f 64 3c be 50 b8 3d
       -0.090456575 -0.044329364 0.013946445 0.08999775
000150 dc 27 98 bd 8e 75 a8 bd 6d fb 38 3c bc e4 07 bd
       -0.074294776 -0.08225547 0.011290413 -0.033177122
000160 cc 85 26 3c ec 01 43 bd 71 58 cc bc 2e 80 05 be
       0.010163736 -0.047609255 -0.024944516 -0.13037178
000170 12 49 28 bd 99 a4 e4 bc 16 d3 d0 bd a8 21 f1 3b
       -0.04108531 -0.027910518 -0.101965114 0.0073587485
000180 1b b4 96 bd 42 30 b6 bd 26 cf b5 bd a7 8b b2 bd
       -0.07358571 -0.08895923 -0.08877401 -0.08718043
000190 cd 25 ff bd b0 d3 f8 3a 81 33 27 bc eb f0 eb bc
       -0.12458382 0.0018983986 -0.010205151 -0.028801402
0001a0 1f e6 49 bd eb bf a8 3c a1 ad 51 bc 7a 10 34 3c
       -0.049291726 0.020599326 -0.012797744 0.010990256
0001b0 5c 53 a3 3c 0f 8b a9 bd 93 b8 c3 bd 77 65 be bd
       0.01993721 -0.082784764 -0.09556689 -0.09296697
0001c0 5f 92 2c be 49 c4 85 bd 5a fd e8 bd 21 97 99 bd
       -0.16852711 -0.06531579 -0.11376448 -0.07499529
0001d0 b1 c7 98 bc c8 ad 29 ba e8 3e 52 3c a0 f8 18 bd
       -0.018649908 -0.0006472734 0.012832381 -0.037346482
0001e0 ae 45 b0 bd 20 8c cc bd c4 1a 15 be 1e 0b bd bc
       -0.0860704 -0.09987664 -0.14560992 -0.02307659
0001f0 39 3b be bc df 2f dc bc 59 52 c2 3d 2e 95 73 3d
       -0.023221599 -0.026878295 0.09488363 0.05946844
000200 e2 90 8b 3d 38 51 b2 bb d1 07 f3 3d 00 78 bf bc
       0.068147436 -0.005441811 0.11866725 -0.02337265
000210 9f 9d 1f bd 4d 89 b7 3d a5 0e ea bc d1 e6 76 3b
       -0.03896868 0.08961735 -0.028571436 0.0037674198
000220 4d de b6 3c 55 ab 26 be ef 31 d9 bc b6 d9 83 bd
       0.022322798 -0.16276295 -0.026513068 -0.064380094
000230 92 e4 e0 3c 4b 6b 95 bc e6 bb 99 bd 6a ad b9 bc
       0.02745274 -0.018239638 -0.07506542 -0.022665698
000240 ea e7 cb bd 38 d4 a8 3d 04 45 ce bd 11 76 37 bc
       -0.099563435 0.082436025 -0.100717574 -0.011197583
000250 57 24 6a 3d 2a d4 b9 bc 14 a3 77 bd bf ef b9 bd
       0.057163563 -0.022684176 -0.060458258 -0.09078931
000260 42 e2 3c bd fd 63 0c bc 3c f9 d0 bd 68 28 23 3d
       -0.046114214 -0.008568761 -0.10203788 0.039833456
000270 1c 45 80 bd 9f 71 23 bd d4 82 99 bd 2a 85 ef bc
       -0.062631816 -0.03990328 -0.074956566 -0.029238302
000280 e5 93 88 bc 75 7a ca bd b8 ab 8a 3c 30 79 31 bc
       -0.016672084 -0.09886638 0.016927585 -0.010832116
000290 e6 6d c0 3d 9e 92 00 3e ba 3c 23 3c 24 97 09 3d
       0.093959615 0.1255593 0.009963209 0.033591405
0002a0 a1 b4 8d 3d 30 07 0b bc 78 33 ab 3d 6c af bb 3c
       0.06919218 -0.0084856 0.08359426 0.022910796
0002b0 14 76 28 bc a7 36 68 bd e9 1f a1 bd 49 60 92 bd
       -0.010282058 -0.056692746 -0.078674145 -0.07147271
0002c0 38 22 cf 3b 68 22 26 be 52 de 7f 3a 60 ab 9a bc
       0.006321218 -0.16224062 0.00097606063 -0.018880546
0002d0 36 8b 0d be ff a1 5c 3a af d8 06 3d c1 e6 d2 bd
       -0.13822636 0.0008416473 0.03292149 -0.10297919
0002e0 11 63 ed bd 6a 35 e2 3d f3 0b d3 bc 55 90 73 bd
       -0.11591161 0.11045344 -0.025762534 -0.059463818
0002f0 03 6c 39 3d 12 56 b6 bd fd 63 24 3d 5f 7d e6 bd
       0.045269024 -0.08903135 0.04013442 -0.112543814
000300 47 1e 35 bd b0 26 2a bd 70 25 10 3e 98 e5 77 3d
       -0.044218328 -0.0415408 0.14076781 0.060521692
000310 2b d2 c7 bd 4b d6 d6 bd 4d fa 0b 3e ee 8c 64 3d
       -0.09756883 -0.10490092 0.13669701 0.055798464
000320 9c 95 11 3e 28 55 2c bd b0 ac 1f bd 1d 40 0b 3e
       0.14217228 -0.0420734 -0.038983047 0.13598676
000330 1d 80 8b 3d 4d 3c 73 3d 68 47 83 3b 78 d7 fa 3b
       0.06811545 0.05938368 0.004006315 0.0076550804
000340 be f5 87 bd 41 7b 17 bd 74 dc 8e bd 02 a3 5e bd
       -0.066386685 -0.03698278 -0.06975642 -0.054354675
000350 e4 c9 b7 bc 9a 9e 93 bd af 4f ca ba d0 85 f2 bd
       -0.022435136 -0.07207985 -0.0015435125 -0.11841929
000360 cc 77 75 bc c4 b8 9c 3b 6e ea 9f bd c9 79 21 be
       -0.014982175 0.004782768 -0.07808386 -0.15769114
000370 fe 8e 0f bb 0d 77 58 bc e9 99 cf bd e9 b2 c2 bd
       -0.0021905298 -0.013211978 -0.10136778 -0.09506781
000380 ef c4 b8 3c dc 4d f3 3c 76 9e 3b 3d 0d ea b7 bd
       0.022554843 0.029700212 0.045805417 -0.089801885
000390 cd f3 07 be db b7 c0 39 81 21 18 bd 06 97 87 bb
       -0.13276596 0.00036758077 -0.037141327 -0.0041378764
0003a0 36 f4 00 be 36 e0 74 bd 91 21 fa 3d ac d6 84 3d
       -0.12593159 -0.059784137 0.122134335 0.06486258
0003b0 57 62 a2 bc dc f4 70 bd 5c 60 48 bb a7 b1 9f 3d
       -0.019822283 -0.058827266 -0.0030575013 0.07797556
0003c0 fc 71 ad bb 58 66 99 3d ae 92 24 3d 7a ec d0 bd
       -0.005293129 0.07490224 0.040178947 -0.10201354
0003d0 46 29 8f bd c7 b1 03 3c 6d 22 ec 3b 6d 4b f6 bc
       -0.06990294 0.008037991 0.0072062523 -0.030065263
0003e0 fb 27 f7 bd f0 ad b0 bd 2c 26 ab bc 6b 47 f5 bd
       -0.120681725 -0.08626926 -0.020892225 -0.119765125
0003f0 8d 12 3e bd d7 f7 37 3d 5b f1 46 3e b8 39 4a bc
       -0.04640441 0.044914093 0.19428007 -0.012342863

bias f4 [32]
000000 51 54 a6 bd 78 97 8d bc 82 a3 ad bd bd 95 19 3e
       -0.08121551 -0.01728414 -0.08478452 0.14998527
000010 84 74 a9 bd 9b 53 5c bd a7 fa bd bd 8a 6e 2d bd
       -0.08274177 -0.05379067 -0.09276324 -0.042341746
000020 76 bd c3 bd e7 1c 00 3e 72 56 d2 3d 72 d6 32 bd
       -0.09557621 0.12511025 0.102703944 -0.043661542
000030 aa 50 af bd 4d 0e 63 bd 7f 77 0a bd be 12 8c bd
       -0.08560307 -0.05543356 -0.033805367 -0.06839512
000040 a8 19 aa bc 30 52 9c bd 61 18 8a bd 5a 65 98 bd
       -0.020764187 -0.076328635 -0.06742931 -0.07441206
000050 f0 67 98 bd 0b 7e a7 bd 2a 8f 12 bd 35 ab d2 3d
       -0.074416995 -0.08178338 -0.035781063 0.102865614
000060 4c 17 9d bd 64 76 40 bd 75 47 9e bd 82 1b 03 bd
       -0.07670459 -0.046987906 -0.07728473 -0.032008655
000070 ce ed 9e bd fb 32 3c bd 0d bc 38 bd de ec b3 3d
       -0.077602014 -0.045947056 -0.045101214 0.08785413

weight f4 [16, 32, 3, 3]
000000 97 78 53 3d 3c f9 60 bd ac 22 ed bd 23 f2 7f 3c
       0.051628675 -0.05492519 -0.11578879 0.015621695
000010 10 18 9f bd 92 a7 0a be 21 e6 41 be 91 45 3e 3d
       -0.077682614 -0.13540486 -0.18935443 0.046453062
000020 b9 c7 04 be 94 38 77 3d 8a ed 85 3d df 85 97 3d
       -0.12966813 0.06035669 0.065394476 0.07398581
000030 2b 0d 1b 3e cc c9 93 3d fa 9a fd 3c 0e 7d 21 bd
       0.15141742 0.07216224 0.030957688 -0.039425902
000040 83 7e 69 3d c4 b8 96 3d 82 7a 96 bd 9d 62 ba 3c
       0.057005417 0.0735946 -0.07347585 0.0227521
000050 5c 5b 8e 3c fb 87 c5 bd 80 75 06 bd 06 63 82 3d
       0.017377548 -0.09645077 -0.0328269 0.063665435
000060 cf 16 83 bc 9b 9e 6c 3d 2e 7c 5f bd 51 d7 22 3e
       -0.016002087 0.057768445 -0.054561786 0.15902449
000070 23 62 30 3e 77 d3 23 3e 78 a7 a9 3d 9f d4 8e 3e
       0.17224936 0.15998636 0.08283895 0.27896592
000080 25 b5 01 3e 5a 91 69 3e 8d 03 55 3e 96 77 17 3e
       0.12666757 0.22809353 0.20802136 0.14791712
000090 6e 4f 6a bd dd 3e b1 bb 66 d6 19 be 8d 6a 1b bc
       -0.057204656 -0.005409105 -0.15023193 -0.009485853
0000a0 df 3c 80 bc 7a 9c 68 bd 65 7c 13 bd 54 6d 6f bd
       -0.015654026 -0.056789853 -0.036007304 -0.058453873
0000b0 87 ba 1d 3d f1 6a 32 bd 60 48 d6 bb fd a9 1c bd
       0.038507964 -0.04355902 -0.0065393895 -0.03824805
0000c0 32 c4 ad bc 06 60 8e 3d 65 77 52 bd 0a b5 47 3d
       -0.021211717 0.06951909 -0.051383395 0.048756637
0000d0 47 95 53 3d a5 e3 0b bd 20 a7 07 bd 1e a2 5e 3d
       0.051656034 -0.034152646 -0.033118367 0.054353826
0000e0 3d 54 67 bd db 85 90 bc 48 7b 51 bd ca 0a 03 bc
       -0.05647682 -0.017641952 -0.05114296 -0.007998178
0000f0 3d 86 21 3d 6d 30 85 3c 32 e7 af 3c 4c 62 d4 3b
       0.03943466 0.016258443 0.021472547 0.0064814445
000100 bc a5 41 3c 2a 63 94 3c 28 e0 f1 bd bb 4f 9f bd
       0.011819299 0.018113691 -0.118103325 -0.07778879
000110 3e 69 64 bd 75 6c e1 bd 27 62 cb 3c c9 ec 02 bd
       -0.05576443 -0.11007015 0.024827076 -0.031964097
000120 58 05 b0 3c 3d 55 01 3d a5 9f a1 bc c7 48 a3 3d
       0.021486923 0.03157543 -0.019729445 0.079728656
000130 5a f7 90 3d cb 01 d4 3c 76 d3 a1 3d 4f fa 11 be
       0.070784286 0.025879761 0.07901661 -0.14255641
000140 f3 da 6f bd 7e 20 c2 3d 69 d9 81 3d ae ee 88 3d
       -0.058558416 0.09478854 0.06340296 0.066861495
000150 64 84 67 3a 45 db 2a 3e 4f af 71 3e 1a e2 eb 3d
       0.00088316784 0.16685207 0.23602031 0.11517735
000160 47 ec 90 bc e3 00 7b 3d f7 e8 09 3e 70 bf 17 3e
       -0.01769079 0.061280143 0.13467775 0.14819121
000170 11 ba c0 3d 56 41 e3 3d ed 4e 0c 3d 96 01 e8 3d
       0.09410489 0.11096446 0.034254957 0.113284275
000180 48 c0 fb 3d 98 f1 2e 3e 46 85 38 3e 94 67 dc 3d
       0.12292534 0.17084348 0.1801959 0.107619435
000190 69 0c 14 bd b6 93 d9 3c 50 c1 b2 3d 2a 16 58 bc
       -0.036144648 0.026559692 0.08728278 -0.013188878
0001a0 9c b2 65 bd 1c 71 9e 3d eb 45 a0 3d 66 e6 94 3c
       -0.05607854 0.07736418 0.07825836 0.018176269
0001b0 5e e4 50 3d 5b 4b c0 3d 27 c0 15 bd e0 a2 ec 3d
       0.050999038 0.09389373 -0.036560204 0.115545034
0001c0 f2 91 84 ba 5f 34 80 bd b9 04 12 3d c9 48 0b 3e
       -0.0010114296 -0.06259989 0.035649035 0.13601984
0001d0 db 03 87 3d 47 69 86 bd e4 45 9f 3b c8 8e 5a 3d
       0.06592532 -0.06563049 0.0048606265 0.053358823
0001e0 31 40 95 bd e9 12 2c be bf 69 05 be 48 e7 b7 bd
       -0.07287634 -0.16804089 -0.1302862 -0.0897966
0001f0 be 54 bf bd aa 11 4f 3c a9 b9 b9 3b d0 af 95 bd
       -0.09342335 0.012638489 0.0056678844 -0.07308924
000200 3e 1e 9a 3b 4b 93 79 bd 42 bf 0a bd 4b 37 03 3d
       0.004703312 -0.060931485 -0.033873804 0.032035153
000210 30 9c 31 3d ef 44 2d bd 95 65 fa bd 59 b4 00 3d
       0.043361843 -0.04230207 -0.122264065 0.031421993
000220 26 85 fa 3d 88 21 4f 3d 90 7c 09 3d c8 11 cb 3d
       0.12232427 0.050569087 0.033566058 0.09915501
000230 22 61 d3 3d 2d 48 8e 3d a3 8a cb 3d 97 fe 0a 3e
       0.10321261 0.0694736 0.09938552 0.13573681
000240 da 59 9a 3c f4 57 b0 bc 8a c0 25 bd 5f a5 ec bd
       0.018841673 -0.021526314 -0.040466823 -0.115549795
000250 cd ad 99 3d 13 18 dd bd 34 e6 74 bc b6 b6 8b 3d
       0.07503853 -0.107956074 -0.014947463 0.06821959
000260 1f 01 9b bd 15 14 67 3c df fa 21 bd a7 4a e9 bb
       -0.07568573 0.014103909 -0.03954589 -0.007119495
000270 41 36 a6 3d 90 19 0d 3d bd cc 38 3d 01 dd 29 3d
       0.08115817 0.034448206 0.04511713 0.04147053
000280 e5 a2 b2 3c 5b 71 f4 3c 77 71 0c bc aa 5d 2a 3d
       0.02180619 0.029839208 -0.008571974 0.04159323
000290 44 51 ed bd 4d 11 63 bd 60 b6 9b 3b 4a e5 1c bd
       -0.11587766 -0.05543642 0.0047519654 -0.038304605
0002a0 4e aa 32 3d db 32 16 bd 10 db 46 3c d1 ce a7 3d
       0.043619446 -0.036669593 0.0121371895 0.08193744
0002b0 2d 0d a6 3d 88 de 36 3c a8 11 d5 3d 3c f1 7d 3c
       0.08107982 0.011161454 0.10403758 0.015499409
0002c0 10 8d 91 3d 2a ef aa 3c 4b ca c8 3c cb b6 d7 3c
       0.07106984 0.020865995 0.024510523 0.02633228
0002d0 fc d4 ae 3d ad 0b a6 3d 6e 90 21 3e 01 cc 9b 3d
       0.08536717 0.08107696 0.15777752 0.0760727
0002e0 b7 25 6a bc 64 08 50 3d 30 00 60 3d a1 87 09 3d
       -0.0142912185 0.050789252 0.05468768 0.03357661
0002f0 df 7d c8 3d db 44 c4 bd 45 e6 31 bd 61 1b 74 bd
       0.09789633 -0.09583446 -0.043432493 -0.059596423
000300 b4 2c 90 3d 99 7a 31 bd d1 95 ce bd fc b6 fb bd
       0.070397764 -0.04332981 -0.10087169 -0.12290761
000310 75 da e9 bd cd bc 77 bd df bf d0 3d 33 05 a3 3d
       -0.114186205 -0.06048279 0.101928465 0.07959976
000320 cb b0 f4 bc 13 bb f1 bb ce de 64 bc 9b ef 2c 3d
       -0.029869458 -0.0073770373 -0.013969136 0.042220693
000330 16 cf 9b 3d eb 6b 14 3d 76 de 9e bd 00 2e ac 3d
       0.07607858 0.03623573 -0.07757275 0.08407211
000340 49 d9 9f 3d 5d f3 1b 3e 3c 2e 13 3e 34 80 b8 3d
       0.07805116 0.15229554 0.14373106 0.09008828
000350 5e f1 31 3e 42 ce 22 3e cd 95 01 3e fc 65 cc 3d
       0.1737723 0.15898994 0.126548 0.099803895
000360 a6 fd b8 3d ef c0 20 3d 43 39 93 bc 18 c2 41 3c
       0.090327546 0.039246496 -0.01797164 0.011826061
000370 eb f1 16 bd f2 f4 18 3e 38 46 d6 bc 81 c1 65 3e
       -0.036851805 0.14937189 -0.02615653 0.22437097
000380 c9 de 09 bd 0b ec 29 3c d0 e9 2e 3d b5 15 b1 3d
       -0.03365973 0.010371218 0.04270345 0.086467184
000390 37 dc 9d ba 3e a4 9a 3d 7e f2 0e bd 80 55 ae 3d
       -0.0012043779 0.07550858 -0.034899227 0.085124016
0003a0 57 4e f5 3c 3f e6 52 3e c2 f8 21 3e e8 66 1d 3e
       0.029944582 0.20595644 0.1581755 0.15371287
0003b0 39 fa 41 bb 84 63 29 3d 77 d7 a5 3d 5f 4c 4f bb
       -0.0029598607 0.04135467 0.08097737 -0.0031631214
0003c0 a5 23 ca 3d f4 ca 75 3d 6c da 16 3d 51 a3 c5 bc
       0.0987008 0.060008004 0.036829397 -0.024125727
0003d0 91 93 8e 3c 00 44 06 be 14 8a c8 bc 21 b1 1c bd
       0.01740435 -0.13111877 -0.024479903 -0.03825486
0003e0 62 82 46 be e2 70 39 bd a2 98 df bc c2 ff 35 be
       -0.19385675 -0.04527367 -0.02729446 -0.17773345
0003f0 39 eb 39 be 8e 36 39 bd d2 20 84 3c 2c 0f 5c bd
       -0.18156137 -0.045218043 0.016128931 -0.053725407

bias f4 [16]
000000 4b b3 5c bc 84 e1 cc 3c 4a d9 af 3c ba 8f 56 3d
       -0.013470481 0.025009878 0.021465916 0.052383162
000010 57 79 3b 3b a7 86 15 bd 52 a2 ae bc 08 70 dd 3d
       0.002860626 -0.036505368 -0.021317635 0.10812384
000020 bc 39 7f 3d a2 9e 64 3c 1b 1f 81 3d 01 31 ea bc
       0.06231092 0.013953837 0.06304761 -0.02858782
000030 50 52 83 3d 74 54 74 3d be 2a 64 3d 85 c5 11 3d
       0.06412184 0.059650853 0.055704825 0.03558876
